Lina/webapp/model.pth (torch, 826874 bytes, 10 tensors)

rnn.weight_ih_l0 f4 [512, 13]
00000000: c6ca 6dbd 9d6d 59bd 970b b03c e3b0 d23d
00000010: a6cf 8d3d e0b5 213d 36d0 afbd 419a 163d
00000020: a076 a83c d77e b03d bdc5 713c c147 cabc
00000030: 3056 713d 734e cbbc 317a e8bb 719b 80bd
00000040: 05a9 9fbd 625c 803d ec3f 363c ae99 42ba
00000050: ae56 95bd 9c30 7f3a fb37 473d 812e 13bd
00000060: 8de9 8fbd 7052 603d b7d6 adbc 1c84 6abd
00000070: a931 e53d 2df3 bcbc 524e 743d 4a68 22bc
00000080: 04bd 22bd 9257 fa3b a38f 84bd 1b3d 1d3c
00000090: 44c3 643d 7b36 fabb b236 7b3d 5a1b a6bd
000000a0: f7db 8fbd bd1d c3bd 4db5 023c 823c 37bd
000000b0: a3ac ddbc 76da 87bd 67fb 6e3c 42c1 2b3d
000000c0: 0078 6ebd 5a3f a83c b4a0 f93b e1ff 6fbd
000000d0: 7c55 8b3d 40c0 3a3b 291d 19bd ebf6 99bd
000000e0: aec1 babd 08ab bbbc 3a50 9fbd fe0d 02bd
000000f0: 7473 a4bd edb8 b63d 8681 033d b071 a53c
00000100: f7f4 fdbd dc84 853d cafd 14bd 44b4 adbd
00000110: 9c14 aa3d e98a 9abc 3ea9 6a3d d82a 75bd
00000120: 1991 e8bd b0bd 45bd 6dc1 b93d 2062 bd3d
00000130: 2242 00bd e941 c7bd af86 c4bb 4dd9 ad3d
00000140: f2f8 92bd 7bcf ad3d 0832 1c3c 7f6b e03c
00000150: a9e6 9bbd 8944 4a3b 8dff 773d a3eb 853b
00000160: 9cac ee3b fb34 abbd 91c7 8e3d 18a1 2c3d
00000170: 348e 42bc d86a ce3b 143f 8a3d d3ff a33d
00000180: ab23 993d 7050 5f3d da83 83bd c90f 1fbd
00000190: 2fb1 adbd f340 ae3d a823 66bc 1b18 10bc
000001a0: a184 3cbd fb5d fbbc 1d99 41bc 9ca5 953d
000001b0: f1e3 80bd 5e59 5f3d 287d ab3d e32f 973d
000001c0: e248 13bd b05c 473d de6f 28bc fbab e8bc
000001d0: 1dcf 67bc 43ec 83bd f45c b3bd 4e2a 87bd
000001e0: 3c7b 093d d890 4a3b e49c 04be 64d5 fa3d
000001f0: 0ae3 c9bb d033 073e 3b49 78bd 0620 373d
00000200: add3 2e3d 04b4 7dbc f945 2cbd 05e2 3cbd
00000210: a06d d8bd 5491 c0bc 86a9 50bc 5d9d 4fbd
00000220: 0d61 ae3c c8b2 df3c 8cef fabb 753d 8fbc
00000230: 1fd3 0dbd 0776 26bb 6a81 4a3d 0b45 8fbd
00000240: c77a 683d 9b27 7f3d a34b 86bc c656 dbbb
00000250: 0897 253d 76c5 663d 73d3 713d 4a8d 2b3c
00000260: 4793 3bbd a277 82ba a4a0 b1bd cde2 46bd
00000270: 747d f93c 8b69 843d f23f 213d 1091 273d
00000280: 9244 abbd 2f80 203c 72d8 f23d 03f0 3fbd
00000290: b282 ec3d 3e80 90bd 1444 ca3d ff0c 083d
000002a0: 5895 263d 2424 7bbd b276 acbd 7c76 02bd
000002b0: 28f1 49bc 6a50 f03c f50d e3bc 0448 d0bd
000002c0: 1b91 a4bd 70d5 303c bdb9 5e3d f940 30bd
000002d0: bb21 283c 2964 363d cbb7 a0bc d114 c83d
000002e0: f625 7cbd b31e 1b3d 0240 00bd 4ff7 a5bc
000002f0: 798b eabd 925e 943d b0ee f9bb e09f d43c
00000300: 53ab 14bc 0ffa 3bbd 56e0 d0bd acd6 833d
00000310: 9fad 893d f736 ff3d f6eb f8bc b94d 073d
00000320: 3d08 12bd c889 acbd b34f 2539 7161 03be
00000330: b919 ac3c 3323 a0bd ba2f 35bd d8cd 133d
00000340: e424 89bd c9db 043e 191f 4c3d 54db bf3d
00000350: 22c9 c5bc e06c b6bd b8d8 523d 4669 a9bd
00000360: e2f5 f5bc a2b0 0c3c f865 dfbc c75d 98bd
00000370: bb63 3abd c0aa 843d 1a7d ac3c c0bd c53c
00000380: f162 f4bd a43b ae3d de8d 183c 4aa1 ecbc
00000390: db9b 7c3c 109d a1bd 8147 c6bc 036b cebb
000003a0: 3dfb 0fbe 7b17 c3bd f514 503c 28a8 4b3d
000003b0: 613e 0f3d d20b c73d 4294 84bd 16be c93d
000003c0: 71cd b63c 380e 9c3d 7892 cebd 0fca 7ebd
000003d0: de88 71bd 5bdf a3bd eeee 86b8 2510 86bd
000003e0: 261a 8a3c f915 bbbd c6d9 86bd 0b82 f63c
000003f0: 49d5 d33a debd 413d 9a97 b53d b342 f1bc
-0.058054708 -0.05308305 0.021489901 0.10287645 0.069243714 0.03948009 -0.08584635 0.0367682
0.020564377 0.08617943 0.014756617 -0.024692418 0.058920085 -0.024817681 -0.0070946445 -0.06279648
-0.0779591 0.062676206 0.011123639 -0.0007423413 -0.072919235 0.00097347214 0.04863737 -0.03593302
-0.07026968 0.05476612 -0.021220548 -0.057254896 0.111911125 -0.023065174 0.059645005 -0.00991256
-0.03973104 0.0076398337 -0.06472709 0.009597088 0.055850282 -0.007635889 0.06133146 -0.08110686
-0.07024377 -0.095271565 0.007977796 -0.04473544 -0.027059859 -0.06633465 0.014586306 0.041932352
-0.05821991 0.02053802 0.0076180343 -0.058593635 0.06803414 0.0028495938 -0.037381325 -0.07517799
-0.09118973 -0.022908702 -0.07778974 -0.031751625 -0.080298334 0.089219905 0.032105945 0.020195812
-0.12400239 0.065194815 -0.036374845 -0.084816486 0.08304712 -0.018865066 0.05729031 -0.059855312
-0.113558 -0.048276603 0.09070096 0.092472315 -0.03131307 -0.09729368 -0.005997501 0.084887125
-0.07176389 0.084868394 0.009533413 0.027395008 -0.07612354 0.0030863604 0.060546447 0.004086928
0.0072837602 -0.083597146 0.06971658 0.04214582 -0.011874724 0.006299358 0.067503124 0.08007779
0.07477506 0.05452007 -0.06421633 -0.038833413 -0.08481061 0.08508482 -0.014046587 -0.00879481
-0.046024922 -0.030684462 -0.01181629 0.07306978 -0.062934764 0.054528587 0.08373481 0.073821805
-0.03595818 0.048672378 -0.0102805775 -0.02840232 -0.014148501 -0.06441548 -0.08757964 -0.06599866
0.03356479 0.0030909088 -0.12950474 0.12247732 -0.0061610984 0.13203359 -0.060616713 0.044708274
0.04268234 -0.015484814 -0.04205892 -0.046113987 -0.10567784 -0.023506798 -0.01273573 -0.050687183
0.021286512 0.02730693 -0.0076579507 -0.01748536 -0.03462517 -0.002539994 0.049439825 -0.06995591
0.056757715 0.06229363 -0.016393488 -0.006693694 0.040427238 0.056340657 0.059039544 0.010470698
-0.04579475 -0.0009953866 -0.08673218 -0.048556138 0.030455329 0.06465443 0.039367624 0.040909827
-0.08362688 0.009796186 0.1185769 -0.046859752 0.11548366 -0.0705571 0.09876266 0.03321552
0.04066977 -0.061313763 -0.08421077 -0.031851277 -0.012325563 0.02933522 -0.027716616 -0.10169986
-0.08035489 0.010793075 0.054376353 -0.043030713 0.010261948 0.044529114 -0.01961889 0.097695954
-0.06155964 0.037871074 -0.031311043 -0.020259527 -0.114523835 0.072446 -0.0076273307 0.02595514
-0.00907405 -0.04589277 -0.10199039 0.0643743 0.06722569 0.124616556 -0.030385952 0.033033106
-0.035652388 -0.08424717 0.00015765316 -0.1283014 0.02100836 -0.07819214 -0.04423497 0.03608498
-0.066964895 0.12974466 0.049834345 0.093680054 -0.02414376 -0.08907485 0.05147621 -0.082720324
-0.030024473 0.008587034 -0.027270302 -0.074397616 -0.045505267 0.064778805 0.021055747 0.024138331
-0.11932934 0.08507469 0.0093111675 -0.028885502 0.015418018 -0.078912854 -0.024204018 -0.006299378
-0.14060684 -0.09525963 0.012700309 0.049720913 0.0349716 0.097190514 -0.064735904 0.09850709
0.022314759 0.076198995 -0.100865304 -0.062204417 -0.058968417 -0.08001586 -6.434122e-05 -0.06546048
0.016858172 -0.0913505 -0.06584506 0.030091306 0.0016161586 0.047300212 0.08866806 -0.02945075

rnn.weight_hh_l0 f4 [512, 128]
00000000: 67c7 0939 bfe6 373d 0194 c0bd acfe bfbd
00000010: fc3a cbbd 7b1e 9e3b 5c00 3fbd 4b05 4039
00000020: 31be 953c de54 b1bd 9bed 3bbd 7e1a 283b
00000030: 7f3d 95bc 55da 0bbd c6d9 a03d b17a a33d
00000040: 01e6 c63c a2b4 833d 2a94 933d 643e 583d
00000050: 2012 9cbc 10b8 7abd 887a 6c3d 3313 603c
00000060: 2d75 b13d 186b d9bb 9335 e73c ccde cdbc
00000070: 61e9 93bd 4a8a 34bd f892 603d ba13 9abc
00000080: b70b e6bc e922 99bd 7512 1f3d c33a a9bd
00000090: f75c 1e3d 12dc 70bd 683c 7bbb df3d c93c
000000a0: 56cb 92bc ddb0 67bd ec50 c03b 3b6b 463c
000000b0: d9db 8f3d 0dfa 103d 1c75 4e3d 0d46 9c3d
000000c0: a6d7 a5bd ba94 443d 8c89 6e3d 7106 d0bc
000000d0: e58f 8d3c dbaa 1c3d ceae 443d 682d 44bc
000000e0: 0626 b5bd 148b 603b 3353 15bc d9fa b3bd
000000f0: 5b65 14bd 3c54 543d b232 5cbc 8d01 9e3d
00000100: c239 c7bb 4b64 ff3c 1695 133d 5492 52bd
00000110: fd9a d53c 1106 253c a6bf be3c 93df 6abd
00000120: fcb7 823d 4b0e ea3c 7347 b0bd ccc9 5ebd
00000130: 2864 72bb 4a17 1f3c 6450 b7b9 30d3 a8bd
00000140: 4579 403d 48e6 b33c 2d1e 233d 09de 94bd
00000150: 5b27 acbc 1e61 423d 0b8f 83bc 9ca9 08bc
00000160: bfb0 04bd 9b70 c53d 6612 533d 3465 30bd
00000170: ab45 afbd 18f4 89bd 3028 a03d 7791 cb3b
00000180: 69b2 45bc dc7d 28bc 7f08 7cbd e513 e4bc
00000190: 48ac d33c a20a b1bd fb5e a9bc 8d0a 71bd
000001a0: 7725 663d f742 90bd 4639 19bd e475 48bc
000001b0: c656 9f3c 2ce7 d1bc 7d95 b73d 1770 a13d
000001c0: d248 23bd a4ea 89bd 76e0 5bbd bc10 9d3d
000001d0: 5506 7abc 8194 533c 956b 5fbc ffbb 583d
000001e0: 3e04 98bd c107 63bd 00fb 5d3d 57d7 c2bc
000001f0: 5046 973c ae91 1a3d 2ca7 c939 8400 84bb
00000200: 3eb6 30bd 3fcf 1f3d ce5d 993d 3759 d0bc
00000210: edf1 923d a8a9 ecbb 0a65 433d 8f83 02bd
00000220: cf9e 9abd 566c 45bc b315 ee3b 2e94 5dbd
00000230: d102 8b3d 98f9 09bd 296b a53c fabf 693d
00000240: 6168 94bd 64a6 87bd be2c c93d 50f8 403b
00000250: 2114 123c 66ac 5ebd ce61 8a3c 8719 943d
00000260: a2f7 2cbd f9fb 90bc 8b35 14bd 4e94 25bd
00000270: e2ae 45bc efc3 afbd 3338 003d 5d0d c1bd
00000280: 4cfc a93d 6356 e8bc e06c c7bd 431b 93bd
00000290: 77e2 8fbd f6c0 24bd 777f 74bd 66ea de3c
000002a0: eb55 543c d07a 1bbd 36f9 07bd 3fe3 973d
000002b0: 3c37 673d c60b 053e daa8 533d e125 23bc
000002c0: 346c b43d f95a a83d 762a a83d b8fd 423d
000002d0: 7438 ea3c 6f54 77bd 1179 85bb e995 b4bd
000002e0: c72f 99bb 7257 87bc 30b3 6e3d dcf3 1abd
000002f0: ede7 69bd 2f0f f73d 7339 54bd 6d1f 173d
00000300: 8cee 663c 9c42 59bb a250 60bd 4b14 8a3d
00000310: bf97 d23c f960 3d3c eb4c 0e3c 5c82 893d
00000320: f1b8 423d 1277 423d c767 8a3d c2a8 7a3d
00000330: 9e50 15b9 d2cd eabb 5ba1 083c 5512 223c
00000340: 242d d23d f0b0 28bc fe1d d8bd 39f2 ccbc
00000350: fa8a 8c3d ccdb 943d 4a72 263d 2efb c9bc
00000360: 1634 903b 8989 203d 7756 573c 08d0 c43c
00000370: 5e38 23bd 2eb3 ad3a 6b0c 143d d84f 863d
00000380: 16d0 1d3d 0da7 15bd 6177 f53c b9e9 97bd
00000390: 40d1 82bd fd6f 7f3c a1aa ab3d f81c c53d
000003a0: a904 0c3d 307d 743d 1c5b 36bd 566e c9bd
000003b0: d53f a83d a602 45bc af9e 93bd 6717 b1bc
000003c0: f51d 96bd e202 ca3a 4e10 d73c 7711 523d
000003d0: 45c4 fdbc b1ea 373d 3f71 773d b6fc f6bc
000003e0: eadf 9bbd 757f 2d3c 3fbf 50bd c6de 063d
000003f0: aa8a 8a3b 6af9 943d bfe6 923d 17b2 9cbc
0.00013139621 0.04489779 -0.094032295 -0.09374747 -0.0992336 0.004825411 -0.046631202 0.00018312519
0.018279167 -0.08658765 -0.045880895 0.0025650556 -0.0182178 -0.034143765 0.07854037 0.07982386
0.024279596 0.06430937 0.072059944 0.052793875 -0.019051611 -0.061210692 0.057734042 0.013676452
0.08664928 -0.006635081 0.028223788 -0.025130652 -0.07222248 -0.044077195 0.05482766 -0.018808234
-0.028081758 -0.07477362 0.03883596 -0.08263161 0.038662877 -0.058803625 -0.0038335565 0.024565635
-0.017919224 -0.056565154 0.0058690216 0.012110527 0.070243545 0.035394717 0.050404653 0.076305486
-0.08097772 0.0479934 0.058236644 -0.025393697 0.017280528 0.038248878 0.04801827 -0.011973716
-0.08845143 0.0034262585 -0.0091140745 -0.0878808 -0.036229473 0.051838145 -0.013439821 0.077151395
-0.0060798833 0.031175753 0.03603085 -0.05140908 0.02607488 0.010072247 0.023284744 -0.057342123
0.063827485 0.028571269 -0.08607378 -0.054391667 -0.0036985967 0.009710142 -0.00034964376 -0.08243406
0.04699065 0.021960393 0.0398237 -0.07268912 -0.02101486 0.0474559 -0.01605942 -0.008341219
-0.03239512 0.096406184 0.051531218 -0.043065265 -0.0855821 -0.0673601 0.07820165 0.006212409
-0.012066462 -0.010283913 -0.06153154 -0.027841518 0.025838986 -0.08644606 -0.020675173 -0.058847953
0.056188073 -0.070440225 -0.037408136 -0.012235139 0.019450556 -0.025622927 0.089640595 0.078827076
-0.03986437 -0.06734207 -0.05368086 0.076692075 -0.015260299 0.012913824 -0.013636489 0.052913662
-0.07422684 -0.055427317 0.05419445 -0.023784323 0.018466145 0.037736587 0.0003846226 -0.004028382
-0.04314255 0.039016005 0.07488595 -0.025433166 0.0717505 -0.007222373 0.04770378 -0.031863745
-0.075498216 -0.012049755 0.0072657703 -0.054096393 0.067876466 -0.033685297 0.0201927 0.05706785
-0.07246471 -0.06623533 0.09822987 0.002944488 0.008915932 -0.05436363 0.01689234 0.072314315
-0.04222835 -0.017698275 -0.036183875 -0.040424637 -0.012065621 -0.08582293 0.031303596 -0.09426377
0.08300075 -0.028361505 -0.09737563 -0.07182934 -0.070256166 -0.040223084 -0.059691872 0.02721138
0.012959938 -0.03795892 -0.03319665 0.07416391 0.05644916 0.12992772 0.0516747 -0.0099577615
0.088097006 0.08220477 0.08211224 0.047605246 0.028591372 -0.060383257 -0.00407327 -0.088176556
-0.004674885 -0.01652119 0.058276355 -0.03783022 -0.057105947 0.12063443 -0.0518126 0.036895204
0.01409496 -0.0033151275 -0.054764397 0.06742152 0.025707124 0.011558765 0.008685331 0.06714317
0.047539655 0.047476836 0.06758075 0.061196096 -0.0001423978 -0.007165649 0.008339251 0.009892066
0.10262516 -0.010296091 -0.105525956 -0.025017845 0.06862445 0.072684854 0.04063634 -0.024655905
0.0044007404 0.039193664 0.013143173 0.024024978 -0.039848678 0.0013252252 0.036144655 0.06558198
0.038528524 -0.036536265 0.02996415 -0.07417626 -0.063875675 0.015590665 0.08382154 0.09624666
0.03418413 0.0596897 -0.044520482 -0.09835498 0.082153 -0.012024557 -0.07208001 -0.021617604
-0.073299326 0.0015412236 0.026252892 0.051286187 -0.030977378 0.044901554 0.060410734 -0.030149799
-0.076110676 0.01058947 -0.050963636 0.032927297 0.004227956 0.072741345 0.071729176 -0.019127889

rnn.bias_ih_l0 f4 [512]
00000000: 061c 69bd 5e97 a0bc 006e eabd 6385 543d
00000010: cad9 8c3d a956 ccbc 2914 9cbd 9aa5 3e3d
00000020: 2e07 05bd 7645 483c a1ad 9d3d c0b4 1f3c
00000030: 13bd 9f3d 9beb 5cbd c0c8 91bc 7c38 813d
00000040: fa2a 67bd 6281 97bc 4f2d 24bc c9dc 7a3d
00000050: 1b8c cc3d a4b2 883d 58ef 993d 792a 2d3d
00000060: 0c6d 61bd add2 f93c 0d5e 543d 61c0 233d
00000070: bddb 35bd 688c 893b 8eb6 b7bd 1b25 fd3c
00000080: e04e 57bd 5570 86bd 24de b2bc e46f 83bc
00000090: 6ec5 86bd bd61 3d3c d861 4bbc 4908 37bd
000000a0: 14e2 d0bc 8d9e afbd 6e2c c33c 592f bbbd
000000b0: a13b 063d b0f8 5a3d 2b74 a03b a025 173d
000000c0: 8a3f cdbc 59c4 4e3d b982 32bd 3ead 6bbd
000000d0: 1739 2b3c 7acf 843d cade e53c 45c8 3bbd
000000e0: a456 84bd 48bb 3d3d 4642 e1bd e894 0a3d
000000f0: 248b 713d 985a 7c3d 5203 763d 16f3 c8bd
00000100: 5875 52bd abeb 55bd 6345 23bc 35e2 17bd
00000110: 9570 96bd 7286 fabd b875 b5bd 1408 8cbd
00000120: 0444 c83d 269c adbc e2b9 c3bc d6f2 9abd
00000130: 9e49 923d 2335 04bd 163c 853c a4ae 523d
00000140: 2150 adbd 7629 7e3d 9db6 843c b44f 7e3c
00000150: d4af 4cbd adae a9bd 82fb 48bd 9ec5 b9bd
00000160: a76f 46bd 3e47 cc3d 86f6 8d3d 4bb8 203d
00000170: b217 a63d 4c7e 82bd b3ed 36bc 09a9 c43c
00000180: b5de 58bd e000 4039 ac45 90bd 7116 97bc
00000190: dac4 b63d f1b6 373d f424 92bd fd01 bb3d
000001a0: 994c ed3c 13e7 6cbc 694b fbba e681 c63b
000001b0: 5696 86bd 8d07 92bc 1385 863d 6a3c 2ebc
000001c0: 65a5 efbb 97f4 87bd 6cbe a83d 4933 a839
000001d0: d2e2 95bd d553 393c cf2e 963d 2f97 243d
000001e0: 94ec a13c 7071 903d fb4a 403d 383b bbbc
000001f0: af63 383d 67fe 993d 572b b23d bcab 93bd
00000200: 8daf b0bd d2de c63c 8eee b73d 62ab d1bd
00000210: 07ae 253c 2463 19b9 fe79 36bd 6509 d93c
00000220: e96d 8fbd cb66 56bd aaee 023e f11d 333d
00000230: e671 90bd eeb8 6abd 7849 733d 98fd 9a3d
00000240: 0bed 8c3d e1f4 94bd 7d11 8e3d ed5d 143b
00000250: 1996 223b a28c 773a ea48 f0bc 07a2 9dbd
00000260: cbdf b33d bea6 363d ca98 283d 4cb8 db3b
00000270: 4313 04bd 695f 813d 4986 6d3c e893 703d
00000280: 69ab a7bd 48f4 503d a92b 7dbd 152b 5a3c
00000290: 4f42 c6ba d790 833d 0a1b 413d ab42 f1bc
000002a0: c481 e23c 4ffc 31bd 0609 27bd 34cc c9bc
000002b0: fc91 0ebd eabd ca3a 3a37 00bd 30b3 d3bc
000002c0: c993 673c 1675 9abd 09c6 e73d 163d 383d
000002d0: d470 113d 04be 7e3c c249 91bd ed2d 86bd
000002e0: ed20 b83d fe85 a63d 87f3 c2bd d71d a4bd
000002f0: 8849 4a3d d79c b53d be61 0cbc e200 1fbd
00000300: 4405 69bd 4460 ac3d 410e b83d 2f01 503b
00000310: 6c56 783d 2189 aa3d a6cb 7f3c 754f 8dbc
00000320: a727 60bd 5d5b e6bc 1213 573d 6672 26bd
00000330: 14c6 823d 5463 31bd b20f b73d f0b5 c73d
00000340: ac0c 903d 2b9d bcbd 048f 43bd 46d9 2f3d
00000350: ce19 b6bc 2c3f a3bd 6bb2 1e3c 115c 9c3c
00000360: 5ea6 c8bd a3e0 453d 665b 71bd 0943 97bd
00000370: 9fc4 a53d 8acb 7e3b 42a8 d1bc 3fb9 9f3c
00000380: 7276 73bd adfb 04bb 20f4 60b7 a898 b1bc
00000390: 7637 2a3d 9f2e 823c 0fcb b5bd a748 4dba
000003a0: 7664 bbbc c7fa 203d 47fd 09bc c8a0 a33d
000003b0: aa2d 923d b95d 4c3d 930f ca3d 716d 813d
000003c0: 2d6b dcbd aec9 9d3c 1d5e 583d a9cb 413c
000003d0: ff19 973d d1b0 b33a 3214 8a3d eef6 4dbd
000003e0: 68c4 a23c 5900 be3c a6e5 5b3d 38a7 aebc
000003f0: 5d9c 343d e140 bf3d 89bd 6dbc b148 3a3c
-0.05691149 -0.019603427 -0.11446762 0.05188502 0.068774775 -0.024943667 -0.07621033 0.04654465
-0.03247755 0.012223592 0.07699133 0.009747684 0.07799735 -0.05393563 -0.01779592 0.06309602
-0.05643747 -0.018494312 -0.010020568 0.061245713 0.099876605 0.06674698 0.07516354 0.042276833
-0.055035636 0.030495966 0.051847506 0.03997839 -0.044399012 0.004197646 -0.089703664 0.030901482
-0.052565455 -0.065643944 -0.02183444 -0.016044565 -0.065806255 0.011558947 -0.0124134645 -0.044685636
-0.025498427 -0.08575163 0.023824897 -0.0913989 0.03277171 0.053459823 0.004896661 0.036901116
-0.025054712 0.05048022 -0.043581698 -0.057538263 0.010450623 0.064848855 0.028060336 -0.04584529
-0.06461838 0.046321183 -0.10998969 0.033833414 0.058970585 0.061609834 0.06006176 -0.0981199
-0.05138144 -0.052226704 -0.009965274 -0.037080962 -0.07345692 -0.12232675 -0.08860344 -0.06837478
0.09778598 -0.021192621 -0.023892347 -0.075658485 0.071429476 -0.032277238 0.016264003 0.05143608
-0.08462549 0.06205126 0.016200358 0.015521932 -0.04997237 -0.0828527 -0.04906798 -0.090708956
-0.048446324 0.09974526 0.06931786 0.039238255 0.08109988 -0.063717455 -0.01116507 0.024006383
-0.052946765 0.00018310873 -0.07044539 -0.018443318 0.08924265 0.0448522 -0.071359545 0.091312386
0.028967189 -0.014459389 -0.0019172254 0.0060579656 -0.06571643 -0.017825866 0.06568351 -0.010634521
-0.0073134177 -0.06638449 0.08239445 0.00032081667 -0.07318653 0.011311491 0.07333147 0.040183242
0.01976613 0.070528865 0.046946507 -0.022855386 0.04501694 0.075192265 0.08699673 -0.0721049
-0.08627234 0.02427617 0.089810476 -0.10237767 0.010112292 -0.0001462815 -0.044549935 0.026493737
-0.070033856 -0.052344125 0.12786356 0.043729726 -0.070529744 -0.05730527 0.059396237 0.075679004
0.0688115 -0.072732694 0.069369294 0.0022638992 0.0024808703 0.0009443258 -0.029331643 -0.0769692
0.087829195 0.04459261 0.041161336 0.0067053195 -0.032244932 0.06317026 0.014497348 0.058734804
-0.08186991 0.051014215 -0.061809216 0.013315936 -0.0015125963 0.064241104 0.047144927 -0.029450735
0.027649768 -0.04345351 -0.04078009 -0.024633504 -0.03480719 0.0015467976 -0.03130267 -0.02584228
0.014134356 -0.075418636 0.11317069 0.04498013 0.035507992 0.015548233 -0.07094146 -0.065517284
0.08990655 0.08131026 -0.095191054 -0.08013504 0.04938653 0.088678055 -0.008568225 -0.0388192
-0.056889787 0.08416799 0.08987094 0.0031738987 0.060629293 0.083269365 0.015612518 -0.017249802
-0.054725315 -0.028119737 0.05250842 -0.040636443 0.06385437 -0.043307617 0.089385405 0.09751499
0.07033667 -0.09209665 -0.047743812 0.042931817 -0.022229102 -0.079710335 0.009686093 0.01908687
-0.09797357 0.048309933 -0.058925055 -0.07385833 0.08094143 0.0038878643 -0.025592927 0.019497512
-0.05943913 -0.0020291612 -1.340828e-05 -0.021679237 0.041556798 0.015891371 -0.08876621 -0.00078309554
-0.022875052 0.03930166 -0.008422202 0.07989651 0.07137616 0.04989407 0.09866252 0.063197024
-0.1076263 0.019261207 0.05282413 0.0118283415 0.07378005 0.0013709312 0.06742133 -0.05028432
0.019869044 0.023193525 0.053685807 -0.02131997 0.044094432 0.093385465 -0.014510521 0.01136987

rnn.bias_hh_l0 f4 [512]
00000000: 7f3e 95bd f8c9 a43c e095 77bd 6779 5e3d
00000010: 3b18 97bc 2fed ffba dd89 e7bc 1641 483d
00000020: 92fa 82bd ab6f a0bd d13b c03d 3e26 10bd
00000030: 404c f8bc 4c34 a23c e50b 8d3c 4956 8e3c
00000040: db82 c3bc e5d4 533d cc5d 903c de8e 97bc
00000050: f65e ea3d 6c8d 2b3d 8cea 283d 9c60 5c3c
00000060: 3abc 5e3d 4f14 933d c032 533c 4dae aabd
00000070: 3720 54bd bcb9 803d ae7c 693d da10 463c
00000080: c760 3c3d 578c b0bd 1285 903a c591 523c
00000090: 36ef db3c 6679 a5b8 1523 063c 4e95 4abd
000000a0: 1b2d 1bbd 0deb 75bd e125 7abd 9f5b 5d3d
000000b0: c428 923d be12 25bc 84ff b83d 0930 b3bc
000000c0: 1ef6 3ebd 8d47 62bd 755b f6bb 43a4 ddbc
000000d0: ffc1 9dbb fecf 853d c2d6 8f3d 3e71 91bc
000000e0: ca68 aebd a8c2 76bd e1d3 673d 64ae 7ebd
000000f0: b70a 813d c221 79ba d43b 8d3d 07e5 83bd
00000100: 6e75 fabc f347 18bd ce6f 5e3d 7805 73bc
00000110: f7ea 8b3d 6189 d0bd b1cc 6c3d eadc 4ebd
00000120: db69 db3c 66b7 98ba 01bd 8bbd 1d57 6fbd
00000130: a24c a23d 0514 b6bc 83e6 7b3c f381 5abd
00000140: 2da0 9dbd ab62 6fbd 2dc6 3a3d 679a 06bd
00000150: e35d c53d 5ee2 0b3d f167 7f3c 8d56 513c
00000160: 08ed 84bd 387d dc3d 86a3 393d da51 a4bc
00000170: c151 a3bd 6d6b 83bd 4d6d 6dbc 6f44 8ebd
00000180: 91da 3a3c c20e 323d 542e 42bd d8f0 cb3c
00000190: a2d3 22bd 5d69 a9bd b093 2b3c f1db 01bd
000001a0: 8290 d6bc dc16 47bd 28cd 9cbc a2df 97bd
000001b0: 5a38 6ebd b85d b3bd 25b6 763c 4227 933d
000001c0: 2977 92bd bff2 24bd 8ee9 54bd ad88 053d
000001d0: be5b 8a3d 68cb 933d 534d ab3d 29fe 53bc
000001e0: a96c 983c 288b 163d 1dba b1bc 24af 37bd
000001f0: 97d2 973d a1a6 a33c d1ca b3bd a3b3 2d3b
00000200: 72ec d93c fbd2 8b3c a1b8 a13d b744 3fbd
00000210: 1c94 843d fc38 9b3c 2135 993c 5b3e 143d
00000220: 3bd5 dfbc 9181 8ebd 3dd2 eb3d 422f 863d
00000230: beb1 bbbd 393a b43c 88a9 0fbd 9fe8 113c
00000240: 57b2 84bd 1e92 0bbd b7c6 72bc 089c 573d
00000250: 9da4 2bbd 32c6 93bc 9f41 f33c b9a4 d1bb
00000260: df4f 56bd a532 6d3c 437d 2dbc e51a 6cbc
00000270: 0c9b bfbd b10b 2abd 0090 5ebc 3a2d 91bd
00000280: 6b59 a6bb 6355 973c c901 193d 59dd e03c
00000290: b003 b8bc 7772 14bc 0018 c8bd 709c 803d
000002a0: 2dac 5a3d d121 82bd 0cc9 ca3c 70f6 6dbd
000002b0: ae28 a5bc dce2 34bb 07f2 77bd c24c 1abc
000002c0: 7849 033d 3609 b3bc 8a83 ed3d 65ba 6a3d
000002d0: ccb4 a53d d594 1b3d e85d b6bd 5169 e13c
000002e0: b307 ea3c c829 b33c 3eb5 2ebd ec36 283b
000002f0: 5953 b2bd d49c d2bb 5ee2 ab3d ac12 b5bd
00000300: de70 25bd 1f8e 253c 350d ae3b cf4d 6dbd
00000310: 0351 70bd f7b3 a83d 9502 ef3b deb9 1cbb
00000320: dec4 41ba 1c27 e6bb eb0a 8cbd 8368 30bd
00000330: e94e 8dbd 6126 a3bd 0538 933a b2cd 6fbd
00000340: 92ea 6abd 90b3 a4bb 323e 9a3d 19af be3d
00000350: 5a63 573d 4b83 c3bc bf2d 5bbd e1e0 a23c
00000360: 360a b5bd c709 053d 1634 47bd 1cf7 6e3d
00000370: 78a4 25bd 5fb4 c0bd 5049 3abd 0702 7b3c
00000380: 7176 61bd d906 81bb 5e70 11bd 4331 99bd
00000390: 46e2 69bd 9e23 aabd b46a a7bd bc14 debc
000003a0: 3e3c 2b3d aeec 2f3c a47f b9bc de41 45bd
000003b0: c4eb b1bd 0c64 91bd dd35 af3d 294f 633d
000003c0: c8f8 98bc a0d5 ed3c 7af9 f43c dd80 c93b
000003d0: bbd0 413d 446d 71bc 8afe 0a3e ab40 1c3d
000003e0: 621a 98bd f13a 9a3d 2200 233d 680e 82bd
000003f0: 947b a13d c29b a83d c121 573c 3b75 963d
-0.07287311 0.020115837 -0.060445666 0.054314997 -0.018444171 -0.0019525642 -0.02826398 0.048890196
-0.06395449 -0.07833799 0.09386409 -0.03519272 -0.030309796 0.019800328 0.017217586 0.017375128
-0.023866108 0.051716704 0.01762285 -0.018500742 0.114438936 0.041882917 0.041239306 0.013450768
0.054378726 0.07181608 0.012890518 -0.083340265 -0.051788535 0.06285426 0.05700367 0.012088979
0.04599073 -0.08620518 0.0011025986 0.012852137 0.026847463 -7.890425e-05 0.008187075 -0.049458794
-0.037884813 -0.060038615 -0.06107128 0.054042455 0.07136682 -0.010075269 0.09033111 -0.02187349
-0.046621434 -0.055244017 -0.0075182267 -0.027055865 -0.004814386 0.06533812 0.07023384 -0.017754193
-0.08516081 -0.060244232 0.056598548 -0.06217803 0.06300872 -0.00095036265 0.06896177 -0.06440168
-0.030573573 -0.03717799 0.054305844 -0.014832847 0.06831925 -0.10182453 0.057812396 -0.05050365
0.026783874 -0.0011651337 -0.06823159 -0.058432687 0.07924773 -0.022226343 0.0153747825 -0.053346585
-0.07696567 -0.058443706 0.04559915 -0.032862093 0.09637048 0.034151427 0.015588746 0.012776983
-0.064905226 0.10766071 0.045321964 -0.020058561 -0.07974578 -0.06416974 -0.014491391 -0.069466464
0.011404649 0.043471105 -0.047407463 0.024895117 -0.03975261 -0.082720496 0.010472223 -0.031703893
-0.026191954 -0.048605785 -0.019140795 -0.074157014 -0.05815921 -0.0875811 0.015058075 0.07185222
-0.07151634 -0.040270563 -0.051980548 0.032601047 0.0675578 0.07216531 0.08364358 -0.0129390145
0.0186065 0.036753803 -0.021695191 -0.04484476 0.07413214 0.019976916 -0.087789185 0.0026504777
0.026602004 0.017068377 0.07896543 -0.04669639 0.06473562 0.01894807 0.018702092 0.03619228
-0.027323356 -0.069583066 0.11514709 0.065519825 -0.09164761 0.022000419 -0.035073787 0.008905559
-0.06479328 -0.034074895 -0.014817885 0.052639037 -0.041905034 -0.018038843 0.029694377 -0.0063978103
-0.052322265 0.014477407 -0.010588947 -0.014410709 -0.09355745 -0.041515056 -0.013584137 -0.070887044
-0.0050765774 0.018473333 0.037355218 0.027449297 -0.022462696 -0.009060494 -0.09770203 0.06279838
0.053386856 -0.06354106 0.02475407 -0.05809635 -0.020161 -0.002760104 -0.06053355 -0.009417715
0.032052487 -0.021854978 0.11597355 0.057306666 0.08091125 0.037983734 -0.0890463 0.02751604
0.028568124 0.021870509 -0.042653315 0.0025667502 -0.087073036 -0.006427387 0.083927855 -0.08841452
-0.04039084 0.010104685 0.005311633 -0.057935532 -0.05867101 0.082374506 0.007294009 -0.0023914496
-0.0007391701 -0.007023705 -0.0683802 -0.04306842 -0.068998165 -0.079663046 0.0011231905 -0.058545776
-0.05735261 -0.0050262883 0.07531394 0.09310741 0.052584983 -0.023866316 -0.053510424 0.019882621
-0.08839838 0.032480028 -0.048633657 0.05834113 -0.040440053 -0.09409403 -0.045480072 0.015320308
-0.055044595 -0.003937584 -0.035507552 -0.07480099 -0.057100557 -0.08307575 -0.08174649 -0.027109496
0.0418055 0.010737581 -0.022643872 -0.04815852 -0.08687547 -0.070991606 0.085551955 0.055495415
-0.018673316 0.029032528 0.029904116 0.006149395 0.0473182 -0.014735524 0.13573661 0.03814761
-0.07426907 0.075307734 0.03979505 -0.06350404 0.07884899 0.082328334 0.013130606 0.07346579

rnn.weight_ih_l1 f4 [512, 128]
00000000: b2e6 4dbc 8493 b8bd e63b e13c 17b4 143e
00000010: a4b6 a43b d3a5 f3bc 7e84 3a3c 1eb3 efbc
00000020: 6ff0 913d bd1b 173d 5257 12be b11c 24bc
00000030: ca3f 79bd bc55 27bd b1f6 0e3d ac13 223c
00000040: fe19 63bd 21de ddbc 52e1 ff3b 6065 943d
00000050: 1b94 80bd 4ac1 c03d 02e9 773c 314a ea3c
00000060: 5b02 f33c 904c 623c a74c 133d 15e5 88bc
00000070: 3aa5 563c 36af a43d 8010 b9bc acae 2dbb
00000080: b3ed 783d f959 a03c 4e53 353d db8c a3bd
00000090: 71e7 e03d 9365 abbd 50e3 81bd 13bd 403d
000000a0: f497 acbd cc92 ffbc 49a5 65bd aa62 973d
000000b0: 808c 993d 1f87 a7bd 3812 bcbd 0272 38bd
000000c0: 14f0 d3bd 8094 eeba 46ef d5bc 4c7e fd3d
000000d0: eb6c 6cbd d7e6 25bd fd86 103d af09 9f3d
000000e0: 7f8e 273d 9520 c3bc c164 c53b c8d7 dabb
000000f0: 2100 663d c726 99bd 9463 17bd fd70 3fbd
00000100: fc4f 5d3d b506 ad3b c55d e73d ac55 88bc
00000110: fd21 f43c d1fa 9bbd bd34 edbc 1dde b33d
00000120: 45cb acbc c111 67bd c31c 26bd ff0b cfbb
00000130: 0793 4fbd b9ef 593d 87a3 66bc 2d6a a03b
00000140: e714 703d 8d09 70bd 920e 103d 6552 3e3e
00000150: 4b10 34bc 1c2d ae3d 650a 10bd 7baf e3bd
00000160: 4a9e 1bbb 297e 46bd 664f 8a3c b9fd 57bd
00000170: f483 703d 066a 913d 41b2 f8bc 2e63 6f3c
00000180: f8fd 21bd 2584 e8bd 068f 3abc 1261 c93d
00000190: c094 e3bd 5b98 853d aff1 753c 4409 c0bd
000001a0: 3643 29bd da3b 4ebd c4c7 e13d 8c59 df3d
000001b0: 4b0d 14bb 0a0c 053e 3551 66bd d4e3 753c
000001c0: a043 033d 8758 323d 6be2 813d 7366 d9bd
000001d0: eaf2 a1bc 82fa 02bd faec 36be 0d11 aebd
000001e0: f9fc 47bd bd24 f03d 873a 5e3d 04c3 fdbb
000001f0: f2d3 d63d 5a20 d5bc 75b3 3b3d a35e 16bc
00000200: 657e c3bc 1e7c f63c 4266 a4bb 1535 bc3d
00000210: cb08 8cbd b210 523d 1551 18bd c83d a33d
00000220: ba4c a0bd b346 9f3d 42d0 25be 7fca cbbc
00000230: 2804 5ebd 6273 62bd 4612 7a3d 2c64 8c3d
00000240: 03c3 613d cf22 8c3d a751 8e3d 4078 32bd
00000250: 2270 febd 379c abbd 22d0 7cbd 4882 e3bc
00000260: 3340 633c f4f6 28ba aadc 6b3d 15bd cabd
00000270: 020c 5abc 21ac 5f3d aae6 93bd 6b2d 15bd
00000280: 9c5a 58bd 46bb 9e3d 9360 dbbc 71bd 853d
00000290: a499 7b3d 4e7f a2bd 7bed 353d 6327 03bc
000002a0: acdc 323d 48b5 8fbb d3ef d73d 3aab ddbc
000002b0: a5cb 0ebd 726d 22be ad4d 0f3c 3204 1dbd
000002c0: 3cf3 a63c 4394 7c3c f3de 653c e036 033e
000002d0: eaaa 803c d280 4cbd 0575 063e a7a8 82bd
000002e0: fadd 933d f5f5 c0bd 9a48 8b3c 2c98 1abd
000002f0: 4b8f 623d b78c 19bd e38d d2bd af96 bf3c
00000300: dbff af3d 2504 233e 3715 db3d a327 84bd
00000310: ff3f 16bd b909 753d d13d 4f3b 7e00 273d
00000320: 9e75 32bc 1413 b03c 0d57 31bd 9040 813c
00000330: 92a5 42bc 95c4 66bc 0bc3 f53b 28ad 84bd
00000340: 5c1e 5bbc f4cc 38bc 8bf8 3f3d 29bf 563d
00000350: 83ba b0bc 26c4 3abd 58df c2bd f65a 85bd
00000360: 7513 ccbd 25d3 0c3d b0ec ccbd 1710 b3bc
00000370: d264 92bd da3a 703d 2e7e 7cbd 5be8 0fbd
00000380: 1024 67bc 2d14 dfbc 073d cabc e863 753c
00000390: 3194 ffbd 2040 78bd 0602 673d fa9f b13d
000003a0: 9d7e ecbd 5c2d ee3c b27d 143e bf23 603d
000003b0: 4ebf 0bbd f95a 653d 8740 2abd e334 fdbc
000003c0: 9b31 97bd a0b3 c3bc 3e4d 1e3d cbfa 3c3d
000003d0: 3ecc 72bd 7473 1bbc 2c15 f3bd b99e 11bd
000003e0: f158 d0bc 1f7b 133d b645 b2bd 8da5 523c
000003f0: fd72 a33d 8d83 83bd 1b2f 0d3d bb2d 4b3d
-0.012567209 -0.090125114 0.027494382 0.14521824 0.0050266553 -0.029742157 0.011384128 -0.029260214
0.07125937 0.036891688 -0.14291123 -0.010016606 -0.06085185 -0.040853247 0.034903232 0.009892385
-0.05544471 -0.027083458 0.0078088427 0.07245898 -0.06278249 0.09411867 0.015131237 0.02859983
0.02966421 0.013812199 0.035961773 -0.016710797 0.0131009165 0.08041231 -0.022590876 -0.0026501818
0.060773563 0.019574152 0.0442689 -0.079858504 0.10981644 -0.08368983 -0.063421845 0.047055315
-0.0842742 -0.031197928 -0.05606583 0.073918656 0.074975014 -0.08180069 -0.091831625 -0.0450306
-0.10348526 -0.0018202215 -0.026115071 0.12377605 -0.05772106 -0.04050335 0.035284985 0.07765519
0.04090738 -0.023819247 0.0060239737 -0.006678555 0.056152467 -0.07478099 -0.0369602 -0.046738613
0.054031357 0.0052803406 0.11297182 -0.016642414 0.029801363 -0.07616199 -0.028955812 0.08782599
-0.02109302 -0.056413416 -0.040554773 -0.0063185687 -0.050677326 0.053207133 -0.014077074 0.0048954696
0.058613684 -0.05860286 0.035170145 0.18586119 -0.010990213 0.08504698 -0.035166163 -0.111174546
-0.002374547 -0.04846016 0.016883563 -0.052732203 0.05871959 0.071003005 -0.030358436 0.014611049
-0.039548844 -0.113533296 -0.0113866385 0.09832968 -0.11112356 0.065232 0.015011235 -0.09376767
-0.041323863 -0.050350048 0.110244304 0.109057516 -0.002259093 0.12992874 -0.05622979 0.015007932
0.032046914 0.043541458 0.06342014 -0.10615244 -0.01976915 -0.031977184 -0.17863837 -0.08499346
-0.048825238 0.11725757 0.054255035 -0.007744195 0.10489644 -0.026016403 0.04582544 -0.009177837
-0.02386398 0.03008848 -0.005017073 0.09189812 -0.068376146 0.051285453 -0.0371867 0.07970768
-0.078271344 0.07777157 -0.16192725 -0.024876831 -0.054203182 -0.05528582 0.061052583 0.06855044
0.05511762 0.06842577 0.06949168 -0.04357171 -0.124237314 -0.08379405 -0.06172193 -0.027772084
0.013870287 -0.000644549 0.05758349 -0.09899346 -0.013308527 0.054607514 -0.0722173 -0.036420267
-0.052820787 0.07750563 -0.026779449 0.06530274 0.06142582 -0.07934438 0.044415932 -0.008004996
0.04366748 -0.004385624 0.1054379 -0.027059186 -0.03486218 -0.15862063 0.008746547 -0.03833408
0.020379655 0.015416208 0.014030206 0.12813902 0.015706498 -0.04992754 0.13130577 -0.06379824
0.07220073 -0.094219126 0.017002393 -0.03774278 0.055312436 -0.03748771 -0.10280969 0.023387281
0.085937224 0.1591955 0.10697406 -0.064528726 -0.036682125 0.059823725 0.0031622539 0.040771954
-0.0108923 0.021493472 -0.04329591 0.015777856 -0.011880295 -0.014084955 0.0075000576 -0.064783394
-0.013373937 -0.011279333 0.04686789 0.0524284 -0.02157331 -0.045597218 -0.09515256 -0.0651149
-0.09964649 0.03438105 -0.10006082 -0.021858258 -0.07148136 0.058649875 -0.06164377 -0.0351337
-0.014107719 -0.0272313 -0.024687303 0.014977433 -0.12479437 -0.06060803 0.056398414 0.08673091
-0.11547587 0.029074363 0.14501074 0.05472159 -0.03411799 0.05599496 -0.041565444 -0.030909007
-0.07382508 -0.023889363 0.038647883 0.046137612 -0.05927681 -0.009487975 -0.118692726 -0.03555176
-0.025433036 0.03600609 -0.087047026 0.012856853 0.07980917 -0.06421576 0.03446875 0.04960416

rnn.weight_hh_l1 f4 [512, 128]
00000000: 7747 c3bc b4c8 763d 129e e2bb beb5 843b
00000010: 10c1 9b3c 47ab 87bd 7335 ab3d 46fd c63d
00000020: 86ab 103d 7a7e 883d 8bfe 3dbd 5929 bebb
00000030: c612 1bbd efed 84bd cba7 5a3b 668c c9bd
00000040: 2437 b9ba 0fd1 9e38 3681 8cbd 5368 053d
00000050: 8417 b2ba 349d e5bc 8e15 83bc 656e 3f3c
00000060: f47a 233d efff 8cbd 4ffa 7d3d ac62 153d
00000070: a625 183c 0c7e 523a f29f d83d 8b40 c9bc
00000080: 4334 88bd 55a4 83bd bfbd 883d c423 463b
00000090: 14ac bfbc 2f08 2cbd 1d3d 2f3c 9bb1 883d
000000a0: 7810 623d 2327 6bbd ae72 c2bc 3be8 39bd
000000b0: 8629 2bbc 37c5 c1bc bb26 9bbc 0a0e 12bd
000000c0: 9ef9 a0bb 43dd 833d 2182 5a3d 1c7b 963b
000000d0: 8b66 c2bd 4858 d4bd ff1b 96bd c982 b73d
000000e0: 27ba 64bd 29d0 65bd 23dc a7bb eb74 553d
000000f0: 2753 423b a7b8 953d a43c b2bd 8abc b43d
00000100: 60a1 353d e00f 60bc 64a3 2c3d feb7 c5bc
00000110: 2bb6 233d c039 6c3c 3d46 da3c 96e3 f23d
00000120: bb19 473d 3d4b 86bc 5806 5c3c e8c7 de3c
00000130: 0cb0 57bd 52e7 b5bc c7f7 863c ce9f dfbb
00000140: cf6a dbbd 37ca bd3d c83f 833c 5c68 613d
00000150: ea82 fdbc 1960 4a3d 1f02 6c3b a5bc e0bd
00000160: e5d3 323d 0368 833d 6e74 1cbd a99a 8bbd
00000170: f48f d8bc 8a74 69bd 61d3 2b3d 3359 b6bd
00000180: 3047 f13b cc87 933d 9996 77bd caf0 1a3d
00000190: 4734 5c3d d11b d6bc 23c0 e2bd 47ff 4f3d
000001a0: e602 a7bc 07d4 813c 9f9f 813d 9851 72bd
000001b0: 61e3 2e3b 899b 393d a26c 703d 77c8 6dbd
000001c0: e6fe 073d c133 27bd a564 25bd 723a 103d
000001d0: f833 84bc 6e0b dfbc 07a2 a43d 518a 6cbd
000001e0: e4d3 8bbd de6f 633d 3151 99bd 11da b53d
000001f0: a534 87bd 12ee 263d 0b7e 2ebb b483 5e3d
00000200: 90b1 c83d 4725 813d e449 a9bc 2828 84bd
00000210: bc16 d83c 843f 443d 9e0b 9e3b aab6 233d
00000220: 1970 f23c 9cef 2c3d cc9f 4ebd 798d 3abc
00000230: 1689 813d 23a1 4abc 3a32 703d 94d7 a9bd
00000240: 1712 6b3d 6472 1abd da04 da3d 8bbf 7c3d
00000250: 07b7 c5bc c168 b1bc a158 e73d 8a56 e33d
00000260: 6d5e 8a3d 4cdf a63d 6780 ec3c b500 8dbd
00000270: e019 e0bc 693e 2d3d 9de5 16bd edf2 60bd
00000280: 85fc 623d 1b54 b73c da5a 7f3d 2edd c33c
00000290: d485 89bd 2edd 673c d350 c83d 53a7 8b3b
000002a0: 49e0 d03d f05f 643d 45a4 2abd 045c 033d
000002b0: 096e 10bd f277 c1bc 327e d33d 83f1 40bc
000002c0: 5642 06bd bd38 603c 7b26 e53d 19f4 b63d
000002d0: e3b3 ddbc 9293 093d 2bd8 b53d eef4 98bd
000002e0: 5061 9c3d 8d9c 5cbc cb3d 00bd c7fe cbbd
000002f0: 6571 373d cfc3 b5bb df8d e7bd 4b10 273d
00000300: daae d23d a4df b1bd dcf2 eebc 34d6 2f3d
00000310: 9ef0 223d ece4 0ebd 48cc be3d c9f4 8dbd
00000320: a19c e73c 289f 9a3d 89c0 babd 095b 80bd
00000330: 95e3 94bd 5ab8 1ebd d4c3 bf3d cbb6 8cbb
00000340: 8d0d 84bd ac02 cdbd 4591 15bd b691 83bc
00000350: 7dc9 a53d 4e74 3f3d 9755 8c3d 4f0a ddbc
00000360: ef64 123d 3545 e4ba ae27 163c 4234 603d
00000370: c2e9 473d a38d 9cbd f617 aeb9 4ba9 b43d
00000380: a200 f33b c53f 6bbc a995 0f3d c5e2 103d
00000390: 2981 933c d0f3 7f3d f34b e33c 5efb 82bd
000003a0: 1e3e b0bd f8cf 3dbd 270f 96bc e2d1 963d
000003b0: c3df eabc f523 1cbb a896 3dbd 1cbe 403d
000003c0: ad13 86bd 3222 e63d cc7f 77bd 300a e03c
000003d0: e853 343d 5bd8 d53d 5af0 cbbd 4942 983d
000003e0: 4b52 53bd d6c7 c63c 3b5c d43c e50e 2a3d
000003f0: c695 f23c ab7f 2e3b 0874 1a3d 0bef 01bc
-0.023837788 0.06025 -0.006915816 0.0040499857 0.019012958 -0.066244654 0.08359804 0.09716277
0.035319827 0.066647485 -0.04638533 -0.005803269 -0.0378597 -0.06490695 0.0033364173 -0.09841232
-0.0014130813 7.572967e-05 -0.068605825 0.032570194 -0.001358733 -0.028029062 -0.016001489 0.011684035
0.03991218 -0.06884753 0.06200629 0.036471054 0.00928632 0.00080296467 0.10577382 -0.02456691
-0.06650593 -0.06427828 0.06676816 0.003023372 -0.023397483 -0.041999992 0.010695723 0.066745006
0.055191487 -0.05741037 -0.023736324 -0.045387488 -0.010446912 -0.02365361 -0.018939367 -0.03565792
-0.004912569 0.06438687 0.053346757 0.0045923125 -0.09492215 -0.10368401 -0.073295586 0.08960492
-0.05584159 -0.05610672 -0.005122678 0.052113455 0.0029651613 0.0731061 -0.087029725 0.088250235
0.044343352 -0.01367566 0.04214801 -0.024135586 0.03996865 0.014418066 0.02664482 0.11859815
0.048608523 -0.016393298 0.013429247 0.027194932 -0.052658126 -0.022205029 0.016475571 -0.00682447
-0.107137315 0.09267085 0.016021624 0.055031165 -0.030946214 0.049408052 0.0036012006 -0.10973481
0.04365911 0.06416323 -0.038196974 -0.068166085 -0.02643583 -0.056995906 0.041949634 -0.08903732
0.0073632225 0.072036356 -0.060446355 0.03782729 0.053760793 -0.02613631 -0.110718034 0.05078056
-0.020387124 0.015848173 0.063292734 -0.059159845 0.0026685821 0.045314346 0.05869735 -0.058052506
0.033202074 -0.04082084 -0.040379185 0.035211988 -0.016138062 -0.02722713 0.08038717 -0.057749096
-0.06827524 0.055526607 -0.07486189 0.088794835 -0.06601838 0.040754385 -0.002662542 0.05432482
0.09799492 0.06305938 -0.020665117 -0.06452972 0.026378028 0.047912136 0.004823162 0.039969124
0.029594468 0.042220697 -0.050445363 -0.011386269 0.06324975 -0.01236752 0.05864165 -0.082930714
0.0573903 -0.037706748 0.106454566 0.061706107 -0.024135126 -0.021656396 0.112962015 0.111004904
0.067562915 0.08148059 0.02886982 -0.068849005 -0.027356088 0.042295847 -0.03684007 -0.054919172
0.055416603 0.022378972 0.062342502 0.023909178 -0.06714979 0.014151854 0.09781041 0.00426189
0.10199029 0.055755556 -0.041660566 0.032070175 -0.035261188 -0.023616765 0.10326804 -0.011776331
-0.032778107 0.013685402 0.1118898 0.08933277 -0.027063316 0.033588 0.088791214 -0.07468592
0.076357484 -0.013465059 -0.03130893 -0.09960704 0.044785876 -0.005547024 -0.11306357 0.040787023
0.102872565 -0.08685234 -0.029168539 0.04292889 0.03978025 -0.034886286 0.09316307 -0.06931455
0.028272929 0.07549888 -0.091187544 -0.062673636 -0.0726997 -0.03875003 0.09363523 -0.0042942516
-0.06447897 -0.10010275 -0.036515493 -0.016060691 0.080950715 0.046741776 0.068522625 -0.026982455
0.03574079 -0.0017415645 0.009164734 0.054737337 0.048806913 -0.076442026 -0.00033205719 0.088213526
0.007415847 -0.014358466 0.035054836 0.035372514 0.018005924 0.062488377 0.027746176 -0.06395601
-0.08605598 -0.046340913 -0.018317772 0.07364251 -0.028671151 -0.0023825143 -0.046286255 0.047056302
-0.065467216 0.11236991 -0.06042461 0.027348608 0.04402533 0.10441657 -0.09957953 0.07434518
-0.051592153 0.024265211 0.025922885 0.04151811 0.029612433 0.002662639 0.037708312 -0.007930527

rnn.bias_ih_l1 f4 [512]
00000000: 8d9e 693c d583 4c3d e977 c63b 9fed b6bd
00000010: bb5e 9c3c 727d 963c 8878 3abc ef3e 83ba
00000020: 38b9 5fbd 8100 703d 14e5 22bc ae90 7d3d
00000030: 98be c33d 4191 d9ba 92c0 5fbd d899 51bc
00000040: 28c2 6e3d fc6c 563d 628a 6a3d de7c 9fbd
00000050: 2402 0b3d 9a58 1dbb 5213 bdbd adac b4bd
00000060: 4079 fcbc 6cfc af3d bb5b 5a3d 2c10 0fbc
00000070: 5fca ba3d 8250 6dbd 58bd 46bc 89f3 a5bd
00000080: 767c dfbb 6ee3 82bd 80cc 883d 1ada e23b
00000090: 8484 89bd 39ba 89bd 7237 d5bb 8c45 10bc
000000a0: d503 523d 9a72 d1bd a2d9 cc3c f2c5 81bd
000000b0: 74bc 57bd ad86 58bd 635c 97bc c289 54bd
000000c0: 4309 e1bd f3d3 13bd 4d22 0bbd ed6b aa3b
000000d0: 27a7 1d3d be9d 84bd 3b0f d33c 3cd1 113d
000000e0: 74e8 323d ec40 d4bd 1370 5a3d c383 3a3d
000000f0: 1cce 81bd 1295 c33c 460f 573b eb6c a3bd
00000100: e15d 6a3a 2c0f c33c ba7c 88bd a164 d0bd
00000110: f215 31bb e62b 97bb 1812 453c 4d21 a43d
00000120: 4af3 f03c beab 8b3c 282b 9fbc 60e2 283d
00000130: 6b05 5e3d 929c 8ebc a330 c1bb 016a ae3c
00000140: 96b7 c93d d8a3 d23d c623 8b3d e122 6cbc
00000150: 6c95 a83c 3bcd 363b 7760 92bd ea05 27bd
00000160: 8d87 793d ae31 97bd edc9 9b3b 2191 34bd
00000170: 292a b03d 88fb b33c 978d 48bd bb40 083d
00000180: 19cc a73d 77d5 5b3d 24dd 71bd 3e40 b6bd
00000190: 5dd2 85bb b38c abbc b10c 913c 4ab5 6a3d
000001a0: 60ab d03d 529d 2cbc 4cf0 b7bc 9c97 f53c
000001b0: d6e7 ac3c 82fe be3d 63af b13b 6a36 8b3d
000001c0: 9764 a03c 2df0 8dbc 0590 05bc 666c 3ebd
000001d0: 6e30 f73c 3598 f2bc b1ea 833d 7874 4abc
000001e0: 014e 1bbd 2ea8 70bc b3db e13d fd49 943d
000001f0: 0fe4 9d3d 6807 6d3b bc3a 5cbd 01a0 34bd
00000200: 2417 1ebd 6ded f83d 5cb0 133d 5f0c 603c
00000210: 07c2 853d 6be4 d9bc e8d0 8abc 0a20 023d
00000220: 5038 c73d 1c87 fabc 69c8 65bd 63da 9a3c
00000230: 7cd1 22bd cee8 8d3d e8af a1bd 6d44 093d
00000240: 9671 ef3d 033b 9e3c b71f 693c 6170 5abc
00000250: d39b 83bd be82 973a fe7c abbc 4de6 c73c
00000260: 78da 63bd 537c 813d 046d 863d b0f7 043c
00000270: e884 c93d d052 d3bd 4e76 a2bc f21f 4dbd
00000280: a426 a6bc 5e48 58bd 423e 113d 63db 663d
00000290: 3760 4c3d 5c45 093d d704 0e3e 204b 493d
000002a0: cfd0 8fbd ed0d eb3c 9200 783d 584b 303c
000002b0: c37c 723b 6e91 a53d 82b6 7e3d c0b7 463d
000002c0: e3be 5dbc da41 103e 8d86 67bd 2992 8fbd
000002d0: 5ce1 51bb 1288 553d 5ca6 8abd 6a42 ff3b
000002e0: 28c7 563c 0134 7c3d d293 143d 6449 c4bc
000002f0: 8676 b8bd dcdd c5bd ac2f a339 b1a4 6d3d
00000300: dc9f 17bd 73b8 84bd 325b 69bc 1f88 18bd
00000310: 1252 663d 559e 20bd 5017 db3a 1db0 50bc
00000320: 718c 133d 4688 67bc dab8 933c 9010 8a3d
00000330: 3cc4 933d 0bfb 123d 5f16 373d 80fb 5f3d
00000340: 613f 0b3b 8d09 9ebc 0439 683d 08bc 8a3d
00000350: 38dd 60bb da4b b43d f897 183d 8c76 393d
00000360: 3176 2d3c bceb c93b 3e1f 883d ac76 a6ba
00000370: 9e15 0a3d 66c2 993d ba56 28bc 4560 ac3d
00000380: 5f5f b43d 227e 3bbd eefd 41bd a56f 163d
00000390: 6855 8e3d 4019 07bd cdb9 55bd 8482 853d
000003a0: 2251 233c f7aa e63c 08d4 803d 12dc 88bd
000003b0: 581c 8cbc 5f04 9ebc 3d06 0b3d 524d 643d
000003c0: 7b21 093d 8e2b d3bc 8db3 97bd 3f6d a4bd
000003d0: f957 503d 3f84 bbbd fe45 3ebd 561b abbc
000003e0: 9cfb 79bd 4b78 7fbd b5f1 933d caf7 9cbd
000003f0: ceb5 6e3d bb6b 073d 5d20 b1bc 6589 4f3d
0.014258993 0.049930412 0.006056775 -0.089320414 0.01908814 0.018370364 -0.011381276 -0.0010013263
-0.054619998 0.05859423 -0.009942312 0.061905555 0.09557837 -0.0016599075 -0.05462701 -0.012793027
0.05829063 0.05235003 0.05726088 -0.077874884 0.03393759 -0.002400911 -0.09232201 -0.08821998
-0.030819535 0.085930675 0.053310137 -0.008731883 0.091206305 -0.057938106 -0.012130104 -0.08103091
-0.006820257 -0.06391035 0.0667963 0.0069229724 -0.067147285 -0.06724972 -0.0065068537 -0.008805644
0.051273186 -0.10226937 0.02500612 -0.06336583 -0.052669957 -0.05286281 -0.01847667 -0.05188919
-0.10988095 -0.036090802 -0.03396826 0.005200854 0.038489487 -0.064753994 0.025764098 0.035599932
0.043678716 -0.10363945 0.05332954 0.045535814 -0.0633814 0.023874793 0.00328155 -0.07979759
0.00089403806 0.023810945 -0.06664415 -0.101754434 -0.0027021137 -0.0046133874 0.01202824 0.08014164
0.029412884 0.017049666 -0.019429758 0.041231513 0.054204386 -0.017408643 -0.0058956905 0.021290781
0.09849469 0.10285157 0.067939326 -0.014412613 0.020579062 0.0027893323 -0.071473055 -0.040777124
0.060920287 -0.073825225 0.004754296 -0.04408372 0.086017914 0.021970525 -0.048963156 0.033264857
0.081932254 0.053670373 -0.059048787 -0.08898972 -0.004083915 -0.020941114 0.017706247 0.057301797
0.10188937 -0.010535555 -0.02245345 0.02997952 0.021106642 0.09325887 0.005422519 0.06797488
0.019579215 -0.017326439 -0.008152013 -0.046490096 0.03017446 -0.029613594 0.06441248 -0.01235687
-0.037916187 -0.014688535 0.110282324 0.07240675 0.07709514 0.0036167745 -0.05376695 -0.044097904
-0.038596287 0.121546604 0.03605686 0.0136748245 0.065311484 -0.026598176 -0.016945317 0.031768836
0.09727538 -0.030582003 -0.05609933 0.018902963 -0.03975056 0.069291696 -0.078948796 0.03351252
0.11691587 0.019315248 0.014228753 -0.013332457 -0.064262055 0.001155935 -0.020933624 0.024401808
-0.05562827 0.06322541 0.06563762 0.008115694 0.09839803 -0.103185296 -0.019831803 -0.050079294
-0.020282097 -0.05280339 0.035459764 0.056361567 0.049896445 0.033513412 0.13869034 0.04914391
-0.07022249 0.028693164 0.06054742 0.010760151 0.0037000633 0.08084379 0.06218577 0.04851508
-0.0135342805 0.1408762 -0.056524802 -0.070103 -0.0032025194 0.05213172 -0.06770012 0.0077898996
0.013109006 0.061573032 0.036273785 -0.023960777 -0.090069816 -0.09661457 0.000311253 0.05801839
-0.03701769 -0.064804934 -0.014242934 -0.03723919 0.056230612 -0.039213497 0.0016715322 -0.012737301
0.036022607 -0.014131611 0.01803248 0.0674144 0.07215163 0.035883944 0.04469907 0.05468321
0.0021247494 -0.019291664 0.056695 0.06774145 -0.0034311544 0.0880353 0.037254304 0.04527907
0.010587261 0.006162135 0.06646584 -0.0012700162 0.033712022 0.07507782 -0.0102745835 0.084167995
0.08807253 -0.045774586 -0.047361307 0.036727566 0.06949884 -0.032983065 -0.052179147 0.065190345
0.009968074 0.028157694 0.06290442 -0.066826 -0.01710336 -0.019289194 0.033941496 0.0557378
0.033479195 -0.025777604 -0.074072935 -0.080286495 0.050865147 -0.09156083 -0.04645347 -0.020887058
-0.06103097 -0.06237058 0.07223836 -0.076644495 0.05827885 0.033061724 -0.021621877 0.05066814
