Rudi/checkpoints_04/best_tempo_model_06_speed.pth (torch, 249724 bytes, 5 tensors)

fc1.weight f4 [128, 416]
-0.0046899817 -0.014864904 0.011255045 -0.029785797 0.012464091 -0.012877346 -0.054034173 -0.036480784
0.009880369 -0.043043252 0.022369241 -0.0113683995 -0.059623633 -0.046726163 -0.069500476 0.044404395
-0.03225933 0.0038798838 0.05384395 0.046301685 0.01924851 0.018105488 0.053088438 0.052856848
-0.02453122 -0.0038699366 -0.0340575 0.052311398 -0.02952666 -0.0154016055 -0.017827053 0.010389135
-0.005765372 0.044577543 0.0039336383 0.024849834 0.030292751 -0.0023321414 0.040163465 0.0089394115
0.037506662 0.012676338 -0.022673827 -0.028147757 -0.039429065 -0.006353854 9.828731e-05 -0.033612356
0.030276295 0.0032808369 0.024636487 -0.00047943866 0.025717948 0.009215443 0.03785542 -0.032266248
-0.018532753 -0.03513651 -0.0128077315 -0.014070165 -0.04133331 0.031385243 -0.023755481 0.021383848
-0.002637646 0.045974847 0.0028977194 -0.03757278 -0.015849862 0.04403179 0.032957494 -0.022562917
0.0038595796 0.0333216 -0.011172695 0.0364943 -0.035376113 0.003779903 0.0006813669 -0.050945476
-0.0073745777 -0.012105918 -0.048568442 0.024924064 -0.00423347 -0.03470599 0.027292812 -0.004688007
0.0025374996 -0.012363459 0.0070599634 0.0077511347 0.01074055 0.01963908 -0.0086267125 0.03158363
-0.0054048398 -0.050796516 0.02998487 -0.0024389823 -0.04974069 -0.009477585 -0.022614831 0.028327106
-0.0022855531 0.024630476 -0.023239946 0.026729355 -0.032769494 -0.04799595 0.027763074 0.013853498
0.014197127 0.009098247 0.024923764 -0.013556227 -0.03123451 -0.0081040375 -0.003843332 0.013502339
-0.03312044 -0.00874731 0.01766974 0.0050753662 -0.037651043 0.03264375 -0.015811665 -0.0076103327
0.0127793 0.025736472 -0.0017427374 0.032872166 -0.010405418 0.010045428 0.02016339 -0.025988678
-0.044821933 0.03557603 0.011100968 0.00057687535 0.0023660753 0.02016105 0.016606698 -0.04402051
-0.04782226 -0.027514137 0.0050897584 0.016495803 0.027905533 0.029749215 0.021196758 -0.005597663
0.046766084 0.01687574 -0.018235313 0.0058147376 0.004377119 -0.047101244 -0.045559652 0.042801306
0.04422287 0.031395894 -0.001564891 0.002617664 -0.04705288 -0.028267894 0.030954685 -0.003336569
0.009664735 0.028647248 -0.0358884 -0.027220948 -0.023295077 0.0010846514 0.00030797863 -0.010182096
-0.035071675 -0.003593668 0.036925133 -0.011376243 0.015105856 0.017518299 0.036240466 0.035295174
0.031068787 0.00074127805 -0.04033401 -0.024754096 0.0235562 -0.02911235 0.024124151 0.01794503
0.011727665 0.020507358 0.023692034 -0.04149516 -0.030043527 -0.012756039 0.04423043 0.023136105
0.041036043 -0.005755136 0.0062641227 0.03310217 -0.037847944 -0.038710043 -0.006579474 -0.014235475
0.00750489 -0.023845525 -0.022850215 0.01916442 0.047044497 -0.04018918 0.011602879 0.041213084
-0.006054627 -0.0027585435 -0.013824739 -0.03028077 0.049174964 0.040623385 0.025864528 -0.033079658
-0.019827256 0.034193974 0.04506641 0.025116384 0.005774296 0.03412383 -0.020985015 0.033967078
-0.013906813 -0.032643907 -0.003464174 0.0057946006 -0.01860688 -0.043379925 -0.028197175 0.036275342
0.018368695 -0.024638543 0.03268214 0.012585849 -0.012556155 -0.0131179495 0.021519119 0.039079484
-0.029956987 -0.04692486 -0.02902859 -0.008420068 -0.0235991 -0.04733876 0.04116938 -0.01547677
00000000: 6bae 99bb ed8b 73bc 1567 383c 5801 f4bc
00000010: 3036 4c3c 81fb 52bc f052 5dbd e06c 15bd
00000020: 45e1 213c 1f4e 30bd b33f b73c 8642 3abc
00000030: e937 74bd ef63 3fbd 4456 8ebd 62e1 353d
00000040: 5c22 04bd a645 7e3b 798b 5c3d d6a6 3d3d
00000050: 0daf 9d3c f651 943c 4373 593d 6c80 583d
00000060: b2f5 c8bc c39e 7dbb e17f 0bbd 7a44 563d
00000070: e5e1 f1bc 0457 7cbc 0a0a 92bc 3137 2a3c
00000080: 72eb bcbb f196 363d c0e5 803b e191 cb3c
00000090: 8128 f83c d7d6 18bb 7282 243d 9c76 123c
000000a0: 96a0 193d 6ab0 4f3c 76be b9bc 2096 e6bc
000000b0: 5f80 21bd fe33 d0bb 991f ce38 1cad 09bd
000000c0: fe05 f83c 4f03 573b 75d2 c93c 2b5d fbb9
000000d0: 72ae d23c 5ffc 163c 490e 1b3d 9d29 04bd
000000e0: 00d2 97bc 4deb 0fbd 85d7 51bc 8d86 66bc
000000f0: 1e4d 29bd d08d 003d db9a c2bc 2e2d af3c
00000100: 5bdc 2cbb 1f50 3c3d aae7 3d3b eae5 19bd
00000110: 92d7 81bc ae5a 343d 70fe 063d ded5 b8bc
00000120: 00f1 7c3b 3b7c 083d ae0d 37bc 0c7b 153d
00000130: 8be6 10bd 40b8 773b c29d 323a 34ac 50bd
00000140: 71a6 f1bb e657 46bc b4ef 46bd 8d2d cc3c
00000150: ecb8 8abb de27 0ebd 2d95 df3c da9d 99bb
00000160: 2e4c 263b 1b90 4abc 4457 e73b 3bfd fd3b
00000170: 22f9 2f3c 23e2 a03c 0e57 0dbc d65d 013d
00000180: 151b b1bb 0210 50bd d5a2 f53c 55d7 1fbb
00000190: e5bc 4bbd df47 1bbc bd42 b9bc 3f0e e83c
000001a0: 38c9 15bb dac5 c93c b361 bebc 85f7 da3c
000001b0: 4e39 06bd 6797 44bd 636f e33c c8f9 623c
000001c0: 119b 683c d010 153c ec2c cc3c f01a 5ebc
000001d0: 84df ffbc ccc6 04bc 69e0 7bbb ea38 5d3c
000001e0: 4ca9 07bd e150 0fbc 21c0 903c 424f a63b
000001f0: fb37 1abd 74b5 053d 7787 81bc 1960 f9bb
00000200: 4560 513c 4bd5 d23c 906c e4ba f7a4 063d
00000210: 7d7b 2abc 9495 243c b22d a53c 35e6 d4bc
00000220: 3497 37bd 2cb8 113d d6e0 353c 7339 173a
00000230: 2810 1b3b c928 a53c c50a 883c da4e 34bd
00000240: 46e1 43bd 5465 e1bc fdc7 a63b 3522 873c
00000250: 259a e43c a0b4 f33c d3a4 ad3c 9a6c b7bb
00000260: cb8d 3f3d fe3e 8a3c 3962 95bc 8e89 be3b
00000270: ef6d 8f3b 3ced 40bd c29c 3abd 6c50 2f3d
00000280: 0a23 353d fb98 003d 071d cdba 1d8d 2b3b
00000290: 85ba 40bd 1292 e7bc ae94 fd3c 57aa 5abb
000002a0: d658 1e3c a2ad ea3c b7ff 12bd 77fe debc
000002b0: 51d5 bebc dd2a 8e3a 3178 a139 ced2 26bc
000002c0: 51a7 0fbd bf83 6bbb cf3e 173d 6c63 3abc
000002d0: 8d7e 773c 8982 8f3c e270 143d ac91 103d
000002e0: f883 fe3c 5452 423a 4635 25bd 1ac9 cabc
000002f0: eff8 c03c 067d eebc 03a0 c53c 7501 933c
00000300: 6425 403c 0cff a73c cc15 c23c d4f6 29bd
00000310: d81d f6bc b5fe 50bc f82a 353d ee87 bd3c
00000320: 6915 283d 9495 bcbb 4543 cd3b 2496 073d
00000330: 7206 1bbd 6c8e 1ebd a198 d7bb e93b 69bc
00000340: 95eb f53b b157 c3bc 6030 bbbc b4fe 9c3c
00000350: bbb1 403d 699d 24bd 001a 3e3c 0dcf 283d
00000360: e465 c6bb aec8 34bb 2881 62bc 610f f8bc
00000370: b06b 493d b564 263d d9e1 d33c 897e 07bd
00000380: c56c a2bc fb0e 0c3d 8e97 383d e0c0 cd3c
00000390: 4e36 bd3b 6ec5 0b3d c4e8 abbc 1021 0b3d
000003a0: 67d9 63bc 9eb5 05bd 3207 63bb a2e0 bd3b
000003b0: 756d 98bc 26af 31bd c3fd e6bc 7495 143d
000003c0: f279 963c c5d6 c9bc b5dd 053d e034 4e3c
000003d0: 55b8 4dbc abec 56bc dd48 b03c cf11 203d
000003e0: 5b68 f5bc 4834 40bd 5ecd edbc 53f4 09bc
000003f0: e652 c1bc 4ae6 41bd 39a1 283d 4792 7dbc

fc1.bias f4 [128]
-0.017375035 0.041160535 -0.017807452 -0.047267176 -0.048359938 0.008547151 0.037525445 -0.031479288
0.0018350132 0.013582976 0.03833991 0.004016357 0.0044468143 0.023552211 0.009240636 -0.034780625
0.016302926 0.008969981 0.0521057 -0.0042877547 0.03278401 0.032791145 -0.021341784 -0.008167185
0.027301857 -0.018311048 0.013950113 0.025216429 0.01945469 -0.0019812558 0.005545475 0.005921451
0.011624604 0.03671341 -0.030030606 -0.013955969 -0.037061416 -0.036115307 -0.031076578 -0.028801223
0.027125152 -0.041473236 -0.0264215 -0.011974272 0.030252984 0.014749022 0.04958545 0.026134422
0.030021256 -0.050257754 -0.006285664 -0.022286922 0.016428953 0.025607111 0.0021712957 0.0032113355
0.020672783 0.022261364 -0.006118547 -0.0050426093 -0.019294092 -0.017257612 0.039260197 -0.011548005
-0.030720526 -0.022935383 0.02265091 0.042713054 0.019664954 -0.013588915 -0.025198974 0.007023268
0.036083724 -0.04152515 0.06388745 0.05358788 -0.014227812 -0.006717263 0.0004899522 0.007932008
-0.027657656 -0.06511836 0.028597804 0.030257257 0.01470674 -0.03932332 -0.033365402 -0.012889301
0.023611676 0.011154501 -0.047739133 -0.046785716 -0.044862494 0.039947715 0.0061376835 -0.02799612
-0.016625417 0.035412084 -0.012372147 -0.007021584 -0.015472546 -0.022795208 -0.036862697 -0.036900807
-0.013632552 -0.018768828 -0.006752405 0.048093893 -0.0020248813 0.022385327 0.022776963 0.019488666
-0.015047358 -0.03017973 -0.040351912 -0.041774478 -0.038496003 0.0006482258 0.0013073541 0.029879792
0.038899206 0.052367255 -0.04074862 -0.0628663 -0.050232794 -0.03429216 0.013180566 -0.060242392
00000000: 1756 8ebc f397 283d efe0 91bc 3a9b 41bd
00000010: 1215 46bd 5a09 0c3c 48b4 193d 6df0 00bd
00000020: d384 f03a 218b 5e3c 4f0a 1d3d a59b 833b
00000030: 95b6 913b 91f0 c03c 0966 173c 2176 0ebd
00000040: b78d 853c d4f6 123c c96c 553d 4b80 8cbb
00000050: 8748 063d 0250 063d f7d4 aebc a8cf 05bc
00000060: 25a8 df3c 0d01 96bc 048f 643c af92 ce3c
00000070: 715f 9f3c f5d7 01bb d1b6 b53b bb08 c23b
00000080: 2075 3e3c cd60 163d bf02 f6bc 94a7 64bc
00000090: b6cd 17bd a5ed 13bd 4f94 febc 8bf0 ebbc
000000a0: 9135 de3c d7df 29bd e771 d8bc bd2f 44bc
000000b0: 1bd5 f73c e2a5 713c 1d1a 4b3d db17 d63c
000000c0: 23ef f53c 13db 4dbd f9f7 cdbb 1093 b6bc
000000d0: 0396 863c 01c6 d13c 4c4c 0e3b 4575 523b
000000e0: f859 a93c 775d b63c 187e c8bb 793c a5bb
000000f0: a50e 9ebc d65f 8dbc 4dcf 203d d833 3dbc
00000100: 9da9 fbbc fce2 bbbc 678e b93c e2f3 2e3d
00000110: 6618 a13c 0aa4 5ebc 146e cebc 7123 e63b
00000120: 87cc 133d 4716 2abd 6cd7 823d f77e 5b3d
00000130: c51b 69bc 7c1c dcbb 2370 003a 41f5 013c
00000140: 4f92 e2bc c65c 85bd f145 ea3c 11de f73c
00000150: 8af4 703c 7d11 21bd 29aa 08bd a62d 53bc
00000160: 466d c13c 5ec1 363c 1c8a 43bd 61a2 3fbd
00000170: bcc1 37bd 37a0 233d 9f1e c93b 1e58 e5bc
00000180: 0732 88bc 430c 113d 8cb4 4abc 5115 e6bb
00000190: 9080 7dbc 04bd babc 57fd 16bd 4d25 17bd
000001a0: 115b 5fbc 16c1 99bc 4743 ddbb 1afe 443d
000001b0: dfb3 04bb 6f61 b73c c196 ba3c b2a6 9f3c
000001c0: 3289 76bc 7b3b f7bc 0c48 25bd b71b 2bbd
000001d0: fcad 1dbd b2ed 293a 865b ab3a 77c6 f43c
000001e0: c654 1f3d 0c7f 563d 06e8 26bd 0cc0 80bd
000001f0: e7c0 4dbd f075 0cbd 4df3 573c bac0 76bd

fc2.weight f4 [64, 128]
-0.088521436 0.0010748164 -0.040408384 0.06189492 -0.013459723 0.06812531 0.066588834 -0.016813038
0.028041169 0.02530106 0.0012876723 -0.03784333 -0.076116614 0.05328426 0.041973334 0.0022660072
0.06535101 -0.0681194 -0.04304134 -0.020131899 -0.025887256 0.024508027 -0.04185132 0.059455026
0.038744655 0.01694586 -0.05917453 0.06306779 -0.023450145 -0.051495165 -0.07571073 0.0444515
0.006753573 -0.03852929 0.0337256 -0.040578324 -0.037450124 0.054378074 0.08489971 -0.0663635
0.048608825 -0.036832668 0.03779106 -0.010797463 0.022690995 0.04126012 -0.041714657 -0.012443063
-0.077427454 0.064636715 -0.01210086 -0.02007634 0.011309623 0.011191784 -0.02925973 0.06976795
0.07063621 -0.0072092735 0.027158186 0.03697173 -0.013903074 -0.0014405482 0.060839966 0.07450426
0.052415784 -0.03907092 0.009178375 -0.08926632 -0.019039517 0.051980764 -0.023939889 -0.10255641
0.014568278 0.038054373 -0.07467749 -0.06768629 0.054252017 -0.05832897 0.004756372 0.029593728
0.07143982 0.0381662 -0.0811388 0.021988558 0.06898498 0.018119663 -0.040295713 -0.05361158
-0.017215243 -0.007973539 -0.0018582375 0.061885376 0.0476972 -0.03471187 -0.061780345 -0.005969509
-0.050147664 -0.06279626 0.019366143 0.008765668 -0.03453091 -0.08384031 -0.027196415 -0.021119187
-0.07273123 -0.027365124 0.026230508 0.026201654 -0.022855414 -0.059494607 -0.078107275 -0.019674858
0.040227983 0.028255535 0.058763787 -0.05940817 0.040243763 0.058689497 -0.045700464 -0.08920639
0.064875565 0.072984375 -0.026837714 0.070217244 -0.06977291 -0.03259058 0.045377895 0.076919004
-0.07616604 0.034409437 0.030908674 0.039955173 -0.06344645 -0.063989796 0.013216102 0.056718808
-0.055534292 -0.00040694245 0.010579483 0.051586196 -0.027611565 0.026488695 -0.0034870298 0.017036926
-0.056756277 0.053953055 -0.01754449 0.00010696395 0.072103865 0.0052512065 -0.07847476 0.004870741
-0.04308828 -0.07178809 -0.040203184 0.012694729 -0.092075154 0.037667885 -0.05117589 0.07018452
-0.03805339 -0.03181407 0.067099504 0.002423894 -0.0055173454 0.04945658 -0.016535617 -0.07505533
0.047056004 -0.007955217 0.07152945 -0.021533603 -0.077772014 -0.05513439 0.06349619 -0.08264534
-0.07369304 0.022430709 -0.03487229 0.03719234 0.07109231 0.03130662 -0.0240372 -0.05861452
0.01042996 -0.0053708884 -0.008701888 -0.058392745 -0.010604741 -0.007921605 0.046346042 0.01434325
-0.087546766 -0.05039566 -0.07677419 -0.028432345 -0.04623384 0.07046999 -0.0819919 0.02822364
-0.04281376 -0.08447681 -0.030654872 -0.029032614 -0.020119995 0.018308813 -0.07729214 0.0011310566
-0.005916457 0.04920649 -0.06873373 0.008946324 -0.022924496 0.0057543917 -0.08777021 -0.027472734
-0.082531855 -0.0021400074 0.030146293 -0.042876255 -0.03381179 0.07050306 -0.01777183 -0.009601725
-0.0786381 -0.06682505 -0.056110628 -0.020407183 0.015943829 0.01604454 -0.046762917 -0.040246442
0.052827977 -0.02534755 -0.028637776 -0.016751178 -0.031769704 0.07360201 -0.030424247 0.01108073
-0.042454902 -0.043234885 0.01876683 0.019790793 0.024794511 -0.071509235 -0.008439816 -0.07103341
-0.0665864 -0.0130033875 0.002270418 -0.09506792 0.07694101 -0.08103222 -0.019908406 -0.060334142
00000000: ba4a b5bd dbe0 8c3a 4383 25bd 8785 7d3d
00000010: 2c86 5cbc 4885 8b3d ba5f 883d 7fbb 89bc
00000020: 98b6 e53c 2b44 cf3c 1dc7 a83a 9c01 1bbd
00000030: 07e3 9bbd 9940 5a3d 3bec 2b3d 4b81 143b
00000040: c0d6 853d 2f82 8bbd 1e4c 30bd a7eb a4bc
00000050: 8311 d4bc 0fc5 c83c 4a6c 2bbd 1d87 733d
00000060: b7b2 1e3d 0bd2 8a3c fe60 72bd af29 813d
00000070: 851a c0bc 98ec 52bd 3a0e 9bbd c712 363d
00000080: 144d dd3b e4d0 1dbd db23 0a3d 7535 26bd
00000090: 4d65 19bd 8bbb 5e3d e6df ad3d 96e9 87bd
000000a0: 0c1a 473d dadd 16bd ccca 1a3d d8e7 30bc
000000b0: 77e2 b93c 5f00 293d fddc 2abd fddd 4bbc
000000c0: 4992 9ebd 4160 843d af42 46bc 2377 a4bc
000000d0: ff4b 393c bf5d 373c 1ab2 efbc 80e2 8e3d
000000e0: b8a9 903d c53b ecbb d87a de3c ab6f 173d
000000f0: b8c9 63bc c7d0 bcba 5433 793d b195 983d
00000100: efb1 563d d408 20bd e560 163c 43d1 b6bd
00000110: c3f8 9bbc c8e9 543d 961d c4bc 1809 d2bd
00000120: c9af 6e3c e7de 1b3d 83f0 98bd 1c9f 8abd
00000130: 5d37 5e3d 5cea 6ebd 57db 9b3b 8c6e f23c
00000140: 0a4f 923d 2954 1c3d 192c a6bd 5921 b43c
00000150: ff47 8d3d b06f 943c 1e0d 25bd d197 5bbd
00000160: fb06 8dbc 72a3 02bc 1b90 f3ba 857b 7d3d
00000170: 245e 433d 092e 0ebd 630d 7dbd df9b c3bb
00000180: a367 4dbd 539b 80bd bfa5 9e3c e09d 0f3c
00000190: 4970 0dbd 78b4 abbd 04cb debc 2502 adbc
000001a0: 1cf4 94bd d32c e0bc 5de1 d63c daa4 d63c
000001b0: 473b bbbc 9eb0 73bd b5f6 9fbd 2b2d a1bc
000001c0: 19c6 243d 2778 e73c 4cb2 703d fb55 73bd
000001d0: a5d6 243d 6664 703d 6930 3bbd d7b1 b6bd
000001e0: 7bdd 843d d578 953d c4da dbbc 0fce 8f3d
000001f0: 19e5 8ebd b37d 05bd 2cde 393d b687 9d3d
00000200: f1fc 9bbd e9f0 0c3d 3034 fd3c 09a8 233d
00000210: 36f0 81bd 150d 83bd 5988 583c fb51 683d
00000220: ed77 63bd e45a d5b9 9155 2d3c 0c4c 533d
00000230: a631 e2bc d2fe d83c a786 64bb 0691 8b3c
00000240: 4579 68bd e1fd 5c3d 76b9 8fbc d551 e038
00000250: 31ab 933d 5012 ac3b 60b7 a0bd bd9a 9f3b
00000260: 567d 30bd a205 93bd 18ac 24bd 8dfd 4f3c
00000270: e691 bcbd a449 1a3d cf9d 51bd e7bc 8f3d
00000280: dfdd 1bbd 784f 02bd 776b 893d 31da 1e3b
00000290: d9ca b4bb fc92 4a3d b475 87bc 9cb6 99bd
000002a0: ccbd 403d 9956 02bc 087e 923d 3d67 b0bc
000002b0: ef46 9fbd 99d4 61bd 4a0a 823d f641 a9bd
000002c0: 60ec 96bd 9bc0 b73c 3fd6 0ebd ff56 183d
000002d0: d898 913d 5f3b 003d a9e9 c4bc c715 70bd
000002e0: 6ce2 2a3c 47fe afbb 5d92 0ebc 3b2d 6fbd
000002f0: 82bf 2dbc 9fc9 01bc 59d5 3d3d f3ff 6a3c
00000300: b84b b3bd ae6b 4ebd c93b 9dbd f3ea e8bc
00000310: b25f 3dbd 9252 903d 5feb a7bd 4335 e73c
00000320: 7b5d 2fbd 2e02 adbd ed1f fbbc ced5 edbc
00000330: b0d2 a4bc 5dfc 953c 574b 9ebd f63f 943a
00000340: d7de c1bb bf8c 493d 45c4 8cbd 9a93 123c
00000350: 27cc bbbc 568f bc3b dec0 b3bd 800e e1bc
00000360: 7606 a9bd 5e3f 0cbb 5cf5 f63c 039f 2fbd
00000370: 3b7e 0abd e963 903d 3b96 91bc 8e50 1dbc
00000380: 030d a1bd 92db 88bd 42d4 65bd f72c a7bc
00000390: a29c 823c d76f 833c 798a 3fbd 74d9 24bd
000003a0: 2662 583d aaa5 cfbc c599 eabc c439 89bc
000003b0: f320 02bd a7bc 963d 453c f9bc f38b 353c
000003c0: 31e5 2dbd 1017 31bd e5bc 993c 4d20 a23c
000003d0: dc1d cb3c 6f73 92bd 2747 0abc f779 91bd
000003e0: 735e 88bd 290c 55bc 4bcb 143b f8b2 c2bd
000003f0: 4093 9d3d 38f4 a5bd f416 a3bc ef20 77bd

fc2.bias f4 [64]
-0.08329398 -0.09254467 -0.071868286 -0.045429282 0.08513877 0.07381796 0.039315756 0.03935623
-0.11609849 -0.07816295 -0.036300093 0.03939991 0.064971596 -0.005976094 0.095162556 0.073822945
-0.07159343 -0.033583827 -0.04627464 0.088693336 -0.021886624 -0.051071543 0.051845532 0.068964176
0.09555044 -0.0786499 0.07687396 0.018912276 0.023212219 0.025276557 0.0421882 -0.00802588
0.014674776 0.04985951 -0.04635051 0.04388218 0.09736318 0.05430834 0.0849418 0.09112867
-0.032563467 -0.008474781 -0.057511665 0.058812775 -0.08934861 0.051689025 -0.0136714205 0.019280104
0.05617143 0.11408868 0.033984322 0.062963456 0.039278835 0.00680522 -0.03078921 0.05723028
0.020584827 0.06338997 0.05129435 -0.047167107 -0.006383038 -0.013524535 0.10948925 -0.03728854
00000000: 0996 aabd 0f88 bdbd ae2f 93bd 0e14 3abd
00000010: 3c5d ae3d df2d 973d 8f09 213d 0034 213d
00000020: 0cc5 edbd e613 a0bd 68af 14bd cd61 213d
00000030: d40f 853d 1cd3 c3bb 96e4 c23d 7c30 973d
00000040: 949f 92bd 328f 09bd 7a8a 3dbd daa4 b53d
00000050: 944b b3bc 6530 51bd fb5b 543d 173d 8d3d
00000060: f3af c33d 3313 a1bd 1870 9d3d ebed 9a3c
00000070: 8d27 be3c c810 cf3c 89cd 2c3d fb7e 03bc
00000080: 796e 703c 7c39 4c3d 08da 3dbd cdbd 333d
00000090: 5966 c73d 6c72 5e3d f7f5 ad3d aba1 ba3d
000000a0: 4561 05bd cfd9 0abc 5a91 6bbd aae5 703d
000000b0: 67fc b6bd dfb7 533d 18fe 5fbc 4ff1 9d3c
000000c0: 0314 663d 53a7 e93d 2533 0b3d fcf2 803d
000000d0: d8e2 203d 53fe de3b a739 fcbc 4c6a 6a3d
000000e0: 83a1 a83c 9ad2 813d 061a 523d 4c32 41bd
000000f0: ce28 d1bb 0396 5dbc e63b e03d debb 18bd

fc3.weight f4 [1, 64]
0.08724104 0.029283706 0.083304845 0.05215422 -0.057579834 -0.10433931 -0.04556719 0.102404274
0.033827312 0.041707586 0.009267156 0.04987297 -0.034044176 -0.06695023 -0.08702801 -0.060872074
0.10528215 0.04375882 0.08532772 -0.05491365 -0.10083469 -0.03189124 -0.060912978 -0.050251834
-0.06203797 0.016590817 -0.107493915 0.08966192 -0.039256155 0.0472193 -0.095785685 0.064648144
-0.037064224 0.06888377 0.08876376 0.10151095 -0.07446056 0.10434665 -0.07333179 0.026642207
0.009213185 -0.029581273 0.018644398 -0.047238097 0.023368826 0.09638699 -0.06694792 -0.084577985
-0.041917622 -0.036104135 0.11374725 -0.11672675 0.038152996 0.039359517 -0.07483815 -0.02516807
0.067231394 0.11364388 0.07612703 -0.054532588 -0.10605875 -0.022196041 -0.06778296 -0.08367021
00000000: 6eab b23d 62e4 ef3c bb9b aa3d aa9f 553d
00000010: d5d8 6bbd d9af d5bd a9a4 3abd 55b9 d13d
00000020: 828e 0a3d 93d5 2a3d 45d5 173c 9947 4c3d
00000030: e871 0bbd 341d 89bd be3b b2bd ff54 79bd
00000040: 2b9e d73d 733c 333d 4dc0 ae3d 23ed 60bd
00000050: 6b82 cebd 64a0 02bd e37f 79bd ded4 4dbd
00000060: 871b 7ebd 77e9 873c c525 dcbd aba0 b73d
00000070: 10cb 20bd 0669 413d 492b c4bd 3f66 843d
00000080: a8d0 17bd ef12 8d3d c6c9 b53d f9e4 cf3d
00000090: c77e 98bd b2b3 d53d fa2e 96bd c240 da3c
000000a0: e6f2 163c 6d54 f2bc 23bc 983c bc7c 41bd
000000b0: fb6f bf3c 8b66 c53d fe1b 89bd 3937 adbd
000000c0: d0b1 2bbd eee1 13bd 51f4 e83d 6f0e efbd
000000d0: 5146 1c3d 7237 213d be44 99bd 452d cebc
000000e0: 9db0 893d 1fbe e83d 7de8 9b3d 905d 5fbd
000000f0: 5435 d9bd 79d4 b5bc cbd1 8abd 495b abbd
