Rudi/checkpoints_04/best_tempo_model_06_speed.pth (torch, 249724 bytes, 5 tensors)

fc1.weight f4 [128, 416]
00000000: bb59 3dbc 146c 0cbd b87c b8bc 704b 003d
00000010: d7c5 6abc aa9a 263d 8b20 8dbd 0c0b 713c
00000020: b595 5ebd 4ce6 ee3b 3419 09bd 0761 50bd
00000030: 4cba a2bd 21c7 e4bc 3cae 69bd 4579 89bd
00000040: 83e8 22bd ee88 c73c b7b1 a53b f3a7 913d
00000050: 55fe c73d 79b7 b03d 3d14 8c3b 6cc8 253c
00000060: af2f d53c 55d6 193c 3722 19bd 4a80 bfbc
00000070: dff2 3a3d d794 a7bc 8dac 03bd 0ba9 453d
00000080: 723c 523c 7503 923c 4b60 303d f175 173d
00000090: 5957 c53c 4b24 18bd da69 a03a 278d 313d
000000a0: 57ac 883c 909e d53b e233 25bb c8c9 0c3d
000000b0: ef6c 0a3d 5fe4 7c3c e93b 153d 521d 3c3d
000000c0: bcee afbc 9fca 9fbc afe6 2bbd 0f4f a0bc
000000d0: daed c63c edbe d3bc 052c 723b d0a4 b5bc
000000e0: b71e a2bb 02a9 01bc 561a 07bd f50b 053d
000000f0: c38e 403d 499b 453d 7fd0 eebc 5834 2c3d
00000100: 2475 3b3c 2f66 02bd 855b 36bc d503 7c3c
00000110: fc7c b3bc dc7e 08bd d384 473c 015a 0e3d
00000120: 0c61 64bd 39ec d33b 0516 e33c d57b 0cbc
00000130: 7ded 4fbd 5093 7fbc cc4e 813c 96aa bbbb
00000140: cb22 13bb c365 e23c 7501 cf3c a6f8 023d
00000150: bf18 a93c 81f5 d03c 8ddf 79bc be5d 5abd
00000160: 3bb5 44bd f993 6fbb 53c3 a1ba f71a fd3c
00000170: 64a6 053d bcec 7ebb 8b98 48bc a870 95bc
00000180: 3546 18bc 5675 47bd 1903 4dbd d5d0 063d
00000190: c1f9 37bd 68df b63c abce f03c 66bb 53bd
000001a0: 399c c23c 3cdc f03c a50c b1bc 413c 173d
000001b0: 137f 9d3b fb67 59bc bf23 0d3c b008 23bb
000001c0: 0319 1fbd fbfe eabc c9cc 37bd 74f7 843c
000001d0: 555e 3e3d 8e81 dd3b 9a7f ac3c 0f59 24bd
000001e0: cbe6 da3c 2d67 e13c c957 843b fea2 f1bc
000001f0: f5af 83bb c70d 2ebd 0c5d fc3b 1ee8 06bb
00000200: b28a 94bc f712 91bc 5b00 2ebd dead 9bbb
00000210: d38a 2e3d 2903 12bd de6d 81bc a730 17bd
00000220: bf6c dfbb bf14 1ebb e974 febc 8309 e13c
00000230: 9338 1c3d 7621 97ba 3698 e23c 39e1 b3bc
00000240: e667 81bb a3a6 823c 4826 353b 77a5 11bd
00000250: 976e 503d 2feb 96bc 1ad2 d63c ed6d 693c
00000260: 0581 473d 0aae 32bd 4199 debb 0773 9abc
00000270: 77f3 42bc d39a 19bd d69f 73bb 3690 f6bb
00000280: 9c88 873b 0c48 1bbd 006f 18bd fa99 34bd
00000290: e7cc a5bb f13e e53c c9f4 443c 6af3 0a3d
000002a0: b4df 38bc 1a91 25bc 15e7 b83c 14be fbbc
000002b0: 1380 32bd 285d 1ebc 369b 2abd 6c1f fc3c
000002c0: fbe8 403d 698f 513d eccf f33c c8cc 493c
000002d0: 2637 ccbb a943 403c 52f6 21bd 952b bfbb
000002e0: 1975 60bc ca73 7e3c daef 583d 62f3 f4bc
000002f0: 3131 8cbc f058 eebc 7f16 7e3c e460 603d
00000300: f248 5dbc f874 bbbc 4d40 e7bc 34f4 593d
00000310: b903 743c 83b6 cc3c 4440 473d 36b1 2e3d
00000320: 4a8b 87bc 1123 283d fba0 2a3c d337 25bd
00000330: 40dd 7bbc 69d0 15bd 61f7 aabc 652f 323d
00000340: 341f c83c 4736 9dbc 535d 82bc 55c6 4b3c
00000350: 29f3 d63c 61a4 943b 37c3 6dbc 20ac 503d
00000360: c5fc ebbb 7f98 bc3b f00f 0ebd 026f d7bc
00000370: f664 db3c d9b1 5dbc 2c35 dbba a91c 16bd
00000380: 5c02 7c3b 8d0b 44bb 7894 26bd 579a e2bc
00000390: 6df8 cdbc 8196 13bd d09b 0d3d 48cf 533d
000003a0: 9caa 8b3a c9c6 583d 6b4f 17bd 9628 0ebc
000003b0: ed8e 5a3c 8db3 4bbc 8785 ad3c eeb9 30bd
000003c0: b173 7f3c 4979 083d 78a7 70bc fe9b 38bc
000003d0: 9899 303d 97ed 313d 0738 0d3d 09ae 25bd
000003e0: 8d76 f43b 05cc c2bb 4b03 18bd d8b9 babc
000003f0: 8667 3c3d e58e ae3c 9d69 1abb a78b fbbb
-0.011557038 -0.03428276 -0.022520408 0.031321943 -0.014329395 0.040674843 -0.06890973 0.014712106
-0.05434199 0.007290637 -0.0334713 -0.050873782 -0.079456896 -0.027926983 -0.05705093 -0.067125835
-0.03977252 0.024357285 0.0050565857 0.07112112 0.09765307 0.08628745 0.0042748735 0.010118585
0.026023714 0.00938948 -0.037386145 -0.023376603 0.045641776 -0.020456715 -0.03214698 0.048256915
0.012831794 0.017823914 0.043060582 0.036977712 0.024089502 -0.037143987 0.0012238577 0.043347504
0.01668374 0.0065191463 -0.0025207927 0.03437212 0.033795293 0.015435307 0.036434088 0.0459264
-0.021476142 -0.019505797 -0.041968044 -0.019568948 0.024283338 -0.025847876 0.0036952507 -0.022173315
-0.004947509 -0.00791383 -0.0329841 0.032482106 0.04701115 0.048243795 -0.029152153 0.042042106
0.011441503 -0.03183573 -0.011130218 0.015381773 -0.021910183 -0.033324108 0.012177664 0.034753803
-0.055756614 0.006467369 0.02772046 -0.008574446 -0.050763596 -0.015599087 0.015784644 -0.0057271225
-0.0022451158 0.027636414 0.02526925 0.03197541 0.020641683 0.02550769 -0.015251053 -0.053312056
-0.048024397 -0.0036556704 -0.0012341536 0.030896647 0.032629386 -0.003889843 -0.0122434 -0.018242195
-0.009294082 -0.048695885 -0.050051782 0.032914 -0.04491592 0.022323325 0.029395422 -0.05169239
0.023756133 0.029401891 -0.021612475 0.036922697 0.004806408 -0.01326942 0.00861448 -0.0024877004
-0.038842212 -0.028686037 -0.044873033 0.016231276 0.04647668 0.006759829 0.021056939 -0.040123995
0.026721379 0.027515018 0.004038785 -0.029496666 -0.0040187784 -0.042493608 0.0077015217 -0.002058513
-0.018132541 -0.017709238 -0.042480808 -0.004750951 0.04261286 -0.035647545 -0.01579946 -0.036911633
-0.0068183835 -0.0024121252 -0.031061606 0.027470356 0.03813989 -0.0011530358 0.02766047 -0.02195798
-0.0039491532 0.0159486 0.0027641226 -0.03555819 0.050886717 -0.018422691 0.026223231 0.0142474
0.048707027 -0.043623008 -0.0067931716 -0.018853677 -0.011898867 -0.037501168 -0.0037174127 -0.0075245155
0.004136158 -0.037910506 -0.037215233 -0.044092156 -0.0050598267 0.027984114 0.012021252 0.033923544
-0.011283804 -0.010105396 0.022571126 -0.030730285 -0.043579172 -0.009665765 -0.041651927 0.030776702
0.047097187 0.051162157 0.02976223 0.01231689 -0.00623216 0.011734881 -0.03954155 -0.005834053
-0.013699793 0.015530536 0.052963115 -0.02990121 -0.0171133 -0.029095143 0.015508293 0.054779902
-0.013506161 -0.022882923 -0.028228903 0.053211406 0.014893466 0.024989372 0.048645273 0.04264947
-0.01654591 0.041049067 0.010414357 -0.04033644 -0.015372574 -0.03657571 -0.020869913 0.04350223
0.024428941 -0.01919092 -0.015913641 0.012437423 0.026238995 0.004536197 -0.014511875 0.0509454
-0.0072017633 0.0057554836 -0.034683168 -0.02629805 0.02678154 -0.013531172 -0.001672422 -0.036648426
0.0038453555 -0.0029914111 -0.040668935 -0.027661486 -0.025142873 -0.036032204 0.034572423 0.05171135
0.0010655704 0.05292395 -0.036940973 -0.008676669 0.01333974 -0.012432945 0.021181835 -0.043146066
0.015591548 0.03331879 -0.014688365 -0.01126766 0.04311523 0.043439474 0.03447726 -0.040449176
0.0074604214 -0.005944731 -0.037112515 -0.022793695 0.045997165 0.021308372 -0.0023561486 -0.00767656

fc1.bias f4 [128]
00000000: 9efe 83bd 40a6 e5bd 3fd5 dbbd 14cf 94bd
00000010: 7882 acbb 0389 e7bd 11a2 dfbc db84 e7bd
00000020: 41bd 99bd 6aab 89bd b803 84bd b663 85bc
00000030: ab3d 8bbd 844f 64bc b1b8 a4bd 8857 a6bc
00000040: 8a97 8bbd f147 7cbc 6f6a bdbd 0a86 ffbd
00000050: 95a8 d0bd f65f e8bd 99c3 95ba e7a8 ddbc
00000060: 72e1 00bd 661e 1abd 4d02 a2bd 3c63 a1bd
00000070: 4e15 6fbc 28c3 3fbd 58fd 01bd 5e4e 4bbd
00000080: 5cd3 9cbd 12e2 e5bd 51d1 a4bd 1406 40bd
00000090: fca2 06be 35fc 8bbd 6952 53bd 8f8f adbd
000000a0: 357a 06bd 2c58 b5bc 2d17 b8bd 6696 d9bd
000000b0: 1036 95bd 6613 97bd cccf a3bd 9bc1 a6bd
000000c0: 8003 9b3b 2463 8cbd 8830 d6bd c34f 00bd
000000d0: 7d9e fbbc 85eb bbbc 30ea 52bd 376b 53bd
000000e0: 30d1 97bd c5ff 15bd 81e4 eb3b 0c0e aabd
000000f0: 3ee1 52bd f6d0 b4bd b72d debd 6df9 efbc
00000100: e02c dbbc 0cfc d4bd 4376 d73c f1db 6ebd
00000110: 08cb 43bd cdc4 69bd d320 7dbd 3c56 a6bd
00000120: 4b96 9ebd 3ed0 86bd 097c 96bc 6ae8 a6bd
00000130: 95b2 a6bc 0125 aebd b5e9 d8bc 8cca 8bbd
00000140: ebf5 1cbd 2573 51bd 4b55 a1bd b79e e7bd
00000150: 3d77 32bd 8c2b e3bd edfe 98bd 9984 04be
00000160: 440e 92bd b3d0 aebd 18b2 cebd 1a8e 16bd
00000170: a952 b0bd 3397 d1bd 6eed eabd 7431 c4bd
00000180: 4448 1ebd 1148 6fbd e252 ddbd 1d83 cf3b
00000190: b81a a6bd 32ae 3ebc afa1 7dbd 2207 c1bd
000001a0: 6060 d2bc 8f0a b8bd d418 fdbc 0ec8 bfbd
000001b0: 89aa bdbd ee8f 29bd bbf4 81bd 2e35 61bd
000001c0: e4f4 91bd bda5 4bbd 5f84 e4bd 4194 cebd
000001d0: 82f5 b6bd f4e3 b6bd d7a8 d3ba b926 84bd
000001e0: 0783 02bd 8605 aabd c582 48bd 3ed5 99bd
000001f0: 52b7 87bd bc36 02be f9a9 acbd a951 19bd
-0.06445049 -0.1121335 -0.10734033 -0.072660595 -0.0052645765 -0.1130543 -0.027298959 -0.11304637
-0.075068004 -0.06722148 -0.06446022 -0.016282897 -0.067988716 -0.013934974 -0.080430396 -0.02030541
-0.06816013 -0.015398012 -0.09248816 -0.12476738 -0.101884045 -0.11346428 -0.001142609 -0.027058078
-0.031465 -0.037626646 -0.07910595 -0.078802556 -0.014592482 -0.046816975 -0.031735748 -0.049635284
-0.07657501 -0.1122476 -0.080477364 -0.046880797 -0.13148111 -0.06835214 -0.051592264 -0.08474647
-0.03283139 -0.02213677 -0.089887954 -0.10624389 -0.07285702 -0.07376747 -0.079986185 -0.08142396
0.004730642 -0.06854847 -0.10458475 -0.031326067 -0.030715222 -0.022939453 -0.05149287 -0.05161592
-0.07412946 -0.036620874 0.0071988706 -0.083034605 -0.05148434 -0.08828919 -0.10848563 -0.02929374
-0.026754797 -0.103996366 0.026301509 -0.05831522 -0.047801048 -0.05707245 -0.06179888 -0.08121917
-0.0774351 -0.06582688 -0.018369691 -0.08149798 -0.020348826 -0.08503152 -0.026478628 -0.06825742
-0.038320463 -0.0511352 -0.078775965 -0.11309569 -0.043570746 -0.1109229 -0.07470498 -0.12941207
-0.07131627 -0.085359 -0.100925624 -0.036756612 -0.08609516 -0.10233917 -0.11471067 -0.09579745
-0.038643137 -0.058418337 -0.10806824 0.0063327686 -0.08110565 -0.011638211 -0.06192177 -0.094251886
-0.02568072 -0.08986389 -0.030895628 -0.09364329 -0.092610426 -0.041397028 -0.06345507 -0.054982357
-0.07126787 -0.049718607 -0.1115806 -0.10086871 -0.08933546 -0.08930197 -0.0016148341 -0.06452698
-0.03186324 -0.08301835 -0.048952837 -0.07511376 -0.066267624 -0.12716192 -0.08430857 -0.037431393

fc2.weight f4 [64, 128]
00000000: ea07 273c 5e6a d83c b37b 4b3d d302 f03c
00000010: 32ac 71bd dd5a e0bc ba58 2f3c 410d 86bc
00000020: 3e08 aa3d f582 fe3b 388a b3bd d892 95bd
00000030: 54ab 44bd d3fc 933b d471 c23c b112 c2bc
00000040: 9061 923c e67c d63c aa81 a53c 35f4 64bd
00000050: 14df 71bc f0d4 97bd a347 b53c 88c2 35bd
00000060: e87d ddbd 70d6 053a 6271 2fbd 5107 cbbb
00000070: d21f 3a3c 26d8 7fbd 10ac 40bd 856d afbc
00000080: 7af3 29bd 0f79 e53d c69c 1abd 71fe cbbc
00000090: d1fb c7bc 5c9d 74bc 5ef5 4dbd fc77 59bc
000000a0: 9a0e 87bd c2cf 69bc cc62 46bd 6d97 283d
000000b0: 7175 c7bb d9bb b7bd 1f49 92bd f1ff a53d
000000c0: d6da 07bd 7df2 4c3c 287d ce3a 098a 5fbd
000000d0: 6966 ca3d 50d6 f33c d049 2ebd f1e3 52bc
000000e0: fef7 ffbb c1b1 b93c 5108 6ebd 95c3 133d
000000f0: 9e00 e93b ecb5 9dbd ff9b bbbc f9e7 2ebd
00000100: 44e0 a8bd aec0 30bd ee03 cf3c 97c3 403d
00000110: a14f 5bbb 832f c83b 73b6 483d 4151 ad3b
00000120: d022 adbd 4475 743d c59a c3bd 122c a6bd
00000130: 7240 75bd 623d 34ba 7aee 973d 0009 933d
00000140: a406 ac3b 2769 67bb 740b a0bd d20f a4ba
00000150: ae48 fc3c 5435 d9bb 16cf d93b c20b d43c
00000160: e39e c1bd 8f7b a3bd d59e 773d aae1 ff3c
00000170: 6a16 a93d a20d d5bb c65d 053c b9b5 a0bd
00000180: a46b bc3b bbb8 d0bd 8d70 ba3c 9aba bcbd
00000190: 3feb 93bd 8223 b2bd 5b4e 0a3d db4f 9bbc
000001a0: fcda 163d 6ce7 90bb 1a87 0abd fe02 fd3b
000001b0: 0884 673c 899a 923d c930 72bd a768 b4bc
000001c0: ffe7 24bd 17de 30bd ad56 e23d 0114 70bb
000001d0: c14d 103d 113b 71bb b870 2cbc 5d64 493d
000001e0: 318c 9e3d ec79 c0bc 6097 b5bc 667f 8cbb
000001f0: db25 253d 3fb7 603d 1a56 90bd eb62 d1bb
00000200: 90a0 c23c 92b7 6bbd a07c 79bd 08a4 a2bd
00000210: e873 113d 750c b2bd 765d 1d3d 2074 b1bd
00000220: 4071 d63d 81ce 743d a648 60bb c1de abbd
00000230: 102e 7d3b c18e 50bd b28c 02bb 3782 83bd
00000240: 3e92 3bbd 6b8a c4bc 8cf8 973c e064 82bd
00000250: 9c61 5e3d 5751 2cbd 8ad0 b6bd 108f 84bc
00000260: 3658 d13c df42 a8bd f3c5 21bd 8379 87bd
00000270: 7202 adbc 0653 aa3c 9533 81bd cd39 853d
00000280: fdbf 7a3d 559d 563c 2ffc 723d 1596 d13c
00000290: 0d89 fb3b 507a 243d 70ca 7cbc a241 c53c
000002a0: 43e1 c33c c37a 26bd 8349 aabc 1046 11bd
000002b0: ffb0 fabc 42e2 6fbd efe8 383c b9ba bebd
000002c0: d980 f83b a6d3 3abd f42b 523c 3b99 da3b
000002d0: 3dd8 8a3d 77f4 a73b 5a01 803d 6543 563c
000002e0: 37ba 4a3d 95c1 0f3d 17ff b2bd 3ef6 423d
000002f0: 016e 6c3c 1e84 063d 6abb dcbc d033 46bc
00000300: ee59 c7bd b714 74bd 3828 2dbd 59cb 333c
00000310: ce6e cbbd 66a7 8ebd 3829 423d c938 d1bc
00000320: ab42 8ebd 71ec b4bd 7b58 a5bd 4c6f b23c
00000330: c813 12bd 0f00 843d 263c 34bd 62f9 16bd
00000340: d9a1 563d fe5d 37bd ddc7 ed3c c195 27bd
00000350: 12c6 a23c 61e8 cdbd 4a9c 89bb f2b8 3c3d
00000360: 67b2 243c 2503 90bd 4908 b1bc abb2 c0bd
00000370: cf6d 5bbd 8543 aebd 7276 b03b e809 c43c
00000380: 4e08 603d 1407 763d 48d5 223d 6f4d 00bc
00000390: be0d 65bd 85c6 963c 82c3 04bd cf9b 333d
000003a0: 2e05 473d c350 4c3d 83ca a13c 26d7 82bc
000003b0: 6b5e 953c 479f 85bc 0ad1 98bd 35a4 6abd
000003c0: 7263 ce3d 1b24 0b3d e436 9e3d f678 79bd
000003d0: 70f1 8ebd 2d42 823b ab99 323d f756 e0bc
000003e0: a607 f0bd 4966 94bd 4ec8 843d 264b 3b3c
000003f0: b274 15bd b23e 8d3d 2692 b1bd 9ce5 cbbd
0.010194758 0.026417907 0.049678516 0.029298222 -0.05900211 -0.027387077 0.010702306 -0.016363742
0.08302353 0.007767076 -0.087665975 -0.07303399 -0.048014954 0.004516223 0.023735918 -0.023690553
0.017868787 0.026182603 0.02020343 -0.055896956 -0.014762659 -0.074136615 0.022128886 -0.044374973
-0.1081503 0.0005105501 -0.04283274 -0.0061959405 0.011360126 -0.062461995 -0.04703909 -0.021414528
-0.041491963 0.11204731 -0.037747167 -0.0249016 -0.024412068 -0.0149300955 -0.05028283 -0.013273235
-0.06594582 -0.014270725 -0.048434064 0.041160036 -0.006086998 -0.08971376 -0.07142853 0.081054576
-0.033167683 0.012508986 0.0015753852 -0.054575 0.098828144 0.029765278 -0.04255086 -0.012871728
-0.0078115454 0.022667767 -0.0581134 0.036075193 0.0071106693 -0.077007145 -0.022901533 -0.042701695
-0.082459 -0.043152504 0.025270429 0.04706153 -0.003346421 0.0061091795 0.049002122 0.0052892272
-0.084539056 0.059682146 -0.09551004 -0.081138745 -0.059875913 -0.0006875602 0.07418533 0.07179451
0.005249815 -0.0035310478 -0.078146845 -0.0012516922 0.030796375 -0.0066286717 0.006647001 0.025884513
-0.09454133 -0.07982551 0.06045421 0.031235535 0.08256228 -0.0065018693 0.008140033 -0.07847161
0.0057501364 -0.101914845 0.022758747 -0.09215279 -0.07222604 -0.08698179 0.03376613 -0.018958976
0.036829934 -0.004422119 -0.03382025 0.007721304 0.0141306 0.071583815 -0.059128556 -0.022022558
-0.04026031 -0.04318055 0.11051688 -0.0036633017 0.035230402 -0.0036808888 -0.010524921 0.04916798
0.07741583 -0.023495637 -0.022166908 -0.004287648 0.040319305 0.054862257 -0.070476726 -0.006389966
0.023758203 -0.057548113 -0.060909867 -0.07941443 0.035510927 -0.08693782 0.03841921 -0.08664727
0.104708195 0.05976725 -0.003422299 -0.08392096 0.0038632192 -0.05091739 -0.0019920287 -0.06421321
-0.045793764 -0.023991784 0.018551134 -0.06366897 0.054292306 -0.04206976 -0.089264944 -0.016181499
0.025554758 -0.0821588 -0.03949542 -0.066149734 -0.02111933 0.020791542 -0.063086666 0.06505165
0.06121825 0.013099034 0.059322532 0.02558426 0.00767625 0.04015571 -0.015429124 0.024079148
0.023911124 -0.04064442 -0.020787006 -0.035467207 -0.030601976 -0.058565386 0.011286004 -0.09312958
0.007583719 -0.045612 0.012827862 0.0066710985 0.067795254 0.005125578 0.06250258 0.013077592
0.049493995 0.035096724 -0.08740061 0.047598116 0.014430524 0.03284084 -0.026944835 -0.012097314
-0.097339496 -0.059590068 -0.042274684 0.010973775 -0.09933244 -0.069655225 0.04740259 -0.025539773
-0.0694631 -0.0883416 -0.08073517 0.021781586 -0.035663396 0.06445324 -0.044002675 -0.036858924
0.052400444 -0.044767372 0.029025966 -0.0409143 0.019869838 -0.100540884 -0.0041995393 0.046074815
0.0100523 -0.0703185 -0.021610396 -0.09409078 -0.05357152 -0.08508972 0.0053852135 0.023930505
0.05469542 0.060065344 0.039754182 -0.007830962 -0.05592131 0.018405208 -0.032413013 0.043849763
0.048588924 0.049881708 0.019749885 -0.015971731 0.018233499 -0.0163113 -0.07461746 -0.057285506
0.100775614 0.03396998 0.07725313 -0.060906373 -0.06979644 0.003975174 0.04360358 -0.027385218
-0.11720209 -0.07246072 0.064835176 0.011431491 -0.036488242 0.06896724 -0.08670454 -0.09955904

fc2.bias f4 [64]
00000000: 7164 9a3d fa86 a2bd bb37 193d ef71 323d
00000010: e212 b63d d5c5 c83d 26b4 143c 387d bd3d
00000020: 3479 86bb b9b2 983d b338 cf3b f66b d23d
00000030: 7f71 eb3d cc00 af3c bb39 9f3c 22de 1d3d
00000040: 05fb 0b3c 5f86 183d 3667 b13c 86a2 d8bc
00000050: 01f8 763d f2cc 973d ed8c 7a3d 91cb 893d
00000060: 3827 133d faf9 e53d f234 e83d b1b3 d23d
00000070: 2b90 023c 446d 173d f0ce 0dbd b90e 33bc
00000080: 447c b63c dc3a 80bb 26c5 6c3d 9828 ac3d
00000090: b23d ae3d 4e0d c0bd 13fa a93c c831 313c
000000a0: 6fc1 bcbc f60c 743d 09b1 f23c e166 b6bc
000000b0: 6b11 db3c d777 6a3c f919 d83d 66fe 903d
000000c0: 36dd e83d f9df e8bc efed a03d ec79 ab3d
000000d0: df9c a53c 0e2c 8c3d c1cd 07be 997d 24bc
000000e0: c58e b93d d370 343c 8e84 003e df76 c23b
000000f0: 8d24 7fbd 6bba 85bd 58a9 703c 0ffe c8bd
0.07538689 -0.07935901 0.037406664 0.043565687 0.0889032 0.098033585 0.009076154 0.09252399
-0.004103804 0.07455964 0.0063238977 0.10274498 0.11496257 0.021362685 0.019436708 0.03854192
0.008543734 0.03723752 0.02165566 -0.026444685 0.06029511 0.07412137 0.061169554 0.0672828
0.035926074 0.1122932 0.113382235 0.1028818 0.007968943 0.03696944 -0.03462118 -0.010928803
0.022276051 -0.0039132666 0.057805203 0.0840618 0.08507861 -0.09377538 0.020749127 0.010815091
-0.023041455 0.059582673 0.029625433 -0.022265853 0.026741704 0.014310799 0.10551829 0.07079773
0.11370318 -0.028427111 0.07857882 0.08372864 0.020216404 0.0684434 -0.13262083 -0.01003971
0.09060434 0.0110132275 0.12550566 0.0059345807 -0.062290717 -0.06529697 0.014688812 -0.09814083

fc3.weight f4 [1, 64]
00000000: 268e 223d d607 8e3c 1228 ec3d b843 ca3d
00000010: f33b bc3d 2cac 8ebd a5f5 b23d 7990 18bd
00000020: c068 65bd d47e 27bd 8e68 df3d 9e5a 55bd
00000030: 8bde 873d 48cc 223d 56be 6bbd f3fb 2dbd
00000040: 6a15 66bd 7288 90bd 25f2 9cbd 73bd f13d
00000050: ece9 173e 1b18 1ebd 4d8d f5bc f139 063e
00000060: 4936 8abd 50cd a6bd bc27 8dbd c6f1 39bd
00000070: 79c3 a03d aa48 e13d ae09 653d 0e83 66bd
00000080: 2b60 36bd eebc 35bd d00c 0d3e 3bea 1abd
00000090: 5555 d33d 3ce2 baba 2b78 97bd 8a08 00bd
000000a0: 1c83 dabc a844 fbbc bb35 73bd d05d 8f3d
000000b0: 1615 60bd 2297 4fbd 7178 09bd 5d9c 87bd
000000c0: 12e7 a3bd b3a8 a53d b8f2 af3d 095f e0bc
000000d0: 6ac5 66bd b796 68bd 3d2c c63c 50b0 f73d
000000e0: 4700 f5bc 0018 00bd fb76 1abd 58a7 28bd
000000f0: 031f 223d bf73 693d a581 8bbd 01c3 773d
0.039686345 0.01733772 0.1153108 0.098761976 0.09191122 -0.06966433 0.08738259 -0.037247155
-0.0560081 -0.040892437 0.10908614 -0.052088372 0.066342436 0.0397456 -0.057554565 -0.042476606
-0.056172766 -0.07057275 -0.07663373 0.11803713 0.14835328 -0.038597208 -0.029974604 0.1310804
-0.06748635 -0.08144629 -0.06892344 -0.04539659 0.078497835 0.11000188 0.055917434 -0.056277327
-0.044525307 -0.04436963 0.13774419 -0.037821036 0.1031901 -0.0014258097 -0.07395967 -0.031258143
-0.026673846 -0.030672386 -0.059377413 0.07000315 -0.05470761 -0.05068124 -0.033562128 -0.06621621
-0.080030575 0.080888174 0.08591217 -0.027389066 -0.056340612 -0.056784358 0.024191016 0.12094176
-0.029907359 -0.03127289 -0.037711125 -0.041175216 0.039580356 0.05699515 -0.06811837 0.060488705
