Rudi/checkpoints_04/best_tempo_model_06_speed.tflite (tflite, 248840 bytes, 5 tensors)

sequential/dense_1/BiasAdd/ReadVariableOp f4 [64]
0.051862195 0.061689757 0.0193317 -0.010136937 0.03943293 0.03890509 0.02821302 0.0473422
0.013571929 0.022188766 0.077582225 0.027488878 -0.062086906 0.0049954685 0.08086075 -0.07350754
0.0013269405 0.012773767 0.01870271 -0.017475484 0.017604213 0.039778598 -0.025357101 0.054874893
0.04077775 0.03775728 0.06282856 -0.061662726 -0.06490666 0.07334641 0.029533504 0.04159172
0.0020457197 0.025818933 -0.03148981 -0.070287645 0.004997284 0.06562243 0.042238746 -0.016544227
0.016181305 0.047265846 -0.019288281 0.09538505 -0.10192833 -0.015820825 0.027219761 0.049562927
0.08856339 0.049699284 0.041348916 0.076562814 0.0888947 -0.010844008 -0.044903886 0.022926524
0.02215804 0.022371784 0.0142330155 0.10293263 0.01680621 0.03782212 0.045170497 -0.053657804
00000000: 746d 543d 66ae 7c3d 835d 9e3c 6515 26bc
00000010: 6d84 213d f25a 1f3d fe1e e73c e5e9 413d
00000020: cc5c 5e3c 37c5 b53c 6ee3 9e3d 5b30 e13c
00000030: d74e 7ebd 07b1 a33b 529a a53d 1f8b 96bd
00000040: bcec ad3a 1049 513c 6d36 993c bf28 8fbc
00000050: b636 903c e2ee 223d b2b9 cfbc 7fc4 603d
00000060: 9206 273d 61a7 1a3d 43ac 803d 0e92 7cbd
00000070: c8ed 84bd a536 963d 3ff0 f13c 145c 2a3d
00000080: 7b11 063b 3a82 d33c 76fb 00bd f8f2 8fbd
00000090: 42c0 a33b 0d65 863d 8902 2d3d c287 87bc
000000a0: a88e 843c d599 413d 7502 9ebc 3d59 c33d
000000b0: cdbf d0bd ad9a 81bc fafb de3c 7f02 4b3d
000000c0: b960 b53d 7a91 4b3d 7b5d 293d f7cc 9c3d
000000d0: 6d0e b63d 11ab 31bc 23ed 37bd 68d0 bb3c
000000e0: c784 b53c 0845 b73c 9831 693c 58ce d23d
000000f0: 2dad 893c 5eeb 1a3d b304 393d 49c8 5bbd

sequential/dense/BiasAdd/ReadVariableOp f4 [128]
-0.15024757 -0.1019534 -0.08558946 -0.10956026 -0.13101257 -0.12055835 -0.16715126 -0.08396192
-0.10245738 -0.08155538 -0.12164106 -0.10492111 -0.0938404 -0.06723062 -0.041621007 -0.106468596
-0.09972685 -0.15351267 -0.14084008 -0.11366333 -0.112898156 -0.08731332 -0.13111198 -0.0994673
-0.072942 -0.1597844 -0.07961919 -0.090382196 -0.09788912 -0.10798366 -0.108958215 -0.0755682
-0.119322225 -0.122475125 -0.088151716 -0.14046147 -0.050954428 -0.16209722 -0.085542314 -0.09392418
-0.14907427 -0.12841919 -0.086525895 -0.121033974 -0.12114639 -0.09246086 -0.052425683 -0.09540826
-0.12356261 -0.19173038 -0.09241978 -0.15119216 -0.09755605 -0.14454831 -0.1447742 -0.10836732
-0.10038068 -0.10790847 -0.13897406 -0.0771328 -0.13006349 -0.07361473 -0.121486746 -0.1107337
-0.13996793 -0.09132517 -0.08721501 -0.12950751 -0.17749283 -0.14365865 -0.11187791 -0.08043494
-0.095936835 -0.13904844 -0.14538404 -0.074245214 -0.08793932 -0.106570646 -0.15733808 -0.082327634
-0.11553219 -0.10604774 -0.1129249 -0.10716763 -0.16064686 -0.07567677 -0.10675218 -0.08503823
-0.07893169 -0.15973483 -0.16770935 -0.10582938 -0.09681957 -0.124094084 -0.13295072 -0.097884625
-0.1459374 -0.13536996 -0.11236387 -0.12273396 -0.040958777 -0.12411437 -0.08803475 -0.026924165
-0.09603186 -0.124350324 -0.07606625 -0.12665123 -0.061639532 -0.12954213 -0.10064986 -0.12546203
-0.09259627 -0.10203106 -0.091224566 -0.023138657 -0.087355554 -0.06681616 -0.08273365 -0.07113733
-0.14832473 -0.14340158 -0.14843209 -0.10482152 -0.1359726 -0.10193295 -0.100614764 -0.14005025
00000000: 80da 19be f2cc d0bd 8749 afbd 2161 e0bd
00000010: 2928 06be 4ce7 f6bd b329 2bbe 3af4 abbd
00000020: 2dd5 d1bd 8206 a7bd f31e f9bd e1e0 d6bd
00000030: 652f c0bd 35b0 89bd ca7a 2abd 350c dabd
00000040: 973d ccbd 6d32 1dbe 6238 10be 52c8 e8bd
00000050: 2637 e7bd 53d1 b2bd 3842 06be 83b5 cbbd
00000060: 9e62 95bd 869e 23be 630f a3bd 4d1a b9bd
00000070: 177a c8bd 8a26 ddbd 7c25 dfbd 80c3 9abd
00000080: 365f f4bd 3dd4 fabd e388 b4bd 22d5 0fbe
00000090: 97b5 50bd d0fc 25be cf30 afbd 525b c0bd
000000a0: eda6 18be 5280 03be 7d34 b1bd a9e0 f7bd
000000b0: 991b f8bd 1f5c bdbd 50bc 56bd 6865 c3bd
000000c0: 650e fdbd f854 44be 9546 bdbd 1ed2 1abe
000000d0: 77cb c7bd 7904 14be b03f 14be afef ddbd
000000e0: 6394 cdbd 1eff dcbd 374f 0ebe cdf7 9dbd
000000f0: 5d2f 05be 52c3 96bd 0bce f8bd 5ac8 e2bd
00000100: c153 0fbe b108 bbbd c89d b2bd 9e9d 04be
00000110: aec0 35be 411b 13be 3f20 e5bd 13bb a4bd
00000120: 887a c4bd b762 0ebe 8edf 14be e00d 98bd
00000130: 8819 b4bd b641 dabd 3c1d 21be 649b a8bd
00000140: 249c ecbd 8f2f d9bd 2c45 e7bd b47a dbbd
00000150: 9c80 24be 6cfc 9abd e3a0 dabd 8628 aebd
00000160: f0a6 a1bd 8791 23be 00bc 2bbe 13bd d8bd
00000170: 5749 c6bd 0a25 febd 3c24 08be bc77 c8bd
00000180: 9d70 15be 6c9e 0abe 071f e6bd f15b fbbd
00000190: 64c4 27bd ad2f febd 904b b4bd 1190 dcbc
000001a0: 5aac c4bd 62ab febd 9fc8 9bbd dcb0 01be
000001b0: bc79 7cbd b1a6 04be 8421 cebd 1e79 00be
000001c0: 1da3 bdbd a9f5 d0bd f2d3 babd 488d bdbc
000001d0: 78e7 b2bd e9d6 88bd 4370 a9bd 73b0 91bd
000001e0: 70e2 17be ddd7 12be 95fe 17be aaac d6bd
000001f0: 673c 0bbe 39c2 d0bd 1d0f cebd 5569 0fbe

sequential/dense/MatMul f4 [128, 416]
-0.015145592 -0.025183327 0.08355782 -0.028169628 -0.007895052 -0.009614064 -0.041946206 0.114001274
0.08340717 0.057011366 -0.070277646 -0.117493376 0.04007708 -0.034833133 0.01707429 0.043581434
0.13929561 0.10225721 0.07479 0.016725365 0.03246717 -0.06998883 -0.028890958 0.03346127
-0.0079576485 0.07567401 0.027309308 -0.056552764 -0.042216886 -0.067288294 -0.016188508 -0.051163647
-0.0883611 -0.013689137 0.075468615 0.053577717 -0.018208565 0.03625346 -0.013333904 -0.06654875
0.108200364 -0.023217626 -0.072203875 -0.0689504 -0.06493241 -0.041528706 -0.07846342 -0.0599286
0.07068987 0.042709228 -0.06532353 -0.044680826 0.06390077 0.032022346 0.033631373 -0.012115601
-0.09286616 0.025503788 -0.067384474 0.069006145 0.12800986 -0.04120381 0.07768878 0.08554227
0.126761 0.041649617 -0.011776442 -0.081597015 -0.07314136 -0.024439644 -0.035290956 0.02711235
0.0588874 -0.048169516 0.030866047 0.047587182 0.10480269 -0.02265332 -0.07666694 0.094215915
0.026799835 0.074412555 -0.0035823516 0.07316394 0.052193094 0.035354104 -0.0038971992 -0.0063322005
0.09776402 -0.05973771 0.050009575 -0.080422886 -0.002366077 -0.076501004 -0.039908778 -0.026848262
-0.008079891 0.09157528 -0.097607955 -0.04148827 -0.0005673626 0.06794764 -0.034832798 -0.07998212
-0.07543184 0.015242724 -0.051326524 -0.10403371 -0.09647935 0.011197552 0.01681282 0.024846883
0.020387823 -0.06249979 -0.10850193 -0.067874916 0.066050336 0.053384487 -0.06701247 -0.07059647
0.09163563 -0.054439466 0.09142632 0.094496146 -0.039523873 0.017386153 0.066693835 0.029114697
-0.033921584 -0.06272864 -0.041694745 0.04727284 -0.060637224 -0.07479949 -0.008329492 0.056154322
0.061777845 -0.065597326 0.01908349 -0.07888911 0.04873067 -0.069849655 0.00012128642 -0.06062465
-0.00884413 -0.040938914 -0.0822773 0.031528063 -0.07121458 -0.103518926 -0.017306056 -0.043238625
0.038843825 0.08963522 0.065349445 0.014506365 0.037872586 -0.03238545 0.06286806 0.08931564
0.040065616 0.036651615 -0.021731175 -0.01302306 -0.09788728 -0.06158023 0.018678313 0.0051023397
0.052499067 0.08198042 0.03498306 -0.07727723 0.0922059 -0.0037518905 0.07944969 -0.040806916
0.073126644 0.00216705 -0.0032774461 0.07952058 -0.047163054 0.025660133 0.019908775 0.10119838
0.016865356 -0.034853186 -0.05081686 -0.023798909 0.0013452417 -0.094653554 -0.0063365325 0.061984055
-0.027340868 -0.04555577 -0.089592114 -0.07532767 -0.023838745 -0.017000401 0.083846346 -0.02130361
0.055898506 -0.013855818 0.0049630026 0.07161443 -0.01269232 0.03864088 0.0040557906 -0.105029166
0.0451641 -0.024109466 0.09979888 0.066409044 0.07832536 0.1001684 0.01001806 -0.0701905
-0.044430435 0.01323379 -0.056061506 -0.047423374 -0.02228784 -0.053006828 0.04881699 0.020754715
-0.050477676 -0.036254074 0.053107154 0.049665984 0.046566203 -0.041170076 0.08358093 -0.106024414
-0.054327857 0.08196132 0.07795789 -0.0075850342 -0.02060759 -0.07481238 0.020682348 0.09398696
0.08182023 -0.0039165313 -0.06409859 0.022640139 0.027279176 -0.04248503 -0.0153263 0.018935814
-0.016446492 -0.0031177064 -0.05841529 0.016420472 -0.07894182 -0.09260861 -0.01565663 0.07301906
00000000: 3825 78bc 444d cebc 5d20 ab3d fec3 e6bc
00000010: 405a 01bc 4f84 1dbc c9cf 2bbd 8079 e93d
00000020: 61d1 aa3d c084 693d baed 8fbd 5ea0 f0bd
00000030: dd27 243d 30ad 0ebd 62df 8b3c 7282 323d
00000040: 82a3 0e3e 3a6c d13d 802b 993d a203 893c
00000050: 4cfc 043d 4e56 8fbd bbac ecbc af0e 093d
00000060: cc60 02bc fafa 9a3d c5b7 df3c dfa3 67bd
00000070: 9deb 2cbd 72ce 89bd c39d 84bc f990 51bd
00000080: aaf6 b4bd 6748 60bc 4a8f 9a3d 4f74 5b3d
00000090: 212a 95bc 827e 143d 7276 5abc b64a 88bd
000000a0: 2798 dd3d e432 bebc a0df 93bd de35 8dbd
000000b0: 49fb 84bd 011a 2abd 6eb1 a0bd b177 75bd
000000c0: dac5 903d dfef 2e3d 58c8 85bd 3e03 37bd
000000d0: 68de 823d dd29 033d 0dc1 093d 8480 46bc
000000e0: 9d30 bebd 52ed d03c df00 8abd 1853 8d3d
000000f0: 0415 033e 54c5 28bd 4c1b 9f3d c930 af3d
00000100: a3cd 013e ca98 2a3d faf1 40bc 561c a7bd
00000110: 23cb 95bd a635 c8bc 408d 10bd b81a de3c
00000120: ea33 713d 664d 45bd cbda fc3c c7ea 423d
00000130: cba2 d63d 7593 b9bc 8e03 9dbd 46f4 c03d
00000140: 548b db3c 9c65 983d e3c5 6abb fad6 953d
00000150: 6dc8 553d 77cf 103d 2768 7fbb 597e cfbb
00000160: 8138 c83d 87af 74bd d7d6 4c3d c1b4 a4bd
00000170: 2f10 1bbb 8fac 9cbd 6377 23bd e3f0 dbbc
00000180: 8561 04bc d28b bb3d aee6 c7bd 9bef 29bd
00000190: 0fbb 14ba 2228 8b3d d6ac 0ebd aacd a3bd
000001a0: 027c 9abd 9ebc 793c c33b 52bd a00f d5bd
000001b0: f796 c5bd f075 373c 0abb 893c b18b cb3c
000001c0: 5d04 a73c c8ff 7fbd 4336 debd 0102 8bbd
000001d0: 6645 873d b1a9 5a3d d53d 89bd e294 90bd
000001e0: 76ab bb3d ebfb 5ebd b93d bb3d 3287 c13d
000001f0: c9e3 21bd 686d 8e3c c796 883d f281 ee3c
00000200: 5cf1 0abd e077 80bd 1cc8 2abd 2aa1 413d
00000210: bd5e 78bd 7a30 99bd 6c78 08bc 1302 663d
00000220: c40a 7d3d e457 86bd fb54 9c3c 9d90 a1bd
00000230: d099 473d 560d 8fbd 275b fe38 8e51 78bd
00000240: f8e6 10bc 90af 27bd 0081 a8bd 9223 013d
00000250: f3d8 91bd bb01 d4bd 6ec5 8dbc fc1a 31bd
00000260: b41a 1f3d ac92 b73d eed5 853d 1bac 6d3c
00000270: 4920 1b3d 9ba6 04bd f8c0 803d 1eeb b63d
00000280: d81b 243d 0120 163d 9405 b2bc ac5e 55bc
00000290: 2079 c8bd 8d3b 7cbd 4303 993c 8731 a73b
000002a0: 4309 573d 5ae5 a73d 664a 0f3d 8643 9ebd
000002b0: 72d6 bc3d 47e2 75bb 85b6 a23d 2725 27bd
000002c0: 6cc3 953d 1105 0e3b 6cca 56bb b0db a23d
000002d0: 0c2e 41bd 3335 d23c ba17 a33c 1941 cf3d
000002e0: 3729 8a3c 37c2 0ebd 5725 50bd eef5 c2bc
000002f0: d252 b03a b9d9 c1bd b0a2 cfbb fee2 7d3d
00000300: f5f9 dfbc b098 3abd 127c b7bd 6545 9abd
00000310: 7949 c3bc 6d44 8bbc a2b7 ab3d e984 aebc
00000320: d5f5 643d 8303 63bc afa0 a23b 96aa 923d
00000330: 73f3 4fbc e645 1e3d 70e6 843b 8819 d7bd
00000340: fefd 383d 3781 c5bc 5b63 cc3d 7701 883d
00000350: 0c69 a03d 1725 cd3d ca22 243c 09c0 8fbd
00000360: b0fc 35bd 8ad2 583c c0a0 65bd 033f 42bd
00000370: fd94 b6bc b01d 59bd 53f4 473d cb05 aa3c
00000380: aec1 4ebd 277f 14bd e386 593d 8f6e 4b3d
00000390: 34bc 3e3d f4a1 28bd 7b2c ab3d 5423 d9bd
000003a0: e386 5ebd 56db a73d 63a8 9f3d e18b f8bb
000003b0: 40d1 a8bc 3c37 99bd 076e a93c 3c7c c03d
000003c0: 5d91 a73d 3f56 80bb 1f46 83bd d077 b93c
000003d0: 9478 df3c c804 2ebd 291b 7bbc 481f 9b3c
000003e0: cbba 86bc 6f52 4cbb df44 6fbd 3a84 863c
000003f0: 40ac a1bd 95a9 bdbd 5542 80bc 048b 953d

sequential/dense_1/MatMul f4 [64, 128]
0.0771151 -0.116308816 0.01428438 0.1215609 0.17828083 -0.2165148 -0.026645163 0.031355593
-0.08463239 -0.030352332 -0.051424686 -0.11701307 -0.056644477 0.011866152 0.07397275 -0.042184893
-0.014972878 0.15733807 0.13330972 0.1388385 0.08284396 -0.049132247 -0.08435407 -0.12606752
0.08868955 0.07403011 0.016608294 0.22064911 -0.21878462 -0.06148066 -0.064515606 -0.14874303
0.019745683 0.0034424146 -0.04946365 0.06121337 -0.069290124 -0.041091315 0.015960194 0.053609107
0.120151885 -0.014403471 0.15926152 0.015353085 -0.02559706 -0.075701825 0.09032181 0.13707739
0.1712111 -0.16616146 0.029025229 0.056734048 -0.13309109 0.13712159 0.075422764 0.024136541
0.028429177 0.088259436 0.14563315 0.21053344 0.09682138 -0.01976779 0.12971628 0.12580767
-0.12770718 0.020571329 0.053130765 0.16654152 -0.0010813603 -0.1157825 0.064275414 0.060382742
-0.022816557 -0.093642764 0.1771409 0.2162506 0.09692989 0.024384277 -0.08827449 0.12066383
-0.085435115 0.088124864 -0.065138675 0.049627405 0.21968368 -0.06127086 0.09126135 -0.14167507
0.015099009 0.17545979 0.15171328 -0.07672487 0.00076817005 -0.1555464 0.036974296 0.090190716
0.03313491 -0.20834436 -0.100914136 -0.020719584 -0.0580838 0.07304142 -0.056967095 -0.0075441096
-0.056677144 0.01348077 -0.09523686 0.02999212 -0.0762674 -0.104911685 -0.11655191 -0.038553063
0.09509366 -0.031039221 -0.15665406 -0.07326413 0.106236495 -0.0013154625 -0.10866221 0.102855615
-0.09371078 -0.026431719 0.19604479 0.09986121 0.15011308 -0.014129706 -0.0923482 0.060023226
-0.01569869 0.030741783 0.06277518 0.026192833 0.04729429 0.099785835 -0.047511183 0.018498285
-0.0016143721 -0.11850113 -0.06043297 -0.13667694 0.037498318 -0.025137424 -0.12480877 0.21243666
0.15639126 -0.055367123 0.0890896 -0.036512285 -0.14302711 -0.1858833 0.17908958 0.018641494
-0.18005551 0.10656634 -0.1809582 -0.16085956 0.091710426 -0.20188099 0.018798755 0.018086774
-0.0014183976 -0.13916712 0.19097984 -0.11558457 -0.03414086 0.043516994 0.06650907 -0.13345043
-0.053787574 -0.14911583 0.037434064 0.20252645 -0.015323154 -0.03075884 0.017417902 -0.045697544
-0.17367202 0.045778006 0.033102456 0.027066775 0.1332863 -0.1897124 -0.05629427 -0.14955577
0.13060966 -0.21142244 -0.113904335 -0.033467155 -0.054814685 0.017964993 -0.10012918 -0.094140485
-0.0024910932 0.20528293 -0.16444157 -0.12201284 0.060227517 0.035283707 0.1042494 0.122578
0.05409691 0.19937415 0.1108506 -0.041954078 -0.061675254 0.07539108 -0.064005606 -0.07085517
0.07193971 -0.040436212 -0.17299838 -0.008322391 -0.1149996 0.032807037 0.009233044 0.095901914
0.091355704 -0.07982165 -0.023319427 0.117610574 0.11675011 0.18316434 -0.13657239 -0.1242012
0.10740575 -0.110519275 -0.121374756 0.22756422 -0.026378702 -0.16163845 -0.10172757 -0.22940394
0.056641627 0.08988014 0.075999096 -0.08857095 -0.16130772 0.089551 -0.0071414947 -0.033388574
-0.12919055 -0.02874005 -0.13996285 0.062011488 -0.050026283 0.03641489 -0.059428953 -0.05755448
-0.105957836 -0.20254408 0.017954683 -0.08162065 -0.0019648843 0.10675805 -0.123232715 0.18940748
00000000: 86ee 9d3d 5133 eebd 0809 6a3c ecf4 f83d
00000010: 408f 363e 0eb6 5dbe f546 dabc b96e 003d
00000020: bf53 adbd 74a5 f8bc b1a2 52bd 8ca4 efbd
00000030: 0a04 68bd 406a 423c 067f 973d 11ca 2cbd
00000040: cd50 75bc 3b1d 213e 5882 083e ae2b 0e3e
00000050: 18aa a93d e53e 49bd d4c1 acbd d817 01be
00000060: dea2 b53d 199d 973d 1e0e 883c d7f1 613e
00000070: 1309 60be 25d3 7bbd c220 84bd 1850 18be
00000080: b3c1 a13c 229a 613b 659a 4abd dfba 7a3d
00000090: fbe7 8dbd 5e4f 28bd f4be 823c 3995 5b3d
000000a0: 3112 f63d 89fc 6bbc 7415 233e 818b 7b3c
000000b0: edb0 d1bc 8f09 9bbd a4fa b83d 045e 0c3e
000000c0: f651 2f3e 3b26 2abe 51c6 ed3c f661 683d
000000d0: 0849 08be 9a69 0c3e 4077 9a3d ffb9 c53c
000000e0: 4ee4 e83c 5dc1 b43d db20 153e 1496 573e
000000f0: 4a4a c63d 0ff0 a1bc 58d4 043e bad3 003e
00000100: acc5 02be 3485 a83c a59f 593d dc89 2a3e
00000110: 6ebc 8dba 601f edbd d4a2 833d e553 773d
00000120: cae9 babc c7c7 bfbd 6d64 353e cc70 5d3e
00000130: 2e83 c63d 89c1 c73c 41c9 b4bd 991e f73d
00000140: 9bf8 aebd cf7a b43d 6d67 85bd 1b46 4b3d
00000150: c2f4 603e 27f7 7abd 3be7 ba3d 4513 11be
00000160: d561 773c bbab 333e ba5a 1b3e ee21 9dbd
00000170: 055f 493a 8e47 1fbe 5c72 173d e9b5 b83d
00000180: 79b8 073d 3958 55be 12ac cebd 1ebc a9bc
00000190: 47e9 6dbd bd96 953d 5456 69bd 9434 f7bb
000001a0: 4b26 68bd 73de 5c3c 8b0b c3bd 09b2 f53c
000001b0: 1532 9cbd f0db d6bd c5b2 eebd d1e9 1dbd
000001c0: 77c0 c23d f745 febc ec69 20be 810b 96bd
000001d0: 8592 d93d 996b acba 4b8a debd f7a5 d23d
000001e0: 70eb bfbd 5587 d8bc f7bf 483e 0984 cc3d
000001f0: 3eb7 193e 4880 67bc 0e21 bdbd eada 753d
00000200: 8a9a 80bc 31d6 fb3c 4690 803d 5a92 d63c
00000210: a8b7 413d 845c cc3d 169b 42bd b789 973c
00000220: 5799 d3ba b8b0 f2bd 9088 77bd 0af5 0bbe
00000230: d697 193d 00ed cdbc be9b ffbd ff88 593e
00000240: 0825 203e a3c8 62bd 9c74 b63d e88d 15bd
00000250: b375 12be 3158 3ebe 4263 373e 0cb6 983c
00000260: 7960 38be 743f da3d 1b4d 39be 5eb8 24be
00000270: add2 bb3d e4b9 4ebe d9ff 993c b72a 943c
00000280: 87e9 b9ba d381 0ebe 3890 433e 9ab7 ecbd
00000290: 49d7 0bbd e03e 323d e835 883d 3ba7 08be
000002a0: 5c50 5cbd d2b1 18be 7654 193d 1863 4f3e
000002b0: f70d 7bbc f6f9 fbbc fdaf 8e3c 592d 3bbd
000002c0: 14d7 31be b881 3b3d 7196 073d 24bb dd3c
000002d0: 347c 083e f843 42be d294 66bd 2625 19be
000002e0: 8abe 053e 207f 58be ad46 e9bd db14 09bd
000002f0: 5d85 60bd 522b 933c 8710 cdbd bacc c0bd
00000300: 9c41 23bb b035 523e 5f63 28be dee1 f9bd
00000310: 21b1 763d a685 103d b680 d53d 2d0a fb3d
00000320: b994 5d3d bd28 4c3e a405 e33d 0ad8 2bbd
00000330: 319f 7cbd a366 9a3d 5f15 83bd 841c 91bd
00000340: 2055 933d 71a0 25bd 7d26 31be a35a 08bc
00000350: e984 ebbd ac60 063d 3246 173c 3968 c43d
00000360: b318 bb3d 8979 a3bd 6208 bfbc d0dd f03d
00000370: af1a ef3d 6f8f 3b3e a2d9 0bbe 335d febd
00000380: 8cf7 db3d ee57 e2bd 5493 f8bd 9806 693e
00000390: 2618 d8bc 8d84 25be 8b56 d0bd dee8 6abe
000003a0: 0d01 683d 1413 b83d 6aa5 9b3d b064 b5bd
000003b0: da2d 25be 8466 b73d 3303 eabb 75c2 08bd
000003c0: 874a 04be 4170 ebbc 6c52 0fbe c2ff 7d3d
000003d0: 5ce8 4cbd c827 153d c66b 73bd 3fbe 6bbd
000003e0: 6c00 d9bd b767 4fbe b315 933c ba28 a7bd
000003f0: 4ac5 00bb f7a3 da3d 6f61 fcbd 09f4 413e

sequential/dense_2/MatMul f4 [1, 64]
-0.01623944 0.039039068 -0.06026581 0.19729483 -0.016646866 0.04974357 -0.02437513 -0.022349948
-0.02480462 -0.036759797 -0.02446654 -0.044385042 -0.08233654 -0.050093472 0.06963647 0.1730288
0.12056982 -0.06182499 0.12146293 -0.1106978 -0.030696575 0.06359933 0.04223691 -0.015755227
-0.022216221 -0.037930407 0.06132986 -0.08617818 0.052737325 -0.013840382 0.08256068 -0.022760952
-0.066089995 -0.056385357 0.03047127 -0.07031217 -0.052165084 -0.024485175 -0.021060929 -0.06592728
-0.032771662 -0.016510505 0.08762648 -0.020877676 0.14033157 0.04702834 0.035742916 0.064034134
0.04106832 0.053377375 -0.038170498 0.08054356 -0.027676092 0.10399619 0.07942996 -0.041473225
-0.029421585 0.15186547 0.04093594 -0.02148499 -0.02525423 -0.038875937 -0.02133145 -0.07348454
00000000: 9308 85bc 6ee7 1f3d 48d9 76bd a807 4a3e
00000010: 025f 88bc eabf 4b3d 5aae c7bc 3d17 b7bc
00000020: 0f33 cbbc 7191 16bd 0e6e c8bc 17cd 35bd
00000030: 0fa0 a8bd d02e 4dbd 919d 8e3d 762e 313e
00000040: 4fed f63d 333c 7dbd 8fc1 f83d 87b5 e2bd
00000050: 6277 fbbc 5e40 823d 9c00 2d3d 1b11 81bc
00000060: cbfe b5bc ea5c 1bbd 0535 7b3d 307e b0bd
00000070: 1803 583d c5c2 62bc 9315 a93d 2d75 babc
00000080: 315a 87bd 55f4 66bd e39e f93c d4ff 8fbd
00000090: 0eab 55bd 2295 c8bc f887 acbc e204 87bd
000000a0: 943b 06bd 0a41 87bc 8375 b33d a907 abbc
000000b0: 14b3 0f3e caa0 403d 2a67 123d 5424 833d
000000c0: 4137 283d 3ca2 5a3d ab58 1cbd 06f4 a43d
000000d0: f9b8 e2bc f4fb d43d 2dac a23d d4df 29bd
000000e0: 8905 f1bc 9f82 1b3e 72ac 273d 4a01 b0bc
000000f0: f5e1 cebc 603c 1fbd 4bbf aebc 107f 96bd
