Rudi/checkpoints_04/best_tempo_model_06_speed.pth (torch, 249724 bytes, 5 tensors)

fc1.weight f4 [128, 416]
000000 a7 c7 e3 bb 58 df 72 bd 6c 72 69 3c 62 68 c9 3c
       -0.0069512906 -0.05929503 0.014248472 0.024585906
000010 4c 57 34 bd 1c c7 4e 3b 26 bd e0 3c 74 eb fb 3c
       -0.044028565 0.0031551784 0.027433943 0.030751921
000020 7e 38 9f bc 65 c7 88 bc c4 c8 42 bc f2 c7 e2 bc
       -0.019436117 -0.016696641 -0.011888687 -0.027683232
000030 c5 c1 26 3c 71 de ee bc 22 08 70 bc 76 18 36 bd
       0.010178034 -0.029158803 -0.0146503765 -0.04445692
000040 b7 71 c7 3c 69 81 30 bc 1e d4 94 3c 7e 89 13 3d
       0.024346216 -0.010773041 0.018167552 0.036019795
000050 c8 16 3a 3c e4 7f 83 3b 3a df 2c 3d 5a a1 3b bd
       0.011357971 0.0040130485 0.042205073 -0.045808174
000060 42 80 29 3d 81 25 a5 bc 08 dc 3f 3d 94 39 06 bd
       0.04138208 -0.020159485 0.046840698 -0.032769755
000070 bb fd 55 bd 84 a0 22 3d 38 20 c1 bb bf 2b f1 bc
       -0.05224393 0.03970386 -0.0058937334 -0.029439805
000080 14 20 fb 3c 19 d8 34 3d 53 06 3b bd 29 1b 87 bc
       0.030654944 0.0441514 -0.045660328 -0.016492443
000090 cb 12 1e bd d0 d3 0e 3d 4a b8 24 b8 ff cb d3 bc
       -0.03859214 0.03486997 -3.927228e-05 -0.025854109
0000a0 d3 86 ba bc 44 21 00 3c 35 38 4d 3c 43 da 48 3d
       -0.022769367 0.007820431 0.012525608 0.049036276
0000b0 1b 2c 8a 3a f6 6b f7 3c ce 34 b1 3c 41 1f 10 bd
       0.0010541709 0.030202847 0.021631625 -0.035186056
0000c0 e3 85 c1 bb d9 32 b5 bb 7b de e8 bc 6e bc aa 3c
       -0.005905853 -0.005529743 -0.0284264 0.020841803
0000d0 19 d2 db 3c fd e4 11 3c 40 10 7e bc 92 7e cc 3c
       0.02683358 0.008904693 -0.015506804 0.024962697
0000e0 60 de 19 3d 13 8f 2c bd 69 e1 12 3d 6a e8 81 3c
       0.03756559 -0.042128634 0.0358595 0.015857894
0000f0 91 9d 15 3d 8e eb fb bc fb d7 fa 3c a4 c0 5b bc
       0.03652722 -0.03075197 0.030620566 -0.013412628
000100 f1 1b 34 bb bd 09 1f 3d c5 c2 36 3d ec a2 cf bc
       -0.0027482475 0.038827647 0.04461934 -0.025346242
000110 b7 84 08 bd 40 92 b1 3c 16 bf 3e bd ac e9 a0 bc
       -0.03332969 0.021676183 -0.046568953 -0.019642673
000120 4b 39 ab 39 1d 0a 4d bc bf 80 8c 3b 9e af f7 3c
       0.00032658348 -0.012514618 0.0042878087 0.030235108
000130 38 b1 94 bc 7d ba 43 3d d3 35 0a 3d e2 0c 15 bd
       -0.01815091 0.04778527 0.033742737 -0.03638924
000140 44 2f 21 bc bb 4e 1d 3d 1f d0 3d 3d 5c d0 1c bc
       -0.009837929 0.03840516 0.046341058 -0.009571161
000150 37 2f 8d 3c 9d a6 1a 3d 82 75 06 3c 66 1e 18 3d
       0.017234428 0.03775655 0.008206727 0.037138365
000160 d1 0b d9 3c bf 99 f6 3a d5 0c a6 3c 5a 82 25 bd
       0.026494892 0.001881413 0.02026979 -0.040407516
000170 e0 f8 16 3c d6 02 39 bc 5e 86 b4 3c 68 46 fb bc
       0.00921461 -0.01129218 0.022036728 -0.03067322
000180 e2 d3 a6 bc 38 9e 15 bd 8d b5 72 bc 41 07 3c bd
       -0.020364705 -0.036527842 -0.014813793 -0.045905355
000190 6a 93 d7 3c ee 19 55 bd da 28 01 3d b9 a1 f3 3c
       0.02631541 -0.05202668 0.0315331 0.029740201
0001a0 a7 6e 1b bd fe ff f7 3c d8 8d 4e bd e8 c6 11 3d
       -0.037947323 0.030273434 -0.05042824 0.035590082
0001b0 9b 89 e3 3c c4 66 be 3c 0b 85 28 bc 06 20 03 bd
       0.027775576 0.023242362 -0.010285626 -0.03201296
0001c0 fd 72 54 bc e5 9a 5f 3b 30 11 aa bb 36 6c 2a bb
       -0.0129668685 0.0034119424 -0.005190037 -0.002600444
0001d0 52 30 27 3d 87 59 30 3d 5e 15 23 bd a4 f3 15 bc
       0.040817566 0.04305413 -0.0398153 -0.009152327
0001e0 c7 b1 86 3c 11 8a 7d 3b 47 a5 3a bd 2d e3 3a 3d
       0.016442193 0.003868703 -0.045567777 0.045626808
0001f0 12 4a c0 bc 33 c6 91 3c 66 f3 94 3c 08 32 68 3c
       -0.02347282 0.017794704 0.018182468 0.014172085
000200 75 55 15 3b a0 a3 18 bd 74 5a 0d 3d e9 74 39 bc
       0.0022786532 -0.03726542 0.03451009 -0.011319377
000210 e8 af 8a 3b 3b 52 97 bb 26 7e c6 3c b8 f7 08 bd
       0.0042323954 -0.004617957 0.024230074 -0.033439368
000220 32 52 06 3d 8d 80 40 3d e2 c6 13 bd eb 5d ff bb
       0.03279323 0.046997596 -0.03607834 -0.0077931783
000230 3e db 86 3c b7 51 41 3d 56 0c 01 3d a1 13 06 bd
       0.016461965 0.04719707 0.031505905 -0.032733563
000240 1f e0 95 bc f9 0b 04 bd d7 07 ed bc 6a 3b 0a bd
       -0.018295346 -0.03223798 -0.028934402 -0.033748068
000250 a1 a0 e9 3c 8e 54 45 bd 0e ff 73 bb 25 b0 38 3c
       0.028518977 -0.04817634 -0.0037230882 0.011272465
000260 39 88 82 3c cd c4 c1 3c e2 29 21 bd ed 24 73 3b
       0.015934097 0.023653412 -0.039346583 0.0037100867
000270 d3 a5 99 3c d5 cb 0c bd 12 49 13 bd e6 f5 20 bd
       0.018755829 -0.034374077 -0.035958357 -0.039297007
000280 ba b4 f0 3c aa 23 d0 bc f9 4e 23 3d d5 cb 08 bc
       0.029383052 -0.025407631 0.039870236 -0.008349379
000290 09 e6 40 bc e1 2a 9b ba 1f c4 2a bd e9 a8 10 bd
       -0.011773595 -0.001183834 -0.041690942 -0.035317335
0002a0 49 3c 70 3b 9e a1 9a bc e6 2a d3 bc dc 38 1f bc
       0.0036657027 -0.018875893 -0.025777292 -0.009718146
0002b0 9d 15 55 bb db 11 9e 3c 9d 5d 88 bb 9c 5a 1b bd
       -0.0032514103 0.019295624 -0.00416155 -0.03792821
0002c0 f2 3c e4 3c 6b ab 08 3d 6f 10 c6 bb d5 d7 66 bc
       0.027861092 0.033366602 -0.0060444395 -0.014089544
0002d0 94 f3 13 bd b3 90 65 3c 4b 52 00 3d e5 74 2e bd
       -0.036120966 0.01401155 0.03132848 -0.042591948
0002e0 69 44 99 3c eb 28 d8 3b d2 bc af 3b d4 d6 49 3d
       0.018709378 0.0065966747 0.0053630853 0.04927714
0002f0 6c a3 9f bc a8 d3 86 3b 1e 94 c7 3c ca b9 d6 3c
       -0.019487105 0.004114587 0.02436262 0.026211638
000300 c1 c9 35 bd 25 82 4e 3d 95 6b d0 bc 10 79 2f bd
       -0.04438186 0.050417084 -0.025441924 -0.042840064
000310 29 8b b2 bc f2 9d 9f 3c e2 fe 18 bd f4 d7 fe 39
       -0.021794872 0.019484494 -0.03735245 0.00048607553
000320 20 63 ba bc e9 62 41 3d 9b 29 a8 3c c3 79 0d 3d
       -0.022752345 0.04721347 0.020527652 0.03453995
000330 05 8a 97 bb 95 71 16 bd dc 5a a8 3c 38 f6 f9 3c
       -0.0046246075 -0.036729414 0.020551138 0.030512914
000340 ab 79 7a bc 3f 7c 15 3d 77 f0 08 3d a1 92 80 3b
       -0.015287797 0.036495443 0.03343245 0.0039237295
000350 03 b7 7f 3c a2 b7 c2 bc ae 50 21 bd b1 ad 08 3d
       0.015607598 -0.023769204 -0.039383583 0.03336877
000360 7c 30 4d bc 1c 77 0f ba 8b 84 73 bc 21 eb cc bc
       -0.012523767 -0.0005472766 -0.014863144 -0.025014462
000370 4b e2 fc bc ac f1 2a 3c 32 bd 3c 3d 73 13 c1 bc
       -0.030869624 0.010433596 0.04607887 -0.023568844
000380 e6 80 82 bc 96 44 80 3c 10 32 49 3d 8d 3e 49 3d
       -0.015930604 0.015657704 0.04912001 0.04913192
000390 4f fd 2f bd 80 ca f5 bc af 7a 1c bd 5f 68 07 3d
       -0.042966183 -0.030003786 -0.038202938 0.03305852
0003a0 90 a2 ad 39 1a 75 38 bc 26 92 7e 3c 6f 8a 72 3c
       0.0003311825 -0.011258388 0.015537774 0.014803513
0003b0 02 4c 6e 3c c0 c9 0e 3d 2d 5a 07 bc 60 6f 7e 3a
       0.014544489 0.034860373 -0.008261246 0.0009705927
0003c0 77 c4 8b bb db ad 9f bc 89 ef c8 3c e3 9a e7 bc
       -0.004265364 -0.01949208 0.024528282 -0.028272098
0003d0 a8 d0 18 3d a6 07 39 3d 7b cc 31 3c e3 c3 38 bd
       0.037308365 0.04517331 0.010851975 -0.045108687
0003e0 44 93 87 bc 32 99 41 bd 04 f5 03 bd c9 d9 04 bc
       -0.016549714 -0.04726524 -0.032216087 -0.008108565
0003f0 7f 16 d3 3c bf 1d 85 3c a5 0b 1c bd af 75 00 bd
       0.025767563 0.016249536 -0.038097043 -0.03136223

fc1.bias f4 [128]
000000 f9 82 e8 3b 6b 9a 9d 3c 5b 58 3d 3d 40 94 39 bd
       0.0070956913 0.019238671 0.04622684 -0.045307398
000010 6b 0d f4 3b 34 41 2f 3d 0d 7c f5 bc eb 2a d1 3c
       0.0074478886 0.042786792 -0.029966379 0.02553316
000020 7e 18 43 3d 5b 3c 4b 3d be 5c 1f bd 66 db b3 3c
       0.04763078 0.049618106 -0.038906805 0.021955203
000030 b8 20 07 bd f7 6b d1 3c 72 79 3e bd df f8 b2 3c
       -0.032990187 0.025564177 -0.046502538 0.021847187
000040 0e 3d 98 3c cc 44 eb 3c 13 c9 6d bd 80 7f 0f 3d
       0.0185838 0.028719328 -0.058053087 0.035033703
000050 32 e9 27 bd 14 be b8 ba 3d f3 87 3d 36 a8 87 bd
       -0.040993877 -0.0014094734 0.06638191 -0.066238806
000060 64 1b c2 3c da 1c fa bc f2 d0 dd bc 9c 62 11 ba
       0.023694701 -0.030531336 -0.027077172 -0.0005546005
000070 fa b7 4f bc 0f 7b 58 3b 20 13 6c bc c9 0e 39 bd
       -0.012678141 0.0033032333 -0.014408857 -0.045180116
000080 0f f6 dc bc f4 58 90 bc ee 82 a5 bc 26 46 0f bd
       -0.026972799 -0.017620541 -0.020204034 -0.03497901
000090 b2 de 6f 3c dc f4 fc bb 8d 62 07 ba 7d 71 1b 3b
       0.014640497 -0.007719619 -0.00051645265 0.0023718767
0000a0 2f af f9 3c ed 59 a9 3b f2 06 3b bd 5a 81 3b 3d
       0.030479042 0.0051681907 -0.04566092 0.045777656
0000b0 c3 56 0e bd 2d 75 37 3d 73 63 05 bd 15 7b 2b 3d
       -0.03475071 0.044789482 -0.032565545 0.041865427
0000c0 36 98 8f bb 1e 4a ca 3c 0e a5 3d 3c 87 89 1e bd
       -0.0043821586 0.024693545 0.011574997 -0.038705375
0000d0 01 2e d7 3b d4 cf c1 3c 31 10 a4 bc d0 84 f9 bc
       0.0065667634 0.02365867 -0.020027252 -0.030458838
0000e0 00 0f 2d bd 49 5a d1 3c 21 13 0e bd f2 60 af 3a
       -0.042250633 0.025555747 -0.03468621 0.0013380332
0000f0 1f 78 5e bd b6 23 3c bd f8 ac 91 bd ef 60 a5 bc
       -0.054313775 -0.045932494 -0.07113069 -0.020187823
000100 ea 15 27 bd 5b d7 9c 3c 81 2d d5 3c 49 81 21 3d
       -0.040792383 0.019145658 0.026022675 0.039429937
000110 36 ec a2 3c 33 6e 0a bd fd 3f 39 3d 43 a4 80 bc
       0.019888025 -0.0337965 0.04522704 -0.015703326
000120 bb f7 96 3b da 29 8d 3b 55 c7 50 bb 40 7e df 3c
       0.0046071685 0.0043079676 -0.0031857092 0.02728188
000130 ed 42 c8 3a 6a 47 e6 bc a5 b2 8e 3c da ff d5 3c
       0.0015278734 -0.028110225 0.017419169 0.026122976
000140 a8 28 e1 3a 09 e5 4e bc eb 75 ef 3b 04 f4 4d bd
       0.0017178254 -0.012627848 0.007307758 -0.05028154
000150 9e 5b fe bc d2 42 02 bd a9 1a 3c bc f7 d3 8c bc
       -0.031049546 -0.031802006 -0.011480966 -0.017190916
000160 75 e4 57 bb bc 8b 7a 3d ed f0 f6 bc ee e2 55 bc
       -0.0032942567 0.061168417 -0.03014418 -0.013054593
000170 5c 63 00 bb 1a 37 dc 3c 66 83 35 bd ec 19 4b bd
       -0.0019590473 0.026881743 -0.044314764 -0.049585268
000180 c2 39 3f 3c cd 67 0c bd bc be e6 3c 0b f0 ac 3c
       0.011671485 -0.03427868 0.028167121 0.021110555
000190 9d a4 80 3c f7 29 e2 3c db e4 86 bd eb 91 28 bb
       0.015703494 0.027607901 -0.065866195 -0.002572174
0001a0 53 cd a8 3c 79 b8 fa bb 04 01 a7 bc 15 85 b5 3c
       0.020605719 -0.0076513854 -0.020386226 0.022158185
0001b0 7e 55 97 bc 38 89 4d 3c 65 ee 04 3d 66 89 af bc
       -0.018473383 0.0125449225 0.032453913 -0.021427821
0001c0 5e eb 7a 3d cc 63 91 3c 7f 84 1b bc 3b 67 05 bd
       0.06125962 0.017747782 -0.009492039 -0.03256915
0001d0 a3 c1 7f 3d 15 73 61 3d d1 91 31 bd ea 36 5f bd
       0.062440526 0.05504139 -0.043351952 -0.05449573
0001e0 14 0b 86 3d 56 1b da bc bd 20 4e bc 1a 04 5c 3c
       0.06545082 -0.026624363 -0.012581048 0.013428712
0001f0 14 9e 9f 3c 48 53 1f 3d 16 29 5c 3a 1b 1f 22 bc
       0.019484557 0.038897783 0.0008398456 -0.009895111

fc2.weight f4 [64, 128]
000000 44 9f 57 3d 26 ef d8 3d 46 88 b7 3d a5 1c 81 bd
       0.052642122 0.10592489 0.08961539 -0.06304292
000010 64 b1 72 bd d4 4c a1 bc 1b 10 61 3d 1f d2 8e 3c
       -0.059251204 -0.019689955 0.054947 0.017434178
000020 64 96 2e bd 9c a9 b5 3d cc 41 d5 bc 24 d2 0f 3c
       -0.042623892 0.08870241 -0.026032351 0.008778129
000030 4f 6c 51 bd f6 f2 76 bd 17 47 56 bc 6f 3b 97 3c
       -0.05112868 -0.0602903 -0.013078473 0.018460957
000040 fd d9 86 bc 81 39 be 3d 99 3b b9 3d d1 f7 4f 3d
       -0.016461367 0.09288312 0.090445705 0.050773446
000050 9e 0c ab bd 72 fe 00 3d 16 84 30 bd 6e bd 78 3d
       -0.08352016 0.031492658 -0.043094717 0.06072753
000060 62 7c 9e 3d 01 c2 c9 3d 4b b0 4e bd 1a 67 e3 3d
       0.07738568 0.098514564 -0.050461095 0.111036494
000070 43 31 b3 bb 60 21 0b bc f6 60 21 bd 25 b2 8a bc
       -0.005468519 -0.008491844 -0.03939911 -0.016930649
000080 2d 5f ac 3d 4a c0 c5 3c 30 7f ca 3d a7 26 32 bd
       0.08416591 0.024139542 0.0988754 -0.043493893
000090 23 10 6f 3b a0 9f 99 bc d5 02 65 3c ee fd 85 3d
       0.0036478124 -0.018752873 0.013977726 0.06542574
0000a0 4e 5d 33 3d c5 e4 79 3d 71 63 27 bd 8b c2 fa 3c
       0.043790154 0.061009187 -0.04086632 0.030610343
0000b0 b3 6c a8 bd e9 b0 84 bd 79 9b c9 3d 3f 4b ad bb
       -0.08223858 -0.064790554 0.09844107 -0.005288511
0000c0 4d 26 9c 3d d6 8d 88 3d 22 83 c0 3d 69 e9 95 3d
       0.07624493 0.06667678 0.094000116 0.0731991
0000d0 3f cc 01 3d 0f 08 2e 3d 9c ba 09 3d ff 00 70 3c
       0.031688925 0.042488154 0.03362523 0.014648675
0000e0 1c e5 df 3a 5e f8 aa 3c 18 e7 6b 3d da d0 7b ba
       0.001708183 0.020870384 0.057593435 -0.00096060114
0000f0 8a 17 92 bd be 6f 3c bd 74 aa 8e 3c 1e 54 85 3d
       -0.07133396 -0.046005003 0.017415263 0.06510185
000100 ce 38 1b bc 4a 96 9c 3d 76 d7 02 3d a7 6e d7 3d
       -0.0094739925 0.07645853 0.03194376 0.10519152
000110 36 9d 99 3d 90 ac 71 3c 1a 18 48 3d 74 1e a5 3d
       0.07500689 0.014750615 0.04885111 0.08062449
000120 46 46 b8 3c a8 75 90 bd cf 12 34 bd 05 66 19 3b
       0.022494446 -0.07053691 -0.04396325 0.0023406756
000130 fb a3 b6 bc ed a2 75 bc c3 ac 8c 3d 0d 76 7d 3c
       -0.022294989 -0.014992458 0.06868889 0.01547004
000140 eb 10 ac bd e0 a1 69 3d 08 46 8b bc dd 35 33 bc
       -0.08401664 0.05703914 -0.017001167 -0.010938135
000150 ec 81 7f 3c 6a 01 74 3d 1e d6 05 3d 9e 3d 4d bd
       0.015594941 0.05957166 0.0326749 -0.05010759
000160 78 4d d9 3d 61 78 42 3c 24 f7 e9 bc 7f a1 4f 3d
       0.10610479 0.011869521 -0.028560229 0.050691124
000170 95 1a cf 3d a8 6d 94 3c 36 74 dd 3c 95 60 65 3d
       0.10112492 0.018118694 0.027032953 0.05600031
000180 60 b0 66 3d 42 d1 ca bc 1a 3c 99 bc 46 3d 83 bd
       0.056320548 -0.024757985 -0.018705416 -0.06408171
000190 48 3d 49 3d 9e 9a 9c bd 39 c6 86 3c 9e eb 91 3d
       0.049130708 -0.076466784 0.016451942 0.071250185
0001a0 2c 7e 44 3c 7d 78 fb bb 31 5a a6 3c 93 05 9a bc
       0.011992972 -0.0076742754 0.020306678 -0.018801486
0001b0 7b 70 ea bc b6 c7 09 bd 6d 08 80 bd 16 69 b3 3d
       -0.028618088 -0.033637725 -0.06251607 0.08760278
0001c0 a0 d4 ec 3d 74 b8 18 3c 9e 6b 93 bc 93 c4 aa 3d
       0.115639925 0.009321321 -0.017995652 0.08338275
0001d0 2a 5d d3 3d a9 96 ea 3c 8a c9 1a 3d 46 52 67 bd
       0.10320504 0.028636293 0.03778986 -0.056474946
0001e0 80 b1 81 3d 86 e4 a0 bb d1 7a b0 3b b7 c8 de 3c
       0.063326836 -0.0049100546 0.0053857346 0.027195318
0001f0 fc de b5 3d 12 86 05 3e 9b ac 71 bc 3b 0f 67 bc
       0.088804215 0.13039425 -0.014750625 -0.014102752
000200 e0 0d 5c bd a2 cf c7 bd 9b 50 3d bd 4a bb dc bc
       -0.05372417 -0.097564 -0.04621945 -0.026944775
000210 4d 3d 4c bd 02 ad 85 3d f6 1a fb bc e4 1a ec 3a
       -0.04986315 0.06527139 -0.030652504 0.0018013385
000220 84 f9 91 bd 69 ab 56 bd 47 bf 84 bc 01 2f a1 3d
       -0.071276695 -0.052409563 -0.01620449 0.078702934
000230 ed 26 32 3d 33 8c 2f 3d 6f 8a 76 3d 30 57 84 3c
       0.043494154 0.042858314 0.060190614 0.016154855
000240 e3 bf 38 3c 93 ec 87 bd 65 e2 db 3c 4e ed ae bd
       0.011276218 -0.0663692 0.026841352 -0.08541356
000250 67 43 a0 3c 23 5a 38 3d 15 a8 fa bc fc f6 87 bd
       0.01956339 0.045007836 -0.030597726 -0.066389054
000260 74 36 7c bc 5d 4b 8f bc 4d 20 87 3d 5e 0f c7 bc
       -0.015393842 -0.01749199 0.06597958 -0.02429932
000270 6b 92 91 bd ab 47 c9 3c 59 a1 8b bd c1 08 14 bd
       -0.07108005 0.024570307 -0.06817884 -0.03614116
000280 18 89 0a bd 57 0d 4b 3d 1d 69 a0 bc 81 56 d6 ba
       -0.03382215 0.04957327 -0.019581372 -0.0016352684
000290 8b bd e6 3c 74 73 98 bd 96 8f 07 3d 19 6e 16 3d
       0.028166553 -0.07443896 0.03309592 0.03672609
0002a0 52 00 d3 3b a1 db c3 3b 9b e4 ed bc ec 05 6a bd
       0.006439247 0.0059771095 -0.029039672 -0.057134554
0002b0 87 9e a1 3d 09 a7 02 3d 4f f4 21 bd a3 18 98 3d
       0.07891565 0.03189758 -0.03953963 0.07426574
0002c0 ed 54 4c bd 34 53 44 3c c0 c7 e5 3c 1b 6c 86 3d
       -0.04988568 0.011982728 0.02804935 0.06563588
0002d0 7f 78 a8 3c 23 f5 01 3d 70 57 c2 3d d1 23 b5 3d
       0.02056527 0.03172792 0.09489334 0.08844722
0002e0 19 8f 40 bd 91 ac 8d bd 18 b1 bb bd 03 83 07 3d
       -0.04701147 -0.0691768 -0.09164637 0.033083927
0002f0 89 f1 99 bd 0b 6f 38 bd 65 15 87 3d 6f 8e b5 bc
       -0.07516772 -0.045027774 0.065958776 -0.022162644
000300 61 31 8f 3d 4b 54 23 3d 2b 39 93 3d d7 20 b3 3c
       0.0699184 0.03987531 0.07188638 0.021866245
000310 ba 9a 17 bb 51 de 96 bd 2c 37 2c 3d 3d ae df 3c
       -0.0023132996 -0.07366622 0.042044804 0.027304763
000320 90 95 74 bd 39 5e 40 bd a6 11 67 3c f0 0f 8f bc
       -0.059712946 -0.046964858 0.014103329 -0.017463654
000330 ac 03 85 bd 05 ed a8 3d 5f 8e ba bc eb 18 18 3d
       -0.06494841 0.08248333 -0.022772966 0.03713314
000340 67 e3 b4 3d c3 a2 b5 bd 0d 5f 08 3d 55 9e f9 3c
       0.08832436 -0.08868935 0.033293772 0.030471006
000350 c8 93 82 3c d5 c9 a1 bc d3 9b 3a bd c7 70 a2 3d
       0.015939608 -0.019749561 -0.04555876 0.07931667
000360 99 82 8c 3c c7 47 00 3c 9c a4 8d bd fd 27 a7 bd
       0.017152118 0.007829613 -0.06916162 -0.08161924
000370 31 d1 60 bb 0a 1e 99 bd a1 3f 7f bd 36 37 80 bc
       -0.0034304375 -0.074764326 -0.06231654 -0.015651327
000380 5d b8 c7 3c 27 c0 76 3d 0c a6 43 3d 13 10 82 bd
       0.024379903 0.060241845 0.047765777 -0.06350722
000390 30 be cb bc 23 9d 0b bd 57 9f d3 3c 81 9f 5f 3d
       -0.024870962 -0.034085404 0.025832815 0.054595474
0003a0 37 b3 d7 3c e4 7a 25 3c 28 12 83 3c 9c 8f 87 bd
       0.026330573 0.0101001 0.015999869 -0.06619188
0003b0 6e 0b 1b 3d 20 8e 51 bd cf c6 bf bd 96 20 30 3d
       0.037852697 -0.05116093 -0.093640916 0.042999826
0003c0 78 0c c0 bd ac 94 b0 ba a4 67 97 bd a3 af 9b 3d
       -0.09377378 -0.0013472042 -0.07392815 0.076018594
0003d0 f5 92 cb bc 44 4e b8 bd 48 c0 cd 3c b3 c7 32 3d
       -0.024850348 -0.08999303 0.0251161 0.04364748
0003e0 a4 60 b5 bd 7a 10 f1 bb e6 cd 5d 3d 48 0b 90 3d
       -0.08856323 -0.0073567005 0.05415144 0.07033402
0003f0 c0 ed af bd f2 ef d0 bd 86 e7 ad bd e6 41 00 3d
       -0.08590269 -0.10202016 -0.08491425 0.031312846

fc2.bias f4 [64]
000000 31 8d 78 3d b4 f9 a3 3b 92 d8 3d 3d 8c f8 30 bd
       0.060681526 0.005004132 0.046349116 -0.043205783
000010 93 49 87 3d 31 41 3a bd 54 44 89 bd 65 cb a6 3d
       0.0660583 -0.045472328 -0.06702486 0.08144263
000020 b6 bc 81 bc 3e 0e 9a bd 75 3b b6 bd 95 34 34 3c
       -0.015837055 -0.07522248 -0.08898059 0.010998865
000030 c2 22 7d 3d 96 4e a3 3b 5b ee bb bd 69 a3 58 3c
       0.061800726 0.0049837334 -0.09176322 0.013222554
000040 a7 dd aa 3d b4 64 60 bd ee 0b 50 3d 20 7c 3b bd
       0.08343058 -0.054783538 0.050792627 -0.04577267
000050 c8 b7 9a 3c 1e 13 bb 3c 23 9f ca bc 5c f3 a6 bd
       0.018886462 0.022836264 -0.024734085 -0.08151886
000060 b3 a3 82 3d 74 7a 89 3c 19 4c db bc d1 99 e8 3d
       0.063788794 0.016782023 -0.026769685 0.11357463
000070 a6 fa 60 bd a5 54 b3 bc ff 6f 60 bc 93 0c 40 3d
       -0.054926537 -0.021890948 -0.013698577 0.04688699
000080 e3 0f 0b 3d 4c f4 48 bd 19 dd ae bd 68 8a af 3d
       0.033950698 -0.049061105 -0.08538265 0.08571321
000090 5e 83 bb 3d 8a 09 9c 3c 40 fa ec bc 33 ff 1e 3d
       0.09155916 0.019047517 -0.028927922 0.038817596
0000a0 ec 08 9e bd 01 2f 36 3d 9b 48 bc 3c 22 f2 51 3d
       -0.077165455 0.04447842 0.02298384 0.051256306
0000b0 34 64 bb 3c a8 68 38 bd 31 f3 46 3d 9d 0a b0 3c
       0.022874929 -0.045021683 0.04857177 0.021489436
0000c0 b6 52 f4 3d c2 4f 24 bd 5c e2 8e bd 31 95 15 bd
       0.11929838 -0.040115125 -0.069767684 -0.036519233
0000d0 10 80 f3 3d 1a f4 e1 3b c8 54 47 3d 7d e7 6d 3d
       0.1188966 0.0068955543 0.048664838 0.058082093
0000e0 7d 77 4b bd f4 43 13 bd d7 ac 05 3e 0c 84 01 bd
       -0.0496745 -0.035953477 0.13054214 -0.03162007
0000f0 7f 32 d3 3d b5 d0 12 bd 4d d6 ba bd eb 23 20 3d
       0.10312366 -0.03584357 -0.09122906 0.039096754

fc3.weight f4 [1, 64]
000000 bc f7 b9 bc bc 18 08 3d bc eb 39 bd af c4 90 bd
       -0.022701137 0.033226714 -0.04539083 -0.070687644
000010 13 02 c4 bc fd d5 c8 3d d3 69 d0 3d 4d 9d b0 bd
       -0.02392677 0.0980644 0.10176434 -0.08623753
000020 5d 0c 19 bd eb 41 b5 3c fd 67 99 3d 52 ec 63 bd
       -0.037365306 0.022126159 0.07490537 -0.055645294
000030 da 4a be bd bb bd 4a bd 50 29 9c 3d 44 56 5c bd
       -0.092916206 -0.049497347 0.07625067 -0.053793207
000040 4c 39 1e bd 1c b1 6e 3d 52 d2 ab bd 2f b3 99 bd
       -0.03862886 0.058274373 -0.08389725 -0.0750488
000050 54 2d 8e bd 82 0d ac 3d 93 f9 ae 3d 50 10 4c 3d
       -0.069422394 0.08401014 0.08543696 0.049820244
000060 3a 5e 95 bd c5 09 48 bd 13 7e ac bd ac f5 7c bd
       -0.07293363 -0.048837442 -0.08422484 -0.06175773
000070 53 aa cc bd 40 9c ca bd 40 5d 3f bd 61 5a 3a bd
       -0.09993424 -0.098930836 -0.04671979 -0.04549635
000080 70 59 bd 3d 33 ee c3 3d 3c 2d 51 3d ec da c2 bc
       0.092455745 0.09566917 0.05106853 -0.02378603
000090 a0 84 da bc 8f 4a 2a bd cb 9d 0c 3d 8f 1c 67 3d
       -0.026674569 -0.04157501 0.03433017 0.05642372
0000a0 ea 98 a1 3d a9 a3 e5 bc ba 03 b8 bd ff 41 e6 bc
       0.07890494 -0.02803214 -0.08985086 -0.028107641
0000b0 d6 60 6c 3d 3e e3 9e 3d d5 f8 3c bd 92 3e 37 bd
       0.057709537 0.07758187 -0.046135742 -0.044737406
0000c0 98 c8 20 bd b9 74 e4 3b d7 be 7d 3d 3c 38 a1 3d
       -0.0392538 0.0069719222 0.061949577 0.07872054
0000d0 b1 14 99 bc d9 c3 42 3d c3 59 bd 3d 50 fe 3e bd
       -0.018686624 0.047550056 0.09245636 -0.04662925
0000e0 5b 74 44 3d 52 0d 90 3d d6 56 bc bc 1f fb 81 bc
       0.047962528 0.07033791 -0.022990625 -0.015866814
0000f0 a4 6f 11 bd d6 4d b2 3d 36 a5 e7 3d cd e8 1e bc
       -0.03550686 0.08706252 0.11310808 -0.009699059
