Rudi/checkpoints_06/best_tempo_model.pth (torch, 258348 bytes, 7 tensors)

fc1.weight f4 [128, 416]
-0.0046406756 0.011839051 0.0442402 0.017897444 0.0034760972 -0.0074526086 0.01962264 0.022615392
0.006857524 -0.03233243 -0.050412428 -0.0042534512 -0.050864447 -0.07555035 0.027119467 -0.0016450714
0.049261827 0.0055412347 0.058755226 0.05282331 0.05993078 0.016032143 0.009934614 0.027256383
-0.026164794 -0.0010247222 -0.032360427 -0.037488356 0.015069245 0.0015535237 -0.03008439 -0.02565998
-0.0117085725 -0.028187055 -0.030852688 -0.03346179 -0.017071968 -0.023154039 0.024550566 0.0067205587
0.048494514 -0.038412325 -0.007918524 -0.03734123 -0.022414763 -0.024410326 0.01951776 0.01061661
0.04450752 0.00898665 -0.012773149 0.026704693 0.020692924 -0.040305752 -0.025952762 -0.039829783
-0.04137366 0.012939514 0.006802752 0.026123136 -0.02749514 0.041479576 -0.01954106 0.03611586
0.008661941 0.023340283 0.004283845 -0.047436412 -0.013661923 0.027981734 -0.048059396 -0.008570232
0.027915372 0.04922786 -0.036707945 -0.010634746 0.037808537 -0.026067471 -0.011008503 0.04186286
-0.009997111 -0.009809394 -0.010007213 0.0075529376 -0.026202615 -0.00053058023 -0.033290647 -0.02243849
-0.0033669104 -0.04341473 0.031689394 0.041787818 -0.034407757 -0.048320077 0.04457113 0.040045958
-0.0261902 -0.04008256 -0.02973071 -0.032506973 0.015311723 0.030382508 -0.0018452411 -0.032524753
-0.000932332 0.04873452 0.00068752083 -0.011181131 0.026688084 0.034735795 -0.048041485 0.020476457
0.04550733 -0.0012607692 -0.042860273 0.01533311 0.037467655 0.040473305 -0.03416869 0.002783948
0.035422202 0.005290846 0.025887148 0.0032644412 0.023066675 0.0015943503 0.046236273 -0.03967978
0.013381176 -0.03013165 0.047501426 0.0011573108 -0.044089787 0.035510775 -0.03538186 0.018887121
-0.030279586 0.045828495 -0.0074600847 0.024434643 -0.033252534 -0.040272918 -0.022161972 0.03869231
0.049766544 -0.025266884 0.006271443 0.022900416 0.014861167 0.040880013 0.035930853 -0.030034037
0.035269726 -0.020723784 0.047586534 0.009298175 0.013297282 -0.02762572 -0.018528521 -0.041078173
-0.04031838 0.0055006663 -0.037986297 -0.031460915 0.04845138 0.021881953 0.049241778 0.0044642044
-0.022469956 -0.015317079 0.020561615 0.019653896 -0.021154266 -0.013284823 0.035516676 -0.032493457
0.046224117 0.031325255 0.0126901595 0.0145403845 -0.03709152 -0.008484193 0.04667014 0.010582842
0.038307656 -0.004198612 -0.012299947 -0.009559044 -0.02372791 -0.013559635 -0.017884634 0.007698389
-0.04450382 0.034462415 0.00056629296 -0.031507228 0.018009288 0.011904264 0.027161699 -0.010392214
-0.035081424 -0.018532934 -0.026271703 0.03853199 0.042108346 -0.015373052 0.00025985524 -0.043380015
-0.004907224 0.019284032 -0.0038488598 -0.004022449 0.023225807 -0.023664808 0.033439454 -0.048444953
0.020984478 -0.044796284 0.0006849516 -0.01278564 0.012607627 0.03516691 -0.0062056836 -0.016715234
-0.027225718 0.032797713 -0.04624216 -0.026894797 0.006478756 0.036851086 -0.0050225654 -0.042287312
-0.003786716 0.008138504 0.00497049 -0.035460804 0.04607071 0.03676412 -0.025149846 0.0027501716
-0.031722263 0.038968712 0.0067409 0.006635997 0.02169015 -0.029268928 -0.032179065 -0.04436264
0.025944512 0.04194266 -0.035436857 -0.04694298 -0.008451321 0.0014516943 0.03597605 0.029867595
00000000: cf10 98bb 94f8 413c 3635 353d a99d 923c
00000010: 3ccf 633b 0335 f4bb a9bf a03c ea43 b93c
00000020: 15b5 e03b 036f 04bd 437d 4ebd 8960 8bbb
00000030: 3d57 50bd 24ba 9abd a529 de3c 709f d7ba
00000040: c5c6 493d 3f93 b53b 52a9 703d 415d 583d
00000050: fa79 753d d755 833c cbc4 223c c748 df3c
00000060: 8d57 d6bc f94f 86ba 5e8c 04bd 648d 19bd
00000070: ffe4 763c 9b9f cb3a 8a73 f6bc e134 d2bc
00000080: 50d5 3fbc 8ae8 e6bc c7be fcbc 3b0f 09bd
00000090: 83da 8bbc 8aad bdbc 451e c93c 2238 dc3b
000000a0: 2fa2 463d 3e56 1dbd b2bc 01bc 1ef3 18bd
000000b0: 2a9f b7bc 2af8 c7bc b6e3 9f3c 4af1 2d3c
000000c0: 844d 363d be3c 133c 7846 51bc cdc3 da3c
000000d0: 3584 a93c a517 25bd e39a d4bc 8e24 23bd
000000e0: 6d77 29bd 4100 543c 9fe9 de3b 3000 d63c
000000f0: 7d3d e1bc 7de6 293d 9314 a0bc 39ee 133d
00000100: d0ea 0d3c 1f34 bf3c 7f5f 8c3b af4c 42bd
00000110: 42d6 5fbc f339 e53c eed9 44bd 296a 0cbc
00000120: c7ae e43c 27a3 493d 125b 16bd 5c3d 2ebc
00000130: 20dd 1a3d 738b d5bc 025d 34bc 6478 2b3d
00000140: ecca 23bc 95b7 20bc 4bf5 23bc a27e f73b
00000150: dea6 d6bc a316 0bba c65b 08bd edd0 b7bc
00000160: 62a7 5cbb a5d3 31bd bdcc 013d b429 2b3d
00000170: 26ef 0cbd 46eb 45bd 3890 363d 3b07 243d
00000180: d58c d6bc 9c2d 24bd d18d f3bc 0826 05bd
00000190: 05de 7a3c bde4 f83c 04dc f1ba ad38 05bd
000001a0: be67 74ba d99d 473d be3a 343a 1031 37bc
000001b0: f8a0 da3c 1f47 0e3d 26c7 44bd 3ebe a73c
000001c0: e565 3a3d 6540 a5ba 418e 2fbd b937 7b3c
000001d0: af77 193d 56c7 253d 78f4 0bbd e672 363b
000001e0: df16 113d d55e ad3b 4911 d43c 3cf0 553b
000001f0: 53f6 bc3c 85f9 d03a 3f62 3d3d 4487 22bd
00000200: b83c 5b3c a6d6 f6bc db90 423d e8b0 973a
00000210: 7e97 34bd bf73 113d 92ec 10bd 2ab9 9a3c
00000220: e50c f8bc a9b6 3b3d ba73 f4bb 292b c83c
00000230: cf33 08bd 37f5 24bd 068d b5bc d47b 1e3d
00000240: 01d8 4b3d 7ffc cebc ad80 cd3b a799 bb3c
00000250: 417c 733c cd71 273d 3b2c 133d f109 f6bc
00000260: fd76 103d edc4 a9bc 19ea 423d 5f57 183c
00000270: d8dc 593c 554f e2bc 20c9 97bc 9641 28bd
00000280: e324 25bd ef3e b43b 8597 1bbd 29dd 00bd
00000290: f474 463d c841 b33c bfb1 493d 7648 923b
000002a0: ea12 b8bc 7cf4 7abc d570 a83c 3501 a13c
000002b0: b64b adbc 96a8 59bc ef79 113d dc17 05bd
000002c0: 8055 3d3d e94e 003d 63ea 4f3c cb3a 6e3c
000002d0: 47ed 17bd 4901 0bbc 3029 3f3d a863 2d3c
000002e0: 7de8 1c3d 8394 89bb b885 49bc 899d 1cbc
000002f0: 0961 c2bc 3b29 5ebc cc82 92bc c442 fc3b
00000300: a349 36bd 7628 0d3d 4773 143a b90d 01bd
00000310: 3788 933c 1a0a 433c 3682 de3c 1b44 2abc
00000320: 8ab1 0fbd 61d2 97bc c137 d7bc b8d3 1d3d
00000330: cd79 2c3d 41df 7bbc 2e3d 8839 3eaf 31bd
00000340: c7cc a0bb 8cf9 9d3c 273d 7cbb bfce 83bb
00000350: 0c44 be3c b3dc c1bc cff7 083d 376e 46bd
00000360: a4e7 ab3c 4f7c 37bd 538e 333a dc7a 51bc
00000370: 3890 4e3c 2e0b 103d 0c59 cbbb 63ee 88bc
00000380: 7808 dfbc e556 063d 6b68 3dbd 7a52 dcbc
00000390: bf4b d43b 2af1 163d 5594 a4bb 7635 2dbd
000003a0: 8d2a 78bb 5c57 053c 7edf a23b 593f 11bd
000003b0: a4b4 3c3d f995 163d 0d07 cebc 393c 343b
000003c0: 34ef 01bd a89d 1f3d c5e2 dc3b c772 d93b
000003d0: 8baf b13c 64c5 efbc 32ce 03bd 99b5 35bd
000003e0: 9689 d43c 11cc 2b3d 3d26 11bd 4847 40bd
000003f0: 6977 0abc c746 be3a 9f5b 133d e3ac f43c

fc1.bias f4 [128]
0.05352545 0.024355404 0.009561867 0.013518969 0.05358339 0.01826197 -0.0069453623 0.05677488
-0.012773639 -0.04782506 -0.02894247 0.017610222 0.0419607 0.010736034 -0.05651684 -0.009724322
-0.008112539 -0.013362035 -0.020500693 -0.056523822 -0.040911157 0.016909504 0.0038798868 0.0244038
0.019085653 -0.039444845 0.0045360876 0.009976992 -0.045867395 0.0012164352 0.043386526 -0.0023867115
0.00060915604 0.03854827 0.010770486 0.041269027 0.040395018 0.016835757 0.05084945 0.03151432
0.052140262 0.02118791 0.031598963 -0.03278213 0.00064296636 -0.017232472 0.008542422 0.0026395938
0.049557406 0.04317498 -0.010733328 -0.004638428 -0.0343674 0.01831585 -0.01643666 0.017944863
-0.034040835 -0.0073218844 -0.012342622 -0.051100723 0.038300805 0.028063871 -0.010899307 -0.0058012013
0.038596798 0.0020615172 0.042273104 -0.028255122 0.0434581 0.020781552 -0.020174753 0.032245845
0.023053695 -0.03596137 0.04614497 0.04968696 -0.028589694 -0.01957447 -0.012149665 0.021103691
-0.026020387 0.039734833 0.013529264 -0.033062335 -0.0019310942 -0.047984038 -0.0210331 0.0014111373
0.0120325675 -0.051352758 0.02021801 0.02087014 0.021783156 -0.006261789 -0.024849638 0.03218654
0.04071108 0.054720134 -0.021444075 0.04168199 0.0047576595 -0.05044091 -0.044370785 0.040821675
0.02281053 -0.0018759966 0.016188387 -0.050305 -0.046652526 0.04707089 0.036520787 -0.045844685
0.053484365 0.008838703 0.028002398 0.049248684 0.02767993 -0.008958644 -0.01629809 0.04782986
0.0400658 -0.017507575 0.030339869 -0.018490471 0.0113491975 -0.008119842 -0.0193414 -0.0013017126
00000000: 813d 5b3d fc84 c73c 61a9 1c3c aa7e 5d3c
00000010: 427a 5b3d 209a 953c ec95 e3bb c78c 683d
00000020: 8648 51bc 36e4 43bd c218 edbc 5043 903c
00000030: fcde 2b3d 31e6 2f3c 347e 67bd c352 1fbc
00000040: 74ea 04bc 70ec 5abc 12f1 a7bc 8685 67bd
00000050: 7592 27bd cd85 8a3c b345 7e3b 7aea c73c
00000060: 8459 9c3c eb90 21bd 76a3 943b 8a76 233c
00000070: 73df 3bbd cb70 9f3a 12b6 313d 606a 1cbb
00000080: c5af 1f3a cae4 1d3d b176 303c b609 293d
00000090: 3f75 253d 24eb 893c 8347 503d 2915 013d
000000a0: 0791 553d 4592 ad3c ea6d 013d 8e46 06bd
000000b0: be8c 283a 1d2b 8dbc 84f5 0b3c 09fd 2c3b
000000c0: b5fc 4a3d 3fd8 303d d7da 2fbc f4fd 97bb
000000d0: d5c4 0cbd 1f0b 963c 2da6 86bc 1b01 933c
000000e0: 676e 0bbd 6bec efbb b538 4abc fe4e 51bd
000000f0: 4ee1 1c3d 34e6 e53c 0293 32bc 0118 bebb
00000100: ad17 1e3d 851a 073b 9026 2d3d 4977 e7bc
00000110: 1f01 323d 133e aa3c 8645 a5bc 3814 043d
00000120: 1adb bc3c 3b4c 13bd 8202 3d3d 8e84 4b3d
00000130: ef34 eabc a45a a0bc 630f 47bc a6e1 ac3c
00000140: b528 d5bc fec0 223d d9a9 5d3c 5f6c 07bd
00000150: c51c fdba e98a 44bd 9c4d acbc e9f5 b83a
00000160: 3f24 453c 4557 52bd 3da0 a53c dbf7 aa3c
00000170: 9772 b23c b12f cdbb 7891 cbbc 09d6 033d
00000180: a9c0 263d 3822 603d 7cab afbc bcba 2a3d
00000190: 24e6 9b3b 219b 4ebd 24be 35bd a134 273d
000001a0: 26dd ba3c 00e4 f5ba 829d 843c 9e0c 4ebd
000001b0: b816 3fbd 68cd 403d d296 153d a3c7 3bbd
000001c0: 6c12 5b3d 35d0 103c 4965 e53c fdb8 493d
000001d0: 05c1 e23c 47c7 12bc 9283 85bc 3ee9 433d
000001e0: 091c 243d 0c6c 8fbc 518b f83c 5479 97bc
000001f0: fcf1 393c 1609 05bc db71 9ebc 3a9e aaba

fc2.weight f4 [64, 128]
-0.076001056 0.01606004 -0.007787035 0.04610269 -0.0049272915 0.09096775 -0.03968807 0.057631552
0.059813984 -0.019572 -0.06711384 0.041691173 0.0145407915 0.010807307 -0.008333669 0.015969247
0.013174332 -0.035865836 0.019653866 -0.032908525 0.021396486 0.012558773 -0.04634132 0.015165589
0.08751926 -0.0241815 0.08421896 0.04741222 -0.02239812 0.07559063 0.07757313 -0.0065956614
0.03507522 -0.04533605 0.049838934 -0.013083109 -0.01936601 0.05842338 -0.008120559 0.06189498
0.08213929 0.0027937868 -0.07347202 0.019853674 0.0026970156 -0.010076235 -0.09821299 -0.0631674
0.08067553 0.06936236 0.064960115 -0.054381456 0.07355012 -0.004054922 0.05062961 -0.010417355
0.007157689 0.028721634 0.0540157 0.012660337 -0.008877484 -0.06341007 0.029968467 0.059785023
-0.06634527 -0.05139968 0.06122924 0.019067768 -0.019022545 0.047530234 0.011300233 -0.021847269
-0.035685822 0.0018451508 0.09656544 -0.026768373 0.0147734005 -0.059424996 0.06842107 -0.048235487
-0.015630612 0.08975759 -0.040212527 0.04859131 0.06400945 0.07430637 0.059956577 -0.031449333
-0.026170177 0.062217157 0.060028963 -0.056843042 -0.059185747 0.09338164 0.01770009 -0.0962313
0.09079189 0.059127375 0.07100368 0.08484238 0.08034622 -0.0118539985 -0.07459671 -0.05992603
0.0067628347 0.07872871 0.013396155 -0.069310844 0.060569983 0.09413684 0.067181304 -0.02842274
-0.025363332 0.054551512 -0.07298673 0.043506984 0.035606187 0.05498686 -0.0005851538 0.054850996
-0.042091664 -0.07474088 0.012181189 -0.03350039 0.097216345 0.060732402 0.08290435 0.07477265
-0.021529704 0.00035202294 0.057758503 0.07395665 -0.012741917 0.0410351 -0.04864995 -0.0060624327
-0.06853576 0.0620431 -0.012447333 0.048463438 -0.046976283 -0.016382685 -0.0021791 0.075953044
0.0043511875 -0.005337551 0.08635206 -0.023849983 0.033435516 0.07794071 -0.008713406 -0.018997412
-0.07333862 0.043521944 0.06360852 -0.012026621 -0.08063026 0.08378985 0.046010423 0.040437035
-0.0012496109 0.02679566 0.0158054 0.074259184 0.0793277 -0.07291412 0.09775191 0.08557563
-0.07139884 0.0822875 -0.005239442 0.024270564 0.03733647 -0.004215825 -0.067209266 0.07356575
0.058292132 0.07265379 -0.04146855 -0.034154136 -0.001481432 -0.058080494 0.017845681 -0.03883607
-0.019402692 0.073074825 0.095734924 0.027971668 0.037241373 -0.043814298 0.057587586 0.060778163
0.056888882 0.025381653 -0.04928961 -0.07536557 -0.022536071 0.059467737 -0.03348022 0.07462424
0.032188043 0.031952415 0.053196903 0.061029878 0.022436969 -0.0010848902 -0.05723915 -0.003061555
0.005580689 0.036141876 -0.016755003 -0.057953715 0.06522818 -0.026476366 0.051170465 0.04716225
-0.064144455 -0.027743092 0.0047147325 -0.009863153 0.047765795 0.022893634 0.036948904 -0.08837052
-0.013447488 0.09210518 0.06305393 -0.08289085 -0.07352685 -0.08676233 0.03827824 0.06832619
-0.02787102 0.013368743 0.011940603 -0.008862888 0.04812678 -0.030918755 -0.06472432 -0.046967555
-0.011973162 -0.031039484 0.009058694 0.03369504 0.06653925 0.0763185 0.033565413 -0.027755516
-0.0051053544 0.022243723 -0.0009814723 -0.030792119 -0.024672218 -0.032310776 0.05250662 -0.06736705
00000000: 71a6 9bbd 5890 833c 622a ffbb 2dd6 3c3d
00000010: 1e75 a1bb 4d4d ba3d f58f 22bd 100f 6c3d
00000020: 82ff 743d 7555 a0bc fb72 89bd 5dc4 2a3d
00000030: 803c 6e3c 2211 313c f189 08bc f0d1 823c
00000040: 27d9 573c 0ee8 12bd 2501 a13c 17cb 06bd
00000050: af47 af3c 50c3 4d3c 65d0 3dbd 1779 783c
00000060: 4c3d b33d 4818 c6bc fd7a ac3d 5133 423d
00000070: 437c b7bc 43cf 9a3d a9de 9e3d 6b20 d8bb
00000080: 09ab 0f3d 4bb2 39bd e923 4c3d 895a 56bc
00000090: 77a5 9ebc 5b4d 6f3d 180c 05bc 9785 7d3d
000000a0: a538 a83d f717 373b 8078 96bd 2ca4 a23c
000000b0: 6ac0 303b cb16 25bc e423 c9bd e95d 81bd
000000c0: 3639 a53d da0d 8e3d cf09 853d 17bf 5ebd
000000d0: 72a1 963d 27df 84bb fe60 4f3d 8ead 2abc
000000e0: 0c8b ea3b a249 eb3c 913f 5d3d 4d6d 4f3c
000000f0: de72 11bc 24dd 81bd 6e80 f53c 24e1 743d
00000100: 07e0 87bd 7988 52bd 83cb 7a3d 0234 9c3c
00000110: 2bd5 9bbc 10af 423d 9d24 393c 0bf9 b2bc
00000120: 4c2b 12bd fdd8 f13a 1ac4 c53d 5949 dbbc
00000130: 220c 723c a067 73bd 5920 8c3d 9392 45bd
00000140: c50b 80bc d4d2 b73d e4b5 24bd ae07 473d
00000150: 6317 833d f02d 983d 0795 753d 04d1 00bd
00000160: d762 d6bc 6bd7 7e3d eee0 753d 40d4 68bd
00000170: c16c 72bd e03e bf3d c7ff 903c ea14 c5bd
00000180: 19f1 b93d 8c2f 723d 616a 913d d7c1 ad3d
00000190: 8f8c a43d 4637 42bc 29c6 98bd ff74 75bd
000001a0: c59a dd3b 853c a13d 8c7b 5b3c d8f2 8dbd
000001b0: 3b18 783d d1ca c03d 5a96 893d ced6 e8bc
000001c0: c3c6 cfbc 6871 5f3d 117a 95bd 6134 323d
000001d0: cbd7 113d e739 613d 0265 19ba 70ab 603d
000001e0: 4f68 2cbd bf11 99bd 9c93 473c b437 09bd
000001f0: 5d19 c73d 8ac2 783d c1c9 a93d 6722 993d
00000200: 105f b0bc b88f b839 2e94 6c3d 9676 973d
00000210: 79c3 50bc 6c14 283d 2c45 47bd 5fa7 c6bb
00000220: 7a5c 8cbd e820 7e3d e6ef 4bbc 9981 463d
00000230: 346a 40bd fb34 86bc 3bcf 0ebb 458d 9b3d
00000240: 6894 8e3b 9fe6 aebb 59d9 b03d 0a61 c3bc
00000250: aef3 083d 619f 9f3d acc2 0ebc 76a0 9bbc
00000260: 8f32 96bd 1144 323d 2f45 823d 4e0b 45bc
00000270: 7a21 a5bd 039a ab3d 6d75 3c3d 4ea1 253d
00000280: fcc9 a3ba 9282 db3c 547a 813c 3315 983d
00000290: 9076 a23d 0054 95bd 2732 c83d 4742 af3d
000002a0: 8e39 92bd 5986 a83d a0af abbb 10d3 c63c
000002b0: 20ee 183d e724 8abb 03a5 89bd a4a9 963d
000002c0: bbc3 6e3d 83cb 943d edda 29bd 35e5 0bbd
000002d0: 9c2c c2ba d0e5 6dbd 1b31 923c 9212 1fbd
000002e0: 65f2 9ebc 41a8 953d ac10 c43d d724 e53c
000002f0: 698a 183d 9f76 33bd f6e0 6b3d 86f2 783d
00000300: 5104 693d 2fed cf3c e7e3 49bd 4459 9abd
00000310: 919d b8bc 7194 733d 8e22 09bd 98d4 983d
00000320: 9cd7 033d 89e0 023d ffe4 593d 77fa 793d
00000330: bccd b73c e032 8eba 9973 6abd 5fa4 48bb
00000340: 36de b63b 8109 143d ca41 89bc e060 6dbd
00000350: 5a96 853d f7e4 d8bc 1f98 513d 342d 413d
00000360: 2b5e 83bd 7b45 e3bc 0b7e 9a3b 1099 21bc
00000370: 11a6 433d 6e8b bb3c bc57 173d 9afb b4bd
00000380: da52 5cbc a4a1 bc3d 6b22 813d aec2 a9bd
00000390: 3f95 96bd 73b0 b1bd a5c9 1c3d 9aee 8b3d
000003a0: c451 e4bc 9208 5b3c 85a2 433c a635 11bc
000003b0: 9620 453d 5449 fdbc 2f8e 84bd 0d61 40bd
000003c0: 152b 44bc 8446 febc eb6a 143c cf03 0a3d
000003d0: bb45 883d e04c 9c3d e37b 093d 895f e3bc
000003e0: d14a a7bb 7838 b63c bfa4 80ba c13f fcbc
000003f0: 641d cabc 4e58 04bd 2e11 573d bcf7 89bd

fc2.bias f4 [64]
0.018236162 -0.0099168755 -0.030513378 0.055373035 -0.05717076 0.0048695495 -0.008307876 0.02158271
0.05975102 0.015804386 -0.0061285966 -0.07832531 -0.044901814 -0.061336517 0.014754821 -0.049345728
0.052399747 0.03726794 0.059852615 0.07201648 -0.034989055 0.028855035 -0.06694356 -0.0054144976
-0.026632806 0.032859594 0.019218544 -0.04100622 -0.060928367 0.083048016 -0.081802644 0.0023498938
0.029879197 0.081983976 -0.036042582 -0.05050662 -0.027214564 -0.075131595 -0.010494341 0.03483065
0.033560514 -0.052354824 0.013542957 0.0285211 -0.036396217 -0.06836337 0.054412976 -0.056374267
-0.035220306 -0.064937405 0.065021984 -0.0068130107 0.078044355 -0.05604987 0.09600061 -0.0350545
0.004593104 -0.019400107 0.03152387 0.06585692 -0.057575736 0.014342776 -0.03786152 -0.08764611
00000000: 0164 953c 647a 22bc 31f7 f9bc d6ce 623d
00000010: e32b 6abd be90 9f3b c21d 08bc 39ce b03c
00000020: 7cbd 743d 3378 813c 65d2 c8bb 0569 a0bd
00000030: f7ea 37bd 003c 7bbd 34be 713c bf1e 4abd
00000040: 1ea1 563d 44a6 183d 0428 753d 607d 933d
00000050: af50 0fbd 6561 ec3c b519 89bd 196c b1bb
00000060: 0b2d dabc c897 063d 3570 9d3c 23f6 27bd
00000070: 0690 79bd 1415 aa3d 2588 a7bd ad00 1a3b
00000080: 38c5 f43c 37e7 a73d 63a1 13bd 08e0 4ebd
00000090: 14f1 debc 98de 99bd 75f0 2bbc 95aa 0e3d
000000a0: c076 093d 0372 56bd 47e3 5d3c 15a5 e93c
000000b0: 3314 15bd 1802 8cbd 24e0 5e3d b4e8 66bd
000000c0: 2b43 10bd e7fd 84bd 3f2a 853d ad3f dfbb
000000d0: b8d5 9f3d 8c94 65bd f89b c43d 4f95 0fbd
000000e0: c081 963b f9ec 9ebc 2c1f 013d fedf 863d
000000f0: 89d4 6bbd f6fd 6a3c ae14 1bbd ce7f b3bd

fc3.weight f4 [32, 64]
0.1286368 0.02864501 0.049223553 0.05043163 0.124653265 0.10081389 -0.032038927 0.05808015
0.05047896 0.11717474 -0.010195099 0.073374785 -0.036031168 0.13313368 0.041659866 -0.076316334
0.14870068 -0.02868638 -0.044054344 -0.07845404 0.0032329487 0.01748932 -0.0055845142 0.1074664
0.14765312 -0.011441253 0.075099654 0.052299872 -0.09765473 0.08615028 -0.042951565 0.040535226
-0.033512715 0.05054917 0.088819854 0.03796366 0.040682707 -0.01504543 0.11855365 -0.09235375
0.087830216 0.015522802 0.12908731 -0.07387 0.1373644 -0.08653145 -0.023000995 0.03519907
0.02079321 -0.012073857 0.113115825 0.13912639 0.07505437 0.057194337 0.02985765 0.08120266
-0.063200824 0.044654824 0.11159488 0.1497566 0.07760488 0.1003391 0.015495274 0.09970242
-0.0051317974 0.008197869 0.08585589 0.08237013 -0.09939635 0.14208399 0.037176266 0.12135423
0.02551724 0.07977069 -0.08245359 -0.025567058 -0.0019410616 0.0032251559 0.016468331 0.07508862
-0.09510199 0.018344494 -0.0838708 0.116579354 -0.112362355 -0.081663415 -0.10170712 0.027264453
0.09433341 -0.075492285 -0.095693715 0.11318327 0.034662157 0.060598735 -0.07823484 -0.018084822
0.08863807 0.037044697 0.058670186 0.040396508 0.076798044 -0.02192116 0.11982025 0.0651345
0.023082044 0.0103965225 -0.055870064 -0.046891447 0.11352577 -0.05587972 0.13568433 0.040546194
0.047445305 0.12664573 -0.073418505 -0.09800528 0.008277003 -0.051651962 0.05357057 0.10225356
-0.05378054 -0.06528012 0.0022142217 0.031666987 -0.0047137006 0.011774795 0.037858214 -0.02428307
-0.15621033 0.06446579 0.06822562 0.03714312 0.004769199 -0.13362116 -0.10582575 -0.031963423
-0.02312355 0.018051332 -0.0043982603 0.048373185 -0.04575939 0.08390948 0.06982114 -0.064724825
-0.041371558 -0.0058224318 0.03740849 0.07576943 -0.12927267 -0.007065976 0.09903004 -0.07376182
-0.0016205097 -0.06932199 0.04360949 -0.11444733 0.050943047 0.04980774 0.005821638 0.072871275
-0.00062185584 0.08207468 -0.06654615 -0.025578367 -0.0040965606 -0.099462315 -0.1357389 -0.06868474
-0.098323755 -0.08824053 -0.028380526 0.10374943 -0.013286177 0.08821284 0.027588256 -0.14535019
-0.15020876 0.040797774 0.029137937 -0.103770256 -0.12539777 -0.076676495 -0.060630493 0.07941627
0.067767136 0.01949272 -0.0018874094 0.07250729 0.07180426 0.071738005 0.06367939 0.10497747
0.10990072 0.15585017 -0.038063392 0.03967689 0.029146994 0.020336904 0.00053126516 0.13535717
-0.10028147 -0.007269629 0.09891143 0.11784633 0.08519424 -0.06304911 0.13409983 0.033577047
0.08939085 -0.0029655641 0.08025595 -0.017766094 0.11414948 0.04319794 0.0066565103 0.08741445
-0.007707321 -0.066985734 -0.062187195 -0.016876984 -0.09179561 0.16060609 -0.03056975 -0.035338055
0.13847372 0.11247623 0.14128259 -0.020016545 0.04014242 0.010972149 0.1118222 -0.032069076
-0.06782202 -0.008046234 0.048139177 -0.033675104 0.15371132 -0.07662858 0.11931858 0.00742846
0.058683597 0.030982286 0.05306724 -0.06205496 0.09131138 -0.014795686 0.14422917 0.056841232
0.017159909 -0.07914594 -0.035235915 -0.063682795 0.13558352 -0.090626016 0.131949 -0.06483576
00000000: 5eb9 033e f1a8 ea3c a39e 493d 6691 4e3d
00000010: 364a ff3d 8377 ce3d 403b 03bd 74e5 6d3d
00000020: 07c3 4e3d 4ff9 ef3d 5809 27bc 8545 963d
00000030: 6b95 13bd 3254 083e 89a3 2a3d bd4b 9cbd
00000040: fe44 183e b3ff eabc 5472 34bd 83ac a0bd
00000050: e1df 533b c345 8f3c 4dfe b6bb 5817 dc3d
00000060: 6132 173e 1874 3bbc d9cd 993d 6438 563d
00000070: 34ff c7bd 8f6f b03d fbed 2fbd 4408 263d
00000080: a144 09bd a50c 4f3d 2fe7 b53d c87f 1b3d
00000090: e9a2 263d 1b81 76bc 42cc f23d f623 bdbd
000000a0: 54e0 b33d 5a53 7e3c 772f 043e 2849 97bd
000000b0: 41a9 0c3e 6737 b1bd 956c bcbc e62c 103d
000000c0: 8656 aa3c 6dd1 45bc 45a9 e73d 2677 0e3e
000000d0: 1bb6 993d 9c44 6a3d 0898 f43c 954d a63d
000000e0: 6f6f 81bd fae7 363d db8b e43d cb59 193e
000000f0: 4fef 9e3d 967e cd3d e4df 7d3c c830 cc3d
00000100: a328 a8bb 5b50 063c 36d5 af3d acb1 a83d
00000110: 5090 cbbd 777e 113e 2446 183d 9188 f83d
00000120: 8809 d13c d15e a33d 6edd a8bd 0272 d1bc
00000130: 386b feba 235d 533b 98e8 863c 10c8 993d
00000140: d5c4 c2bd 3147 963c 74c4 abbd 28c1 ee3d
00000150: 3c1e e6bd 263f a7bd d34b d0bd b459 df3c
00000160: e031 c13d b39b 9abd 11fb c3bd a1cc e73d
00000170: e8f9 0d3d 6136 783d 9639 a0bd 9f26 94bc
00000180: e087 b53d 2ebc 173d 2650 703d cf76 253d
00000190: 4b48 9d3d 0194 b3bc 5264 f53d 3d65 853d
000001a0: 8e16 bd3c 2d56 2a3c 02d8 64bd 3f11 40bd
000001b0: 3380 e83d 22e2 64bd d5f0 0a3e c413 263d
000001c0: 0256 423d 6baf 013e 715c 96bd feb6 c8bd
000001d0: 449c 073c 0291 53bd d06c 5b3d 516a d13d
000001e0: fc48 5cbd 95b1 85bd 7a1c 113b 3eb5 013d
000001f0: 6375 9abb 12eb 403c 3711 1b3d 4aed c6bc
00000200: 9af5 1fbe a406 843d e0b9 8b3d 6223 183d
00000210: f146 9c3b fcd3 08be 2cbb d8bd 14ec 02bd
00000220: 996d bdbc 63e0 933c 481f 90bb f622 463d
00000230: 336e 3bbd bcd8 ab3d 63fe 8e3d 738e 84bd
00000240: 3975 29bd 19ca bebb a539 193d 012d 9b3d
00000250: 0e60 04be b489 e7bb 43d0 ca3d 7010 97bd
00000260: 4867 d4ba b0f8 8dbd dd9f 323d 5d63 eabd
00000270: a8a9 503d 3303 4c3d 70c3 be3b 893d 953d
00000280: 0a04 23ba c516 a83d 5949 88bd b989 d1bc
00000290: 713c 86bb e6b2 cbbd 23ff 0abe 96aa 8cbd
000002a0: f75d c9bd 73b7 b4bd 477e e8bc 957a d43d
000002b0: 44ae 59bc efa8 b43d c400 e23c aed6 14be
000002c0: 53d0 19be 911b 273d afb2 ee3c 8085 d4bd
000002d0: 4668 00be 9108 9dbd ae57 78bd ffa4 a23d
000002e0: 7fc9 8a3d 32af 9f3c f362 f7ba b47e 943d
000002f0: 1d0e 933d 60eb 923d 576a 823d 6efe d63d
00000300: a113 e13d 3097 1f3e 5ce8 1bbd 3c84 223d
00000310: adc5 ee3c 9499 a63c 9a44 0b3a 129b 0a3e
00000320: 5f60 cdbd 1136 eebb 1392 ca3d 6b59 f13d
00000330: 517a ae3d e41f 81bd 7751 093e 1688 093d
00000340: 8d12 b73d e959 42bb 3b5d a43d 338a 91bc
00000350: 34c7 e93d 53f0 303d db1e da3b 5906 b33d
00000360: b28d fcbb d12f 89bd 00b8 7ebd 9a41 8abc
00000370: 56ff bbbd ec75 243e 6a6d fabc a3be 10bd
00000380: 0ecc 0d3e f059 e63d 62ac 103e bdf9 a3bc
00000390: 616c 243d 87c4 333c 0a03 e53d dd5a 03bd
000003a0: 45e6 8abd 5ad4 03bc 962d 453d e8ee 09bd
000003b0: 8066 1d3e 72ef 9cbd 4d5d f43d 706a f33b
000003c0: 365e 703d 90ce fd3c 095d 593d 572d 7ebd
000003d0: 7601 bb3d 9b69 72bc d0b0 133e 5ad2 683d
000003e0: f092 8c3c 4417 a2bd 8953 10bd 206c 82bd
000003f0: 68d6 0a3e 229a b9bd a31d 073e 9cc8 84bd

fc3.bias f4 [32]
0.13376248 -0.072490804 -0.0029046182 -0.04479467 0.155591 -0.02366324 0.020823797 0.013639218
0.007839936 0.09977531 0.12477261 -0.047710937 -0.031849436 0.013391922 0.066171 -0.021509107
0.056913465 -0.054504585 -0.008737863 -0.12026764 -0.07166764 -0.1064797 -0.15140241 0.1543514
0.17106763 0.04969096 0.01211139 -0.0034900263 -0.1308024 0.028032243 0.037868086 -0.020974519
00000000: 08f9 083e 0f76 94bd 685b 3ebb 9e7a 37bd
00000010: 3f53 1f3e 69d9 c1bc ab96 aa3c 0777 5f3c
00000020: 1373 003c ff56 cc3d c888 ff3d 8b6c 43bd
00000030: 8e74 02bd cb69 5b3c a984 873d de33 b0bc
00000040: 181e 693d 3340 5fbd 4129 0fbc e14e f6bd
00000050: 7cc6 92bd 0712 dabd 3c09 1bbe 4b0e 1e3e
00000060: 5a2c 2f3e c088 4b3d da6e 463c edb8 64bb
00000070: 10f1 05be e0a3 e53c 911b 1b3d c1d2 abbc

fc4.weight f4 [1, 32]
-0.043533813 -0.16393538 0.0281615 -0.05949193 -0.065878116 -0.006636239 0.09145866 -0.12821402
-0.13328739 -0.06454349 -0.090593345 -0.072836764 0.04310571 -0.10467346 -0.11113858 0.054211125
-0.10529474 0.032918185 -0.12957527 0.12109848 -0.13159189 0.12201962 0.06833516 -0.07127469
-0.061377913 0.07832099 -0.05452348 -0.086171485 0.07007048 -0.08322547 -0.11740318 0.12169693
00000000: 8350 32bd adde 27be f2b2 e63c cfad 73bd
00000010: 1beb 86bd cf74 d9bb ae4e bb3d 894a 03be
00000020: 7d7c 08be 612f 84bd 0189 b9bd 712b 95bd
00000030: 9d8f 303d 0a5f d6bd a09c e3bd 7c0c 5e3d
00000040: c5a4 d7bd 38d5 063d 61af 04be 7b02 f83d
00000050: 06c0 06be 6ce5 f93d 4ef3 8b3d 77f8 91bd
00000060: 6867 7bbd c166 a03d 0354 5fbd ad7a b0bd
00000070: 1d81 8f3d 1d72 aabd 1471 f0bd 3d3c f93d
