Rudi/checkpoints_02/best_model.pth (torch, 604834 bytes, 10 tensors)

encoder_rnn.weight_ih_l0 f4 [360, 40]
000000 53 61 b0 bc fb 4b 29 3e 00 d1 36 3d a1 bb 67 bc
       -0.021530783 0.1653289 0.04463291 -0.014143855
000010 69 40 29 bd ac 0f 9c bd cc 51 17 3d 6c d5 d4 3c
       -0.041321192 -0.07620177 0.036943242 0.025980674
000020 7c 96 fd bc 2d 50 82 bd 4a 67 66 bd d8 5e 70 bd
       -0.030955546 -0.063629486 -0.056250848 -0.0586842
000030 44 cd 8d 3d 46 2f 6f 3d 6f 65 a7 bd e6 39 c0 bc
       0.06923917 0.058394693 -0.08173644 -0.023465108
000040 52 bb 86 bd 11 f9 8e 3d 23 a2 d8 3d f7 ad b3 3b
       -0.06578697 0.069810994 0.105778 0.0054833847
000050 ad 6b a1 bd be 05 48 bd 3d 32 9e bc 17 7e 42 3e
       -0.07881866 -0.0488336 -0.019311065 0.18993412
000060 d6 69 64 bd 79 63 e2 3d 4c 93 c3 bc 52 1b 6c 3d
       -0.055764996 0.11054129 -0.023873948 0.057643242
000070 50 3f ae 3c 4f f7 12 3e 8b 46 d6 bd 5b 9e 57 bd
       0.021270424 0.14352153 -0.10462674 -0.052641254
000080 3c d3 47 bd 9e 29 96 3c ce 50 03 bc 29 fd b2 bd
       -0.048785433 0.018330391 -0.008014871 -0.08739693
000090 4d 24 59 bd bc 7c e0 bb 62 99 0c be 11 10 b2 3d
       -0.053013135 -0.006850807 -0.13730386 0.08694471
0000a0 34 69 95 bd 3a 65 db 3c af 74 27 bd 47 04 7b 3b
       -0.072954565 0.026781667 -0.040882763 0.003830211
0000b0 b2 9a d5 bc 7a ee 21 3c a6 ff ed 3d c9 25 98 bc
       -0.026074741 0.009883517 0.11621027 -0.018572705
0000c0 ff 32 1b bd 53 95 97 bd 53 85 dd bd 17 b8 0d bd
       -0.03789043 -0.07401528 -0.10816445 -0.03459939
0000d0 93 c2 9d bd 1f 18 95 bb 9a 54 a3 3b 23 03 00 3d
       -0.07703128 -0.0045499946 0.0049844505 0.03125299
0000e0 63 67 3d 3d 0d 29 6d 3a 30 32 52 bc 4f 6d 8a bc
       0.046241175 0.00090469496 -0.012829348 -0.016897826
0000f0 11 00 f3 bc 30 4d 13 bd 7c 03 dd 3c 94 0c 63 3d
       -0.029663118 -0.035962284 0.0269792 0.055431917
000100 1a 3c cf 3c 96 c3 22 bd 26 68 cd 39 73 92 2a 3d
       0.025297213 -0.039737307 0.00039178244 0.04164357
000110 36 00 f3 bc d4 98 25 3e ee 1c 51 3d 11 c2 90 bd
       -0.029663187 0.1617158 0.05105298 -0.07068265
000120 db 19 a6 bd b2 d6 67 3d dc a6 3d bd c1 ee 5f bc
       -0.081104 0.056601234 -0.046301708 -0.013667763
000130 b9 77 94 bd 8a ae a4 3d 99 7b f2 bd a4 9e 80 3d
       -0.07249398 0.08041103 -0.11839981 0.06280258
000140 2a 8e 4d 3d e2 fe 8a bd b8 15 c7 3b 52 66 70 3d
       0.050184406 -0.06786896 0.006075587 0.05869133
000150 5c 27 df 3d eb 64 98 bc 86 a2 f8 3c 7d d6 3b bd
       0.10896179 -0.018602809 0.030350935 -0.04585885
000160 f8 75 0c bd 39 b0 16 bc 66 88 08 be 3c 4f 0c 3e
       -0.03429219 -0.009197288 -0.13333282 0.137021
000170 4e fb 07 3e 59 98 91 3d 96 95 a3 3c 05 69 d7 3d
       0.13279459 0.07109136 0.01996879 0.10518078
000180 fa dd d6 3b 63 2f ad bc c5 87 b4 3c 21 29 52 3d
       0.0065572234 -0.02114076 0.022037396 0.051308755
000190 bb 0f 09 3d 3c ff 8f bd 2e 13 fc bc 43 4c 25 3d
       0.033462267 -0.07031104 -0.030770864 0.040355932
0001a0 24 63 af bd 7c 0d 93 bb c0 db bb bd 98 c3 f6 3c
       -0.085638314 -0.0044876914 -0.09172773 0.030122563
0001b0 b3 01 34 3a de 65 50 3a 52 40 af 3c d4 0b 3b 3d
       0.0006866708 0.00079497497 0.021392975 0.045665577
0001c0 8c b3 a3 bd 1b 44 28 3e ba bb c1 3d ae 48 75 3d
       -0.0799323 0.1643223 0.09459634 0.059883766
0001d0 66 e5 87 3d 1c 5a 29 bd a5 47 75 ba f4 98 4a 3b
       0.06635551 -0.0413457 -0.0009356684 0.003091392
0001e0 36 51 aa bd 42 81 1b 3e 40 52 43 bd c2 40 7c bd
       -0.08316271 0.15186027 -0.04768586 -0.061585195
0001f0 53 3f a1 bd 91 c0 7b bd b5 7b 88 bd 92 56 22 3e
       -0.07873406 -0.061462943 -0.0666422 0.15853336
000200 b4 9a e1 3d 89 2b ac bd 3b ae 21 3d 3c ae 87 bd
       0.110158354 -0.08406741 0.0394728 -0.066250294
000210 72 0f 63 bb 8a 36 11 3d f9 77 00 bd 34 b0 94 3a
       -0.0034646657 0.035452403 -0.031364415 0.0011344017
000220 70 32 0d bd ed 15 b8 bd f1 e0 f5 bc 58 a8 56 bd
       -0.03447193 -0.08988557 -0.030014487 -0.05240664
000230 ee 69 a3 bc 9d 20 2e 3e ba 54 de bd e8 e9 ba bb
       -0.019947972 0.17004628 -0.10856004 -0.0057041533
000240 17 b7 8e 3d 81 a5 9c 3b ec bb 7b bc 6a 03 36 3d
       0.06968515 0.004780472 -0.015364628 0.04443685
000250 40 2f da bc ea ca 33 3c 31 a8 a6 bc 9f 7e 8e 3d
       -0.026633859 0.010973671 -0.020343872 0.06957745
000260 10 d5 29 3d 5c 5f 13 3c 12 42 2c bc e8 2e 33 bd
       0.041462958 0.008994903 -0.010513799 -0.043745905
000270 10 58 56 bd ce 33 2c 3e 63 a0 9d bd 8a bd 19 3e
       -0.052330077 0.16816637 -0.07696607 0.1501371
000280 40 15 0d 3e f7 7f f8 3d d1 8c ce bc ca 1b 1a 3c
       0.13777637 0.12133782 -0.02521363 0.0094060395
000290 f2 67 8f bd 23 2f 31 be f9 ab 3a bd 4c a8 48 3d
       -0.07002248 -0.17303137 -0.045574162 0.048988625
0002a0 29 48 9d 3d e6 39 00 be ba 61 4e 3d d2 d9 70 3d
       0.07679779 -0.12522087 0.050386168 0.05880148
0002b0 7e b4 23 bc 83 a9 b9 3d 92 f3 b6 bb 26 d9 ab 3c
       -0.009991763 0.09065535 -0.005583235 0.020977568
0002c0 32 e6 f5 3c 31 11 2f bd 54 6c 2e be dd 6f 24 be
       0.030016992 -0.042741004 -0.17033511 -0.16058297
0002d0 3c fa cd bd 84 64 bc bd 8e 64 50 bd 87 79 6f 3e
       -0.10057494 -0.09198859 -0.050877146 0.23386203
0002e0 5e 05 c4 bd 2d f5 5d bc 86 29 a0 bd 0b 03 6a 3d
       -0.09571336 -0.013547224 -0.0782042 0.05713181
0002f0 64 35 44 bd 16 4a fd 3c be a1 8e bd ba 9e 0e be
       -0.04790248 0.030919116 -0.069644436 -0.13927737
000300 c7 1a 34 be 25 0c 2d bc 88 a1 27 bc 62 b0 64 3c
       -0.1758834 -0.0105619775 -0.010231383 0.013958069
000310 71 9f 77 bc 99 ba 72 3d b7 0d 89 bd ff c4 91 bd
       -0.015113697 0.059259985 -0.06692069 -0.07117652
000320 fa d3 8e bc 2b 2c d4 bd db 39 39 3d 36 5b ce 3d
       -0.017435063 -0.10359987 0.04522119 0.10075991
000330 1f 57 54 bd ef 99 cc bd 16 db ea bd 92 34 c4 3d
       -0.051840898 -0.09990298 -0.114675686 0.095803395
000340 2c 1d c1 3d da 39 91 3d b7 e6 39 bd 5b 5d 50 bc
       0.09429392 0.070911124 -0.045386042 -0.01271757
000350 11 80 a6 3d e4 d9 d9 3d e8 99 5f bd a8 28 1f 3e
       0.081298955 0.106372625 -0.054590136 0.15542853
000360 3f 85 0e 3e d3 88 96 bd 05 a9 fc 3b 48 9b 24 bd
       0.13918017 -0.07350316 0.0077105784 -0.04018715
000370 22 66 8e 3d 55 8f ef bd 5b d3 06 be c3 9d dd 3d
       0.06953074 -0.1169726 -0.13166563 0.10821106
000380 63 46 8d bd c6 47 39 3d 44 1a c2 bd 78 78 1a be
       -0.06898191 0.045234464 -0.09477666 -0.15085018
000390 4c 25 3d 38 43 7d ef bd 0a 7f 6f bd d1 51 9b 3d
       4.5095847e-05 -0.11693814 -0.058470763 0.075839646
0003a0 34 90 8c 3d 05 ac 23 3e 5a 53 fa 3d 50 f8 56 3d
       0.06863442 0.15983589 0.12222929 0.052482903
0003b0 c9 71 c4 3d b0 06 d1 bd f8 85 23 3e 50 9e e1 3c
       0.09592015 -0.10206354 0.15969074 0.02754131
0003c0 cb bb f3 3c a4 2f 49 bd 36 41 87 3d 50 11 48 bc
       0.029752633 -0.0491177 0.06604235 -0.012211159
0003d0 c7 f0 c1 3b 64 9d 25 bd 0f 26 6a 3d c3 df 4b bd
       0.0059185955 -0.040433303 0.0571652 -0.049773943
0003e0 88 f1 46 be 59 4a f1 bc f6 1f 0c 3d e7 1b 01 3e
       -0.19428074 -0.029454397 0.034210168 0.126083
0003f0 98 64 c5 3d 53 59 a3 3d 64 42 23 3d 94 8b 75 bd
       0.09638327 0.079760216 0.039858237 -0.059947565

encoder_rnn.weight_hh_l0 f4 [360, 120]
000000 e1 b0 88 3b 18 52 8e bd 0f bf 6b 3d b7 25 d6 bc
       0.0041714762 -0.06949252 0.057555255 -0.02614103
000010 3c 14 bd bc a7 a7 af 3c 2d c6 df bc 48 46 03 be
       -0.023080938 0.021442248 -0.027316177 -0.12819779
000020 0e b8 8f bd a1 47 3f bd a6 03 3f bd 22 95 27 bb
       -0.070175275 -0.04669917 -0.04663434 -0.0025571068
000030 4d 36 b4 bc 53 63 a1 3d 76 91 1a bd 8d 31 68 3d
       -0.021998549 0.07880273 -0.03773638 0.05668788
000040 9e 03 5d bc ca c2 b9 3d b5 1e 3d bd 39 74 02 bd
       -0.013489632 0.09070356 -0.046171863 -0.03184912
000050 df b7 c9 3d a1 a3 c7 3d 19 9e 3b bd 6f 9a ac 3c
       0.09849524 0.097480066 -0.04580507 0.021069733
000060 3e 2d a0 3d fb dc a8 bd 91 54 ba 3c 20 71 c4 bd
       0.07821129 -0.08245274 0.022745403 -0.095918894
000070 45 68 f7 bc 93 23 3d bc bf 13 88 3d 07 f2 fa bd
       -0.030201087 -0.011544126 0.06644391 -0.12253194
000080 60 33 e5 bc 61 a4 0c bc 26 de df bd 8e 8b fc bc
       -0.0279786 -0.008584113 -0.10931043 -0.030828264
000090 45 a3 7b 3d 7c c3 ef 3b 01 81 16 3c 19 a8 5e bd
       0.061435003 0.0073170047 0.00918603 -0.05435953
0000a0 6d 1b cc 3d f4 c3 cd 3d 38 2a ca 3d 8a de 56 bc
       0.099661686 0.10047141 0.09871334 -0.013114581
0000b0 53 ef 52 3d bb b3 46 3d 98 32 d6 3c 42 a1 ae 3d
       0.05149777 0.048511248 0.026147172 0.08526851
0000c0 d6 8d 7c bc 6a b2 9d bd dc 13 b3 ba c8 71 19 3d
       -0.015414676 -0.077000454 -0.0013662535 0.037462026
0000d0 fd d2 f9 bc 17 d7 9c 3c 5a ac b9 3c 0d 88 8f bd
       -0.030496115 0.019145532 0.022665191 -0.070083715
0000e0 13 cb 52 bd b2 ce a7 3d 11 be af 3b bb ea 93 3c
       -0.051463198 0.08193721 0.005363234 0.018056264
0000f0 32 21 46 3c 86 f9 dc bc d8 bd de 3c 71 b0 ed bd
       0.012092875 -0.02697445 0.027190134 -0.11605919
000100 75 59 24 bd c2 ae 1f bd bd bf 81 3c 62 f9 8d 3d
       -0.040124375 -0.03898502 0.015838498 0.069323316
000110 47 ae df 3c 37 8b 6e 3c 92 33 2c bd 80 c9 63 3c
       0.027304782 0.014559559 -0.04204137 0.013903022
000120 81 a9 92 bc 02 06 96 3c de 18 0c be 1f 5c f3 bc
       -0.017903091 0.018313412 -0.13681361 -0.029707013
000130 4b d6 97 3d 4f 4f ef bc 83 6c 02 3d 40 20 93 3c
       0.0741392 -0.029212622 0.031841766 0.017959714
000140 75 d1 4c bc 94 f3 86 bc 80 a1 98 bd f5 99 86 3c
       -0.01250111 -0.016473569 -0.07452679 0.016430834
000150 f4 0f cb 3c 41 60 94 3d d5 bd 04 3d a9 20 00 3c
       0.02478788 0.072449215 0.0324076 0.007820287
000160 21 34 57 bc ca 7e a3 3d 7b 3c 1d bd be c7 97 bb
       -0.013134987 0.079831675 -0.038387757 -0.0046319654
000170 e9 b6 04 3d 58 c4 f5 3d d6 3d eb 3d 7b 8d 1e bc
       0.032401 0.1200034 0.11486404 -0.009677286
000180 d0 7f d3 3d 95 c5 89 3d c1 dd b6 bc 06 c2 01 3d
       0.10327113 0.06727139 -0.022322537 0.031679176
000190 fe 1f 8b bd 87 6b 1a bd da 6c e3 bd 09 c3 9c 3c
       -0.067932114 -0.037700202 -0.11104746 0.019135969
0001a0 af 6a 84 3d 5e 4e 1e 3d be 55 33 3c 3a cc c1 bd
       0.06465661 0.038648956 0.0109457355 -0.09462781
0001b0 42 70 87 3b ea b4 c9 bd b6 f1 9a bb 79 b4 81 bd
       0.004133255 -0.0984896 -0.004728521 -0.063332506
0001c0 9f a2 85 bc d7 38 eb bc e4 7b d8 bd 0e a1 39 3d
       -0.016312895 -0.028713627 -0.10570505 0.04531961
0001d0 fb 3f 1b 3d ef 05 aa bb bc 4a b6 bd f8 93 83 3b
       0.037902813 -0.0051886956 -0.08900973 0.004015442
0001e0 34 32 9f bc 08 bb 06 bd 71 f4 e9 3c e2 c0 39 bc
       -0.019433118 -0.03289321 0.028558942 -0.011337491
0001f0 79 93 94 3b 5c 1e 90 37 06 6f 05 3d 57 26 c4 bd
       0.0045341817 1.7180275e-05 0.032576583 -0.09577625
000200 d2 8d b3 bd 51 a7 bb bc 93 d6 92 bd 22 9e 05 3d
       -0.087672845 -0.022906931 -0.07169833 0.03262151
000210 ee e7 3c bd 19 26 0c 3e 54 78 6a bd 86 0d ee 3c
       -0.046119623 0.13686408 -0.05724366 0.029059183
000220 8e 1f 13 3d 5f 7a c7 3c d7 56 ca 3b a5 17 0b 3c
       0.035918765 0.024350343 0.006174903 0.008489524
000230 23 24 88 3d ef ff f3 3c e2 39 8f bd 5b e4 85 bd
       0.066475175 0.029785125 -0.06993462 -0.06537696
000240 1b b6 3b 3c c1 e0 4f bd 03 59 7b 3d ae 3b 7f bd
       0.011456992 -0.05075145 0.061364185 -0.062312774
000250 35 f8 cc bd ef 3e 27 3c 45 2c 9c 3c ad 6a 46 be
       -0.10008279 0.010207876 0.019064078 -0.19376631
000260 1e eb 2e bd 1a e2 11 be 3f 54 26 be 11 14 27 3d
       -0.042704694 -0.14246407 -0.16243075 0.04079062
000270 b9 29 7f bb 9e f7 6b 3d 52 bc 8f bb e2 e5 59 3c
       -0.003893478 0.057609193 -0.004386463 0.013299437
000280 89 bc b4 3c 3d 3f c9 3d 1c 09 b4 3d 01 4a ad bd
       0.022062557 0.09826515 0.087908 -0.08461381
000290 45 84 90 3d 0d 03 ea 3d 7e 91 41 3d 4e 02 ac 3c
       0.070564784 0.11426363 0.047257893 0.020997193
0002a0 b0 38 0d 3d e0 76 79 bd 0b 67 62 bb c5 d8 a8 bc
       0.03447789 -0.060904384 -0.0034546282 -0.020611176
0002b0 52 c8 cb bd d4 6b 5d bd 56 05 90 bc 4c 8b c6 bd
       -0.099503174 -0.05405791 -0.01758067 -0.096945375
0002c0 0f 46 ac 3b dd da a5 3d cb fe 85 3d 30 45 51 bd
       0.005257375 0.080983855 0.065427385 -0.051091373
0002d0 f9 02 39 3d be 42 b4 bd cd df e5 3d 3c 35 84 bd
       0.04516885 -0.088017926 0.11224327 -0.06455466
0002e0 17 cc 6a bd 63 50 33 3d ea 0e 25 bb a6 72 24 3e
       -0.05732354 0.043777835 -0.0025185891 0.1605936
0002f0 cf b2 97 3d a3 08 3f bd fc 4d 04 bd 35 60 f4 3c
       0.07407152 -0.046639096 -0.032300934 0.029831031
000300 f4 55 9f bd c0 04 7b bc 4b fa 20 bd b8 c4 9e 3c
       -0.07780066 -0.015320957 -0.039301198 0.019380912
000310 4e b7 5d 3d fe 72 9c bc c9 46 70 3d 38 31 2e 3b
       0.05412989 -0.019097801 0.058661256 0.002657963
000320 7e a9 aa bc 09 31 c6 bb c7 05 6a bc f3 6e 09 bd
       -0.020832773 -0.006048326 -0.014283604 -0.033553075
000330 03 9d 4d 3d ee b1 d0 3d c9 58 71 bd a2 f2 b7 3a
       0.050198566 0.101901874 -0.058922563 0.0014034102
000340 29 60 55 3d d8 3b 90 3d ee 22 b5 bd b2 f1 46 bd
       0.05209366 0.07042664 -0.08844553 -0.048570342
000350 51 26 f5 3c 89 e8 60 3b fe 21 04 3d f6 18 70 bc
       0.029925497 0.003431829 0.03225898 -0.014654389
000360 f6 1f cc 3d f0 9d a0 3b 23 69 74 3d c4 b1 79 3c
       0.099670336 0.00490164 0.05967058 0.0152401365
000370 2d bc 8b 3b 00 3e af bd 01 6b 97 3d 94 5c 93 3d
       0.0042643757 -0.085567474 0.07393456 0.07195392
000380 fb 2c 09 bd 47 0e 0c 3d b9 56 56 bd bb b5 2b be
       -0.033490162 0.034193303 -0.0523288 -0.16768543
000390 fb fb ed bd 1b 0e 75 bd 17 41 9d bc ad f3 25 bd
       -0.11620327 -0.059827905 -0.019196076 -0.04051559
0003a0 5c 3c 8c bd e3 bb 6c 3d 1b f8 e8 bd 81 35 4e 3d
       -0.0684745 0.05779637 -0.11375447 0.050343994
0003b0 50 02 11 3e f4 3d 15 3d d0 1e 08 bd b7 33 b4 3d
       0.14161038 0.036436036 -0.03323251 0.08798926
0003c0 e7 81 f7 3c 9f 19 85 bd 43 ad a5 3d 01 e9 3b 3b
       0.03021331 -0.064990275 0.08089688 0.0028672817
0003d0 56 21 05 bd 0a 0e fe bd ce a6 10 bd 47 ed bf bd
       -0.032502495 -0.124050215 -0.035315327 -0.09371429
0003e0 30 27 3b bd 8c b9 dc bc aa 8e 96 ba 97 55 b3 bd
       -0.04569167 -0.026943944 -0.0011486609 -0.08756559
0003f0 d1 fd 03 3d d7 11 b2 3d 89 99 4e bd 51 3b 26 bd
       0.03222448 0.08694809 -0.05043939 -0.040583912

encoder_rnn.bias_ih_l0 f4 [360]
000000 c7 76 5f bd b2 a8 70 bd c5 7c 3a bc 5a 13 7a bd
       -0.054556634 -0.05875463 -0.011382286 -0.06105361
000010 7b a5 0a 3d bb 06 4c bc 5f f4 65 3d e6 f1 0c 3e
       0.03384922 -0.012452777 0.056141254 0.13764152
000020 30 77 09 3b d0 3d f3 3c fe 69 e1 bc 96 75 b4 bc
       0.0020975582 0.02969256 -0.027516361 -0.022028726
000030 60 b6 bd 3c fe 85 91 3b 95 75 86 3c 92 ea 0d bd
       0.023158252 0.004441022 0.01641349 -0.03464753
000040 07 1f 4e 3d 9c 70 4c bd 71 9c 65 3d d2 a2 4e bd
       0.05032256 -0.04991208 0.056057397 -0.050448246
000050 5b a8 92 bc 2e e8 95 bb 37 c1 4e 3d d9 4f ad 3c
       -0.017902544 -0.004574797 0.050477233 0.021156238
000060 71 e9 91 bb 12 bc a2 bd 33 d8 ab bc cb 11 a7 bd
       -0.004452877 -0.07946028 -0.020977115 -0.081576906
000070 be 2c 17 3c 83 36 55 bd 8b 59 10 bd 78 4c 2e 3d
       0.009226976 -0.05205394 -0.035241645 0.042553395
000080 0a fb d3 bc fc d5 c1 3d 45 71 5e 3d 58 51 3b bd
       -0.02587654 0.094646424 0.05430724 -0.045731872
000090 9c cb 71 bd 15 38 9b 3d 0d f3 2d bd 87 4b dd bd
       -0.059032068 0.07579056 -0.04246812 -0.10805421
0000a0 67 80 1e 3d e2 31 a9 3d df 15 e6 bc 92 e8 9f bd
       0.038696673 0.082614675 -0.0280866 -0.07808031
0000b0 1c f9 99 3d f5 9f c9 bc e5 62 91 bc b6 0a 1e bd
       0.07518217 -0.024612406 -0.017747352 -0.038584433
0000c0 6c 5f 1a bd 85 44 f9 3b ac 38 66 bd 41 71 35 3d
       -0.037688658 0.007607045 -0.05620639 0.04429746
0000d0 bf 59 14 3c 0b 71 cf 3c 20 74 1e bd 03 1e 05 bd
       0.0090546 0.025322458 -0.038684964 -0.032499325
0000e0 78 77 5c 3c 30 ce 6a bc c1 15 90 3c 02 e0 5f 3c
       0.013456218 -0.0143313855 0.017588498 0.0136642475
0000f0 da e4 36 bd d1 0f 32 bd 58 92 22 3d 41 4d 13 bd
       -0.044651844 -0.043472115 0.039690346 -0.035962347
000100 b9 2c 4a bd 83 03 2f bc dd d4 8d bc f3 e6 9b 3d
       -0.049359057 -0.01068199 -0.017313415 0.076124094
000110 9b 56 aa bd 97 ba af 3c 6a 49 a1 bc a8 91 1d bc
       -0.083173 0.021451278 -0.019688327 -0.009617247
000120 7a b9 f1 3a 57 46 d6 3c 90 61 51 bd 1f 4c d4 bc
       0.0018442117 0.026156588 -0.051118433 -0.025915204
000130 78 fb 79 bd ed 6d da bd c9 3a 32 3d 97 35 b4 bc
       -0.061030835 -0.10665498 0.043513093 -0.02199821
000140 5e 13 95 3d 52 41 8a 3d 6c 08 a9 3c b9 8a a5 bd
       0.072790846 0.0675074 0.020633899 -0.080831
000150 f1 ee 6e 3d 2c cf 3e bd 3d f5 76 bc 2f 4f b8 bd
       0.05833334 -0.046584293 -0.015073118 -0.08999478
000160 e6 aa 8d 3a 44 38 a6 3d 50 36 e2 bb 55 82 4b 3d
       0.0010808378 0.081162006 -0.006903447 0.04968484
000170 57 2a 55 bc a1 68 4e 3d 23 19 06 3e a4 ff b9 bc
       -0.013010583 0.05039275 0.13095526 -0.022704907
000180 38 4b da 3d 8a 13 27 3d ce 04 a4 3c af 99 07 3d
       0.10658878 0.04079012 0.020021822 0.03310555
000190 27 e5 41 bd ba 57 a8 3c aa 68 79 bd c6 23 ab bd
       -0.047337677 0.020549644 -0.06089083 -0.083564326
0001a0 7e 1b 1b bd dc 62 86 3d 11 fd 3e bd 34 7e 88 bd
       -0.037868015 0.06561825 -0.04662806 -0.06664696
0001b0 59 b5 7a 3d cb 46 8d 3d 79 d9 ea 3c 56 f3 85 bd
       0.061208103 0.06898268 0.028668152 -0.06540553
0001c0 dd f7 cd 3c 0f 13 15 3c 91 15 9b 3b bf 7c af 3b
       0.025142604 0.009098782 0.0047327955 0.005355447
0001d0 03 e2 ee 3c ef a5 8c 3d 80 62 79 3d ad ae 36 bc
       0.029160505 0.06867587 0.060884953 -0.011150044
0001e0 50 91 cc 3d 1a c6 d3 3e 7f 2f ec 3d cb e9 ab 3d
       0.09988654 0.41362077 0.11532497 0.08394202
0001f0 e4 41 95 3d c6 66 85 3e df bc 37 3e b0 d3 5b 3e
       0.07287958 0.26054972 0.17943142 0.21467471
000200 6a 59 6d 3e 63 7d 55 3e df 0a 45 3e 0c 25 92 3e
       0.2317864 0.20848612 0.19242428 0.2854389
000210 27 35 8e 3e be df 1c 3e 99 d3 50 3e f1 37 3f 3e
       0.27774927 0.15319726 0.20393218 0.18673684
000220 85 b2 6d 3e 97 7d 3e 3d 54 2e d4 3d 60 ce 96 3e
       0.23212631 0.04650649 0.10360399 0.29454327
000230 9b d5 55 3e 9c e4 ea 3d 4a 90 65 3e 17 24 79 3e
       0.20882265 0.11469385 0.22418323 0.24330173
000240 d1 a7 75 3e 80 3f 62 3e df 5d 84 3d 83 c8 ce 3d
       0.23989798 0.22094536 0.06463217 0.10096838
000250 48 25 b4 3e 48 4c 9c 3e ae aa 3a 3e ab 85 54 3e
       0.35184693 0.30526948 0.18229172 0.20754115
000260 47 3e 5e 3e 35 70 a2 3e 27 2c db 3b e1 92 72 3e
       0.21703444 0.31726232 0.006688613 0.23688842
000270 50 c9 c0 3e a7 9a 30 3d 3d 36 10 3e 9d a3 22 3e
       0.3765359 0.043116238 0.1408319 0.15882726
000280 42 a5 08 3e f3 ce ef 3d 01 17 4e 3e 00 04 9b 3d
       0.13344291 0.11709394 0.20125963 0.07569122
000290 01 00 60 3e 98 51 1b 3e 61 be 46 3e 51 92 c6 3d
       0.21875001 0.15167844 0.19408561 0.096958764
0002a0 14 94 07 3e d6 3f 75 3e fc 2f 90 3e b0 03 51 3e
       0.13240081 0.23950133 0.2816161 0.20411563
0002b0 37 a6 6f 3c 28 4e 3b 3e 45 64 89 3e d7 1b 87 3d
       0.014627031 0.18291533 0.26834312 0.06597107
0002c0 1f 7a 95 3e 3e 07 40 3e 7a 8d fb 3d ec cb 81 3d
       0.29194734 0.18752763 0.12282844 0.06337723
0002d0 52 85 8f 3e da 92 5b 3e a4 d7 16 3e 28 67 26 3e
       0.28031403 0.21442738 0.14730698 0.16250288
0002e0 01 e8 ed 3d b4 4f e1 3d a6 dd 95 3e cc 3d 30 3d
       0.11616517 0.1100153 0.29270667 0.043027684
0002f0 b3 a2 90 3e be 31 cb 3d 2a d3 53 3e 4f 3d 8c 3d
       0.2824913 0.09921597 0.20686021 0.06847631
000300 48 e9 1a 3e d4 e9 27 3d 95 40 b6 3e 40 7b 80 3e
       0.15128052 0.04099448 0.35596147 0.25094032
000310 ee 39 1f 3e 3b e7 7a 3e 53 22 db 3d 48 d7 96 3e
       0.15549442 0.2450227 0.10699906 0.29461122
000320 f8 1b 2f 3e d5 05 62 3e 65 2b 2e 3e c6 0e c2 3d
       0.17100513 0.22072537 0.17008741 0.09475474
000330 e3 f0 4e 3e 43 cf 20 3e dc b7 ca 3e 3f 94 5a 3e
       0.20209078 0.15704064 0.395934 0.21345614
000340 4e 65 a9 3e 82 cb 2f 3e c5 25 09 3e bd 13 3c 3d
       0.33085102 0.17167476 0.13393314 0.04591726
000350 c9 18 48 3d 02 87 ac 3e 93 60 7c 3e 53 c1 3e 3e
       0.048851762 0.33696753 0.24646215 0.18628435
000360 54 cc 3a 3e c1 da ef 3d 5f 3f c5 3d 36 8b 49 3e
       0.18242007 0.11711646 0.09631228 0.19682011
000370 b9 c4 ce 3d 23 5c 4c 3e 7c 1f cc 3d 86 9a 23 3e
       0.100961156 0.19957022 0.09966943 0.15976915
000380 ef 5e 49 3e 01 ae e2 3d 7d 1e 57 3e c4 d2 02 3e
       0.1966512 0.11068345 0.21007724 0.12775713
000390 76 60 a5 3e c2 19 8c 3e e1 64 38 3e be 3d 7b 3e
       0.32300156 0.27363402 0.18007232 0.24535272
0003a0 e6 93 b2 3e 25 dc 86 3e af 82 0b 3e 7e aa b0 3d
       0.34878463 0.26339832 0.1362407 0.08626269
0003b0 89 fb 72 3e d3 b7 81 3e c0 23 16 3e c2 fc 67 3e
       0.23728766 0.2533556 0.14662075 0.22655013
0003c0 b6 b0 80 3d 57 d4 09 3d 45 46 59 3c c8 99 9b 3d
       0.06283705 0.03364977 0.0132613825 0.07597691
0003d0 ca f8 29 3e c8 9e 18 bd 2f 03 6a 3b b8 85 38 3d
       0.16598812 -0.0372608 0.0035707464 0.0450494
0003e0 d2 90 87 bd e6 a3 d6 3c 18 6a e0 3c b7 57 84 bd
       -0.06619419 0.0262012 0.02739434 -0.06462043
0003f0 e4 16 b0 bc 19 c2 24 be d8 aa f4 3d 66 77 0c be
       -0.02149529 -0.16089667 0.11946648 -0.13717422

encoder_rnn.bias_hh_l0 f4 [360]
000000 48 41 01 bd 9d 06 bb bd 75 8f 8d 3d a8 ec 99 bd
       -0.031556398 -0.09132121 0.06912128 -0.07515842
000010 eb 7b 80 3d c1 7c 38 bc f4 75 8b 3b c0 31 15 3e
       0.062736355 -0.011260212 0.0042560045 0.1456976
000020 b1 6c bc bd 50 77 ad bb e3 76 28 3d a5 46 ad bb
       -0.09200419 -0.005293764 0.041129004 -0.0052879625
000030 5a 1f 70 bd cc 32 89 3c 18 74 5b ba 7e 37 d6 3c
       -0.05862365 0.016747855 -0.00083714863 0.026149508
000040 55 b7 8e 3d 4e f8 8f bd 3f 35 ff bc 11 fa 8d bd
       0.069685616 -0.07029782 -0.03115332 -0.06932462
000050 cd 46 62 3d 60 bf 25 3c 22 8a ac 3c 21 90 39 3c
       0.055243302 0.010116428 0.02106196 0.011325867
000060 85 03 5f 3d b2 76 3c bc 80 fd fd 3b 35 77 e6 bc
       0.054446716 -0.011502909 0.007751167 -0.028133014
000070 01 5a 90 3d 18 50 e3 3c 78 58 9d 3c 6d 19 d6 3c
       0.07048417 0.027748153 0.019207224 0.02613517
000080 2b c5 81 bd 47 4e 11 3e a9 c5 8b 3d 4e 81 96 3c
       -0.06336435 0.14190017 0.0682481 0.018372204
000090 4b ec e5 bd fd 0e 0d 3d e1 a7 0c bd 48 28 45 bd
       -0.1122671 0.034438122 -0.03433979 -0.04813412
0000a0 7f d1 3d 3d 22 43 92 3d 85 45 13 bd c6 1a 13 bd
       0.04634237 0.07141711 -0.03595497 -0.035914205
0000b0 50 e0 d5 3c 1a c2 cb bd a4 bf 40 bc f7 e2 a5 ba
       0.026107937 -0.09949131 -0.011764441 -0.0012656142
0000c0 a0 78 40 3c 83 aa 87 bc 07 7d 26 bc 2f 68 3b 3d
       0.011747509 -0.016560799 -0.010161645 0.045753654
0000d0 8a fc 09 3c 06 35 55 bd 4e d4 05 bd 01 9e b8 bc
       0.008422026 -0.05205252 -0.032673173 -0.02253628
0000e0 60 9d f3 bd 7e 88 20 bd c3 1c 25 3c 8c 03 df bc
       -0.11895251 -0.03919267 0.010077658 -0.027223371
0000f0 d6 1d 86 3c 23 50 88 bd a5 ed d8 bc cc f2 61 3b
       0.016371649 -0.0665591 -0.026480505 0.0034476994
000100 2a 84 b0 bd 4e b1 3f 3c 02 0e b1 bd 59 1a db 3d
       -0.08618958 0.011699988 -0.0864525 0.10698385
000110 10 a5 ff bd 30 08 f4 bc 47 71 82 bb 7c c9 b7 3c
       -0.12482655 -0.02978906 -0.003980789 0.022434942
000120 a9 b5 c5 bd d3 93 94 3d 4e 13 52 3d 74 85 f5 bd
       -0.096537896 0.07254758 0.05128794 -0.11988345
000130 2e b8 80 bd d8 c7 c1 bd 46 11 86 3d 1d 7e f3 bc
       -0.062851295 -0.09461945 0.065462634 -0.029723221
000140 52 c8 67 ba 58 c6 92 3d 5d e9 0a bd 48 ac da bc
       -0.0008841801 0.07166737 -0.03391396 -0.026693478
000150 39 db c4 3c 61 42 70 bc e7 32 01 be 89 ac 9a bd
       0.024030315 -0.014664263 -0.12617074 -0.0755244
000160 f4 1e d9 3c 7e ac 94 3d cd 51 3f bd b2 76 37 3c
       0.026504017 0.07259463 -0.04670887 0.011197733
000170 0d d0 a5 3d 0c 08 2d bd f5 6e 21 3e 86 cd 78 bc
       0.08096323 -0.042244002 0.15764983 -0.015185719
000180 84 74 03 3e 32 a7 f5 bb 94 bc 8d 3d d5 27 af 3b
       0.12837416 -0.007496738 0.06920734 0.0053453245
000190 f9 1b e4 3c 0a 30 33 3d 06 5b 38 bd d2 ff ac bd
       0.02784537 0.043746985 -0.04500868 -0.08447231
0001a0 8f c7 b7 bc a3 56 52 bc f0 90 64 bd 50 cd 09 bd
       -0.022434024 -0.012838039 -0.055802286 -0.033643067
0001b0 f3 65 13 3d f9 4b 5e 3c 52 9a 63 3c 46 d7 5d bd
       0.0359859 0.013567918 0.013891773 -0.05416038
0001c0 21 4f f1 3c f4 c9 3b 3d ff bc 79 3d f6 fb 7a bc
       0.029456677 0.045846894 0.060971256 -0.015318861
0001d0 0c 47 c0 3d 30 52 8e 3c 34 b3 21 3d 07 55 d9 bc
       0.09388551 0.017373174 0.039477542 -0.026529802
0001e0 3d bd 09 3e 98 1f b6 3e 30 81 d6 3d 35 76 c7 3d
       0.13451095 0.3557098 0.10473859 0.09739343
0001f0 aa 99 9f 3d 5e fa 5d 3e bc cf c8 3d bb 25 63 3e
       0.07792981 0.21677539 0.09805247 0.22182362
000200 ed 83 5a 3e 4d 87 1b 3e 6e af 6f 3e f4 91 b2 3e
       0.21339388 0.15188332 0.23406765 0.34876978
000210 49 00 7e 3e b6 be 16 3e ad a8 6b 3e 84 47 60 3e
       0.24804796 0.14721188 0.23013563 0.21902281
000220 2a 9e 71 3e c6 61 59 3d 82 92 09 3e 99 d5 bc 3e
       0.23595491 0.05307176 0.13434795 0.36881712
000230 f9 7f 69 3e 96 a2 e2 3d 80 36 54 3e e7 df 41 3e
       0.22802724 0.11066167 0.20723915 0.18933068
000240 fc dd 49 3e 09 ec 85 3e 4f 1a f5 3d b4 a5 1a 3e
       0.19713587 0.26156643 0.119679086 0.15102273
000250 f5 fb 83 3e 52 e4 4a 3e 51 a0 75 3e 78 af 62 3e
       0.25778165 0.1981366 0.23986937 0.22137249
000260 e6 e1 0d 3e 93 93 66 3e 80 b4 7d 3d 22 ab a5 3e
       0.13855705 0.22517233 0.061939716 0.32357126
000270 22 37 96 3e be 65 85 3d 95 97 b6 3d 44 09 0a 3e
       0.29338938 0.065135464 0.08915631 0.13480097
000280 77 fc 49 3e dc 80 77 3d 19 2e 85 3e a6 1f 08 3e
       0.19725214 0.060425624 0.26011732 0.13293323
000290 f2 3e 3c 3e f0 56 23 3e 82 f8 d8 3d 06 a9 2d 3e
       0.18383387 0.15951133 0.10594274 0.16959009
0002a0 7e df c0 3d 7f 8d 93 3e ce 0a 46 3e 83 a6 54 3e
       0.09417628 0.2881889 0.19340059 0.20766644
0002b0 bd 93 d8 3d 9e 59 24 3e a8 32 71 3e 12 bb 63 3d
       0.10575054 0.16049811 0.2355448 0.055598326
0002c0 df f2 8b 3e 4d 4d 6f 3e fc ca 6f 3e 1c 4e 80 3d
       0.27333733 0.23369332 0.23417276 0.06264898
0002d0 26 6f 85 3e dd 04 3d 3e f8 7f 36 3e 94 fc 3c 3e
       0.26061362 0.18458886 0.17822254 0.18455726
0002e0 da b7 ec 3d c0 84 e7 3d 42 12 8c 3e 08 d9 51 3c
       0.115585044 0.11304617 0.2735768 0.012808092
0002f0 57 4b 97 3e 1a 96 95 3d e8 ae 4c 3e fb 4f b1 3d
       0.29549667 0.0730402 0.19988596 0.08657833
000300 c5 59 34 3e d1 9f 35 3d 17 9a 87 3e 62 2e 9e 3e
       0.1761237 0.044341866 0.2648475 0.30894762
000310 2f 88 6c 3e 88 8d 57 3e 48 48 08 3e 54 83 61 3e
       0.23098825 0.21050084 0.13308823 0.22022754
000320 73 30 27 3e 2f c5 24 3e b5 4b 8a 3e 62 c7 97 3d
       0.16327076 0.16090845 0.27010885 0.07411076
000330 e4 d2 88 3e 4b 6f 29 3e 3f ba ad 3e e3 94 8c 3e
       0.26723397 0.16546361 0.33931157 0.27457342
000340 81 f6 a8 3e 49 fe 1c 3e 33 d8 38 3d 62 ae 4e 3d
       0.33000568 0.15331377 0.04512806 0.050459273
000350 29 41 b5 3d 1c f0 b7 3e f2 62 88 3e 1e 45 62 3e
       0.08850319 0.35925376 0.2663799 0.22096679
000360 44 91 22 3e 69 c2 38 3e 82 f1 17 3e 12 ec 84 3e
       0.15875727 0.18042912 0.14838222 0.25961357
000370 8d 99 f3 3d 3e 40 66 3e aa 11 e7 3d 5f b8 57 3e
       0.11894522 0.22485444 0.11282666 0.21066426
000380 35 ce 11 3e ed f3 45 3d 80 98 7c 3e d3 d9 60 3e
       0.14238818 0.04832833 0.24667549 0.21958093
000390 62 16 bd 3e f5 4b 6c 3e 93 d7 af 3d d8 a8 65 3e
       0.3693114 0.2307585 0.085860394 0.2242769
0003a0 81 95 b3 3e d6 e9 88 3e ae ed 1c 3e d9 a8 3e bb
       0.35075 0.26740903 0.15325043 -0.002909234
0003b0 bc 96 8b 3e b3 00 4f 3e 00 57 3f 3e 80 44 9c 3e
       0.2726344 0.2021511 0.18685532 0.3052101
0003c0 eb a2 d0 3d d3 6e d3 3a f7 d9 c4 bd ec c4 ae 3d
       0.10187324 0.0016131051 -0.09611886 0.085336536
0003d0 f0 40 40 3e 4f 5f 85 bd 0f b0 18 3e 97 43 dd 3d
       0.18774772 -0.06512319 0.14910911 0.10803907
0003e0 e9 da 44 3d 8e 59 21 bd bd 26 ae bd 19 ad 90 bc
       0.04806033 -0.039392047 -0.085034825 -0.017660664
0003f0 44 6b e1 3d c6 15 20 be 95 74 22 3e 46 f5 df bd
       0.110067874 -0.15633306 0.15864785 -0.10935454

decoder_rnn.weight_ih_l0 f4 [360, 120]
000000 f8 6f 51 01 c4 e4 89 01 04 55 87 01 a6 f5 1f 01
       3.846757e-38 5.0654114e-38 4.971316e-38 2.9379932e-38
000010 24 0b 21 00 cd 65 51 81 05 48 a0 81 ff 78 a6 81
       3.034568e-39 -3.8460276e-38 -5.887806e-38 -6.115239e-38
000020 4e 45 3a 01 3d ad ec 80 e4 9a 9e 01 d4 60 9c 81
       3.4212528e-38 -2.1735323e-38 5.826229e-38 -5.744429e-38
000030 a0 5f 99 00 a2 7d 14 80 e9 c6 7e 81 dc a2 19 01
       1.4085135e-38 -1.881778e-39 -4.6795143e-38 2.8218508e-38
000040 fe ac 3e 01 03 0f 98 00 ea 39 bf 81 d8 27 f6 00
       3.5021604e-38 1.396438e-38 -7.024542e-38 2.2605825e-38
000050 d8 24 60 80 41 eb 85 81 30 a7 f7 00 34 53 3f 80
       -8.829425e-39 -4.9194057e-38 2.2743343e-38 -5.815484e-39
000060 11 18 8c 80 5c 77 25 81 58 13 7e 80 4a a5 0a 01
       -1.2865603e-38 -3.039135e-38 -1.1578212e-38 2.5465186e-38
000070 c7 19 89 01 ae 1b 53 81 70 4c 1b 00 80 85 22 00
       5.036284e-38 -3.8774439e-38 2.506979e-39 3.170298e-39
000080 9f 59 87 80 fc 3a 50 81 90 49 3d 81 04 31 ec 80
       -1.2429942e-38 -3.8245886e-38 -3.4766596e-38 -2.169076e-38
000090 5c b5 03 81 d3 48 e2 00 08 f7 5f 00 13 7b 26 00
       -2.419102e-38 2.0780947e-38 8.81299e-39 3.5339e-39
0000a0 43 fc 9e 01 4b b7 b4 81 cc b7 22 80 a2 25 c0 80
       5.840201e-38 -6.638457e-38 -3.188341e-39 -1.7645915e-38
0000b0 b2 96 1d 01 d4 a5 65 01 c8 5e ab 00 8c 83 cc 00
       2.8944464e-38 4.2179633e-38 1.5737871e-38 1.8781631e-38
0000c0 11 a3 70 01 28 e8 f1 00 4e de 0f 81 00 a1 2b 00
       4.4198033e-38 2.2215637e-38 -2.6424448e-38 4.006682e-39
0000d0 b4 3f ed 80 dd 17 75 81 12 25 5f 80 24 e7 6c 81
       -2.1787865e-38 -4.5016514e-38 -8.73767e-39 -4.351219e-38
0000e0 24 a4 95 81 d9 6a a9 81 60 dd 5a 01 e6 2a 33 01
       -5.4969486e-38 -6.2234114e-38 4.0199105e-38 3.2907886e-38
0000f0 66 18 31 81 b8 4b 8a 01 d8 ea d6 00 e0 2f 85 81
       -3.252727e-38 5.0801845e-38 1.9737042e-38 -4.892518e-38
000100 66 ed 9f 81 69 cd 94 81 b0 2b 10 01 e9 a9 8b 81
       -5.8748026e-38 -5.4661363e-38 2.6479967e-38 -5.1304345e-38
000110 1a 48 3f 00 c4 b3 9e 01 a6 3f 0b 01 0e 70 13 01
       5.811501e-39 5.8297985e-38 2.5575933e-38 2.708003e-38
000120 e8 ed 42 01 48 db 44 81 e2 0e 3b 01 fe ae 9d 80
       3.5802862e-38 -3.615684e-38 3.4357153e-38 -1.4480948e-38
000130 8c 84 6a 81 20 4d 83 81 bd b9 9d 81 94 18 e8 80
       -4.307411e-38 -4.823247e-38 -5.7939213e-38 -2.1314652e-38
000140 32 65 00 81 98 56 9a 01 66 e1 19 01 e4 a8 88 81
       -2.358249e-38 5.669492e-38 2.8263377e-38 -5.0200856e-38
000150 80 2b 83 81 60 7b 0c 00 44 a5 9b 81 29 48 bd 01
       -4.818422e-38 1.146285e-39 -5.717515e-38 6.953118e-38
000160 dc 91 72 00 f8 89 3b 01 33 b3 7e 01 f6 1c 17 80
       1.0521571e-38 3.4445463e-38 4.6781e-38 -2.122606e-39
000170 76 57 48 80 7e 8d b9 01 14 4f 56 00 86 4d 88 81
       -6.643531e-39 6.81613e-38 7.92622e-39 -5.006975e-38
000180 11 9d 7d 81 70 57 11 00 80 ae e9 00 be 68 b2 01
       -4.658145e-38 1.59257e-39 2.146027e-38 6.553717e-38
000190 bc ac 7b 00 a6 7b 96 81 48 75 31 81 6c 7b 6c 00
       1.1357731e-38 -5.5278725e-38 -3.259391e-38 9.962509e-39
0001a0 68 b2 a0 81 02 25 ac 01 58 46 39 80 74 d8 ed 80
       -5.903072e-38 6.3235925e-38 -5.259858e-39 -2.1842661e-38
0001b0 e2 74 e5 80 cb f9 b4 81 53 12 4d 80 d0 60 36 00
       -2.1072258e-38 -6.647999e-38 -7.077907e-39 4.993847e-39
0001c0 2c 0d aa 00 78 41 64 00 8d 15 13 81 94 70 7f 01
       1.561676e-38 9.207035e-39 -2.7015098e-38 4.6916874e-38
0001d0 1a 6a 84 00 87 74 3a 00 bc 4a 21 81 21 1a 06 01
       1.2160348e-38 5.368261e-39 -2.962465e-38 2.463066e-38
0001e0 da 66 41 81 aa b0 89 01 a0 7b 68 80 87 17 92 81
       -3.5522294e-38 5.057935e-38 -9.59524e-39 -5.366569e-38
0001f0 9c c9 9a 01 00 76 64 01 3c c3 5a 00 ac 44 d2 80
       5.685996e-38 4.1961647e-38 8.335232e-39 -1.9310089e-38
000200 b8 11 ba 80 e4 eb b7 01 7a 66 70 80 63 22 88 81
       -1.7087759e-38 6.756207e-38 -1.0322337e-38 -5.000785e-38
000210 b6 e9 1e 01 24 e0 69 01 f0 37 7f 81 e4 35 40 80
       2.9187696e-38 4.2956154e-38 -4.6876236e-38 -5.896804e-39
000220 f0 f7 72 00 f3 90 05 81 24 9e 8a 81 f4 ec ea 00
       1.055819e-38 -2.4532238e-38 -5.0920115e-38 2.1574509e-38
000230 d7 97 95 00 c6 80 da 80 08 a8 a6 00 f0 52 00 81
       1.3737959e-38 -2.0066333e-38 1.530497e-38 -2.3569392e-38
000240 ea cd 35 81 d8 fe 35 01 f6 25 27 01 c0 e6 91 01
       -3.3392186e-38 3.342729e-38 3.070029e-38 5.35957e-38
000250 84 f7 85 81 8c aa dd 00 30 19 2d 01 3e cb 9d 81
       -4.921165e-38 2.0356825e-38 3.1793153e-38 -5.796433e-38
000260 24 e5 32 80 2e e1 76 00 2e 31 14 00 6a 29 11 01
       -4.673975e-39 1.0917368e-38 1.854352e-39 2.6662007e-38
000270 b6 38 83 01 28 5a 0f 01 55 17 7e 81 52 d9 d0 00
       4.8203176e-38 2.6329636e-38 -4.6669172e-38 1.9179743e-38
000280 fe 9e 8e 01 4a 1f 4c 80 4f 78 b7 00 b8 c3 44 01
       5.2390704e-38 -6.990722e-39 1.6849054e-38 3.6139936e-38
000290 1a ec a8 01 08 9f 31 00 98 33 14 01 e8 bd 6f 00
       6.205224e-38 4.556989e-39 2.7220324e-38 1.0261866e-38
0002a0 2b 37 1d 81 08 7a 2a 01 46 a6 41 00 62 11 4d 81
       -2.8875927e-38 3.1311622e-38 6.028955e-39 -3.7665025e-38
0002b0 ea f5 b5 01 d6 38 05 81 33 82 97 01 0e 80 21 81
       6.684177e-38 -2.446902e-38 5.5655466e-38 -2.9662904e-38
0002c0 9e ba 3a 81 d2 f6 bb 81 ac cf 89 80 6c 2a 1f 00
       -3.4296696e-38 -6.904712e-38 -1.2655962e-38 2.862118e-39
0002d0 9a 1f ff 00 3c eb 70 01 a6 37 5b 01 0c 88 58 81
       2.3429388e-38 4.424981e-38 4.0263873e-38 -3.9770543e-38
0002e0 3a 18 3f 81 4e 18 1f 81 5e 28 b6 81 9c d3 b4 01
       -3.509854e-38 -2.9221126e-38 -6.6914165e-38 6.64252e-38
0002f0 80 6e 47 80 3c 9f 72 80 ca ad 41 01 b0 6e cd 80
       -6.55996e-39 -1.0526369e-38 3.557319e-38 -1.8865984e-38
000300 0c 0a c0 01 08 a3 30 00 e0 6a 11 00 70 31 76 00
       7.054408e-38 4.466588e-39 1.599543e-39 1.0854323e-38
000310 fd 38 48 01 11 96 60 81 a6 e0 9e 01 c9 ab 29 01
       3.6775086e-38 -4.124997e-38 5.836239e-38 3.1163648e-38
000320 e8 f9 b6 00 f8 6c a3 01 01 e2 1b 01 14 c5 1a 80
       1.680371e-38 6.0033106e-38 2.8631154e-38 -2.458421e-39
000330 3c 3e b2 81 3e 58 f3 00 be b2 a2 00 62 91 a1 01
       -6.5476175e-38 2.2347681e-38 1.4941471e-38 5.9350674e-38
000340 a1 99 95 80 df 76 24 81 e8 e8 27 80 68 20 25 80
       -1.37386e-38 -3.0207329e-38 -3.665135e-39 -3.409539e-39
000350 ad e4 a8 81 a8 2a 5e 00 bc 7a a0 00 1c 8e 5c 01
       -6.2041587e-38 8.647839e-39 1.4737708e-38 4.0509577e-38
000360 b5 74 99 81 23 16 83 80 2e f4 a0 00 68 ae 61 01
       -5.637079e-38 -1.2038391e-38 1.4781275e-38 4.1451104e-38
000370 47 29 ac 80 2c e9 90 80 bf 87 53 80 e7 6f 22 01
       -1.5810513e-38 -1.3307958e-38 -7.671043e-39 2.9834987e-38
000380 74 da e5 80 5d b0 61 81 00 c8 95 80 d0 4f 00 81
       -2.1108695e-38 -4.1452508e-38 -1.3755235e-38 -2.356715e-38
000390 5c 9c 93 00 4c 76 0a 81 a0 02 9b 80 b2 8c 2a 81
       1.3555909e-38 -2.543147e-38 -1.4235444e-38 -3.1325013e-38
0003a0 fb 2d b3 81 e8 f5 f9 80 31 bc 82 81 06 04 96 01
       -6.5820194e-38 -2.2955253e-38 -4.80245e-38 5.510707e-38
0003b0 36 db 8e 80 ec 8c 55 81 f5 4d ad 00 8e 16 b6 80
       -1.3119279e-38 -3.9223028e-38 1.5915507e-38 -1.6722151e-38
0003c0 0e 37 e2 80 ca da fd 00 1c 3b 01 80 a0 6a bd 80
       -2.0774572e-38 2.3312867e-38 -1.1304e-40 -1.7395159e-38
0003d0 1a cb b1 01 68 f2 7b 00 d8 ab 50 00 58 3f 4f 00
       6.531097e-38 1.1382725e-38 7.408486e-39 7.277728e-39
0003e0 d0 44 7a 80 2b 93 a6 81 ac e2 7f 80 40 0a e7 00
       -1.1228616e-38 -6.1189945e-38 -1.1744423e-38 2.1217677e-38
0003f0 a4 b5 8a 81 5c 3a 8d 01 2e f0 95 00 d6 04 5d 01
       -5.0953835e-38 5.187896e-38 1.3769649e-38 4.059476e-38

decoder_rnn.weight_hh_l0 f4 [360, 120]
000000 df 71 4a 3d d8 7f b2 bd a8 38 6c bd e0 9a 28 3e
       0.049425002 -0.087157905 -0.05767122 0.1646533
000010 30 c6 fb 3d 1b 5d a9 bc b3 bd 6f bd 32 10 df bd
       0.12293661 -0.020674279 -0.05853052 -0.10891761
000020 9b 07 a3 bb f9 62 56 bc 39 fa 96 3d ee a6 2f 3d
       -0.004975272 -0.01308512 0.07371945 0.042883806
000030 4b 2f d7 3d d0 ee b0 3d 29 3a b5 bd bb 24 8e bd
       0.10507067 0.086393 -0.08848984 -0.069405995
000040 a5 60 05 bd a6 0e 4e 3d ce 3a 5f bb 22 b6 c7 bd
       -0.03256287 0.05030694 -0.003406215 -0.09751536
000050 ff 63 00 3d ac 94 e9 bd d2 7b 7c bd 3d ec 81 3d
       0.031345364 -0.1140531 -0.06164152 0.06343887
000060 91 09 d4 3c 2c 95 1a bb 4a cb 2d be d5 13 88 3d
       0.025883468 -0.0023587449 -0.1697208 0.06644408
000070 cc 0b 88 bd c0 43 a2 bd 49 dc f5 3c 59 09 ef bd
       -0.06642875 -0.079230785 0.030012267 -0.11671705
000080 39 57 8d 3d d7 da 60 3c 66 93 f1 bd ec 81 72 3d
       0.06901402 0.0137240505 -0.11795692 0.059205934
000090 e0 cd 84 3d 53 64 d6 bc 48 23 81 3d 28 05 b2 bd
       0.0648458 -0.026170885 0.063055575 -0.0869239
0000a0 ec c8 f8 3d 85 cc ba bd 6e 27 9d 3d 9c 92 2d 3d
       0.12147698 -0.0912104 0.07673536 0.042376146
0000b0 8e 17 3d 3b ac 1a 48 3c 77 bd e4 3c 59 48 42 bb
       0.002885315 0.01221339 0.027922375 -0.0029645173
0000c0 b0 2a 37 bd bc 2f b5 bd 7d b3 6e 3d f5 82 d4 bc
       -0.044718444 -0.08846995 0.058276642 -0.025941351
0000d0 d7 6b 08 be b9 c9 0c 3d 1f e1 b5 3a 04 fb 02 3e
       -0.13322388 0.034372065 0.0013876295 0.12791067
0000e0 df 97 d7 3b 34 52 b3 3d 98 11 31 bd fd 84 a1 bc
       0.0065793837 0.087559134 -0.04322967 -0.019716734
0000f0 e8 32 b0 bd 63 88 12 3e c9 c3 c7 3d b5 8a 78 bd
       -0.086034596 0.1430984 0.0975414 -0.060679156
000100 fb e7 93 bd 48 eb 1f 3d b4 eb 0e be 5a 83 e1 3d
       -0.07221981 0.03904274 -0.13957101 0.110113814
000110 10 32 84 3c 37 aa 47 be 08 b6 43 bd 26 20 5e 3d
       0.016137153 -0.19498526 -0.04778102 0.054229878
000120 08 64 c3 bd 63 39 16 be 1a 06 ce bc cb 23 ac 3b
       -0.09540564 -0.14670329 -0.025149394 0.0052532903
000130 39 2d d3 bd 3b 5a 4d bd 8f e1 28 3d 6a d5 6a 3d
       -0.1031136 -0.05013488 0.041230734 0.057332434
000140 5f 87 11 3e 07 dd 25 3e 86 33 46 bd 5d e8 2a bd
       0.14211796 0.16197596 -0.04838898 -0.041725505
000150 df a0 4c bd 25 72 c9 3c a4 07 0f be cc 33 1c be
       -0.049958106 0.024590561 -0.13967758 -0.15254134
000160 2a 7d 07 3e cd 67 b0 3d 00 a6 85 3d 56 eb 7c bc
       0.1323134 0.086135484 0.065258026 -0.015436968
000170 cc a3 2c bd a6 80 1e 3d 94 51 68 bd a2 23 83 3d
       -0.042148396 0.038696907 -0.056718424 0.06403281
000180 b8 95 8e 3d 31 1a 58 ba c4 95 1d 3c f7 39 8b bd
       0.0696215 -0.0008243649 0.009618226 -0.06798165
000190 bc 21 34 3d 5d 09 66 be 40 4b 73 3d 2b 15 b2 3c
       0.043977484 -0.2246451 0.059397936 0.02173861
0001a0 b6 0e e4 3d 73 22 c9 3d 60 c4 e4 3d 6f d8 a4 3d
       0.111356184 0.09821024 0.11170268 0.08049094
0001b0 70 d4 97 3b 90 5e 88 3b 11 7c 03 3e 34 03 c4 3c
       0.004633479 0.0041616634 0.12840296 0.023927309
0001c0 42 45 ce 3c c9 30 8c bd f9 e6 1c be 05 24 c8 3d
       0.02517951 -0.068452425 -0.15322484 0.09772495
0001d0 eb 95 06 bd d6 03 6b 3d 46 c8 95 bd 12 49 67 3d
       -0.032857817 0.057376705 -0.0731359 0.05646617
0001e0 8b 99 e8 bd 26 0a 49 bd a5 98 10 be f5 4c 58 bd
       -0.11357411 -0.049081944 -0.1412073 -0.052807767
0001f0 ee 24 bd bd 82 fb 83 bd c1 85 12 3d 98 21 19 3e
       -0.092355594 -0.06444456 0.03577209 0.14954221
000200 eb 6f 2d 3d b2 10 04 3e a4 76 1e 3e 96 1c 07 be
       0.04234306 0.12896994 0.15474945 -0.13194498
000210 d5 3b ce 3d 00 66 0b bd 58 d9 fe bb 09 11 14 be
       0.10070006 -0.03403282 -0.0077773742 -0.14459623
000220 f5 cb d0 3d 2f 43 c1 bd 5c 7b 39 3e 09 94 95 3d
       0.10195152 -0.094366424 0.18113464 0.07303626
000230 58 c7 92 3d f7 60 09 be 45 43 df bc 94 d2 25 bd
       0.07166928 -0.13415895 -0.027253756 -0.040484026
000240 eb ac 0e bd 94 c8 0a 3e 06 61 28 bd a6 3a f8 3d
       -0.034832876 0.13553077 -0.041108154 0.12120561
000250 85 c3 4d 3e 4c dc 9d 3d a0 a2 ce bd 62 8c 31 3e
       0.20094116 0.07708034 -0.10089612 0.17338708
000260 d6 2b c3 bd 2e 22 9b bd 1f 7d e6 bd d1 86 40 bd
       -0.095298454 -0.07574879 -0.11254334 -0.04700357
000270 8c 55 e7 bd cd 3f 3c bd 8a 8a f0 bc ed fe 35 3e
       -0.11295614 -0.045959283 -0.029362936 0.17773028
000280 63 41 ed bd 91 9c 3d bd 42 04 02 be 67 e9 f1 bd
       -0.11584737 -0.04629189 -0.12696937 -0.11812096
000290 58 60 ee 3c d8 44 b5 3d d8 3b 94 bd e3 32 2c 3d
       0.029098675 0.088510215 -0.07237977 0.042040717
0002a0 8a 61 52 bd 38 83 86 3c 68 fa 1e be 7e 37 80 bd
       -0.05136255 0.016419992 -0.1552521 -0.06260584
0002b0 e9 e8 7c 3d a8 64 f9 39 6a d0 50 3d 68 92 4b be
       0.061745558 0.00047567976 0.05098001 -0.19880068
0002c0 72 8d 29 bc de 04 73 bd 6c 2f 42 bd 17 47 5f bd
       -0.010348665 -0.059330814 -0.047408506 -0.054511156
0002d0 0f f0 ef 3c 19 b9 5b bd eb 6a 04 be 57 c9 49 3d
       0.029289274 -0.05364332 -0.12931411 0.04926428
0002e0 78 39 32 3d bf ec 75 3d 1c fc 1e 3e 2f d3 47 3d
       0.043511838 0.06004023 0.1552586 0.048785385
0002f0 08 e0 da bd 06 16 4b bd dc e1 8e 3c 90 97 86 3b
       -0.10687262 -0.04958155 0.017441683 0.004107423
000300 ec 2c 41 3d 23 1e 10 bd 67 cd 4a 3e d9 0f 25 bd
       0.04716198 -0.03518499 0.19804917 -0.040298317
000310 ab 6b 4f 3c 3c c7 29 3d 80 d6 58 bd 1d 7e 29 3d
       0.012659947 0.04144977 -0.05293894 0.041380037
000320 c1 be b7 3d a2 0f 12 3d 58 25 9d 3d 74 83 db bc
       0.0897193 0.03565944 0.076731384 -0.02679608
000330 7b 7c 30 be d0 76 63 3a 34 40 11 3d 37 ff f2 3d
       -0.17234986 0.0008677067 0.03546162 0.118650846
000340 2c 2c ff bd 3b 38 66 bd bc 5a a5 3d 27 ad 0a 3d
       -0.12459597 -0.05620597 0.08073947 0.033856537
000350 0d 78 77 3d f7 63 96 bd 62 48 37 be 6b 57 80 3d
       0.060417224 -0.073432855 -0.17898706 0.06266674
000360 4b 93 83 bd 83 c1 21 3d 93 71 5c bb d0 22 b8 3d
       -0.06424578 0.039491188 -0.0033637031 0.08991015
000370 8b 03 f5 bd 7e 11 af 3b 30 be 64 be bc a6 72 3c
       -0.119635664 0.0053426614 -0.22338176 0.01481026
000380 28 82 95 3b 15 88 57 be d2 34 86 bd 13 0c a2 bd
       0.004562635 -0.21048005 -0.065530434 -0.07912459
000390 f3 49 b1 bd 30 71 dd 3d 5e 3f 07 bd 62 3b 9a bd
       -0.08656683 0.108126044 -0.033019416 -0.075308576
0003a0 b4 79 98 bc 3d 9b 8d bd 22 55 bd bb 91 7a dd bd
       -0.01861272 -0.06914375 -0.005777971 -0.10814393
0003b0 ee 71 49 3c 26 21 00 bd c1 d7 e8 bb d0 36 b5 bd
       0.012295229 -0.031281613 -0.007105798 -0.08848345
0003c0 c3 65 6f bd 63 32 78 bd b1 14 89 bd 50 50 dd bc
       -0.058446657 -0.060594928 -0.066934 -0.027015835
0003d0 c2 1b d6 bd b0 5f 83 bd cf e3 0e bd 81 dd 5a 3b
       -0.10454513 -0.06414735 -0.034885224 0.0033396187
0003e0 a5 21 aa 3d 77 6e b8 3d 54 21 bb 3d d1 b0 f6 bd
       0.083071984 0.090054445 0.09137216 -0.12045444
0003f0 03 48 76 3d f0 d1 7d 3c 58 65 d3 3d c1 1b eb bd
       0.06012727 0.0154919475 0.10322064 -0.11479903

decoder_rnn.bias_ih_l0 f4 [360]
000000 93 e5 82 3b 6a e0 93 bd 07 da 0c 3e d9 2c ea bd
       0.0039946525 -0.07220538 0.13755046 -0.11434335
000010 76 80 38 bd 10 8b 3a 3d d8 a3 00 3d 04 34 6a 3b
       -0.045044385 0.045542777 0.031406254 0.003573657
000020 73 c1 c6 3d f2 3d 34 bd 53 b2 28 bd 2c 85 be 3d
       0.09704866 -0.04400439 -0.04118569 0.09302744
000030 78 ea 5d bb db ac d6 bd 07 ff 36 bd 2b ee e7 bd
       -0.0033861678 -0.10482188 -0.044676807 -0.11324724
000040 ae 83 11 3b a4 24 52 bd f4 16 77 3d e9 ef a1 3d
       0.0022203731 -0.051304474 0.060324624 0.07907087
000050 63 7c ea 3d 49 dd c0 bd 16 6c c6 3c 8d 48 13 3d
       0.11449506 -0.09417207 0.024221461 0.03595786
000060 c3 66 d2 3c d7 23 af ba 47 12 b9 3d 52 3c 11 bd
       0.025683766 -0.0013362122 0.09036689 -0.035457917
000070 86 6d b4 3d 85 4f 9d 3d b7 37 2c 3d 47 49 8d 3d
       0.088099524 0.07681183 0.04204532 0.06898742
000080 15 3a 9b bc c1 42 cf 3c 7a 97 2f bd 1d 70 1e bd
       -0.018948594 0.025300385 -0.04286907 -0.03868114
000090 3c 78 a4 bb 51 ef 68 bd 02 ee 13 3b 7d eb af 3c
       -0.005019216 -0.056868855 0.0022572284 0.021474594
0000a0 1d bd a0 3d 2a b4 5c bc 71 29 4d 3d c1 1e 57 bd
       0.078485705 -0.013470689 0.05008835 -0.052519564
0000b0 d8 f4 9c bc bc 04 06 3e 5c 79 05 bd 87 0f 9c bd
       -0.01915972 0.13087744 -0.03258644 -0.07620149
0000c0 d1 2b 8b bd e2 84 b9 bc 43 2f dc 3d 94 65 8c 3b
       -0.06795467 -0.022646371 0.10751202 0.00428457
0000d0 16 9a 8c 3d 62 43 5d 3d 34 0c b7 3c 0c be 43 3d
       0.06865327 0.05401934 0.022344686 0.047788665
0000e0 eb 7d 89 bd dd 27 4a 3d 57 ce ef 3b 2f c9 24 3d
       -0.0671347 0.049354423 0.007318299 0.040230926
0000f0 6d b8 83 3d 4d de 44 3d 9b e2 c4 3d eb 0f b5 3c
       0.06431661 0.048063565 0.09613534 0.022102317
000100 7e 48 e3 3d 27 f8 96 bd f3 86 25 bd 83 13 04 bd
       0.11097811 -0.0737155 -0.0404119 -0.03224517
000110 2d 27 00 be ee 3a b3 3d d6 11 04 bd 19 96 2a bd
       -0.12514944 0.08751474 -0.032243572 -0.04164705
000120 76 89 73 3b 2a 34 8a bd cc 09 97 3d 2b d0 a7 3c
       0.003716079 -0.06748231 0.073749155 0.020485004
000130 68 21 a9 3c e4 65 a4 3e cb 4c b7 3c 2e 4f 60 3c
       0.020645812 0.32108986 0.022375485 0.013690753
000140 9c 48 47 3d c8 22 89 bc de 73 7f 3d ee 70 ad bb
       0.04865323 -0.016740218 0.06236636 -0.0052930033
000150 5f 3f 06 3d 9a 7b 1c bd 37 c2 ac bb 17 25 54 ba
       0.03277528 -0.038203813 -0.0052721757 -0.0008092685
000160 59 57 e1 3d 28 6c 89 3d bb dd 68 bd 78 dc 44 3d
       0.11002988 0.06710082 -0.056852084 0.048061818
000170 5b 6a d6 3c ed 2b 86 3d 97 78 29 be 33 be 6e bd
       0.026173761 0.06551347 -0.16549908 -0.058286857
000180 47 3c bc 3c a9 6d 8b 3c 82 71 49 3d 6a bb a5 3c
       0.022977961 0.017020063 0.049180515 0.020230968
000190 a5 2c f3 bd b8 dc 7d bc 9f cc 65 bd 6b e9 0e 3e
       -0.1187375 -0.015494518 -0.056103345 0.1395623
0001a0 7d 04 90 bd 4c 1a 84 bd 0d 6b 7a 3c ee f9 81 bc
       -0.07032106 -0.06450328 0.015284312 -0.015866246
0001b0 9e 01 b4 3d 62 c8 bb bd de 29 c7 bc cb 79 97 bc
       0.08789371 -0.09169079 -0.024311956 -0.018490693
0001c0 01 05 d1 bd 32 12 1e bd 37 0a 30 3d c0 37 64 bd
       -0.102060325 -0.03859157 0.04297849 -0.05571723
0001d0 8f f7 c3 3d ec 0c ae bd e7 9a 6d be 6c 3e b8 3d
       0.095687024 -0.084985584 -0.23203622 0.08996281
0001e0 e7 99 a2 3d c3 d6 af 3e f1 f9 fc 3e 92 60 72 3e
       0.07939511 0.34343538 0.4940944 0.23669651
0001f0 0e 59 40 3e 7d f2 00 3f e7 c4 6b 3e 4e ee 4c 3e
       0.18783972 0.5037001 0.23024331 0.20012781
000200 a7 62 7d 3e fd bc c2 3e 23 fe d1 3e 80 24 05 3f
       0.24744664 0.38034812 0.41014203 0.5200882
000210 be a0 82 3e f7 9f 1d 3e ca d1 54 3e 24 9f fc 3d
       0.25513262 0.15393053 0.20783153 0.12335041
000220 1e d7 69 3e 5d 13 b3 3e 79 4e 9d 3e 12 a0 16 3f
       0.22835967 0.3497571 0.30723932 0.58838
000230 73 55 c2 3e a1 df 98 3e 96 41 88 3e 65 00 81 3e
       0.37955818 0.29858115 0.26612538 0.25195614
000240 70 5d cd 3e c9 51 a9 3e b0 36 d1 3e 42 50 ce 3d
       0.4011035 0.3307021 0.40862036 0.10073902
000250 3c f5 6e 3e e1 49 c2 3e e0 1d a2 3e 69 e5 ab 3e
       0.23335737 0.3794699 0.31663418 0.33573464
000260 bb d5 75 3e 24 6a 86 3e 68 d7 b6 3e c7 45 79 3e
       0.24007313 0.26252854 0.35711217 0.24343024
000270 2a 07 c5 3e 2e e1 a3 3e a4 50 a2 3e ef 8c b2 3e
       0.38482028 0.32007736 0.3170215 0.3487315
000280 5c 96 b4 3e 05 ba ac 3e 32 a2 d5 3e d3 28 c2 3e
       0.35270965 0.33735672 0.41725308 0.3792177
000290 b3 30 8e 3e 74 17 05 3f 05 5b a9 3e 27 e7 67 3e
       0.2777153 0.5198891 0.33077255 0.22646771
0002a0 db 70 ce 3e f6 8b d0 3e 20 04 b3 3e e0 80 86 3e
       0.40320477 0.40731782 0.34964085 0.262702
0002b0 1d 62 37 3e 33 5c b0 3e db ca 62 3e b9 61 a4 3e
       0.17908521 0.34445342 0.22147696 0.32105806
0002c0 63 98 d0 3e 95 d3 8f 3e c8 ac 79 3e 0c b4 a0 3e
       0.40741262 0.28091112 0.24382317 0.31387365
0002d0 ee 31 a7 3e 34 a6 99 3e 20 ec 93 3e 50 03 ba 3e
       0.3265528 0.30009615 0.28891087 0.36330652
0002e0 14 23 a1 3e d7 c1 a2 3e 05 70 bd 3e 8d 42 8c 3e
       0.31472075 0.31788513 0.36999527 0.27394524
0002f0 8d d3 b6 3e 33 e6 82 3e 4f 0b f4 3e 33 31 87 3e
       0.35708275 0.25566253 0.47664878 0.26404724
000300 0e df f7 3e 6f 75 88 3e a9 e0 92 3e d2 2e 25 3e
       0.48412365 0.26652095 0.28687027 0.16131142
000310 69 97 e3 3e 45 c0 ad 3e 71 6e 8d 3e 60 9a 8f 3e
       0.44451454 0.33935753 0.27623323 0.28047466
000320 53 c9 c9 3e 74 14 62 3e 2b af 7d 3e 81 22 a5 3e
       0.3941141 0.22078115 0.24773853 0.32252887
000330 08 49 9c 3e fb c0 fb 3e 73 54 94 3e 1e 16 96 3e
       0.30524468 0.4917067 0.2897068 0.2931375
000340 75 f1 3a 3f a3 44 f9 3e b1 6c 8b 3e fc 7b 6a 3e
       0.73024684 0.48685178 0.27231362 0.22898859
000350 db b1 ad 3e 3c d1 96 3e 2d 03 67 3e da 4b 6d 3e
       0.33924755 0.29456508 0.22559805 0.23173466
000360 ec b9 67 3e 06 a9 94 3e b1 c6 97 3e 0a e2 8d 3e
       0.22629517 0.29035205 0.29643777 0.27711517
000370 1c f1 b1 3e af 87 71 3e 3f e9 05 3f 84 71 f3 3e
       0.34754264 0.23586915 0.5230903 0.47547543
000380 91 68 9f 3e 81 c5 7c 3e 73 d0 c1 3e 18 44 8e 3e
       0.31134465 0.24684717 0.37854347 0.27786326
000390 9c 70 f8 3e 00 4c 91 3e f5 21 a4 3e d9 c9 91 3e
       0.48523414 0.28378296 0.32057157 0.2847431
0003a0 12 84 cc 3e cd 6b ea 3e 34 7d ac 3e 9f 91 c4 3e
       0.39944512 0.4578537 0.33689272 0.3839235
0003b0 f3 98 47 3e b2 57 8e 3e 35 7e 05 3e 8e 6d 58 3e
       0.19491939 0.2780128 0.13036425 0.21135542
0003c0 7b 0b 0c be 98 7b 91 bc 25 2a c1 bd 85 13 17 bb
       -0.13676254 -0.01775913 -0.094318666 -0.0023052406
0003d0 2a 7d 30 bd e4 a5 b7 bd 9a 8e 4c bd 27 b2 14 bc
       -0.043088116 -0.08967188 -0.049940683 -0.009075678
0003e0 e1 93 f6 bd c3 5b b9 bd a7 ab 14 bd 51 f5 bb bc
       -0.120399244 -0.09050705 -0.036296513 -0.022944124
0003f0 1b f8 89 bd b9 2c 53 bd 72 b7 96 3d c9 c3 2f bd
       -0.067367755 -0.051556323 0.07359208 -0.042911325
