Rudi/checkpoints_02/best_model.pth (torch, 604834 bytes, 10 tensors)

encoder_rnn.weight_ih_l0 f4 [360, 40]
000000 3c 05 a5 bd b0 95 12 3d 5d 32 12 bd 8f e3 07 3c
       -0.08057639 0.035787284 -0.03569256 0.008294
000010 23 01 8f bb 18 8b 71 3d 69 ef 8b 3d 7e 59 06 bd
       -0.004364149 0.05897054 0.06832773 -0.03280019
000020 c6 25 1d bc c1 a9 ad bc ce 8b 05 3d 29 f7 bd bc
       -0.009591525 -0.021199109 0.03260403 -0.023189144
000030 a5 48 80 bc 0e cd bf bc 15 18 e7 3c f2 fd ce bd
       -0.01565964 -0.023413207 0.028209725 -0.1010703
000040 61 12 f3 bd 6b f7 62 3c 01 09 82 3b ee 74 4c 3d
       -0.1186874 0.013852934 0.0039683585 0.0499162
000050 27 33 52 bc 6c c2 68 bd f7 75 1c bd 62 89 06 3e
       -0.0128295785 -0.05682604 -0.038198438 0.13138345
000060 cf f0 e1 3d 63 88 aa 3d de 2c b5 3c 62 50 25 3d
       0.11032259 0.08326795 0.02211612 0.040359862
000070 d1 51 d3 3d 8a f0 93 3d 47 d8 5c 3d 73 e2 9b bd
       0.103183396 0.072236136 0.053917196 -0.07611551
000080 35 c8 45 bd 6b a8 62 bd 56 51 5b bd c0 96 5b bd
       -0.048286635 -0.055336397 -0.053544365 -0.053610563
000090 46 1f a2 3c ab 3b 9b bd bc 87 23 3b c2 7f cd 3d
       0.019790303 -0.0757974 0.002495273 0.100341335
0000a0 91 ce 32 3d 98 2d d9 bd c5 a0 2f bd 01 ea 57 bd
       0.04365403 -0.106043994 -0.04287793 -0.052713398
0000b0 18 ea f3 ba aa 79 f0 3c 31 d8 10 bc 7c aa 0d bd
       -0.0018609194 0.029354889 -0.008840607 -0.034586415
0000c0 7c bc 2e 3d 9a f8 47 3d 5d 1f 43 3d ae b1 90 3b
       0.04266022 0.04882107 0.047637332 0.0044157123
0000d0 ba 35 5a 3d a4 ef da bd 63 f9 99 bd aa db f3 3b
       0.053273894 -0.10690239 -0.0751827 0.0074419575
0000e0 50 a2 63 bd 34 a7 af 3c c2 c9 99 bd ac 8c 03 bc
       -0.055574715 0.021442033 -0.075091854 -0.008029144
0000f0 f3 ff e9 bc 42 cf 34 3d c1 ad 85 3b 80 2d 0f bd
       -0.028564429 0.04414297 0.004079551 -0.0349555
000100 b0 03 27 3d f0 ee 6b 3d 1d 3a 38 bc 26 72 05 bd
       0.040775 0.057600915 -0.011244324 -0.032579564
000110 06 ca b6 3d 7b 9b 9e 3c 7e d9 c7 bc e3 5c 25 3d
       0.08925252 0.019361248 -0.0243957 0.040371787
000120 76 67 03 3b 26 74 df ba 08 d1 a7 bc f8 e4 95 3c
       0.0020050681 -0.0017048165 -0.020485416 0.018297657
000130 9f 17 44 3d 90 71 65 3d 22 fe 96 3d 76 df 6e 3d
       0.04787409 0.056016505 0.07372691 0.058318578
000140 a4 b8 1e 3d e7 0b 28 3e c4 79 33 3d ea 68 56 3d
       0.038750306 0.1641079 0.043817297 0.052346148
000150 6f f1 b2 3d 4e 7e 9e bd 12 dc b2 bc 71 d7 a4 3b
       0.08737456 -0.077389345 -0.021833453 0.0050305654
000160 d4 a2 45 bd bd b5 7b 3a f1 f7 81 3c 4f de 0d bd
       -0.048250988 0.0009601971 0.015865298 -0.034635838
000170 03 70 ef 3c e2 42 5f 3c 0f 9a 33 bd 41 aa c5 3d
       0.029228216 0.013626786 -0.043848094 0.09651614
000180 1d 89 b9 3d f2 4a 8c bc b5 e7 eb bc ac 56 5a bb
       0.090593554 -0.01712558 -0.02879701 -0.003331582
000190 b9 67 1b 3c 7a 9d 00 be 74 25 0a bd ca 6e 78 3d
       0.009485179 -0.12560073 -0.033727124 0.06065253
0001a0 90 7c fb bc f5 d7 84 bd 4d 18 1d 3d f9 7d fd bd
       -0.030699044 -0.06486503 0.038353253 -0.12377543
0001b0 2a 10 12 bd 88 00 50 bc ee 1b 2c 3d eb 99 8a bd
       -0.035659947 -0.012695439 0.042018823 -0.06767639
0001c0 9a f2 05 3e 90 70 33 bc 85 a6 5a 3d c5 bc 65 3c
       0.13080826 -0.01095213 0.05338146 0.014022057
0001d0 11 f1 c7 3d 45 a6 7a bd 5f a2 2b bd 99 13 42 3c
       0.09762777 -0.061193723 -0.041902896 0.011845493
0001e0 fb c1 93 bd ba a9 5e 3d 88 b3 77 3d b9 2c 8a 3c
       -0.07214733 0.054361083 0.06047395 0.016867029
0001f0 bc af a8 3c b6 ce 04 3c a5 65 bb bc 05 b5 d7 bd
       0.02059161 0.008105924 -0.022875616 -0.105325736
000200 7e dc c4 bd 41 5a 7a bd fc bf 9a 3c a2 3a e4 bc
       -0.09612368 -0.06112123 0.018890373 -0.02785999
000210 8e 37 81 3c 1c 1a c3 3b a2 ce f7 bd 6e 8f a0 bd
       0.01577356 0.00595404 -0.12099959 -0.07839857
000220 d0 56 0a 3d 2c 5f 36 bd 04 77 15 bd b9 4c 83 3d
       0.033774197 -0.044524357 -0.036490455 0.06411118
000230 86 e2 53 bd 8d 82 c7 bd 4f f1 8c 3c b3 87 a2 3c
       -0.0517297 -0.097416975 0.017204909 0.019840097
000240 ff 43 6e 3d 63 e1 70 3d 06 ab 8f 3c bd 0d 62 3c
       0.058170315 0.058808696 0.017537605 0.013797221
000250 84 77 0e bd 01 77 33 3d d3 f1 9a 3c c4 e9 46 3d
       -0.034781948 0.043814663 0.018914139 0.04856278
000260 e3 40 57 3b 3a 45 c2 bc e9 cb b9 3d e5 85 17 3d
       0.0032845072 -0.02371465 0.09072096 0.036992926
000270 30 5e ad 3d 71 3c 5c 3b c3 4a 92 3d 6e 84 6a 3c
       0.084652305 0.0033605362 0.07143166 0.0143138
000280 9d 3b dd bc be 24 7c 3d 05 d6 a5 3c df 8e cf 3d
       -0.027005965 0.061558478 0.020243654 0.101346724
000290 6c e5 2a 3d e5 da ef bc 3d e9 2b bb 99 8a 1e be
       0.0417227 -0.029279182 -0.002623155 -0.15482558
0002a0 87 7c f3 bc f4 aa 0c be 56 81 a5 bd 00 0d 84 bc
       -0.029722465 -0.13737088 -0.080813095 -0.01611948
0002b0 18 12 25 3d 1f 9d a7 bc 1d 2d 8e bd 49 4e b6 3c
       0.04030046 -0.020460663 -0.069421984 0.022254126
0002c0 16 ae d3 bc 12 50 4b bd 3c 35 de 3c b1 ba 32 bd
       -0.025839847 -0.049636908 0.027124994 -0.043635074
0002d0 8f d6 2e 3d d3 7f 33 bd 0a 73 5b bd b9 0d f0 3c
       0.042685088 -0.043823075 -0.053576507 0.029303418
0002e0 e7 3d a6 bc bb 28 6b bc a5 a1 17 3d 81 64 07 bd
       -0.02029319 -0.014352973 0.03701939 -0.033054832
0002f0 de 43 f6 bb 3d 7c 05 bd 38 41 31 3d 97 34 36 3a
       -0.0075154146 -0.032589186 0.043275088 0.00069505855
000300 25 08 84 39 90 cd 80 3d e5 55 e0 3d a3 28 12 3d
       0.0002518307 0.06289208 0.10953883 0.035683285
000310 5d 66 c8 3d b6 77 c1 3c 11 87 38 3d cd 48 9d 3d
       0.09785149 0.023616653 0.045050684 0.07679901
000320 df 42 06 3d ef c6 47 bd 82 b7 a1 3b e3 64 9e bd
       0.032778617 -0.048773702 0.004935206 -0.07734086
000330 ea 0e b3 bd c3 df 87 bd 51 b5 eb bd 23 59 e9 bd
       -0.08743079 -0.06634476 -0.11509193 -0.113939546
000340 de 86 ba bc 3e 2c 49 bd 74 91 70 bd 6a d8 6d 3b
       -0.022769388 -0.04911446 -0.058732465 0.0036292323
000350 b0 92 07 bd cf cb 5a bd d4 45 d0 bc 5c 5d a6 bd
       -0.033098876 -0.053417023 -0.025423922 -0.08123276
000360 2c da 39 bd e7 75 f5 bc 05 be 2a 3c 1f fb 2c bd
       -0.04537408 -0.029963447 0.010421281 -0.042231675
000370 12 29 f3 bc 22 7f 99 bd cf 57 0d 3c 15 a0 92 3d
       -0.02968267 -0.07494952 0.008626892 0.071594395
000380 bd 91 6d bc dc a9 6b 38 68 41 6d 3c 3e af 8b 3d
       -0.014500079 5.618656e-05 0.014480926 0.06820534
000390 27 89 1a 3c f6 3d 5f 3c ae 21 67 bd fb b1 fe bd
       0.009432114 0.0136256125 -0.056428604 -0.12436291
0003a0 89 3e bc bc 17 b8 a5 bd 79 59 96 bd fd 48 21 bc
       -0.022979038 -0.08091753 -0.07341284 -0.009844062
0003b0 f6 d0 ab bc 3d bf 8c bc 2f cc f1 3b 12 da 3f 3c
       -0.020973664 -0.017181033 0.007379077 0.011709707
0003c0 7f 55 9d bd 80 7d ba 3d 6c 91 33 3d c6 29 bc 3c
       -0.07682323 0.091059685 0.043839857 0.022969138
0003d0 71 71 71 bd df c9 18 3d 29 3a aa bd 48 db c5 3c
       -0.058946077 0.037301894 -0.083118744 0.024152413
0003e0 7a d4 ee bb f7 c4 ba 3d fa 4d 0a 3d cc 84 b9 3c
       -0.007288513 0.09119599 0.03376577 0.02264633
0003f0 9f 08 b5 3c e6 5b 03 3d 9e 12 4d 3b 77 0b 60 bc
       0.022098837 0.032070063 0.0031291614 -0.013674608

encoder_rnn.weight_hh_l0 f4 [360, 120]
000000 58 89 dc bc 64 0d 5c 3c 95 2e 14 bd 53 3d f1 bd
       -0.02692096 0.013430927 -0.036177237 -0.11779275
000010 fd 72 44 3d 37 1c 0b bb 6f 2b 82 bc ca 11 ee bb
       0.047961224 -0.0021226534 -0.015889851 -0.007265304
000020 34 2d d0 bd e1 f9 88 3c 7f ca 2f 3c e0 9d bc 3d
       -0.10164872 0.016720714 0.010729431 0.092098
000030 5d 73 73 bc 01 fb 29 bd 96 67 8d 3d 23 a6 b5 bd
       -0.014859048 -0.04149914 0.06904523 -0.08869579
000040 6e b3 6e 3d 38 07 59 bc 0c ce 80 bc df b8 b3 3b
       0.058276586 -0.01324635 -0.01572325 0.005484685
000050 67 5e 45 bc d8 06 50 3c d8 9e 83 3c f9 7d 81 bd
       -0.012046433 0.012696944 0.016066954 -0.063228555
000060 ed 8d 44 bc a3 41 53 bc 01 ae a9 3d 05 95 af 3d
       -0.011996728 -0.012894067 0.08285142 0.08573345
000070 d5 57 b8 bc 5f 84 60 bd 05 2e 52 3d 7e 7b 62 3d
       -0.02250282 -0.05481374 0.05131342 0.055293553
000080 d5 ac 39 3c 86 df ab 3c 52 2f 7d bc 62 8c a3 3d
       0.01133271 0.020980608 -0.015453177 0.0798576
000090 dc 31 9f bc 51 f5 f7 bc 72 52 53 3d 1c 8e d0 bc
       -0.019432954 -0.030268343 0.051592298 -0.025458388
0000a0 f0 1b a0 bc 5f 49 1c bd f6 ca e9 3c 86 f0 3f 3d
       -0.019544572 -0.03815591 0.028539162 0.04686024
0000b0 cd fa 13 3d d6 03 d5 3c 9b 2f 44 3b d7 fe ef bc
       0.036127854 0.026002806 0.0029935602 -0.029296322
0000c0 82 06 4c bd 8e 22 49 3d db 29 a4 3d a8 f5 8e bd
       -0.049810894 0.04910522 0.08015796 -0.06980449
0000d0 4e aa 01 bc d5 2f ac 3b 23 34 09 3c 2e ba 8c 3d
       -0.007914139 0.0052547255 0.008374247 0.068714485
0000e0 cc a7 07 bd 71 d0 31 3d 39 1a 26 3d fe 99 58 bd
       -0.033119008 0.043411676 0.04055235 -0.052881233
0000f0 93 46 37 3d 41 f6 b0 bc fb 22 d7 3d 57 77 80 bc
       0.04474504 -0.021601798 0.10504719 -0.015681906
000100 50 3e ae bd ef d7 93 3c 48 7b 94 3d e3 b6 27 bd
       -0.08507979 0.018047301 0.072500765 -0.0409459
000110 f3 9f f1 bd fb fa 8d 3d 01 00 ad bc ff 09 51 bc
       -0.11798086 0.06932636 -0.021118166 -0.012758731
000120 5e a4 c9 3b 5c 6e da bb 66 40 6a bd ca b5 b1 bd
       0.0061536273 -0.006665988 -0.05719032 -0.08677252
000130 52 ed a5 bd 6e b2 c0 bd 94 5b 81 bd 4d 65 0a 3d
       -0.08101906 -0.09409033 -0.06316295 0.033788014
000140 22 55 05 bd c2 3b 38 bb 04 c7 9a 3c 9b d0 1b 3d
       -0.032551892 -0.002811179 0.018893726 0.03804074
000150 51 d4 f0 bc a0 98 ce 3c b6 21 b5 bc 2f 9d 02 bb
       -0.029398115 0.025219262 -0.022110801 -0.0019930115
000160 0c ee 02 3d 62 1c 91 3d 24 f8 06 3d 4a 47 cd bc
       0.0319653 0.07085492 0.03295149 -0.025058407
000170 03 c0 7f 3c f2 12 d3 bd 48 38 11 bc 26 7c 1d be
       0.015609744 -0.10306348 -0.008863516 -0.1537939
000180 3e 5f 6c 3d 82 e3 b0 3a db b8 b6 3b a2 ec 47 bd
       0.057708018 0.0013495537 0.0055762357 -0.048809655
000190 2a f7 7a 3d 02 31 46 3d 29 c8 33 bd 4f f7 e3 3c
       0.06127087 0.04838658 -0.04389206 0.027827887
0001a0 4f e8 74 bd 9c 4d 75 bd 0b 4e 00 be b8 9e 6d bd
       -0.05979186 -0.059888467 -0.12529771 -0.058012694
0001b0 ba 96 31 bc 95 9c a3 3d 19 3e fb 3c 29 e1 9b 3c
       -0.010839159 0.0798885 0.030669259 0.019028263
0001c0 8d 82 c2 bc 0c 7f 98 bd 57 2f a3 3b 9d 87 cb bd
       -0.023743892 -0.07446107 0.0049800086 -0.099379756
0001d0 64 69 16 bd 7f ba cc 3c 75 2c f1 3c f7 0d 8b 3c
       -0.036721602 0.024991272 0.029440144 0.016974432
0001e0 4d db 5b 3d e3 11 a9 bc 35 98 67 3c 01 6b 15 3d
       0.05367594 -0.020638412 0.01413541 0.036479
0001f0 9e a1 b8 bc 97 ce e7 3c 51 71 d1 3c ea 02 91 bb
       -0.022538003 0.028296752 0.025566729 -0.004425396
000200 de 44 49 3d 84 6c 19 3d 41 e8 b2 bc 3d 7b 0d 3d
       0.049137942 0.037457004 -0.021839263 0.034541357
000210 6b 9b f3 bc f6 69 6e bd 39 38 fe 3c ad 55 1e 3d
       -0.029737195 -0.05820652 0.031032668 0.038655926
000220 4e 01 82 3c 03 fe 90 3d db 5a 24 bd ad da 17 3c
       0.015869763 0.07079699 -0.04012571 0.009268445
000230 9c 28 38 bc 50 8c f9 bb 3c 27 0d 3d 37 f4 72 3d
       -0.011240151 -0.0076156035 0.034461245 0.059314933
000240 6a 30 66 bd 87 32 85 bd 2e 95 95 bc c2 17 8e 3b
       -0.056198515 -0.06503778 -0.018259611 0.0043363282
000250 65 e6 27 3d cd 1d 75 3c c7 47 95 bb 22 17 cc bc
       0.040991206 0.014960718 -0.0045556757 -0.024913374
000260 12 1d 2c bd 00 d1 e6 bc 59 13 af ba f8 22 27 bd
       -0.04201991 -0.02817583 -0.0013357206 -0.040804833
000270 5b 55 e7 bc 94 35 89 bc 32 04 1a bc 1e 11 48 bd
       -0.028238943 -0.01674918 -0.009400414 -0.04884445
000280 71 1f a7 3c bb 51 8d bc f3 c4 ab bc a8 a5 36 3d
       0.020400735 -0.017250886 -0.020967936 0.044591576
000290 28 d0 ce bc 0a 3b 7b bc 8f 2b 27 bd cc 41 2b bc
       -0.025245741 -0.0153339 -0.040813025 -0.010452699
0002a0 17 2a 54 bd 97 d4 8f 3c cc e7 37 3c c7 f4 48 3d
       -0.051797953 0.017557425 0.011224698 0.049061563
0002b0 b8 0e 59 3c cf 30 b7 bc 60 58 2f 3d 3b 34 e0 bc
       0.013248138 -0.022362141 0.04280889 -0.027368655
0002c0 a2 0f 98 3d 0c 1d 2f 3d 3a a2 db bc 65 3b a1 3c
       0.07424857 0.04275231 -0.026810754 0.019681642
0002d0 fe be 56 3d 18 34 83 3c 0f 88 e0 bc b3 43 ae bb
       0.052428238 0.016016051 -0.027408628 -0.005318129
0002e0 1b 7e b7 bc 03 25 0a 3d f8 55 f2 3c 8a 16 35 bd
       -0.022398999 0.033726703 0.029582009 -0.044210948
0002f0 39 8f 12 bc 8e 08 4c 3b af fb 50 bd cb 04 20 3c
       -0.00894528 0.0031133029 -0.051021274 0.009766768
000300 a7 a9 6b 3d 24 54 71 3c d6 af a8 bc 6f b3 06 bd
       0.05753484 0.014729533 -0.020591658 -0.032885965
000310 a9 12 b0 3b 28 a7 f2 bc c7 c3 43 bd c6 b2 71 3c
       0.005373318 -0.029620722 -0.04779413 0.014752096
000320 53 07 29 bd 5d bf 81 3d 7c 8b da 3c c8 b3 9c 3d
       -0.04126675 0.06335328 0.02667784 0.07651478
000330 51 a8 3e 3d 09 dc b2 3c 96 47 31 3d d4 2f e1 3c
       0.046547238 0.021833437 0.04328116 0.027488627
000340 ec b9 64 bc ba 56 31 3c 16 cd a7 bc 51 99 f8 3c
       -0.013960343 0.0108239 -0.020483535 0.030346544
000350 27 56 18 bc 44 69 02 3d 41 ff 86 3c 6c 1c 2a 3d
       -0.009297884 0.03183867 0.016479136 0.04153101
000360 95 14 88 bc 1a c6 23 bc 16 72 a2 bd e1 58 0a bd
       -0.016611377 -0.009995962 -0.079319164 -0.033776168
000370 63 68 4d 3d 66 76 13 bd 29 34 44 3d 83 b1 eb 3b
       0.05014838 -0.036001585 0.047901306 0.007192792
000380 ed f9 d2 bd 05 50 8f 3c 64 05 9c 3c 25 7a 21 3d
       -0.10301576 0.017494211 0.01904554 0.039423127
000390 3a 5c d3 bc ca 22 35 bb 89 68 07 3b 77 9e 90 3d
       -0.025800813 -0.0027639144 0.0020661673 0.07061475
0003a0 e3 bd 15 3b ab ba 2d bc 66 03 dd 3c 66 d5 0d bd
       0.0022848777 -0.010603587 0.02697916 -0.03462734
0003b0 a4 64 91 3d 29 c0 1d bd 2b 39 31 bc 6a b6 33 bc
       0.07099274 -0.038513336 -0.010816853 -0.010968784
0003c0 fd d1 92 3c 6f 7a d8 bb 77 24 9d 3d ab 87 ce 3c
       0.017922396 -0.006606392 0.07672971 0.025211176
0003d0 3c 12 3c 3c 0b 36 5c bd e5 ab ea 3b c0 96 9b bb
       0.011478957 -0.053762477 0.0071616047 -0.0047481954
0003e0 89 7e ad 3d b3 2e cb bd 95 1e f7 bc 80 52 96 bd
       0.084714 -0.099210165 -0.03016595 -0.073399544
0003f0 bc 58 62 bd 18 8f 9c 3c 6e da 56 3d b5 1f 52 bd
       -0.055260405 0.019111201 0.052454405 -0.05129977

encoder_rnn.bias_ih_l0 f4 [360]
000000 a5 fd c6 bd 7d 21 0e 3d ad 49 7f 3d 11 2e d3 3c
       -0.097163476 0.034699906 0.062326122 0.025778802
000010 18 51 01 3d ea b0 6d 3b 16 80 62 bc 5a da 86 3d
       0.031571478 0.003626878 -0.013824483 0.06584616
000020 78 c6 57 3c c1 fc cf 3d 86 fa 86 3d 4b 74 0d bc
       0.013169877 0.10155631 0.06590752 -0.008633683
000030 a1 46 88 3c b6 72 43 bd 6c 9a 23 bc a7 5d c2 bd
       0.016635241 -0.04771682 -0.0099855475 -0.09490519
000040 1e 8f 60 bd 8a 7f 68 bc 63 11 8a bd 3b ce 7a 3d
       -0.054823987 -0.014190564 -0.067415975 0.061231833
000050 6c 9b cd 3d c0 f0 8a 3c d4 3b 8e bd aa 77 42 3d
       0.1003941 0.016960502 -0.06945005 0.0474774
000060 0b af 2f 3d 49 b4 f2 3d b1 c5 a6 3d 1d 13 df 3c
       0.042891543 0.11850793 0.081431754 0.027230794
000070 c8 a3 b4 bc 9d 03 bc bd cc a8 91 bc 95 e0 93 3d
       -0.022050753 -0.09180377 -0.017780684 0.0722057
000080 a4 d9 79 3c 05 d3 2c 3d 6f ae cc 3d 95 88 73 3d
       0.0152496435 0.04219343 0.09994208 0.059456427
000090 c8 bd c0 bc be fe 08 3e 95 78 c1 bb bb 21 f3 bc
       -0.023527995 0.13378426 -0.005904267 -0.02967917
0000a0 4e 45 70 bc 65 4c 05 bd 9c ce 40 bd d6 f7 60 3d
       -0.014664961 -0.03254356 -0.047072038 0.054923855
0000b0 fb e7 61 3d 61 03 2f 3d ea 56 98 bb d0 10 29 3d
       0.055152874 0.04272783 -0.004649033 0.0412758
0000c0 f4 58 11 3d 4d b2 e0 3c 3f a9 5e bd 34 f8 9c 3d
       0.035485223 0.02742877 -0.054360624 0.076645285
0000d0 9c ed 06 bd b1 18 38 3d 26 ca 8c bd 91 20 7c 3c
       -0.032941446 0.044945423 -0.06874494 0.015388624
0000e0 77 7a e2 bc 36 42 d2 bc 63 9a af 3b 4e e6 51 bd
       -0.027646286 -0.025666337 0.0053589805 -0.051245026
0000f0 53 a9 b2 3c 8e 77 00 bd 1e 24 17 3d 2b 32 d3 3d
       0.021809256 -0.031364016 0.03689968 0.10312303
000100 46 cd 3e 3c 44 6e 2d 3d d5 64 82 bd a8 b5 13 3c
       0.011645621 0.042341486 -0.063668884 0.009015478
000110 bb a7 97 3d 30 20 6e bd e1 40 2e bd 4c 9e db 3c
       0.07405039 -0.058136165 -0.042542342 0.02680888
000120 2f 43 4b bd 66 3c b6 bc a0 21 cf 3b c7 39 c7 3c
       -0.04962462 -0.022245597 0.006321147 0.024319543
000130 d6 4b 2a 3d a5 d9 39 3d cd 8b 0f bd a2 d0 86 3c
       0.04157623 0.045373578 -0.035045434 0.016456906
000140 ad ca 81 bd bc 6c 0a 3d d2 f9 18 3d ed 5d 73 3d
       -0.063374855 0.033795103 0.037347622 0.059415746
000150 fa 43 f3 3c e3 22 5d bd ff c0 ab bc 5a fa 6e bd
       0.0296955 -0.05398835 -0.020966051 -0.058344223
000160 a0 13 e1 3c e3 ff 52 bd aa 8d fb bc cb b0 61 bd
       0.027475178 -0.051513564 -0.0307072 -0.055100244
000170 d6 66 94 bd 49 b5 09 3d 48 4d 42 bc 9a ac 13 bc
       -0.07246177 0.033620153 -0.011859246 -0.009013319
000180 e9 94 b0 bb 86 33 7a bd ba c9 e3 bc 31 cb ac bb
       -0.005388845 -0.061084293 -0.027806152 -0.0052732457
000190 a7 a0 96 3c 5c 53 55 3b ef 81 5a 3d 93 2d 6f bc
       0.018387152 0.0032550907 0.05334657 -0.014598268
0001a0 c7 63 1a bd cc 38 90 3d 4b a5 96 bd 54 4c 9d 3c
       -0.03769281 0.07042083 -0.07355746 0.019201435
0001b0 35 b7 ee bb 68 52 9b 3d fe 59 bd 3c e9 d1 95 3d
       -0.0072850236 0.07584077 0.0231142 0.07315428
0001c0 7a 8b 81 bd 6e 8d 1d 3d 10 6e 90 bc c3 9c c2 3d
       -0.06325431 0.038464956 -0.017630607 0.09502556
0001d0 93 0b 0f bc f1 d8 09 bc ed 75 4f bc c2 64 8c 3c
       -0.008730787 -0.008413539 -0.012662393 0.017137889
0001e0 65 c5 9c 3d 12 43 1f 3d 1a f7 9e 3d a9 cc ea 3d
       0.076548375 0.038882323 0.07761975 0.11464817
0001f0 4b 32 3b 3e d9 79 28 3c f9 7c 22 3d 82 00 97 3d
       0.18280904 0.010282957 0.039669964 0.07373144
000200 df d9 c9 3d 05 9f 20 bd 55 2b 2b 3d 75 44 24 3e
       0.09856009 -0.039214153 0.04178937 0.1604174
000210 58 52 11 bc 31 f2 d2 3d 70 22 93 3d 8a 11 44 3d
       -0.00886973 0.103001006 0.07184303 0.04786829
000220 91 58 9e 3d 03 f0 52 3e c2 7f 98 3d de 4a 46 3d
       0.077317365 0.2059937 0.07446243 0.048411243
000230 44 b9 c7 3c 0e 4a 2f 3e 09 a2 3a 3c f2 78 03 3e
       0.024380334 0.17118093 0.011391171 0.12839106
000240 9b 60 8d 3d 71 16 56 3d 78 0f 27 3e e6 6a 3b 3d
       0.06903192 0.052267496 0.16314495 0.045756243
000250 66 2f 22 3e c3 c5 40 3d 4c 6c 26 3e b8 63 30 3e
       0.15838394 0.0470636 0.1625225 0.1722554
000260 3b bb 99 3d 9e 37 00 3e 2a b8 03 3d 4c 34 96 bc
       0.075064145 0.12521216 0.032158054 -0.018335484
000270 e7 83 18 3e 32 f4 b6 3d d1 88 b9 3c 76 9a b5 3d
       0.14894067 0.08933295 0.022648247 0.08867352
000280 8a 14 4d bd 5c 92 42 3e e1 00 f1 3d 6a f6 b0 3d
       -0.050068416 0.19001144 0.11767746 0.0864075
000290 55 23 06 3c 8f a6 ed 3d 34 31 d3 3d 6e ac 26 3c
       0.008187135 0.11604034 0.10312119 0.010172946
0002a0 69 e5 ef 3c de 64 a6 3d b4 a5 98 3d 66 84 83 3d
       0.029284196 0.08124708 0.0745348 0.064217374
0002b0 71 35 f1 bb be 8b 22 bc 8f 0e 6a bd 11 fe dc 3d
       -0.007361107 -0.009921012 -0.05714279 0.10790647
0002c0 1e 92 82 3d ae 35 f5 3c 81 ff a9 3d 96 30 2d 3e
       0.06375526 0.029932823 0.08300687 0.16913065
0002d0 0c a8 ac 3d db 3d ab 3d 0e 4b 3b 3e e2 18 5c bc
       0.0843049 0.08361407 0.1829035 -0.013433667
0002e0 05 4a 00 3e 7c c6 a4 3d 66 db bd 3d 8f 92 a2 bc
       0.12528236 0.080456704 0.092703626 -0.019845275
0002f0 d3 68 96 ba 6c 00 3d bc 47 d9 96 bc e1 bc fa 3d
       -0.0011475332 -0.011535745 -0.018414153 0.12243057
000300 42 de f4 3d 5e 3f c5 3c e1 0e 32 3e 3c 73 07 3e
       0.11956455 0.024078067 0.17388488 0.13227552
000310 1d 17 29 3d 44 1d 99 3c c3 06 34 3e aa 45 b8 3d
       0.04128181 0.018690713 0.17580704 0.08997662
000320 fb 5e ec 3d cb 40 ff 3d 74 16 08 bc e2 ad e8 3d
       0.115415536 0.1246353 -0.0083061345 0.113612905
000330 d8 d9 08 3d c5 c7 03 3e 09 94 ed 3d 07 96 8f 3d
       0.033410877 0.12869175 0.11600501 0.07011037
000340 47 9f c8 3d 29 c7 9c 3d 0f b4 0f 3e 45 49 03 3e
       0.09796005 0.07655174 0.1403353 0.12820919
000350 35 53 0d 3e ac 9e 11 3e b0 26 25 3d 20 d8 5d 3d
       0.13801272 0.14220685 0.0403201 0.05416119
000360 4a 62 fa 3d 64 00 09 3e 90 ff c2 3d a0 78 6e 3d
       0.122257784 0.13379055 0.09521401 0.058220506
000370 de 0a ac 3d 57 f3 be 3d 3a d9 3e 3e eb 37 d5 3c
       0.0840051 0.09323757 0.18637553 0.02602764
000380 bf 24 2c 3d 28 c1 1e 3d 72 37 e6 3c 03 c3 e1 3c
       0.04202723 0.038758427 0.02810261 0.02755881
000390 d6 78 90 bc 44 50 c1 3d 94 38 8f bc 3a 67 6d 3d
       -0.017635744 0.094391376 -0.017483033 0.057959773
0003a0 af 74 1c bd a1 9e 07 bd e6 3e a3 3c 87 a3 d5 3d
       -0.038197216 -0.033110265 0.019927453 0.10431581
0003b0 c2 7b 00 3e ff 19 04 bd 29 38 b5 3d ff 20 9e 3d
       0.1254721 -0.032251354 0.08848602 0.07721137
0003c0 53 e7 53 bd e2 67 42 bd 9f 98 54 3d 4a bd be 3d
       -0.05173428 -0.04746235 0.051903363 0.09313448
0003d0 d8 45 ba bd cf dc 62 bd ee 7a c2 bd b3 2d ad bd
       -0.09095353 -0.05538636 -0.09496103 -0.08455982
0003e0 90 31 29 3b 79 05 bc bd 7d 17 45 bc cf 65 83 bd
       0.0025816895 -0.09180731 -0.012029526 -0.06415903
0003f0 7e 88 d2 3d 88 17 65 bd 1b b6 91 3d 02 17 4a bd
       0.1027994 -0.055930644 0.07114812 -0.04933835

encoder_rnn.bias_hh_l0 f4 [360]
000000 e9 be 3a bd 27 a8 80 bc a8 0e b1 bc c2 48 0d bd
       -0.045592222 -0.015705181 -0.021613434 -0.034493215
000010 e4 f7 b0 3d 56 c9 5b 3d e1 2d 78 bd 85 93 fb 3c
       0.086410314 0.053658806 -0.06059063 0.030709991
000020 43 64 6a bd c1 b6 1d bd 65 8a c6 bc c2 e1 de 3d
       -0.057224523 -0.038504366 -0.024235914 0.10882904
000030 dd bc 9b bc 70 f4 62 bc 40 c2 f9 3c de c2 d8 bd
       -0.019010955 -0.013852224 0.030488133 -0.10584043
000040 fd 81 6d 3d e6 ea c8 3c 68 5e 95 bd a3 9e f8 3d
       0.057985295 0.02452607 -0.07293397 0.121396326
000050 73 9c b7 3d cf 7e f8 bc c2 c3 a1 bd b3 b2 0c 3d
       0.08965387 -0.030333905 -0.07898666 0.03435011
000060 4e c2 0f 3c 36 0b 28 39 09 ac a3 3d c7 0e 38 3c
       0.008774353 0.00016025905 0.079917975 0.011233992
000070 b3 82 04 3d 46 b7 c7 bd 68 73 a9 bc 8f ab 8e bc
       0.032351207 -0.097517535 -0.020684913 -0.01741579
000080 3b 6f be 3c b6 c4 a6 b9 ad 01 2a 3c b0 d0 82 3d
       0.023246398 -0.00031808548 0.010376376 0.0638746
000090 9e 34 18 3d e2 b8 8c 3d 9e 93 96 3d 32 df 3f 3c
       0.037159555 0.06871201 0.073523745 0.011710929
0000a0 6b 56 9f 3d bf ce 93 3b fa ab 49 3d 7a 82 98 bd
       0.07780155 0.00451073 0.049236275 -0.074467614
0000b0 c4 79 77 bd f8 0e 21 3d fb 49 2b bd 52 2b a7 3b
       -0.06041886 0.039320916 -0.0418186 0.0051015997
0000c0 0f 83 b3 3c dd 69 5e bc 77 87 30 3b ce b8 45 3c
       0.02191308 -0.013575044 0.0026936212 0.012067987
0000d0 cb 00 f0 bc 6f 3c b2 3c be 87 84 bc 1c 5c ae 3c
       -0.029297253 0.021757333 -0.016178008 0.021284156
0000e0 31 a3 4c 3c bd 03 99 bd 6c da 56 3d 23 f9 dd bc
       0.01249008 -0.07471416 0.052454397 -0.027096337
0000f0 dc c1 3f 3d 0b 91 cc bc 6a 47 9a bd b8 03 88 3d
       0.046815738 -0.024971506 -0.075331524 0.06641334
000100 77 88 d5 bb a5 29 02 3d 07 4a a2 bd 7f 84 19 3c
       -0.006516512 0.031777997 -0.07924276 0.009369968
000110 48 e2 d6 3d 0d 26 b0 bd 1a 20 71 3d ff bc 43 bb
       0.104923785 -0.086010076 0.058868505 -0.002986729
000120 d6 ee ad 3d f8 07 25 bd 2d 37 3e bc ff 90 b4 3d
       0.0849282 -0.040290803 -0.011609835 0.08816718
000130 f2 9d 14 3d 5f 72 42 bc 25 1c c0 3c 20 ba 11 bd
       0.03628344 -0.0118680885 0.02345092 -0.035577893
000140 39 46 90 bd 64 2e b6 3d 17 63 5d 3d 21 7e dc bb
       -0.07044644 0.08895567 0.054049578 -0.006728903
000150 d4 b7 05 3d 36 78 48 bc 3b 11 7f 3d bc 7c f1 ba
       0.032646015 -0.012235692 0.06227229 -0.0018424015
000160 a6 69 6b bd 9f 77 6b 3d 3d d1 76 bd 7c d4 16 3c
       -0.0574738 0.057487126 -0.06025814 0.009205934
000170 ce fa 59 bc dd 00 61 bd 5d 07 c3 3c 99 5c ef bc
       -0.013304425 -0.054932464 0.023807222 -0.029218959
000180 19 e4 6e 3d 8f b3 15 3c 9e 3a cf bb 39 39 09 3d
       0.058323 0.009137048 -0.0063241264 0.033501837
000190 89 93 e6 3c 7c ec 30 bd b0 f4 91 bc b5 fe f2 bc
       0.028146522 -0.04319428 -0.017816871 -0.02966247
0001a0 50 3f a7 3c b2 ad bd 3b 37 b8 ee bc 37 df b1 bd
       0.020415932 0.0057885284 -0.029140575 -0.08685153
0001b0 8d a3 ad 3b 54 a9 37 3d bd 76 ef 3c b9 23 5c 3d
       0.005299038 0.04483922 0.029231424 0.053745005
0001c0 1d b4 e1 3b 91 f5 97 3c 0c e6 c7 bc 3e cb 96 3b
       0.0068879263 0.018549712 -0.024401687 0.004601865
0001d0 65 87 5c bd 7b a9 30 3d 6a b2 81 3c 34 f6 8d 3d
       -0.05384006 0.04313038 0.015832145 0.06931725
0001e0 be 68 55 3e f9 f2 83 3c d9 e8 db 3d 10 9b 02 3e
       0.20840737 0.01610707 0.107377715 0.12754464
0001f0 28 b3 51 3d bd 71 0a 3c 61 79 fa 3c 06 c2 01 3d
       0.051196247 0.008449969 0.030575456 0.031679176
000200 bf 5e 10 3d 8f 98 54 bd a3 fe d0 3d 6c 48 d2 3d
       0.035246607 -0.051903304 0.10204818 0.102677196
000210 e2 f6 ce ba 3f a3 31 3c 9e e0 b1 3d 13 dd 18 3d
       -0.001579013 0.010842144 0.086854205 0.037320208
000220 c6 6a 16 3c 25 b3 42 3e 06 d3 d0 3d b8 dc 1e 3d
       0.00918073 0.1901365 0.101964995 0.038784713
000230 ee 60 55 3d 15 77 eb 3d 94 cd 14 bd 32 d5 f9 3d
       0.052094392 0.114973225 -0.036328867 0.12198867
000240 eb df af 3d 62 64 b7 3d ba 31 fc 3d bc 90 8d 3d
       0.08587631 0.089546934 0.12314172 0.069123715
000250 84 82 1c 3e 3e 6e 0b 3e c7 12 15 3e 11 01 0b 3e
       0.15284163 0.13616273 0.14557944 0.13574626
000260 9e 09 a6 3d a5 fd 39 3e ef c0 f2 3d a2 40 37 3d
       0.08107303 0.18163164 0.118532054 0.044739373
000270 a6 e0 fd 3c a2 5a 02 3e 22 52 99 3d de 18 c4 3d
       0.03099091 0.12729886 0.07486369 0.095750555
000280 7b a4 0d bc 3f 20 1f 3e 87 18 ae 3d 62 89 24 3e
       -0.008645172 0.15539645 0.08500772 0.16068032
000290 19 92 ed 3d a1 de 0c 3e 4d 35 f2 3d aa bb 0e bb
       0.116001315 0.13756801 0.118265726 -0.0021779337
0002a0 59 cd 77 bc 15 f3 03 3e f4 d4 8a 3d 01 db ce 3d
       -0.015124642 0.12885697 0.06778899 0.101003654
0002b0 08 d2 02 3d ef 4d 34 bd 43 c1 e8 bc 91 ad 2d 3e
       0.031938583 -0.044019636 -0.028412467 0.16960742
0002c0 10 86 e0 3c e8 9e bf 3d 05 b7 af 3d cc 70 0d 3e
       0.027407676 0.09356481 0.0857983 0.1381256
0002d0 5a 1d b4 3d e0 3f bc 3d 9d d9 df 3d 13 4c 79 3b
       0.08794661 0.09191871 0.10930178 0.0038039729
0002e0 9b e8 c7 3d 5e 4f 4b 3d 74 8d d5 3d fe 40 bd bc
       0.09761163 0.049636237 0.10427371 -0.02310228
0002f0 2e dc a1 3d ea 0a 6f bb 57 b5 a8 bc 8c 52 0d 3e
       0.07903324 -0.003647501 -0.020594282 0.1380102
000300 08 1b 94 3d 72 d6 b1 3d 97 e3 f5 3d 22 46 1a 3e
       0.07231718 0.0868348 0.120063 0.15065816
000310 78 71 c8 3d eb a9 d7 3d 52 aa 9b 3d 25 70 07 3e
       0.097872674 0.10530456 0.076008454 0.13226373
000320 91 ca 0d 3e 36 db d8 3d f8 b8 fe 3c bb 84 89 3d
       0.13846804 0.10588686 0.03109406 0.067147695
000330 28 fc e7 bb 01 11 f7 3d 5b 49 fe 3d 79 09 9b 3d
       -0.00707962 0.1206379 0.12416335 0.07570166
000340 85 c6 07 3d 7e 47 1c 3e ce 3c ea 3d f2 97 9e 3d
       0.033148307 0.15261647 0.11437379 0.07743825
000350 dd 21 22 3d 78 ac e5 3d 91 e2 83 3c a7 0b 14 3d
       0.039583076 0.112145364 0.016099246 0.036143925
000360 1f 89 af 3d 54 24 37 3e b9 f5 bb 3d 96 56 ed 3d
       0.08571076 0.17884952 0.09177727 0.115887806
000370 1b f7 2f 3d 7c 45 16 3e bb de 90 3d 8b 5f 31 3e
       0.042960268 0.14674944 0.070737325 0.17321603
000380 43 20 e7 3c c2 c1 fa 3d ed 70 b5 3d 48 5e 93 3c
       0.028213626 0.122439876 0.088594295 0.017989293
000390 cc 20 0f 3d 1d 9d de 3c e5 6e 32 bd 93 35 55 3d
       0.034943387 0.027174527 -0.04356279 0.052053045
0003a0 1b 84 4a bd 8e 12 2c 3d 39 26 a9 3d ed c1 9f 3d
       -0.04944239 0.042009883 0.082592435 0.0780066
0003b0 d1 74 d5 3d 38 8d f2 bb a4 5a 3c 3d 65 4b d9 3b
       0.104226716 -0.0074020885 0.04598488 0.006631302
0003c0 e0 7d 99 bd 1d 7f 0a 3d 77 0c 1d 3d 84 a7 d1 bc
       -0.07494712 0.03381263 0.038341966 -0.025592573
0003d0 6a bf 5c 3c 39 df 3d 3d 9a b4 d8 bd 86 3e 90 bd
       0.013473371 0.04635546 -0.10581322 -0.070431754
0003e0 dc 42 ac bb 67 a5 10 bd 2a 3c 9d 3d 44 da 18 3d
       -0.0052569937 -0.03531399 0.07677491 0.03731753
0003f0 e3 87 fb 3d ae f5 7a bc 3b b9 c2 3c 7d d3 aa ba
       0.12281778 -0.015317364 0.023769965 -0.0013032999

decoder_rnn.weight_ih_l0 f4 [360, 120]
000000 82 27 63 27 9c 0a 05 27 7c 96 fa 24 92 5f 8d 28
       3.1523996e-15 1.846321e-15 1.0867515e-16 1.5695592e-14
000010 39 64 77 a5 74 c8 88 a6 4d ac 07 24 cf 4b 86 a5
       -2.1457792e-16 -9.491229e-16 2.9419403e-17 -2.3296664e-16
000020 47 61 0f 27 1a fd d0 a5 9f d1 b1 a6 57 f4 2c 27
       1.989797e-15 -3.6253757e-16 -1.233866e-15 2.4002252e-15
000030 82 cf a6 26 19 2b 30 26 e8 0d 64 26 5d 76 ba a4
       1.1574809e-15 6.1120675e-16 7.9122237e-16 -8.086516e-17
000040 8c e2 1f a6 3e fd 80 24 f8 ee 00 a6 6a 00 0c 2a
       -5.5471235e-16 5.594016e-17 -4.4732784e-16 1.2434642e-13
000050 19 d3 8a a8 d4 24 a5 a3 e8 5e f9 a8 b3 6b 56 25
       -1.5412627e-14 -1.7904933e-17 -2.7685712e-14 1.8598031e-16
000060 58 59 cf a6 5c 79 5a 24 c7 02 f3 24 0d 83 52 27
       -1.4387727e-15 4.737401e-17 1.05389156e-16 2.9214397e-15
000070 ee f7 45 a5 92 7d ee a2 44 73 1f a8 43 03 8a a5
       -1.7171028e-16 -6.464298e-18 -8.851267e-15 -2.3941394e-16
000080 57 8a 10 a5 03 85 4f 27 3e a9 98 25 d8 2b 8d 28
       -1.253688e-16 2.8799127e-15 2.648248e-16 1.5673159e-14
000090 5f c8 d2 26 4c 13 5d a4 ce 81 4b 27 d6 b3 a1 26
       1.4625988e-15 -4.793808e-17 2.8242277e-15 1.1220364e-15
0000a0 ae 7a 68 22 25 12 02 24 cb 6f f3 26 96 ac 83 a5
       3.150681e-18 2.8204626e-17 1.6891814e-15 -2.2841826e-16
0000b0 34 35 a8 a8 e5 68 c7 27 33 2c 7a a6 e5 9f a8 25
       -1.867482e-14 5.5347322e-15 -8.6796075e-16 2.9251703e-16
0000c0 cf 83 4f a6 bb 09 ce 28 18 86 46 25 e4 98 a8 a2
       -7.1996186e-16 2.2874814e-14 1.7219195e-16 -4.569837e-18
0000d0 15 4e 14 a5 23 c2 27 25 56 a7 3b a4 28 41 41 23
       -1.2863409e-16 1.4550717e-16 -4.06909e-17 1.0476348e-17
0000e0 8e f7 c5 25 ca ca 15 a9 48 d0 91 25 ea 21 85 24
       3.4341802e-16 -3.3260538e-14 2.5294627e-16 5.773701e-17
0000f0 92 1e a2 28 95 dd 85 25 95 1b 23 26 fd 02 5c a7
       1.799887e-14 2.3221972e-16 5.6589366e-16 -3.0532753e-15
000100 76 de 56 23 ae 5c 32 25 73 16 9a 25 2a 95 af 27
       1.1648071e-17 1.547044e-16 2.6729954e-16 4.873398e-15
000110 64 b2 09 aa ec f2 04 27 0e 54 d5 24 50 bb 42 a3
       -1.2229936e-13 1.8450368e-15 9.251642e-17 -1.0556426e-17
000120 1f ef 5a 27 59 73 65 24 d6 f9 b8 25 a3 7c 6b a5
       3.0383205e-15 4.9754163e-17 3.2088207e-16 -2.042523e-16
000130 18 a9 39 a4 1e e9 72 a5 ac c8 a6 29 0c a2 cc a6
       -4.025871e-17 -2.1069137e-16 7.406692e-14 -1.4199266e-15
000140 eb 15 5b a9 5a ba fe 24 a5 fd b4 26 9a ea 10 2a
       -4.864678e-14 1.1047063e-16 1.255876e-15 1.2871163e-13
000150 f2 4a 58 a3 72 3b 68 22 16 33 d6 a6 50 74 30 a3
       -1.1725254e-17 3.1473333e-18 -1.486308e-15 -9.565609e-18
000160 63 b3 14 25 79 3b 60 27 0a f9 05 29 c6 a3 4a a4
       1.2897732e-16 3.1118485e-15 2.974794e-14 -4.394049e-17
000170 24 45 0f 23 56 ab af 24 df 13 05 a9 ab f5 d6 a7
       7.766687e-18 7.6184406e-17 -2.9549168e-14 -5.9663286e-15
000180 bd 9a 98 26 1b b7 84 26 98 c2 6d 27 60 32 97 24
       1.0589061e-15 9.208971e-16 3.2995847e-15 6.557115e-17
000190 24 14 4a a4 93 10 47 27 4c 84 9e a5 b7 fe 93 23
       -4.3818828e-17 2.7625783e-15 -2.749828e-16 1.6045648e-17
0001a0 21 52 b7 a4 87 28 30 28 86 65 d4 24 72 6f 17 26
       -7.950273e-17 9.778751e-15 9.211233e-17 5.2539686e-16
0001b0 1e 46 32 27 6c 5d 95 a6 e6 50 98 a4 80 59 f0 a2
       2.4740473e-15 -1.0364274e-15 -6.605654e-17 -6.5146892e-18
0001c0 a5 ba e4 22 7e 7c 80 24 58 ed 58 a3 07 c7 a2 26
       6.199714e-18 5.572205e-17 -1.1759643e-17 1.1294955e-15
0001d0 60 77 5d 27 91 f9 df a5 ef 7e 4b 26 07 66 18 a8
       3.0734624e-15 -3.8853446e-16 7.06018e-16 -8.459819e-15
0001e0 7c 68 98 a6 a4 98 96 26 af 60 25 a7 c7 fb 6f a6
       -1.0575439e-15 1.0449714e-15 -2.2950762e-15 -8.3261004e-16
0001f0 b4 2a 20 a6 44 7c 2f 25 56 27 59 a6 c4 b3 87 25
       -5.5569025e-16 1.5220933e-16 -7.534031e-16 2.354058e-16
000200 77 6c d5 23 65 0b 09 a8 76 be ee a2 f0 1d 6e 25
       2.3139443e-17 -7.6074985e-15 -6.4711688e-18 2.0653353e-16
000210 27 d0 10 a6 80 d2 c2 22 71 a6 4f a6 2f f4 9d 26
       -5.0242135e-16 5.280668e-18 -7.204312e-16 1.096025e-15
000220 83 d6 9b 25 31 bf 8b a4 3e d4 07 a4 45 6e cc a6
       2.7033573e-16 -6.060553e-17 -2.9453235e-17 -1.4185232e-15
000230 dc 3e 03 24 a0 12 8d 25 4e 85 9f 29 1f ca c1 a7
       2.845934e-17 2.4472222e-16 7.084143e-14 -5.37874e-15
000240 c0 86 cc a5 38 a8 64 29 b0 cb bf a5 72 ae ac 23
       -3.547967e-16 5.0772076e-14 -3.3271242e-16 1.8722158e-17
000250 bc b9 31 a7 95 d2 27 26 97 e3 0e a8 49 b8 41 a3
       -2.4664371e-15 5.8225156e-16 -7.931934e-15 -1.0501575e-17
000260 de fc 1e a5 57 ba 3a 25 ea 7a 56 a9 1a 6a 0c 24
       -1.378999e-16 1.6196063e-16 -4.7624156e-14 3.0447532e-17
000270 04 a1 b5 a7 4a 5d 00 24 ef cc 8e a5 f0 38 a1 28
       -5.0412165e-15 2.7834595e-17 -2.4771942e-16 1.7899283e-14
000280 68 bc 05 a8 d0 5f 5b a7 dd 22 89 a2 de b4 a4 a5
       -7.423837e-15 -3.0444295e-15 -3.7170837e-18 -2.8572025e-16
000290 e6 98 10 a2 d2 01 b8 a5 ea 5e b5 25 42 a9 f7 a9
       -1.9596583e-18 -3.1920145e-16 3.146281e-16 -1.0998365e-13
0002a0 c4 a7 62 a5 88 93 5d a4 e2 2b 5a 24 56 f9 12 a7
       -1.9659216e-16 -4.80467e-17 4.7308385e-17 -2.0396735e-15
0002b0 a4 c2 be a4 34 bb 89 26 0c 04 3b 25 9c 0e 1d a6
       -8.27291e-17 9.557026e-16 1.6221036e-16 -5.4490117e-16
0002c0 b1 82 85 a6 37 24 3a 25 c2 87 2f 28 11 4e 49 29
       -9.264153e-16 1.6145198e-16 9.743889e-15 4.4698677e-14
0002d0 50 4b 56 a5 2d 6a 08 a5 3a d2 32 29 70 d3 69 a6
       -1.8587058e-16 -1.1832093e-16 3.9706282e-14 -8.1124665e-16
0002e0 4a f3 89 a4 72 27 14 24 a7 c3 cc a5 b6 6c 94 a5
       -5.982643e-17 3.2125796e-17 -3.5520938e-16 -2.5747573e-16
0002f0 cc 2c 9d 28 74 98 bf a5 77 29 78 25 99 2a 25 26
       1.7449929e-14 -3.3236525e-16 2.152462e-16 5.7303605e-16
000300 b0 a4 d0 a5 b1 11 af 26 4d 09 a6 a4 c0 dd 54 a4
       -3.6193845e-16 1.214786e-15 -7.200678e-17 -4.6158002e-17
000310 55 e2 0d 27 a8 86 97 25 cc 18 d2 25 ab 54 12 a7
       1.9690376e-15 2.628557e-16 3.6445996e-16 -2.0307469e-15
000320 b0 49 d8 a3 2b 0b b1 a3 3a 36 cd a3 a6 0b a7 23
       -2.3449975e-17 -1.9195108e-17 -2.224911e-17 1.811111e-17
000330 65 68 21 22 35 de 0e 2a 73 52 15 25 78 6d 94 28
       2.1874835e-18 1.2689227e-13 1.2951625e-16 1.6478775e-14
000340 3e 6d ee a9 9d 75 52 a5 70 2e cf 26 cc a6 16 22
       -1.0588274e-13 -1.8254445e-16 1.4376097e-15 2.0417092e-18
000350 6e 13 dc 27 85 b1 d6 26 26 9a 7d a2 9e 70 59 24
       6.108333e-15 1.489735e-15 -3.43695e-18 4.7149765e-17
000360 24 27 9e a5 3c 5f 7c 25 f8 0d c1 a2 e5 72 2d a9
       -2.7435154e-16 2.1889782e-16 -5.2327545e-18 -3.8513372e-14
000370 f1 76 77 a4 94 a3 8c 28 4c c9 cc 26 ac 78 10 26
       -5.3660335e-17 1.5614063e-14 1.4209905e-15 5.0123577e-16
000380 7e 3c d0 a7 94 3a 68 27 1a d6 f7 a7 c4 b6 b2 a6
       -5.7797183e-15 3.2228223e-15 -6.87884e-15 -1.240077e-15
000390 f5 f9 e6 a4 3c 1e 4c 26 9f 93 81 a8 18 62 c9 a5
       -1.00170044e-16 7.0817693e-16 -1.4385897e-14 -3.4934413e-16
0003a0 0b ee 4b 26 2a 0e 54 25 e2 f0 0a a8 f4 c2 cc a6
       7.075238e-16 1.8392868e-16 -7.712772e-15 -1.4208186e-15
0003b0 ca 88 31 26 08 06 57 a6 e1 0f 12 2a 9a fd 10 25
       6.1594595e-16 -7.4601283e-16 1.2972914e-13 1.2575933e-16
0003c0 77 eb 42 a5 44 b0 9d a5 4f a4 bb a5 7a c8 a2 a4
       -1.6906596e-16 -2.73546e-16 -3.255067e-16 -7.059592e-17
0003d0 e5 64 2c 26 40 00 2b a5 4c 73 c4 23 96 99 64 a4
       5.9811225e-16 -1.483197e-16 2.1299193e-17 -4.956971e-17
0003e0 28 74 8a 23 f2 68 67 a5 74 1e bd 29 6f de 03 a6
       1.5011184e-17 -2.0071613e-16 8.398569e-14 -4.575121e-16
0003f0 8a 1e 61 a7 e1 be a5 a8 fa 59 91 24 a1 94 44 a6
       -3.1241578e-15 -1.840146e-14 6.303615e-17 -6.820259e-16

decoder_rnn.weight_hh_l0 f4 [360, 120]
000000 b4 c5 e4 bc d1 7a ad 3d 1f f9 49 3d 03 09 a7 3d
       -0.027926303 0.08470691 0.049309846 0.08156016
000010 e3 2f c6 bc 65 2e 12 3d 7e a9 22 3d a8 08 0f 3d
       -0.024192756 0.035688777 0.03971242 0.034920365
000020 e9 52 a2 3d 4b fc c4 bc a2 19 a6 bd d1 2c 08 3e
       0.0792597 -0.024046084 -0.08110358 0.13298346
000030 4c 95 89 bd 97 7e b5 bc 56 a0 1a 3d 5d 8f 23 3d
       -0.06717929 -0.02215509 0.037750565 0.039931644
000040 e0 1a b8 3d 8e cc 0f 3d b7 cb 68 bd c7 c8 7f bd
       0.08989501 0.035107188 -0.056834903 -0.062447336
000050 c1 09 b2 3d 2c b9 70 bc 6b 1e 6f 3d a4 cf 12 3d
       0.08693267 -0.014692586 0.05837862 0.035842553
000060 32 57 09 bb 95 b9 bd bc f6 ff 1e 3c a7 9a b5 bd
       -0.0020956513 -0.023159781 0.0097045805 -0.08867388
000070 46 a3 db bc ac 56 3e 3d 20 bc 79 3d 38 e0 94 3d
       -0.026811253 0.046469375 0.060970426 0.07269329
000080 11 24 b3 bd d7 64 ff bb 57 53 5c 3d 3c 8d c4 bd
       -0.087471135 -0.0077940035 0.053790417 -0.09597251
000090 86 0d ca bd 28 1a 28 3d 88 02 4c bc 30 65 66 bb
       -0.09865861 0.04104057 -0.012451775 -0.0035155527
0000a0 ed 6e 08 3d a3 0a 7f bd 78 77 9d 3d 8b 9b aa bc
       0.033308912 -0.062266003 0.076888025 -0.020826122
0000b0 99 0c 12 3d bd e5 a0 bb 43 43 28 bd 1d 44 8d 3b
       0.035656545 -0.0049101994 -0.04107977 0.0043110983
0000c0 00 1e 55 3d 3c 39 3e 3d ab f8 89 bd 32 7c b3 3c
       0.052030563 0.0464413 -0.06736883 0.021909807
0000d0 de 9d 45 3d f2 2d 93 bd d6 1d a8 3c d0 85 3a bc
       0.048246257 -0.07186498 0.02052204 -0.011384442
0000e0 b1 26 82 bd 3b 57 29 bd 4e 54 9d bd 13 aa cc bc
       -0.06355036 -0.041342955 -0.076820955 -0.024983441
0000f0 9c 2b 93 3d a5 3f 57 bd 56 43 b3 bd a3 2a 8a bd
       0.07186052 -0.05255093 -0.08753078 -0.067464136
000100 48 8d 7a bc 0c 12 8e 3d fc 80 a3 bd ad 1b f0 bb
       -0.015292473 0.06937036 -0.07983586 -0.007327518
000110 65 43 69 3d 9a 98 b4 bd b7 8c d2 bb 15 1c a0 bc
       0.056949038 -0.08818169 -0.006425466 -0.01954464
000120 1d a0 5c bd 1f 7a 9a 3d 74 ce 85 3c 45 89 52 bd
       -0.053863633 0.07542824 0.016333796 -0.05140044
000130 75 7e b4 3d 04 4b 62 bd 1b 18 e7 bb 1f c1 34 3d
       0.08813182 -0.05524732 -0.007052434 0.044129487
000140 5d 00 b6 3c f7 ca df bc 49 34 ab bd 6f 42 4f bc
       0.02221697 -0.02731846 -0.08359582 -0.012650116
000150 68 3a 21 bd 1d a0 49 bc b4 bf 3b 3d cb 7f 77 bd
       -0.03936234 -0.01230624 0.04583712 -0.060424607
000160 2d b9 52 bc 77 05 c0 3d b4 72 f9 3c e1 f4 45 3d
       -0.012861532 0.09376042 0.030450203 0.048329238
000170 cf 65 26 bb d5 2a 42 3d f9 31 06 3d b1 c1 a8 3c
       -0.0025390272 0.04740413 0.0327625 0.020600172
000180 bb 4a a8 3d 6e e1 3c bd 7d 3c 23 bd 07 94 9f bd
       0.08217379 -0.046113424 -0.039852608 -0.07791906
000190 5f e2 69 3c 36 8d c9 bc 90 b3 3e 3d 1d ab 05 bd
       0.0142751625 -0.024603467 0.046557963 -0.03263389
0001a0 01 70 c6 bd 73 3a be 3d 87 70 89 ba 61 9e b8 3d
       -0.09689332 0.09288492 -0.0010485806 0.090145834
0001b0 39 af 90 3d 3b 81 3c 3d 77 60 fa 3b fb ef 67 3c
       0.07064671 0.04602168 0.007640894 0.014156337
0001c0 23 a9 8f bd d3 3f 79 bc a9 5e 0e 3d a8 1e d5 bd
       -0.07014682 -0.015212971 0.034758244 -0.10406238
0001d0 8e c4 ad 3c 7a b0 a0 bd a4 db 4f bd 0d a2 96 3d
       0.021211889 -0.0784616 -0.050746575 0.073551275
0001e0 07 89 d1 3d 66 f3 fc 3d 25 99 c9 3c e8 68 0c 3e
       0.10231214 0.12351112 0.024609158 0.13711894
0001f0 6c 7a 2f 3d 6b 95 d8 3d 16 de eb 3b ec c2 50 bd
       0.04284136 0.10575374 0.0071981056 -0.050967142
000200 bd 5e 7b bc 77 46 ef 3c 12 87 bd b9 72 9d 66 3d
       -0.015342412 0.029208405 -0.00036149524 0.056302495
000210 a7 60 98 bd 02 3a 3d bd 2e fb a9 bc b6 c8 78 3d
       -0.0744031 -0.0461979 -0.020749655 0.060738288
000220 87 23 29 bd e9 86 c7 3b 33 b6 95 3c 72 d3 e0 bc
       -0.041293647 0.0060890806 0.018275356 -0.027444575
000230 94 b1 09 3d f4 16 0b 3d 06 2b 16 bd 80 a3 32 3d
       0.033616617 0.033957437 -0.036662124 0.043612957
000240 7b 43 22 bd ff 1d 81 bc bb dc eb bc 9b 39 58 bd
       -0.039615136 -0.015761374 -0.028791776 -0.05278931
000250 0f a2 b9 bd 62 d4 2c bd 52 71 01 3e a0 26 9d 3d
       -0.09064113 -0.04219473 0.12640885 0.07673383
000260 f3 61 be 3c ad 94 fa bc 29 40 18 bc f5 94 46 3c
       0.023240065 -0.030588472 -0.009292641 0.012120475
000270 74 e9 28 3d 0b d4 8f 3d b5 17 8e 3b 7f 08 92 3c
       0.041238263 0.07022866 0.004336322 0.017826317
000280 00 14 a1 bd 25 ec 01 bc 8e 8b 02 be 01 fc 6b 3d
       -0.07865143 -0.007929836 -0.12748548 0.057613377
000290 90 6a d0 bd c1 fe f1 bc 38 07 a9 bd 40 0b 87 bd
       -0.10176575 -0.029540421 -0.0825333 -0.06593943
0002a0 d1 36 d7 3d c0 2e 9d 3b 60 c3 fa bb b1 5e 06 bc
       0.10508502 0.004796833 -0.007652685 -0.008201287
0002b0 76 a0 81 3d 72 14 47 3c 9e 3a 6d 3b c5 34 b2 bc
       0.063294336 0.012150871 0.0036198269 -0.021753678
0002c0 a1 6f 00 bd a6 0d 88 bc d8 d1 85 bc 76 02 96 3d
       -0.031356458 -0.01660807 -0.016335413 0.07324688
0002d0 85 75 82 bd 55 58 e0 3d 23 55 0b be ee 08 64 bc
       -0.06370071 0.10954348 -0.13606696 -0.013918145
0002e0 c3 e3 2f 3c 51 96 76 3d 8d ac a9 bd 77 d4 c5 bd
       0.010735455 0.060201947 -0.082848646 -0.09659665
0002f0 85 08 e7 3d 9d 84 88 bd 06 17 96 bc e7 58 9d 3d
       0.11280922 -0.06665919 -0.018321525 0.076829724
000300 e1 fb b5 bd 0a 82 11 3d 03 64 3c bd 4c 7b d3 3d
       -0.08885933 0.035524406 -0.045993816 0.103262514
000310 ad 0e 91 bd be 9d 6d 3d 38 f6 9e 3d d9 bf 76 bd
       -0.07082877 0.058011763 0.07761806 -0.060241554
000320 34 c8 b3 bd bd f8 17 3d 7e de 19 bd bb 14 fb bd
       -0.0877842 0.03710245 -0.0375657 -0.122598134
000330 8e 63 74 3c 73 2e 12 3e e3 d3 ac bb d4 9d 9a bd
       0.014916314 0.14275531 -0.0052742823 -0.075496346
000340 b8 01 e6 bd a2 14 9e 3d ae 23 10 bc 29 f5 67 3c
       -0.112307966 0.07718779 -0.008797569 0.014157572
000350 c4 7d 18 be 67 7c 0c 3e 9f 2a 8b bc c2 b8 07 bc
       -0.14891726 0.1371933 -0.016988097 -0.008283796
000360 1b 8a 62 bd c3 6c 28 3d 06 cc 6c 3c c2 d3 e0 bd
       -0.05530749 0.04111935 0.01445294 -0.109778896
000370 05 ef 4c 3d d9 f0 e3 bd 32 fa 75 3c c9 7c b5 bb
       0.050032634 -0.111299224 0.0150132645 -0.005538557
000380 40 20 a3 bd 5d d1 d5 bc a4 80 1e 3d 79 13 2c 3d
       -0.079651356 -0.026100809 0.0386969 0.042010758
000390 a8 75 5a 3d 0f 54 74 bd fe ca 0a be 4b 52 bd 3d
       0.053334862 -0.059650477 -0.13553998 0.09244212
0003a0 96 73 bb bd b6 1e 1d 3e 6a 72 31 3d 06 11 86 3d
       -0.09152906 0.15343747 0.043322004 0.06546216
0003b0 9b b8 04 bd 0e 28 ef 3d 7a c5 e1 3d 9c 7b c9 3b
       -0.032402616 0.11677562 0.11023994 0.0061487686
0003c0 c2 20 0e 3d ab 11 6b bd 51 92 9c bd 0d bb cd 3d
       0.03469921 -0.057389896 -0.07645095 0.10045443
0003d0 ec 6a ca 3b c6 f8 ca bb 68 59 6d 3c 91 76 7e 3d
       0.006177297 -0.006194207 0.014486648 0.062124792
0003e0 52 74 79 bd e2 db 5d bd 50 90 2a 3d 7c 8b 75 3d
       -0.060901947 -0.054164775 0.041641533 0.059947476
0003f0 59 80 a4 bd e9 77 63 bd c2 6d bf bd 68 7e a5 3c
       -0.08032293 -0.055534277 -0.093471065 0.020201877

decoder_rnn.bias_ih_l0 f4 [360]
000000 f8 fb 61 bd 40 b9 cc 3d 89 08 af bb d8 ad 5a bd
       -0.055171937 0.09996271 -0.0053415936 -0.053388447
000010 69 bf 29 bc 8b 3e a1 bc 8e 0e 2a bd 49 79 0c bd
       -0.010360577 -0.019683143 -0.041517787 -0.034295354
000020 c5 d6 d9 3d c0 bc 5f bc 44 1d e2 bb 15 a2 0a bb
       0.10636667 -0.013655841 -0.0069004614 -0.0021153737
000030 c1 18 d0 bc f7 4d a7 3b 9a 61 64 bd 94 26 7f 3c
       -0.025402429 0.0051057297 -0.055757143 0.015573163
000040 15 c7 02 bd 5e c0 6c bd df 8c 07 3d 24 95 96 3c
       -0.03192814 -0.057800643 0.03309333 0.018381663
000050 3a 3c 85 bd 08 18 ad 3d 73 4d b1 bc 18 cb a4 3d
       -0.06505628 0.08451849 -0.021643376 0.080465496
000060 c3 b6 c8 3d ec d7 c9 bc da ee 0e 3d 3d 80 ba bc
       0.09800484 -0.024639092 0.034895755 -0.022766227
000070 be 65 d4 3d 72 e5 37 bc 7f e8 e4 bc d1 a0 aa 3d
       0.10370968 -0.011224138 -0.027942894 0.083314545
000080 8a f2 44 3d 4b 91 35 3d a8 8d 74 3d a6 a2 c4 bc
       0.048082866 0.044328015 0.059705406 -0.024003338
000090 4d fb a4 ba c6 d1 68 3d e3 bc 94 3c 6b 1f 5f bc
       -0.00125871 0.05684068 0.018156474 -0.0136183305
0000a0 88 6f 98 3d 00 c0 06 3d 5f 32 d6 3d 1d 6d 8b 3d
       0.07443148 0.03289795 0.10458826 0.06807921
0000b0 9b e9 b4 bc 41 b8 c8 3d 8d fc d0 bc af 01 af bd
       -0.022084048 0.09800769 -0.02551105 -0.08545243
0000c0 58 c2 28 3d ee 85 c3 3d 86 e9 71 3a 33 e8 b0 bd
       0.041200966 0.095470294 0.0009228218 -0.086380385
0000d0 1c af 07 3e a0 1c 09 bd 37 90 ad 3c f7 16 84 3d
       0.13250393 -0.033474565 0.021186931 0.06449693
0000e0 d1 a9 16 3d b5 e0 80 bd 9b 31 11 3e 0b 3a d8 3d
       0.036783043 -0.062928595 0.14179079 0.10557946
0000f0 c9 5a 63 bc 62 79 37 bd 54 9a 77 bd e3 b9 77 3c
       -0.013876625 -0.044793494 -0.060449913 0.015120002
000100 6d 42 1e bc 18 c7 2c 3d 9d b0 36 bd cf 3e 36 bd
       -0.009659392 0.042182058 -0.044602025 -0.044493493
000110 04 d7 5b 3d 52 16 a9 bc 4c 13 a6 3d e0 01 00 3d
       0.05367185 -0.020640526 0.08109149 0.03125179
000120 6b 66 2b 3d d9 14 a5 bc 07 2b ae 3d cd 38 f1 3d
       0.04184572 -0.020151542 0.085043006 0.11778412
000130 63 e0 c7 3d f7 56 26 bd ce 0b 3e 3d e7 e8 4d 3d
       0.09759595 -0.04061028 0.046397977 0.05027094
000140 1d 78 d5 3d 34 86 44 bd 07 28 ca 3d ed ea c8 3b
       0.104233004 -0.04797955 0.09870916 0.006131521
000150 53 b8 a7 3c 2b 07 94 bc 03 4c f0 bb 7d 58 c0 3d
       0.020473635 -0.018069824 -0.00733328 0.09391878
000160 c4 4b 57 bd c7 25 e7 3c e1 8a 16 3d 36 94 14 3d
       -0.05256249 0.028216256 0.03675354 0.036274157
000170 90 a1 50 bd c6 9f 85 bd 1b 06 56 bd 44 26 94 3d
       -0.050935328 -0.06524615 -0.052251916 0.07233861
000180 ad 25 7b bc 54 1c 0c 3d 82 d6 d2 3c 26 1e fa bc
       -0.015328807 0.034206703 0.02573705 -0.030531954
000190 8f 70 c6 3c b9 fc f6 bc c3 10 f1 3c b0 c5 05 bd
       0.024223594 -0.030149804 0.029426938 -0.032659233
0001a0 ba 75 3f bd 68 f2 c7 bb 42 f1 19 3d 1e 51 a2 3d
       -0.046743132 -0.006101895 0.037583597 0.07925628
0001b0 b9 59 5a bc b7 ad 8c bd 2b f9 e0 3d 94 8b 1d 3d
       -0.013327056 -0.06869071 0.10985025 0.03846319
0001c0 1e d2 ca 3d b2 12 81 3d 61 34 ef bc a6 c2 80 3c
       0.09903358 0.06302394 -0.02919978 0.015717816
0001d0 02 8b 18 bc 7f bc 09 3d a3 cf a4 3d 3e b1 85 bd
       -0.009310486 0.03362703 0.08047416 -0.06527947
0001e0 96 5e 5d 3e a5 ce ce 3c e4 5c 7d 3e e6 47 4c 3e
       0.21618113 0.02524502 0.24742466 0.19949302
0001f0 d3 08 51 3e d9 ff e5 3d 9a c4 0c 3e ac 7e 21 3e
       0.20413522 0.1123044 0.13746873 0.15770978
000200 26 63 07 3e 3e a9 3d 3e dd a0 5f 3e 66 8d ac 3d
       0.13221416 0.18521592 0.21838708 0.08425407
000210 34 0e 13 3c 46 17 dc 3d 05 73 21 3e cd 42 2d 3e
       0.008975554 0.107466266 0.15766533 0.16920014
000220 b2 3c 5f 3c 96 d9 fd 3d 6d c1 78 3d 38 2d 6b bc
       0.013625311 0.12395017 0.06073134 -0.014354043
000230 31 7e 99 3d c4 05 fb 3d ae cd 3b 3e b3 26 0f 3e
       0.07494772 0.12256959 0.1834018 0.13979606
000240 e1 8f 15 3e 1a 27 16 3e b9 fd 9d bc 68 54 37 3e
       0.14605667 0.14663354 -0.019286023 0.17903292
000250 c9 b7 63 3e ab 65 f7 3d 29 27 65 3e ba d4 2c 3e
       0.22238077 0.120799385 0.2237822 0.16878024
000260 04 e2 2d 3e 9f 68 47 3e 77 c9 47 3e aa f7 92 3d
       0.1698075 0.19473504 0.19510446 0.071761444
000270 ed c9 64 3e 21 4a b9 3d 72 f7 be 3d 96 b0 9d 3e
       0.22342654 0.09047342 0.0932454 0.30798787
000280 9b fa 04 3e dc 63 a9 3e 51 77 0d 3e 72 2e 0a 3e
       0.12986223 0.33084 0.13815047 0.1349428
000290 cc de 4e 3e 4a 61 e9 3d ff 24 34 3e d5 6b 98 3b
       0.20202178 0.113955095 0.17592238 0.0046515265
0002a0 6c 7c 08 3e 85 6d 82 3e bf 38 32 3d e8 ec 27 3e
       0.13328713 0.25474182 0.04351115 0.16398966
0002b0 75 5f af 3d 30 5a 7c 3d c9 22 7e 3e cc 9c 45 3e
       0.08563129 0.061609447 0.24817957 0.19298095
0002c0 9a 0a ba 3d fd 23 5a 3d 75 97 e8 3d b9 ff 33 3e
       0.09084053 0.053256977 0.11357013 0.17578019
0002d0 bc 6f 83 3d df 15 68 3e 97 55 2d 3e 4e a7 51 3c
       0.06417796 0.22664593 0.16927181 0.012796236
0002e0 fb 8f 4b 3e 4b 71 2e 3e 52 3e 96 3e 4e 76 eb 3d
       0.19879143 0.17035405 0.29344422 0.11497174
0002f0 7d de 5f 3d 67 72 da 3d cc 92 5d 3e fa 7b b5 3c
       0.05465554 0.10666352 0.2163803 0.022153843
000300 33 e1 c0 3d 3b cc 6c 3d 09 90 18 3e 4b b4 8a 3c
       0.09417953 0.057811957 0.14898695 0.016931674
000310 70 2a 5f 3c 28 ce f2 3d 3b a3 18 3e d2 f8 83 3e
       0.013620958 0.118557274 0.14906017 0.25775772
000320 ed d8 6b 3e 0e f1 54 3e dc 80 8c 3d 15 b8 15 3e
       0.2303197 0.2079508 0.068605155 0.14621003
000330 eb cc e1 3c 17 12 23 3e cc ef 62 3e 07 8b 3d 3e
       0.027563533 0.1592487 0.22161788 0.18510066
000340 51 7e 47 3d 77 79 85 3e 3d b4 a2 3d 90 85 85 3e
       0.04870445 0.26069233 0.07944534 0.26078463
000350 ef bd 83 3d 5a ce 0b 3e dc fa 44 3e 37 4c c8 3d
       0.06432711 0.13652936 0.1923632 0.09780162
000360 d5 c6 65 3e df af 83 3e c8 1a 9a 3e b5 9a 94 3d
       0.2243913 0.25720116 0.30098557 0.072560705
000370 f2 a3 15 3e 1f fc 73 3e b5 5e 74 3e 70 24 54 3e
       0.14613321 0.23826645 0.23864253 0.20717025
000380 cb de 8d 3e 9a 2d 02 3e be 35 2c 3d 27 ee a2 3d
       0.2770904 0.12712708 0.04204344 0.0795558
000390 cd ee 80 3d 62 85 42 3d e3 76 f7 3d 82 af e8 3c
       0.06295548 0.047490485 0.12083223 0.028404001
0003a0 20 7c bf 3d e0 c0 90 3d 55 2a 69 3e 97 ae b7 3d
       0.09349847 0.07068038 0.22770055 0.08968847
0003b0 6e 8c 23 3e 2c 4e 0a 3e 31 74 50 3c 96 7b 08 3e
       0.15971538 0.13506383 0.012723015 0.13328394
0003c0 e4 01 c4 3d 8c cb bd 3b 32 f8 92 bd 30 bb 94 bb
       0.09570673 0.005792087 -0.07176246 -0.004538916
0003d0 fe 58 b9 bd 89 f0 a9 3d bd 4f c4 bd 33 be cb bd
       -0.09050177 0.082978316 -0.09585521 -0.09948387
0003e0 21 32 be bd 7e a6 c4 bd 63 2d c1 bd c7 6c ee bc
       -0.09286905 -0.09602068 -0.09432485 -0.029104603
0003f0 30 50 a5 bb 8b b7 16 3d f7 f2 88 bc 8c 62 0a 3d
       -0.0050449595 0.036796134 -0.016717417 0.033785388
