Rudi/checkpoints_02/best_model.pth (torch, 604834 bytes, 10 tensors)

encoder_rnn.weight_ih_l0 f4 [360, 40]
000000 a0 88 ba bd fa 8f 99 bb f5 02 40 3d 18 c7 83 bc
       -0.091080904 -0.004686353 0.04687782 -0.016086146
000010 f1 af 43 3d 25 3d 51 bd 08 22 ac 3d 26 16 be 3d
       0.047775213 -0.051083703 0.084049284 0.09281568
000020 3f c5 2b bd a2 4b 12 3d 40 13 41 3d fb 26 5c bd
       -0.041936155 0.03571666 0.0471375 -0.053748112
000030 85 c5 1b 3d f7 03 3b bd 05 7f 4c bb 92 d8 25 bd
       0.038030166 -0.045658078 -0.003120364 -0.04048974
000040 8f 84 43 bd 4a d2 ab 3b f6 ee a8 3d a8 b8 a7 3d
       -0.04773384 0.0052435743 0.08248703 0.08189517
000050 45 8f ae bc 64 86 8b bd e9 bf 2c 3d 8d 49 c6 3c
       -0.02130855 -0.06812742 0.042175207 0.024204994
000060 27 80 04 3d 97 af 37 bd b3 3c e3 3d 53 92 45 bd
       0.032348778 -0.04484519 0.11095562 -0.04823525
000070 08 18 b6 3d 36 ca 73 3c d7 23 a2 3c ab 8f 9e bc
       0.08891302 0.014879754 0.01979248 -0.019355616
000080 59 3b bd 3d 2a 5c f7 3c b9 e4 d0 3d c5 40 fd bd
       0.09239835 0.030195314 0.101998754 -0.123658694
000090 24 c3 a3 3d e7 6f 08 3d cf 8c 1e 3c 24 98 f5 bc
       0.079962045 0.033309843 0.009677126 -0.029979773
0000a0 60 74 5d bd 9f f3 85 bd 73 4b 3a 3e df c3 a7 3d
       -0.054066062 -0.06540608 0.18192844 0.08191656
0000b0 fb 68 0f 3e 97 47 59 3d 0c b4 a9 3d 7d d4 ee 3d
       0.1400489 0.05304679 0.08286294 0.11661623
0000c0 7b 3b 46 3d 55 04 4c bd 35 0a 8a bb 35 88 0d be
       0.04839657 -0.04980882 -0.0042126426 -0.1382149
0000d0 a4 89 af bd 7f 54 44 3c ec 7d 8a bb 18 17 ce 3d
       -0.08571175 0.011983036 -0.004226437 0.100629985
0000e0 78 67 13 3e 98 72 12 3d 4a 8a 25 3e c3 1e 7c bd
       0.14394939 0.035753816 0.16166034 -0.061552774
0000f0 02 2b 85 3d 6c 6f a1 bc 59 fa 80 bc e8 2d 87 3c
       0.06502344 -0.01970645 -0.015744375 0.016501382
000100 64 52 ba 3d 78 a8 82 bd 16 cb 00 bd f6 03 e5 3c
       0.09097746 -0.06379789 -0.031443678 0.02795599
000110 50 a8 99 bd 0f c9 70 3d be 83 f8 bc b2 8c 73 bd
       -0.07502806 0.058785494 -0.030336257 -0.05946035
000120 fd 10 89 3c f3 42 0e 3d 2a da 86 3c f1 f6 01 bd
       0.016731733 0.034731817 0.01646145 -0.031729642
000130 60 15 fd 3d da f6 8a 3d 4f 45 3a 3b a6 06 56 bd
       0.123575926 0.067853644 0.0028422659 -0.052252434
000140 26 8e 3b 3b 77 f9 a8 bd 0c 5a 15 3e 3c 08 1c 3d
       0.0028618663 -0.08250707 0.14585131 0.03809379
000150 f9 06 1e 3d 54 96 52 3c 5f ce 80 3d 83 d4 b0 3d
       0.03858087 0.012853224 0.06289362 0.086342834
000160 d5 8b b7 3d ce 89 95 bd 4c 40 3f bd 6e ab a6 bc
       0.08962218 -0.07301675 -0.046692178 -0.020345416
000170 f7 e7 04 bc c7 8d 41 3d a2 bf 7a 3d 17 28 8b bc
       -0.008111945 0.04725435 0.06121791 -0.01698689
000180 5a 62 ef 3c a3 cd 4a bd 5a 74 0c 3d e8 46 7a 3d
       0.029221702 -0.049512517 0.03429065 0.061102778
000190 73 8a 80 bc 41 d8 23 bd 35 8d 95 bd 50 89 b6 3d
       -0.015691018 -0.040001158 -0.07302324 0.08912909
0001a0 0a 75 ee 3c d9 23 ec bc b9 c7 0b 3d 49 f2 16 3d
       0.029108543 -0.028825687 0.034126017 0.036852155
0001b0 a8 41 9f bb fd 6d d3 bd 92 85 02 bd eb 08 86 bd
       -0.0048601218 -0.10323713 -0.031865664 -0.0654467
0001c0 7a 88 ae bd 5f 17 ba bd fe 43 c7 bd e1 c4 8b 3c
       -0.085221246 -0.09086489 -0.09729765 0.017061653
0001d0 b9 8e 8f bc 8c af ae bd 05 10 c8 bd 27 1c cd 3c
       -0.01752411 -0.08529577 -0.097686805 0.025037838
0001e0 b3 f4 c9 3d f2 46 fa bd 9d 99 08 be 31 d0 22 be
       0.09861126 -0.12220563 -0.13339849 -0.15899731
0001f0 09 a8 42 bd 0a 61 a3 3d 13 21 7b 3d 0a 40 38 3d
       -0.047523532 0.07977493 0.06131084 0.044982947
000200 63 77 f1 bb a1 24 9b 3d 36 72 62 3d 36 3d a8 3c
       -0.0073689683 0.07575346 0.0552847 0.020537
000210 29 6c 02 bd 73 e1 93 3d fd 54 cf bc 78 c2 ac 3d
       -0.03184143 0.072207354 -0.02530908 0.084355295
000220 7c 08 bb 3d ae f0 17 3c c6 43 a7 3b 6f f5 ed bc
       0.09132478 0.009273691 0.005104515 -0.029047696
000230 28 f7 92 3d bb 63 8a bc 59 a2 75 3c 8b f0 b2 3d
       0.071760476 -0.016893258 0.01499232 0.08737286
000240 6f f4 ea bd e9 c4 c2 3d 73 57 11 3a 91 03 c6 3d
       -0.11472403 0.09510214 0.0005544342 0.09668649
000250 b5 a6 ac bd 0b 9b 98 3d 5e 4d ac 3d 56 ba b1 bd
       -0.08430234 0.07451447 0.08413194 -0.08678119
000260 cf ff 0d bc fd 3a 05 39 fd 97 48 bc c7 a2 1c 3d
       -0.008666947 0.00012705843 -0.012243268 0.038241174
000270 33 b9 16 bc b1 f2 bc 3d ec f8 5f 3d 42 ca f6 3c
       -0.009199428 0.09225977 0.05468075 0.03012574
000280 58 8f 38 bc 2c 28 1d be 4d 08 71 bc ee b7 1a bd
       -0.011264645 -0.15347356 -0.014711452 -0.037773065
000290 24 f0 18 bd 7f d4 b0 3d e9 22 a0 bc 66 2c bd bd
       -0.03733839 0.086342804 -0.019547896 -0.09236984
0002a0 df 80 ad bd 0b 5f 20 bd b2 fd ca bd 89 62 20 bd
       -0.08471846 -0.03915314 -0.0991167 -0.03915647
0002b0 ef 3d e8 bc 12 c2 02 bd 8e 02 34 bd f2 8f 10 bd
       -0.028349845 -0.03192336 -0.04394775 -0.035293527
0002c0 38 f0 98 bd 0c c3 d5 3b a7 35 8a 3d 9e 7c 00 3d
       -0.07467693 0.0065234955 0.067485146 0.031368844
0002d0 28 b6 da ba 1b de e4 bc 3f 0e 02 bc 6e 57 e3 3d
       -0.0016686367 -0.02793794 -0.007937967 0.1110066
0002e0 58 b5 0b 3b 85 85 66 bc 4b 15 f3 3b 84 c3 33 3e
       0.0021317806 -0.0140699195 0.00741831 0.17555052
0002f0 54 fa 02 3d 1c 39 96 3b 77 0b cc 3a ca 82 bf 3c
       0.031977013 0.0045844447 0.0015567382 0.023377795
000300 f7 b7 09 be bc ce 2d 3d 10 c3 48 3c 5a 7f 8a 3d
       -0.13449083 0.042433485 0.012253538 0.06762572
000310 07 43 3c 3d 00 56 37 bb 55 79 57 bd 17 0d a1 bc
       0.04596236 -0.0027974844 -0.052605946 -0.019659562
000320 4d e3 4e bd d4 5e 1b 3e 71 15 55 3d fa 04 4e 3c
       -0.05050974 0.15172893 0.0520224 0.012574429
000330 a3 24 3e 3d c8 26 dc bd 95 40 ad 3c b7 50 bf 3b
       0.04642166 -0.107495844 0.02114896 0.0058384794
000340 2a a0 7a bc 7b e2 ed bd 6b da 82 3c 35 0e 53 bb
       -0.015296975 -0.11615463 0.01597329 -0.0032204513
000350 3f 31 7a 3c 40 cb 14 bd 84 92 dc bc b9 d3 7d 3b
       0.01527053 -0.036326647 -0.026925333 0.0038730933
000360 87 f5 28 3d 4a d9 01 3d be 8c 9d 3d 92 7d 37 ba
       0.041249778 0.031701364 0.0769286 -0.00069996074
000370 ec 92 e8 3c 52 40 71 3c f5 63 48 3d b3 2d 65 3c
       0.02839037 0.014724808 0.04892345 0.013987946
000380 94 dc 1e 3d b1 35 9e 3c 0e a2 4e bd ea 72 02 3d
       0.03878458 0.019312711 -0.050447516 0.03184787
000390 0a 07 b3 3d 1c 99 4c 3d 58 78 ed bc a7 d4 bd bd
       0.08741577 0.049950704 -0.028988048 -0.09269076
0003a0 c8 1f b8 3c d9 bf 14 3d 9a 14 79 3d 3c 12 9b bc
       0.022476092 0.036315773 0.060810663 -0.018929593
0003b0 6e ab ba bc 8c 85 3f 3d 7a 8e 86 3c 45 04 8e bc
       -0.022786822 0.04675822 0.01642536 -0.01733602
0003c0 8f 72 22 3c 2f ad 55 bc 0a 98 82 bc d8 80 f9 38
       0.009915008 -0.0130417785 -0.015941638 0.00011897244
0003d0 f0 fa bc bd aa 75 f3 bd 7f cd ea bd 79 68 aa 3c
       -0.0922755 -0.11887677 -0.114649765 0.02080177
0003e0 34 95 d8 bc 7e 8a 26 bd 76 1d 0b bd 59 72 50 bd
       -0.026438333 -0.04065942 -0.033963643 -0.0508903
0003f0 0c 07 bb 3d f4 2a 95 bd 31 2c f0 bc 52 3b 88 bd
       0.091322035 -0.07283583 -0.029317947 -0.066519395

encoder_rnn.weight_hh_l0 f4 [360, 120]
000000 eb 15 32 3d 53 a6 57 bd 0d 49 06 3d 7b 5b 9f 3c
       0.043477934 -0.052648854 0.03278451 0.019452801
000010 3d 51 e4 3c 0b 36 28 3a 08 e3 3d 3c 51 d8 7c bc
       0.027870769 0.00064167444 0.011589773 -0.015432433
000020 8d 2d c5 bd a4 4e 19 3d c1 91 98 3c 9b de 89 3c
       -0.09627829 0.037428513 0.018624188 0.01682978
000030 4a 97 a5 3c e9 48 1d 3d 20 8f b2 bc fb c9 02 3d
       0.020213742 0.03839961 -0.021796763 0.031930905
000040 ed b3 69 3c 08 62 21 bd 52 97 21 bd c0 17 15 bc
       0.014264089 -0.03940013 -0.03945095 -0.009099901
000050 22 29 04 bd ee 7d 02 3d f9 11 c8 3d 5d 2c 00 3c
       -0.03226579 0.031858377 0.09769053 0.007823077
000060 e5 c4 ad bc e1 c6 91 3c 5a 32 07 bb 9e 9c 6a 3c
       -0.02121205 0.017795028 -0.0020629377 0.014319567
000070 4b 87 3e 3c e7 97 91 3c c8 50 0a bd ac c2 4f 3d
       0.011628936 0.017772628 -0.033768445 0.050722763
000080 8a 68 69 bc 36 3a 1e 3d 78 5a 5f 3d ea 95 95 3d
       -0.014246115 0.038629733 0.054529637 0.073039845
000090 14 86 15 bd 71 17 82 3d 6d 7f a7 bc ba 1a 24 bc
       -0.03650482 0.06352127 -0.020446504 -0.010016138
0000a0 d9 2e d7 3d ae 5e 05 bd d0 1a 3f 3c 66 67 01 bd
       0.10506982 -0.032560997 0.011664107 -0.03159275
0000b0 08 81 d5 3b f8 01 08 bd 27 20 75 bd 01 62 80 bc
       0.006515626 -0.033205003 -0.059845116 -0.015671732
0000c0 77 08 94 3c 0c de 8f 3c f8 8f 87 3d 3c a4 a0 bd
       0.018070443 0.017561935 0.06619257 -0.07843825
0000d0 be 8d a4 bc 8c 9f 09 bc 62 fd 20 3d 45 f7 7d bd
       -0.02008712 -0.008399855 0.039304145 -0.062003393
0000e0 4e 97 69 3b eb 74 2f 3d 74 3c f2 bb 4d 89 0f bd
       0.0035643163 0.04283611 -0.0073924605 -0.03504305
0000f0 1b e2 ad 3c ac 51 6d 3c db b1 77 bd 07 a9 8a 3d
       0.02122598 0.014484804 -0.06047235 0.06770521
000100 0e ae 41 bc 62 93 a5 ba 2f b5 29 bd f6 9e e4 bd
       -0.011821283 -0.0012632424 -0.041432556 -0.11163132
000110 94 b8 f4 3d 22 3c df bc 56 57 05 3c d7 cf 07 3d
       0.11949268 -0.027250353 0.008138498 0.033157196
000120 cf 71 ea bb d6 ab 08 bd 1e f3 2a 3c 98 94 12 bd
       -0.0071546803 -0.033367 0.01043394 -0.03578624
000130 68 9c 18 bd f1 3e c2 bc 9f 51 7c bd 7e b8 93 bd
       -0.037258536 -0.023711653 -0.061601277 -0.072129235
000140 6d 9a 57 bc 1a 3e 49 3d 62 4d 93 bc 09 2a 3d bd
       -0.013159377 0.04913149 -0.017981235 -0.046182666
000150 60 7b 15 bd 3a 0f 12 bd 83 d5 c3 3a 54 ba 96 bd
       -0.036494613 -0.035659052 0.0014940951 -0.07359758
000160 c7 b4 9c 3c 65 68 2a bd 60 f0 58 bc 3c f4 9f bd
       0.01912917 -0.041603465 -0.013240904 -0.07810256
000170 ab 91 96 bc 36 7d 5d 3d d8 a1 a5 3c 42 67 e4 3c
       -0.018380007 0.05407449 0.020218775 0.027881268
000180 ae 37 19 3b 35 6a 36 3d 24 a5 48 bd f6 2d c5 3b
       0.0023379135 0.04453488 -0.048985615 0.006017442
000190 96 f6 8d bd 99 a1 87 bc 60 02 ec bc 22 c2 60 3b
       -0.06931798 -0.016556548 -0.028809726 0.00342954
0001a0 6b f2 58 bd 8c 57 a1 bd e1 9d 6d 3d 5f 7a 46 3c
       -0.052965563 -0.07878026 0.058011893 0.0121141365
0001b0 76 1c 85 3c d6 82 c3 3c ef fc 57 3c 85 44 9c 3c
       0.016248923 0.023866098 0.013182863 0.019075641
0001c0 c2 12 2b bc 61 f4 99 bc 19 8e 31 3d 31 27 8e bd
       -0.010441484 -0.018793287 0.043348406 -0.06941069
0001d0 15 56 fb 3c f3 ee 36 bd 89 47 e0 3c 11 48 67 bc
       0.030680696 -0.044661473 0.02737786 -0.014116303
0001e0 d4 92 ef 3c 2b d0 d2 bc c6 6a 25 3d b4 16 ab bc
       0.029244818 -0.025734028 0.04038503 -0.02088485
0001f0 a1 a2 c1 bc 71 72 62 bd 5f 34 55 bc 66 c2 08 3d
       -0.023637118 -0.05528492 -0.0130129745 0.033388518
000200 4b 7d a6 3c af cc 52 3c 46 37 49 bd ac bd 6d 3c
       0.020323416 0.012866183 -0.04912498 0.014510553
000210 e3 e1 0b bd 87 f8 ba bc 47 2d 8b bc c9 77 84 3c
       -0.03415097 -0.022823585 -0.016989363 0.0161704
000220 b7 5c 6f 3c 5a f4 3b bd 48 75 80 bb 9d 4c 08 bd
       0.014609507 -0.04588733 -0.003920231 -0.03327619
000230 e5 db 42 3c a9 1b 49 bd 47 ca 9d 3c 45 88 57 3c
       0.011893247 -0.049098644 0.019261492 0.013155048
000240 29 28 b6 bb 20 9e dc bc 5f 2f 2c 3d 86 e5 55 3c
       -0.0055589867 -0.026930869 0.042037364 0.013055211
000250 c3 7d 20 3d 67 35 18 3b 9d e6 04 3d 8f 25 2d 3d
       0.039182436 0.002322519 0.032446492 0.042272147
000260 65 df d3 3b 7e f6 f0 3c ca b3 6e 3c 23 c0 d7 3d
       0.0064658397 0.029414412 0.014569232 0.10534694
000270 ae 5a 32 bc d7 97 30 3d e6 f0 39 bd 66 02 b0 3c
       -0.010885878 0.043113556 -0.045395754 0.021485519
000280 18 5f 62 3d 00 f5 d7 bc 55 78 7b bc 42 58 0a bd
       0.05526647 -0.026361942 -0.015348514 -0.033775575
000290 c7 92 d8 3c 7c 22 cd bc 60 bb da bb cc 23 fd 3c
       0.026437176 -0.025040857 -0.006675169 0.030900858
0002a0 fb 2a 92 bd 44 d7 2f 3d b1 b8 b1 3c fe bb 0a bd
       -0.07137104 0.042929903 0.021694513 -0.03387069
0002b0 27 57 cf bc a7 d4 54 3b 53 85 c0 3b 02 a1 d4 bd
       -0.025310112 0.0032475383 0.0058752685 -0.10382272
0002c0 a0 79 0b 3d 8e e6 7a 3c 11 84 0e bd 87 e9 8c bc
       0.034051538 0.015313758 -0.034793917 -0.017201198
0002d0 3d eb 64 bc b3 05 f3 3c 2c 07 77 bc 96 fe 50 3d
       -0.013972101 0.029665804 -0.0150773935 0.051024042
0002e0 89 d6 aa bd 1b 3d 41 bd 20 82 9e bc 89 d0 fd 3b
       -0.083417006 -0.047177415 -0.019349158 0.0077458066
0002f0 8d b1 35 3d 39 b2 67 bc ed 2e 31 3d 68 b5 b2 bd
       0.04435878 -0.014141613 0.043257643 -0.08726007
000300 f4 a0 01 3c f4 3c 38 bd b5 9a d0 3c fd 47 8f bd
       0.007911909 -0.044980004 0.025464395 -0.069961525
000310 df ca 8d bd 96 cd 90 bd ca 12 4c bd 95 50 98 3c
       -0.0692346 -0.070704624 -0.049822606 0.018593112
000320 d7 7f 23 bd 86 03 48 bc 2a 18 bd bb 68 a7 2e bd
       -0.03991684 -0.012207871 -0.005770703 -0.04264012
000330 b7 e1 85 bb d8 f9 3d 3d 89 7b 85 3c f1 0b b1 3b
       -0.004085745 0.046380848 0.016294258 0.005403035
000340 5c 96 66 bc 61 03 47 3a ad c6 41 3b 8f b3 7c bd
       -0.014073934 0.0007591751 0.0029567883 -0.061694678
000350 20 1e 7c bc 89 34 4a bb 21 ee 8f 3d 6a 11 10 bb
       -0.015388042 -0.0030854067 0.07027841 -0.0021983036
000360 22 9c 97 3b ef 27 c2 bc d0 2a 80 bc fc 19 36 bc
       0.004626767 -0.023700682 -0.015645415 -0.011114594
000370 2f 01 f9 ba 20 c6 c9 3b bb 46 d8 ba ad 7d 3b 3c
       -0.0018997545 0.0061576515 -0.0016500572 0.011443538
000380 55 ca 44 3c c6 4d 1c bd 98 ea 14 3d 1d 2d 65 bd
       0.01201113 -0.038160108 0.03635654 -0.055951227
000390 b6 db 43 3d 56 89 8e bc fe da 47 3d a5 5b ff 3c
       0.047816955 -0.017399471 0.04879283 0.03117163
0003a0 de d4 bf 3c bf fd cf 3c 87 66 b0 3c 24 55 03 bd
       0.023416933 0.02538955 0.021533264 -0.03206362
0003b0 16 40 ae bc 6c fa 66 3d ed 06 83 bd 6c 03 ff 3b
       -0.021270793 0.056391165 -0.06397805 0.0077823903
0003c0 b2 ef 6b bd 70 f9 00 bd 79 5a 4b 3d 2c d0 27 3d
       -0.05760164 -0.031487882 0.04964683 0.040970013
0003d0 59 18 06 bd ff f9 b8 3c 88 c0 8e bc a1 5c 56 3d
       -0.032738063 0.022580145 -0.01742579 0.05233443
0003e0 2d bc 75 3d 22 b7 82 3d ea 37 cf 3c 22 04 b5 bc
       0.05999391 0.06382586 0.025295217 -0.022096697
0003f0 96 a4 42 bd 19 1b 29 3c fb 38 66 bc c6 f3 1f bd
       -0.047520243 0.010321402 -0.014051671 -0.03905084

encoder_rnn.bias_ih_l0 f4 [360]
000000 a7 f9 5b bd 09 c0 03 3c ff 66 c0 3c 66 c3 1d bd
       -0.053704884 0.00804139 0.023486612 -0.038516425
000010 83 ac 6b 3c 9b f2 90 bc f4 d6 8e 3d ee b5 81 3c
       0.014384392 -0.017693808 0.06974593 0.015833821
000020 f5 af a8 3c 13 fb 07 3c 45 9f 10 3d d6 9c f5 3d
       0.020591715 0.008299607 0.03530814 0.11992805
000030 eb 3b ad 3d a1 a0 7c 3b 9f 33 25 bd b1 1c 0c 3d
       0.08458694 0.003854789 -0.040332433 0.03420705
000040 44 ac bf 3d 4d 50 7e 3c d1 c2 51 bd 2e 0b 18 3e
       0.09359029 0.015522075 -0.051211182 0.14848015
000050 31 af 89 bc b4 64 32 3d f3 85 b0 3d e2 74 9b bc
       -0.01680717 0.04355307 0.08619299 -0.018976633
000060 13 f4 1f 3b 1c 8a dd bd 39 c9 87 3d 6b d8 19 3d
       0.0024406954 -0.10817358 0.06630177 0.037559908
000070 bf 29 8d bc 2c 0a ac 3d a5 10 87 bd 51 33 f3 3c
       -0.01723182 0.08400378 -0.065949716 0.029687556
000080 ec 8f 00 bc 3d cd 24 bd d1 74 86 3d e6 8a d5 bc
       -0.007846814 -0.040234793 0.0656525 -0.026067208
000090 dc 65 86 bb 1a c6 3a 3c a3 c5 01 3c ca 24 c5 bb
       -0.004101498 0.01139977 0.007920655 -0.0060163485
0000a0 b7 fa 9d bd 63 94 8a 3a f3 ac 2a 3d 0e a2 84 bd
       -0.07713836 0.0010572787 0.041668843 -0.06476222
0000b0 a8 6a 15 3d 14 27 74 bc 2d 82 25 bd 5f 85 85 3d
       0.03647867 -0.014901895 -0.04040735 0.06519579
0000c0 0e 4e b5 3d 78 f5 07 3d 84 45 64 3d 39 c4 da bc
       0.088527784 0.03319308 0.055730358 -0.026704894
0000d0 f6 cc 8f bc 53 c7 f4 3c b4 b2 a7 3c 99 03 e9 3a
       -0.017553788 0.029880201 0.020470954 0.0017777561
0000e0 2f 09 67 bd f7 ca b7 3d ba 5a be 3c 01 66 55 bc
       -0.056405243 0.08974259 0.023236621 -0.013024808
0000f0 27 9e 2b bc 4b 0d 52 bd ce 2c 87 3c 97 3c 88 bd
       -0.010474718 -0.05128221 0.016500857 -0.066521816
000100 30 c8 9c bc a7 c0 77 3d 21 47 d5 3c c1 50 ae bc
       -0.019138426 0.060486462 0.026034893 -0.02127874
000110 b1 94 1a 3d 10 57 bd 3c 18 d7 2f 3c 16 8c ac 3c
       0.03773946 0.023112804 0.010732435 0.021062892
000120 c4 40 7c 3d 11 03 25 bd fc 02 ae bd 0b 75 a1 bd
       0.061585203 -0.040286127 -0.08496663 -0.07883652
000130 c1 bc a7 3d 1c aa 31 bb be 90 1b 3c 1a a2 9d 3d
       0.08190299 -0.002710945 0.009494958 0.07696934
000140 65 d7 7d 3d 1a de 5d 3d a7 00 87 bd 73 b6 bf 3c
       0.061972994 0.05416689 -0.06591921 0.023402428
000150 da 32 eb ba e4 4c 90 3c d5 ce 10 3e 4d 41 a5 3d
       -0.0017944232 0.01761479 0.141414 0.08069096
000160 32 45 f0 ba 1a f3 94 bd c5 3c 85 3d da 72 a4 bd
       -0.0018331169 -0.072729304 0.065057315 -0.08029719
000170 0e 95 4b bd e0 eb 51 ba bd e7 fa bb 95 eb db 3d
       -0.049702697 -0.00080078654 -0.00765702 0.10738293
000180 7f 3b fc bc b4 4d 6c 3d 2c e4 23 3e 99 4c f5 bc
       -0.030790089 0.05769129 0.1600501 -0.029943751
000190 90 9d 80 bd 1b 07 8c bc 08 04 85 bc 9d ea 9b bc
       -0.06280053 -0.017093232 -0.016237274 -0.01903277
0001a0 ce 2b f4 bc 49 54 e1 bc 2b 32 98 bd 41 13 32 3d
       -0.029806044 -0.02750601 -0.07431444 0.043475393
0001b0 e8 28 b1 3d 0d 1e bd 3d 62 61 88 bb 2f e9 c5 3c
       0.086503804 0.09234247 -0.0041619996 0.024159042
0001c0 c9 da 12 3e 89 7f df bd 35 b4 14 3d 25 8b 36 bd
       0.14341272 -0.10912997 0.03630467 -0.044566292
0001d0 f6 57 e6 3c 91 5b 9a 3d e5 92 4e 3d e1 bb 38 bd
       0.028118115 0.07536996 0.05043306 -0.04510105
0001e0 56 c0 49 3e 57 33 52 3d 2c 3b 09 3d c6 fd a5 3d
       0.19702277 0.051318493 0.033503696 0.08105044
0001f0 29 0a 8b 3e 21 d6 5e 3e 08 1e a1 3d 2d 5e df 3d
       0.2715619 0.21761371 0.07867056 0.109066345
000200 df 0b b2 3d 64 ba 55 3e c9 6a 36 3d 93 d3 71 3e
       0.086936705 0.20871884 0.044535432 0.23615865
000210 f2 1d 63 3d b9 19 1d 3e 36 c8 43 3e 86 9f 10 3d
       0.05544848 0.15341844 0.19119343 0.035308383
000220 75 ad 20 3d 7a c8 4f 3e 29 92 01 3e dd 3e bb 3d
       0.03922792 0.2029132 0.12653412 0.091428496
000230 46 b4 41 3e 83 70 fe 3c fc 6d 14 3e 35 b7 2e 3e
       0.18916425 0.03105951 0.1449508 0.17062075
000240 4c 3c b6 3d 2c 5f 20 3e 84 64 07 3e ef f1 53 3e
       0.088982195 0.15661305 0.13221937 0.20697759
000250 a9 de 4e 3e ad 42 c0 3d e4 18 86 3e f3 69 4c 3e
       0.20202126 0.093877174 0.26190865 0.19962291
000260 4d ac 92 3e 03 fa 25 3e 77 72 b1 3d c5 1c 53 3e
       0.2864708 0.16208653 0.086644106 0.20616443
000270 e5 cd 28 3e 5e 4e 8c 3d 56 05 6e 3d c7 6d 9e 3d
       0.16484793 0.06850885 0.058110557 0.07735782
000280 05 1c fb 3d 6a c5 86 3d 9a b8 95 3d 92 6d 44 3e
       0.12261204 0.065806225 0.073106006 0.19182423
000290 ea 3d 45 3e 6e f8 f4 3d 64 40 d9 3d 0c e2 39 3e
       0.192619 0.11961447 0.10607985 0.18152636
0002a0 6a 56 21 3e 38 ff 52 3e 4a 45 21 3e ff a7 97 3e
       0.1575562 0.2060517 0.15749088 0.29620358
0002b0 ad 15 1a 3e c8 c3 48 3d 0c 0d 51 3c 41 96 4b 3e
       0.15047331 0.049014837 0.012759458 0.19881536
0002c0 3b 93 7e 3e 42 f2 9d 3d c5 18 07 3e 68 d7 8d 3d
       0.24860851 0.07712223 0.13193043 0.06925851
0002d0 7e 52 33 3d fc 71 46 3e 2a 10 3d 3e 1e b2 c3 3d
       0.043779843 0.19379419 0.18463197 0.095554575
0002e0 f7 11 08 3e e8 58 16 3e 43 b9 dc 3d 09 13 0b 3e
       0.13288103 0.14682353 0.10777523 0.1358148
0002f0 d7 c8 a1 3d 86 23 8c 3e b6 47 d1 3d 80 25 7d 3e
       0.07899635 0.27370852 0.10218756 0.24721336
000300 50 19 19 3d 7a 4d fa 3d 4d 22 80 3e 5b 39 43 3e
       0.037377656 0.12221809 0.2502617 0.19064848
000310 e6 c6 04 3e db f1 d1 3d 45 f5 14 3e 9c 74 a7 3d
       0.12966499 0.102512084 0.14546688 0.08176538
000320 7f 84 c1 3d 1a 3b 22 3e a4 a9 04 3e 58 16 18 3e
       0.094491 0.15842858 0.12955338 0.14852273
000330 e8 6b 74 3e ef d1 d7 3d 6b e3 8f bb 1b 12 42 3e
       0.23869288 0.105380885 -0.004391124 0.18952219
000340 56 36 59 3e 5e 61 b4 3d 0b 22 a9 3d e0 ab d8 3d
       0.21212134 0.08807634 0.08258446 0.105796576
000350 c5 83 04 3e 4f 65 c6 3d ac 53 39 3e c3 b3 28 3e
       0.12940891 0.09687292 0.18098325 0.16474824
000360 7d 38 24 3e cc f6 43 3d 8c 14 b6 3d a1 69 90 3d
       0.16037174 0.047842786 0.08890638 0.07051397
000370 7b 29 c8 3d 25 b9 a5 3d 62 2b d7 3d d6 91 dd 3d
       0.09773537 0.08091954 0.105063215 0.108188316
000380 98 0d 68 3e 2a 32 18 3e 4e aa 5d 3e b7 f5 d4 3d
       0.22661436 0.14862886 0.21646997 0.10398429
000390 80 8f 7f 3e a7 35 44 3d 9d 61 69 3e 92 71 6b 3d
       0.24957085 0.04790273 0.22791143 0.057481356
0003a0 df 2a 46 3e 5c 59 89 3e 06 68 50 3e d7 a4 f2 3d
       0.19352292 0.26825988 0.20352182 0.11847847
0003b0 1b 54 59 3e a4 6f 1b 3e 97 dd b6 3d c9 08 f6 3d
       0.2122349 0.15179306 0.08928984 0.120133944
0003c0 17 6f 5d 3b 71 07 13 bc e2 db f2 3c 22 26 89 3d
       0.0033788139 -0.008973942 0.029645864 0.066967264
0003d0 c2 61 72 3d 77 3b 40 be 47 89 bf 3d 43 be 72 bb
       0.05917526 -0.18772684 0.093523555 -0.0037039674
0003e0 80 f1 ab bd f4 ea 9d bd 6a 77 93 bd 10 e0 aa 3c
       -0.08395672 -0.077108294 -0.07200511 0.020858794
0003f0 13 75 39 3e 0c 98 02 be d1 55 78 bd 7a a7 ed 3d
       0.18111067 -0.12753314 -0.060628716 0.11604209

encoder_rnn.bias_hh_l0 f4 [360]
000000 58 2c 8f 3a 83 cf f0 3c 4c 5e b2 3c 96 25 e7 3c
       0.001092325 0.029395824 0.02177348 0.028216165
000010 19 32 d2 bc 6d 28 44 3d 34 ee 01 ba 2c 31 18 3d
       -0.025658654 0.047890116 -0.00049564545 0.03715627
000020 dc d9 66 3c 36 a3 23 3c cc 39 a5 bb 14 6d 83 3d
       0.014090028 0.009987643 -0.0050422903 0.064172894
000030 02 21 96 3c a8 5f 4e 3c de b3 be bd 7e 5a 29 3d
       0.018326286 0.012596048 -0.09311651 0.041346066
000040 b8 fd 93 3d 3d 6e 4e bc 14 d0 88 bd 76 56 c1 3d
       0.072261274 -0.012599525 -0.06680313 0.09440319
000050 c7 d4 62 bd 2a 8d a5 bc a0 fe 82 3d b0 b0 fe 3c
       -0.0553787 -0.020208914 0.06396222 0.03109011
000060 a9 8b 76 bc 94 e7 da bc e9 89 da 3c b3 68 a2 3d
       -0.015047946 -0.026721753 0.026677089 0.07930126
000070 0a 94 80 bd 24 ab 84 3b 85 12 c6 bc ff e9 c7 3d
       -0.06278236 0.004048722 -0.024178753 0.09761428
000080 6d 3d b9 bc 8c 20 3b 3d 33 3b dd bc 25 92 a1 3d
       -0.022612298 0.045685336 -0.027005767 0.07889203
000090 88 cd 32 bc b5 92 0e 3c e6 f6 e8 bc 91 5f fb 3b
       -0.01091326 0.00870197 -0.028438043 0.0076713045
0000a0 90 d8 1d 3d 27 d6 69 3c 2f 4e 11 3b a7 59 43 bd
       0.03853661 0.014272249 0.0022171845 -0.04769292
0000b0 c7 ce 3b 3a 72 f8 58 3d ea b7 ed bc cf 01 01 3d
       0.0007164296 0.05297131 -0.029018361 0.031495865
0000c0 f4 6a 8f 3c d7 f7 40 3d 12 7e d8 3c d5 ed 86 3d
       0.017507054 0.04711136 0.026427303 0.065883316
0000d0 8a f7 30 bc 72 ea 23 3d c6 61 76 bb 85 8f b1 bd
       -0.010801205 0.040018506 -0.0037594899 -0.08669952
0000e0 47 0b dd bc 06 98 c5 bc c0 4f 42 3c 33 7f 88 bb
       -0.026982917 -0.024120342 0.011859834 -0.004165554
0000f0 0f 3b f7 b9 4c 49 ea bb 0b fa 89 3d be cf fc 3a
       -0.00047155513 -0.007149851 0.06737145 0.0019287986
000100 12 2d aa bb c7 19 f3 bc 5d fc 88 3d d1 0f 03 3d
       -0.005193361 -0.029675378 0.066887595 0.031997506
000110 41 8e fb 3c 2d ff 34 bd 6f f1 af 3c b0 16 5d 3d
       0.03070748 -0.044188667 0.02147743 0.053976715
000120 a6 67 4c 3d e9 0b 59 bd c5 48 8b bd 1d b9 8d bd
       0.049903534 -0.052989874 -0.06800989 -0.06920073
000130 80 66 6d 3d 3c a8 8c bd 00 4d c6 3c 95 c5 23 3a
       0.05795908 -0.06868026 0.024206638 0.00062473986
000140 87 23 0c 3d ff 82 9b 3d fa 15 62 bd 3a 56 19 3d
       0.03421357 0.07593345 -0.05519674 0.037435748
000150 16 d6 81 3c 64 29 a3 3d 07 d5 fa 3d 82 ed e7 3c
       0.015849154 0.07966879 0.12247663 0.028311495
000160 c0 33 70 bd 30 59 80 bc f5 4a 4e 3d 60 1e 66 3c
       -0.058643103 -0.015667528 0.050364453 0.014045328
000170 aa f2 ae 3c e3 b1 2d 3d f8 97 89 3d ff e7 da 3c
       0.021355946 0.042405974 0.06718439 0.026721952
000180 e3 a3 d5 bd 29 a5 89 bc a5 d4 09 3e fe 09 42 bd
       -0.104316495 -0.016802387 0.13460024 -0.04737281
000190 b8 0e 4e bc 6d 44 a5 bc aa 75 cc 3c 43 b4 35 bd
       -0.012576751 -0.02017423 0.02495845 -0.044361364
0001a0 0d c9 a9 bd c0 1d e1 3c 4c d1 b9 bc 95 56 a5 bc
       -0.082903005 0.027480006 -0.022682808 -0.020182887
0001b0 94 30 b0 3b 7d 7f d7 bc 2e cd d6 bc 88 a8 64 bd
       0.0053768847 -0.026305908 -0.026220884 -0.055824786
0001c0 34 48 12 3e c8 19 ed 3c e1 87 0e 3d 04 72 a5 bd
       0.14285356 0.028942958 0.034797553 -0.080783874
0001d0 ce eb cd bc 44 6b 2a 3d d6 f6 ac 3c a9 3f 4e bc
       -0.025136854 0.041606203 0.021113794 -0.01258842
0001e0 df 8a 80 3e d1 0e 63 3d 2f 9c 88 3d 82 17 ca 3d
       0.2510595 0.055434052 0.06670415 0.09867765
0001f0 63 11 61 3e 9b 6b 0a 3e a9 b5 4e 3d 13 bd 21 3e
       0.21979289 0.1351761 0.050466213 0.15794782
000200 97 05 27 3e 12 37 66 3e b4 03 dc 3b 98 4f 73 3e
       0.16310726 0.22481945 0.0067143086 0.23760831
000210 99 5a 0a 3e 3c f7 06 3e 3f 02 20 3e 2d 43 70 3d
       0.13511123 0.1318025 0.15625857 0.058657814
000220 b8 e9 91 3d 6e 9b 79 3e 2f 9c ec 3d af 16 0e 3e
       0.071246564 0.24375698 0.11553227 0.1387584
000230 ac 7d 1e 3e aa 36 0d 3d 39 cb 20 3d 2b 7c 24 3e
       0.15477628 0.03447596 0.03925631 0.16062991
000240 43 4e 9b 3d d3 ed 37 3e 9d 44 d8 3d d6 cf 84 3e
       0.075832866 0.17961816 0.10559962 0.25939816
000250 1f 96 17 3e 8c 9a 73 3d 20 b2 63 3e 21 f5 af 3d
       0.1480336 0.05947356 0.22235918 0.085916765
000260 ff bb 73 3e 77 62 28 3e 92 50 cc 3d c8 83 cb 3d
       0.23802184 0.16443811 0.09976305 0.09937245
000270 13 8e 0f 3e d9 9f 0a 3e 5b be e2 3d dc d9 b6 3d
       0.14019041 0.1353754 0.11071464 0.08928272
000280 ec 1f 21 3e f3 54 9c 3d 4a d8 5d 3d 65 df 44 3e
       0.15734833 0.0763339 0.054161347 0.19225843
000290 cf 75 0b 3e 05 05 42 3e 0f 79 dc 3d b7 64 52 3e
       0.13619159 0.18947227 0.107652776 0.20546232
0002a0 e8 60 15 3e 61 11 79 3e 53 6d 70 3e 6d 0d 53 3e
       0.14587748 0.24323036 0.23479204 0.2061059
0002b0 04 46 4b 3e 59 7a 64 3d 90 a4 57 3d 0b 72 56 3e
       0.19850928 0.055780742 0.052647173 0.20941941
0002c0 be eb 40 3e a8 66 a7 3d 58 63 fd 3d 26 a5 85 3d
       0.18839929 0.08173877 0.12372464 0.0652564
0002d0 4c c3 91 bc de 23 76 3e b1 c2 f7 3d 5a f7 a2 3d
       -0.01779332 0.2403712 0.12097681 0.07957335
0002e0 49 3f 6f 3d c5 56 bb 3d c2 88 4f 3e 87 d9 db 3d
       0.058409963 0.09147409 0.20267013 0.107348494
0002f0 7b b8 34 3e 90 88 7f 3e a1 7c d8 3d cf ac 4b 3e
       0.17648499 0.24954438 0.10570646 0.1989014
000300 ea 92 18 3d 28 e8 14 3e 13 9f 54 3e 04 a6 00 3e
       0.037249483 0.14541686 0.20763807 0.1256333
000310 70 b9 6f 3e 31 a7 b7 3d 35 6d 48 3e 45 f0 bc 3d
       0.23410583 0.08967436 0.19572909 0.09225515
000320 26 0e 4b 3e 26 83 58 3d 8e 4a 04 3e 28 a8 40 3e
       0.19829616 0.052859448 0.12919065 0.18814147
000330 8f d7 6b 3e bf 1b 19 3e 48 4e b0 bb aa 3b 07 3e
       0.23031448 0.1495199 -0.0053804256 0.13206354
000340 d3 71 0e 3e 00 7a 2d 3e 46 df ce 3d 0f c4 36 3e
       0.13910608 0.1694107 0.1010118 0.17848228
000350 dd c5 07 3e 31 d0 0e 3e dc b1 04 3e ba eb 4f 3e
       0.13259073 0.13946606 0.12958473 0.20304766
000360 16 13 03 3e 19 24 8c 3d 72 6e c4 3d 56 ac ba 3d
       0.1280025 0.068428226 0.09591378 0.09114902
000370 dc a5 05 3e 52 4d be 3d 75 03 5b 3e 30 47 14 3e
       0.13051552 0.092920914 0.21388038 0.14480281
000380 12 59 1a 3e 03 64 26 3e 2e 0e 0d 3e 8a 1d ed 3d
       0.1507304 0.16249089 0.1377494 0.115779
000390 c9 48 26 3e 28 c4 af 3d 39 af 0b 3e 1c 1c c7 3d
       0.16238703 0.08582336 0.13641061 0.09722158
0003a0 20 fb 7c 3e a9 a7 26 3e 6a 8d 5a 3e 00 85 1f 3e
       0.24705172 0.16274895 0.21343008 0.15578079
0003b0 d0 a8 17 3e 3e 67 0b 3e 13 f2 2d 3e 2c dc cd 3d
       0.1481049 0.13613603 0.16986875 0.1005176
0003c0 98 18 8c 3d bd fd 86 bd 99 e2 75 bd 27 83 0d bd
       0.068406284 -0.065913655 -0.060030553 -0.034548905
0003d0 b6 4d b1 bc c8 4f 8c bd 86 94 24 3e 60 d1 4c 3d
       -0.0216435 -0.068511546 0.16072282 0.050004363
0003e0 4f 00 63 3b de 8c 00 bd d5 02 08 be 9b 9c a4 3d
       0.0034637635 -0.03138434 -0.1328233 0.080376826
0003f0 20 d0 b2 3d f8 90 bd bd 29 a7 37 bc f2 4c 0f 3e
       0.08731103 -0.09256166 -0.011209288 0.13994196

decoder_rnn.weight_ih_l0 f4 [360, 120]
000000 40 72 87 01 00 bd 0c 00 00 3a 6d 81 00 f6 bc 80
       4.975511e-38 1.169826e-39 -4.3571638e-38 -1.7353321e-38
000010 40 5b 84 01 00 e5 18 80 00 fe 5b 80 80 b7 3b 01
       4.862008e-38 -2.286202e-39 -8.448148e-39 3.447813e-38
000020 00 69 83 00 00 04 c5 00 c0 d3 a0 81 80 bf b1 81
       1.2068117e-38 1.8093028e-38 -5.9078564e-38 -6.529432e-38
000030 00 24 1e 01 00 d4 72 81 00 f9 a5 80 00 7e e2 80
       2.9045846e-38 -4.4600483e-38 -1.5242181e-38 -2.0800022e-38
000040 00 69 78 80 80 58 44 01 00 45 80 00 80 b5 58 01
       -1.1057926e-38 3.606301e-38 1.1779696e-38 3.9803154e-38
000050 00 2d 62 80 00 cc 24 81 00 3e 26 00 00 72 40 80
       -9.016022e-39 -3.0268406e-38 3.51199e-39 -5.918367e-39
000060 80 d2 91 81 00 b8 82 01 00 1e eb 80 c0 6f a5 81
       -5.356664e-38 4.8018485e-38 -2.1592104e-38 -6.077178e-38
000070 00 c8 7d 01 00 9f 28 80 00 ef 84 81 00 d7 20 81
       4.6612254e-38 -3.730458e-39 -4.883209e-38 -2.9541614e-38
000080 00 cb 98 01 00 7c f3 80 80 3a 01 01 80 84 ab 01
       5.612727e-38 -2.2360508e-38 2.373553e-38 6.300561e-38
000090 80 06 20 81 00 78 2a 80 80 3f 96 01 00 04 de 00
       -2.9392022e-38 -3.900139e-39 5.5192416e-38 2.0388915e-38
0000a0 40 94 a8 01 c0 22 a7 01 00 f7 02 81 00 bc 9e 81
       6.192618e-38 6.1395975e-38 -2.4054443e-38 -5.83098e-38
0000b0 80 0d 4e 01 00 ad 3a 80 80 59 05 01 00 67 9c 00
       3.784591e-38 -5.38852e-39 2.4492455e-38 1.4363287e-38
0000c0 00 61 79 80 80 ed 27 81 00 3a 3e 01 00 5e 28 80
       -1.1146892e-38 -3.0843454e-38 3.4939101e-38 -3.70714e-39
0000d0 00 4f df 80 40 44 ba 01 80 f2 36 01 80 80 3a 81
       -2.0507656e-38 6.8423543e-38 3.3602106e-38 -3.4255e-38
0000e0 c0 51 b9 81 00 cf bf 80 00 28 b5 81 00 6f c2 00
       -6.807557e-38 -1.7614837e-38 -6.6546296e-38 1.7855906e-38
0000f0 40 44 aa 01 80 e3 4d 01 80 8b 74 01 00 0d 80 81
       6.254607e-38 3.7815777e-38 4.4915808e-38 -4.703843e-38
000100 00 e9 3e 00 c0 17 a1 01 00 ee e0 80 80 1e 9b 01
       5.777385e-39 5.917614e-38 -2.065653e-38 5.6981773e-38
000110 80 06 8f 01 40 3f 88 81 40 39 ac 01 80 93 2e 01
       5.253923e-38 -5.004927e-38 6.326497e-38 3.206458e-38
000120 00 2f ac 81 80 63 8f 81 00 70 ae 01 00 e7 8f 00
       -6.3250263e-38 -5.267268e-38 6.407822e-38 1.3215343e-38
000130 00 3d e2 00 00 aa 1d 01 c0 7c a0 01 00 a7 b9 00
       2.0776705e-38 2.8958315e-38 5.8953725e-38 1.7049475e-38
000140 00 dc 45 01 00 97 c8 80 80 cf 05 81 00 8c 9c 00
       3.6341028e-38 -1.8421268e-38 -2.4577116e-38 1.437656e-38
000150 00 0b 6f 01 00 12 ae 81 80 1a 9d 01 00 4b ed 00
       4.390526e-38 -6.3943334e-38 5.771072e-38 2.1791918e-38
000160 00 f6 35 00 00 28 7e 80 40 1a b4 81 00 98 67 01
       4.95553e-39 -1.1585622e-38 -6.6159224e-38 4.2537054e-38
000170 00 5d 80 81 00 68 a5 80 80 20 35 81 00 ae 09 80
       -4.715322e-38 -1.5190165e-38 -3.3267767e-38 -8.88939e-40
000180 00 9b 56 80 00 6f ec 00 00 2b 9d 00 00 8d 0c 01
       -7.953456e-39 2.1712996e-38 1.4433598e-38 2.5815101e-38
000190 80 e7 12 01 00 62 40 80 00 8c ef 80 00 b5 3f 81
       2.6982058e-38 -5.912628e-39 -2.1998906e-38 -3.521102e-38
0001a0 80 b2 58 81 40 49 a9 01 00 ae 8d 80 80 64 07 81
       -3.9801002e-38 6.2185904e-38 -1.3011224e-38 -2.486769e-38
0001b0 00 54 cb 00 00 ab b9 01 80 70 4f 81 00 a2 3a 01
       1.8672739e-38 6.820364e-38 -3.810061e-38 3.4279034e-38
0001c0 00 fe e2 80 00 9d d3 80 00 b3 05 00 00 fd ad 00
       -2.084594e-38 -1.943361e-38 5.2339e-40 1.59783e-38
0001d0 00 82 af 80 00 46 98 01 c0 38 9f 01 00 0c 30 01
       -1.6117847e-38 5.5936427e-38 5.848881e-38 3.2334704e-38
0001e0 00 85 42 01 00 7e ae 01 00 1e 39 01 00 9a 2c 81
       3.5727595e-38 6.4098306e-38 3.4000658e-38 -3.17019e-38
0001f0 80 9f 85 81 80 27 9d 81 00 b8 51 01 c0 7b ba 01
       -4.9085355e-38 -5.772937e-38 3.851925e-38 6.850318e-38
000200 00 4f 20 80 80 28 2b 81 00 b4 a4 00 00 22 a2 01
       -2.967076e-39 -3.1436797e-38 1.5125593e-38 5.955819e-38
000210 40 89 a4 81 80 55 ba 01 00 25 ab 00 00 d7 d9 00
       -6.044103e-38 6.8448296e-38 1.5717143e-38 2.000543e-38
000220 00 a0 93 00 00 c8 c1 00 00 5a 4f 01 00 27 88 80
       1.3557215e-38 1.7795997e-38 3.8084467e-38 -1.2503618e-38
000230 00 c8 a1 01 00 18 b7 81 80 80 12 81 00 6c 4c 81
       5.9429045e-38 -6.725802e-38 -2.690816e-38 -3.754637e-38
000240 00 cc 7f 80 00 eb 58 80 80 9a 45 01 80 65 a4 81
       -1.173629e-38 -8.165826e-39 3.6294034e-38 -6.038973e-38
000250 00 76 91 01 00 42 3f 00 00 d7 51 81 00 ee 4d 01
       5.343391e-38 5.809313e-39 -3.8541492e-38 3.782331e-38
000260 00 20 1d 00 c0 d4 8a 01 00 d2 8c 80 40 58 ac 01
       2.674709e-39 5.0998475e-38 -1.2932303e-38 6.3309454e-38
000270 80 a7 96 81 00 15 c9 80 80 aa 25 81 40 75 91 81
       -5.534165e-38 -1.8466468e-38 -3.0428041e-38 -5.3432833e-38
000280 80 f8 63 01 00 9a 48 00 00 40 89 81 00 41 81 80
       4.1871605e-38 6.6674e-39 -5.041769e-38 -1.1870097e-38
000290 00 d5 99 80 80 30 1c 01 00 90 af 01 00 6e ae 81
       -1.4127241e-38 2.8687472e-38 6.4491477e-38 -6.407535e-38
0002a0 00 30 27 01 00 68 56 80 40 15 b0 01 00 3d b1 00
       3.0707494e-38 -7.935161e-39 6.468268e-38 1.6276765e-38
0002b0 00 7c 0c 00 00 fe 7f 01 80 f8 0c 81 00 f3 03 00
       1.146509e-39 4.701834e-38 -2.589223e-38 3.62678e-40
0002c0 80 d2 0a 81 80 6a 02 81 00 db 2b 80 80 35 8f 81
       -2.5497623e-38 -2.395364e-38 -4.027489e-39 -5.260667e-38
0002d0 80 44 68 81 c0 81 b5 01 00 f9 29 81 00 90 56 00
       -4.2660817e-38 6.667508e-38 -3.1219046e-38 7.94951e-39
0002e0 00 d7 e2 80 80 fc a8 81 00 21 5c 81 00 3c 14 81
       -2.083195e-38 -6.2075773e-38 -4.0431295e-38 -2.7226355e-38
0002f0 00 8c be 80 00 20 9a 81 00 86 15 81 00 92 44 01
       -1.7498967e-38 -5.6616583e-38 -2.7463118e-38 3.6104264e-38
000300 00 78 9b 81 80 79 4b 81 00 b8 2c 01 80 3e 04 01
       -5.71102e-38 -3.7372383e-38 3.1723424e-38 2.4289413e-38
000310 00 3a 72 01 00 61 66 80 80 08 4b 81 00 6b 72 80
       4.4489993e-38 -9.402018e-39 -3.729131e-38 -1.0507631e-38
000320 00 f3 92 81 c0 12 b7 01 00 dd 44 80 c0 97 ac 01
       -5.398062e-38 6.725049e-38 -6.324094e-39 6.340057e-38
000330 00 89 8e 81 80 cb 04 81 00 55 90 01 c0 16 a5 81
       -5.2359147e-38 -2.4390575e-38 5.3019215e-38 -6.064407e-38
000340 c0 57 bc 81 80 6e 7b 01 00 82 f6 80 00 94 d3 80
       -6.918621e-38 4.61807e-38 -2.2638167e-38 -1.9430382e-38
000350 00 83 c0 80 00 eb a2 81 80 54 08 01 00 f4 a2 81
       -1.7679409e-38 -5.984661e-38 2.503988e-38 -5.9859524e-38
000360 00 61 ac 00 c0 1c 9d 01 00 9c b4 01 00 d5 68 00
       1.5830502e-38 5.7713946e-38 6.6345406e-38 9.627302e-39
000370 80 39 4e 01 40 b6 8f 01 00 fd a8 01 00 b5 8a 81
       3.787748e-38 5.279142e-38 6.207649e-38 -5.0952916e-38
000380 00 8e 2b 80 00 6e 89 00 00 97 03 00 00 28 da 80
       -3.999866e-39 1.2620924e-38 3.29675e-40 -2.0034487e-38
000390 40 c9 a7 81 80 39 8d 81 00 1b e3 00 00 d1 cf 00
       -6.163489e-38 -5.187773e-38 2.0856343e-38 1.9084923e-38
0003a0 00 d2 29 00 00 f8 4f 81 80 07 50 01 00 32 91 01
       3.840589e-39 -3.8197827e-38 3.8208947e-38 5.3336334e-38
0003b0 00 ab 33 81 80 7b 98 81 00 b9 f2 80 80 df 2a 01
       -3.2999794e-38 -5.6013195e-38 -2.2290556e-38 3.1384422e-38
0003c0 80 11 28 01 80 23 08 81 00 1c b7 00 80 c9 0d 81
       3.0869282e-38 -2.5004725e-38 1.681594e-38 -2.604218e-38
0003d0 00 71 da 80 00 8b 25 00 00 1b 1b 00 00 36 1d 81
       -2.0060675e-38 3.447777e-39 2.489244e-39 -2.887509e-38
0003e0 c0 b5 8e 01 c0 ba ab 81 c0 45 bc 01 00 2a 41 80
       5.242336e-38 -6.308345e-38 6.916038e-38 -5.984374e-39
0003f0 40 74 af 01 00 95 ae 80 00 0d 74 81 00 42 4c 01
       6.445166e-38 -1.6032827e-38 -4.482505e-38 3.7516235e-38

decoder_rnn.weight_hh_l0 f4 [360, 120]
000000 97 ad 8c bd 90 98 86 bd 07 12 e1 bd 71 ad 2c 3c
       -0.06869047 -0.06572068 -0.109897666 0.0105393985
000010 61 18 15 be e7 60 8f 3b 33 db 58 bd 43 74 d1 bd
       -0.14560081 0.0043755653 -0.05294342 -0.10227253
000020 b1 f4 d0 bd 1b 52 90 bc aa 7e c3 bc 8f 60 16 3c
       -0.10202921 -0.017617276 -0.02386411 0.009178295
000030 28 21 9c bb 3c 74 2c 3d 68 c7 95 3d 84 36 98 bd
       -0.0047646947 0.042103037 0.07313424 -0.07432273
000040 30 97 48 3d 6a 7b 24 3c 75 44 0f be f0 c7 98 bd
       0.04897231 0.01003919 -0.13990958 -0.0746001
000050 64 2f 03 3d f3 62 13 3d 83 f7 a4 3d da 50 e4 3b
       0.032027617 0.035983037 0.080550216 0.006967646
000060 f4 b1 e4 3c 6e 79 34 3d 03 91 42 3b fd bc 36 3d
       0.027916886 0.044061117 0.0029688485 0.044613827
000070 da 8f d2 bc f8 62 b5 bd f6 92 d1 bd 43 0a 84 3d
       -0.02570336 -0.088567674 -0.10233109 0.0644727
000080 18 fc b5 3c ce 55 4a bc 20 9b c5 bd 85 66 cc bd
       0.022214934 -0.012349559 -0.09648728 -0.099804915
000090 3b 22 ab 3d a6 70 ec bd b1 db a0 bc 10 e2 6d bd
       0.08356138 -0.115449235 -0.019636007 -0.058076918
0000a0 b0 c7 4e bd d5 13 a3 bd 65 63 95 3c 8c 46 b7 bc
       -0.050483406 -0.07962767 0.018235872 -0.022372507
0000b0 b7 7f f5 bc 09 c4 4f bd bb 3f 7a 3d db af 5e 3d
       -0.029968126 -0.050724063 0.061095934 0.054366928
0000c0 c0 1c da 3d 7d ad 01 be b1 27 9a bd 2e 29 8b 3d
       0.10650015 -0.12663837 -0.07527102 0.06794964
0000d0 20 92 d3 3d 5d 87 ac bd 93 69 3d 3d 7d 2b ec bc
       0.103306055 -0.08424256 0.04624326 -0.02882933
0000e0 7f fd 22 bd 2c 3d c8 3d 36 c4 c2 3d 36 bd fb 3c
       -0.039792534 0.097772926 0.095100805 0.030729871
0000f0 b0 5f 88 3c 14 00 9b bd 0d 8a 6b bd 58 b0 d2 bb
       0.01664719 -0.07568374 -0.057504702 -0.006429713
000100 93 29 95 bd b9 e6 b4 ba a9 13 51 3d 51 0c 97 bd
       -0.0728332 -0.0013801671 0.05104414 -0.07375396
000110 c8 66 7e bd 76 1b 3d 3c 56 2a ed bc 84 37 d3 bb
       -0.06210974 0.011542192 -0.028950851 -0.006445827
000120 38 52 ac bc 64 a1 64 3c 09 1d ef bc d4 d2 6e 3d
       -0.021035299 0.013954494 -0.02918865 0.05830653
000130 9e 73 aa bd e5 83 98 bd 7b f3 8a bd 6a 8c ed 3c
       -0.083228335 -0.07447032 -0.067847215 0.028997619
000140 07 a0 61 3c 21 e0 9e 3d 55 0b 9a 3d 86 e8 3f 3c
       0.013771064 0.07757593 0.07521693 0.011713153
000150 33 bd 07 3d 86 4c 60 bb ca 06 50 bd 47 67 7b bd
       0.03313942 -0.00342253 -0.050787725 -0.06137779
000160 e8 a4 0d bd 32 ff 3e bb b2 6c e4 bd cf cc ab bc
       -0.034581095 -0.0029143807 -0.111535445 -0.020971684
000170 24 ca 8a bc 51 c7 af bd 79 1e c3 bd 43 b5 aa bd
       -0.016942091 -0.085829385 -0.095272966 -0.08335354
000180 29 32 16 3d 5a 72 9a 3d b7 54 62 bd 08 9f 80 3d
       0.03666893 0.07541342 -0.05525657 0.06280333
000190 fa f7 4f 3d 84 2f c2 bc fe a8 18 bd 74 01 1b bd
       0.0507736 -0.023704298 -0.03727054 -0.037843183
0001a0 29 f4 f2 bc 4e 28 9f bd 07 a4 83 3d 33 9b a0 3d
       -0.02965744 -0.077713594 0.0642777 0.07842102
0001b0 8f 05 34 3c f9 e4 2f bd 40 1a a3 3d 5b 14 f3 3d
       0.010987653 -0.042942975 0.07963991 0.11869117
0001c0 4b 54 bd 3c 3c e5 ce bd b0 d0 07 3b 74 5a 1c 3d
       0.023111483 -0.10102317 0.0020723753 0.0381722
0001d0 f2 10 be bd b8 e2 44 bd 46 68 1c 3d 28 6f b7 bc
       -0.09280576 -0.04806778 0.03818538 -0.02239187
0001e0 e1 a9 35 be f0 02 c5 bd 21 ee 69 bc 20 78 0e bc
       -0.17740585 -0.09619701 -0.014277966 -0.008695632
0001f0 50 7c 3e bd 4d 58 ae 3d 63 84 6e 3b 24 e1 58 bd
       -0.046505272 0.08512936 0.0036394827 -0.052949086
000200 aa 07 dc bc 42 34 f2 bc 85 37 04 3d d0 f2 3c bd
       -0.026859123 -0.029565934 0.03227951 -0.04613
000210 0b 08 8c bc 9f 95 b2 3d bf 08 9a 3d 55 59 e0 bd
       -0.017093679 0.08719944 0.075211994 -0.10954539
000220 04 fa ae bd 33 60 16 3c b7 7d 5e bc 27 28 f5 bb
       -0.085437804 0.009178209 -0.013579777 -0.007481593
000230 09 46 44 3d 83 b7 63 3d c7 20 25 3d 73 7b db 3d
       0.047918353 0.055594932 0.040314462 0.107169054
000240 3d c4 fd bc 69 6f f9 3d 3f 3b 5e bd d1 de 85 bd
       -0.030977363 0.12179453 -0.05425572 -0.065366395
000250 c2 b6 54 bd 5f a6 88 bd f2 25 00 be 26 e4 8a 3d
       -0.051932104 -0.06672358 -0.12514475 0.06781797
000260 f2 bc 87 3d 2a 7e b3 bd 97 ac 1c be 3e 27 21 bd
       0.06627835 -0.08764298 -0.15300213 -0.039344065
000270 6d 1c 03 3e e2 91 fb 3c 9c 77 3a bd f3 64 39 bd
       0.12803812 0.03070921 -0.045524225 -0.04526229
000280 32 70 6e bd ce 94 f0 bd 1a 8d 06 bd f5 05 de bb
       -0.058212467 -0.11747132 -0.03284941 -0.0067756125
000290 b4 6d 8c bc 86 93 b4 3d 6a 0f 21 3e 85 44 e5 3d
       -0.017142154 0.088172 0.15728536 0.1119471
0002a0 ef 15 9d 3d 52 f8 f2 bd f9 df 43 be 53 41 02 3e
       0.07670199 -0.118637696 -0.19128408 0.12720232
0002b0 c3 3e f1 3d ff 73 61 3d 84 3e b6 bd 7d f4 1e 3c
       0.11779549 0.055042263 -0.08898643 0.009701845
0002c0 1a fb 82 bd 3a 2e a5 3d ea 2c 10 3e 61 1b 77 3d
       -0.0639555 0.08065458 0.14079633 0.060328845
0002d0 93 e7 42 3c ae 4c ae bd e9 49 15 3b f8 e4 25 bc
       0.011896032 -0.08510719 0.002277965 -0.010125391
0002e0 75 6d c8 3d 2c d4 4d 3d a1 77 05 3e 37 88 86 bd
       0.09786502 0.05025117 0.13033916 -0.0656895
0002f0 b9 db 95 3d 07 f3 b4 3c 46 ba 65 bd d4 7e 04 3e
       0.073172994 0.02208854 -0.056085847 0.12939006
000300 49 d3 12 3e de c2 b0 3b 8c 24 71 bd 8e 18 86 bd
       0.14338411 0.0053943237 -0.058872744 -0.06547652
000310 7d 7a 71 bc 0e 74 ac 3d ae 3c c2 bd e3 a8 0b be
       -0.014738676 0.08420573 -0.0948423 -0.13638644
000320 f6 2c 66 bd 23 15 4a 3d bf de 45 3d aa dc 6b 3c
       -0.05619522 0.049336564 0.04830813 0.014395872
000330 3e a4 16 3d f3 ca 37 3d 94 b0 9f bd be 7f b3 3d
       0.036777727 0.04487128 -0.077973515 0.08764599
000340 90 a2 c0 bd 00 2a 05 bd 5e b2 20 be 81 0a ca 3d
       -0.09406006 -0.032510757 -0.15693042 0.09865285
000350 f4 51 88 3c 6e ba cb 3b a7 97 d0 bd 9d 18 9e 3b
       0.01664064 0.0062172925 -0.101851754 0.0048247115
000360 2b 44 81 3d ac 1f fb 3d 1c 06 df bb 6e 80 c9 3c
       0.0631183 0.122619 -0.006806148 0.024597373
000370 08 9d 41 3d ed 5e be bd 2e 7a 25 3d 62 73 39 bd
       0.047268897 -0.092954494 0.040399723 -0.045276053
000380 ea f7 f5 bd ad ad 93 bb 67 7b 78 bd 96 1e c8 3d
       -0.120101765 -0.0045067878 -0.06066456 0.09771459
000390 cb e8 55 bd 61 e4 11 3d 40 7b ae 3d e2 34 82 bc
       -0.05222396 0.03561819 0.08519602 -0.015894357
0003a0 ee 2e eb 3d 01 c6 ac bd 3c bb 3a bd 5a 75 74 3d
       0.114835605 -0.08436204 -0.045588717 0.059682228
0003b0 fe da 04 3d 92 a4 ae bd be 0e 03 3e 81 ad 0b be
       0.03243541 -0.08527483 0.12798592 -0.13640405
0003c0 9e 9e 3d 3d e4 8e 16 bc c6 7b 1d bc 7a c0 28 bd
       0.046293847 -0.009189341 -0.009612029 -0.041199185
0003d0 15 29 2f bd 6c bf 0a 3e ee 73 98 bd 12 e0 bf bd
       -0.04276379 0.13549584 -0.07443987 -0.0936891
0003e0 97 a7 a1 bd 8c 23 d9 bd cb 17 27 3d 48 55 18 be
       -0.07893293 -0.10602483 0.040794175 -0.14876282
0003f0 de 7f 29 be 75 4b 6a 3d 47 34 44 3d c8 00 63 bc
       -0.16552684 0.057200868 0.047901418 -0.013855167

decoder_rnn.bias_ih_l0 f4 [360]
000000 29 15 8f 3c 84 ef 8c 3d e1 1f 33 bd a2 3d 6f 3d
       0.017466145 0.068816215 -0.043731574 0.058408387
000010 97 d4 15 bd 4e cf 02 3c 5a 02 99 bd 50 9c 9f bd
       -0.036579695 0.007983996 -0.07471152 -0.07793486
000020 94 97 9e bd 3f 86 50 bd 3d 0b 04 3e 90 41 80 bc
       -0.07743755 -0.050909277 0.12894912 -0.015656263
000030 d0 c8 0d 3d 7b c4 93 bc 43 95 b5 3d 96 e5 99 bd
       0.034615338 -0.018038025 0.0886636 -0.07514493
000040 b9 3e b5 3d 46 37 66 3c d1 c6 05 bd 81 7e a9 bc
       0.08849854 0.014051264 -0.03266031 -0.020690205
000050 c7 cd 5e 3c fa db e5 3c f3 fa 90 3d 39 f7 95 bd
       0.013598866 0.028058995 0.07079115 -0.073225446
000060 e3 44 27 3d 49 ce 11 3e 7f d6 e5 3c 84 bf 54 bd
       0.04083718 0.14238848 0.028056381 -0.051940456
000070 af 64 84 bc c9 f2 5a bc 21 4f 07 bd b9 3e 2b 3e
       -0.01616129 -0.013363549 -0.033034448 0.16723146
000080 0b 9f 6e bd a5 06 e5 3b fb c6 a4 3c 54 c3 1b 3a
       -0.058257144 0.0069893175 0.020114413 0.0005941887
000090 04 1e 64 3d 44 76 84 3a b7 19 de 3d d5 08 24 3d
       0.055692688 0.0010106047 0.108447485 0.040047485
0000a0 b7 1d dd 3d 27 9d 34 bd b8 da 76 3c 38 90 90 3d
       0.10796683 -0.044095185 0.015066795 0.070587575
0000b0 35 9f 34 3d b7 9a 46 bd c9 7d 84 3d 8d dc 19 bc
       0.044097144 -0.04848739 0.06469304 -0.009390962
0000c0 5f 21 5e 3c 6a 49 d3 bd 23 e8 83 3d 26 1f 6b bc
       0.013557761 -0.10316737 0.06440761 -0.014350688
0000d0 ca f4 97 3d 55 ff 9d 3d b2 04 08 3e 7b b8 f5 bd
       0.07419737 0.07714716 0.13283041 -0.119980775
0000e0 84 ec 8a 3a 3f d8 38 bd 41 5a d7 bc 54 b5 7b bc
       0.0010599052 -0.045128103 -0.026288154 -0.015363056
0000f0 cf 9a 10 3d 0f b3 a4 bc 07 b6 3f bd 12 83 c7 bc
       0.035303887 -0.020104913 -0.046804454 -0.024354491
000100 26 5f 2c be f8 4d ef bb 0c 0d 3b bd 59 23 96 3d
       -0.16833171 -0.007302996 -0.04566674 0.07330961
000110 7f 4a 2b bd 42 e3 bb 3d 7c 32 99 3d 3d c9 81 bd
       -0.041819092 0.09174205 0.07480332 -0.06337211
000120 bc 17 96 3c c8 3b 11 3d 32 9d a6 bd 93 1a d4 b9
       0.018321864 0.035457402 -0.081354514 -0.0004045559
000130 7c 81 39 3d 85 d5 d9 bd 62 80 4e 3d 4d f5 c3 3c
       0.0452895 -0.10636429 0.050415404 0.02392068
000140 a6 44 2d 3d 34 69 36 bd ff 8e 59 3c e9 36 23 bd
       0.042301796 -0.044533923 0.013278722 -0.03984729
000150 fc c0 44 3d b3 5c e2 3d 66 38 dc 3d c6 55 93 3d
       0.048035607 0.11052837 0.10752945 0.07194094
000160 77 04 61 bd 72 62 41 3d a7 6e f7 bc c2 84 af 3d
       -0.0549359 0.047213025 -0.03020413 0.085702434
000170 52 1c 5c bd 92 21 ac bc 57 88 31 3d 36 fe a6 3a
       -0.053737946 -0.021012101 0.043342914 0.0012740556
000180 17 5e 70 bd dc 98 ed bc 48 58 b7 3a c4 a1 11 bd
       -0.05868348 -0.029003553 0.0013988102 -0.035554662
000190 54 99 5c 3d da 71 5a bd 65 f0 9e 3d 7e e4 cc bd
       0.053857163 -0.053331234 0.07760695 -0.10004519
0001a0 4f f2 97 bd cd 8a b8 3b a2 53 b6 3d e1 e8 0b 3d
       -0.074192636 0.0056317807 0.089026704 0.034157638
0001b0 e3 20 91 3c a7 35 a1 3c bd 98 0a bd 5f 86 4f bd
       0.017715877 0.019678904 -0.03383707 -0.050665256
0001c0 be 5c 3d bc 3c 75 a1 3d 08 ee e5 bc 07 37 96 3d
       -0.011557756 0.07883689 -0.028067604 0.073347144
0001d0 8e 40 cb 3d 06 b5 3e bd 5c de e1 3d 0f 9d a1 3c
       0.09924422 -0.046559356 0.1102874 0.019728212
0001e0 be c3 86 3e bf 12 ff 3e ec e4 30 3e c9 6c a6 3e
       0.26321214 0.4981899 0.17274827 0.3250487
0001f0 ff 6f 67 3e 95 0a 2f 3e 43 a0 3f 3e c4 f4 97 3e
       0.22601317 0.1709388 0.18713479 0.2967893
000200 7c 55 97 3e 60 34 bc 3e f1 b4 66 3e f1 57 83 3e
       0.29557407 0.3675871 0.22529961 0.2565303
000210 25 a9 39 3e cc 50 43 3e b8 69 b4 3e b2 11 45 3e
       0.1813093 0.1907379 0.35236907 0.19245031
000220 40 54 b6 3e 0f 38 8f 3e cc bd e1 3e e1 71 64 3e
       0.35611153 0.27972457 0.44090116 0.22309066
000230 7d 3d 88 3e 50 66 c8 3d 6d 96 f3 3e ca 82 9a 3d
       0.26609412 0.097851396 0.47575703 0.07544477
000240 86 79 b3 3e 17 ab 7a 3e 66 df 99 3e 4e 01 2d 3e
       0.35053653 0.24479328 0.30053252 0.16895029
000250 5d 8a 6c 3e 13 33 76 3e 24 8d 7a 3e 79 c1 9a 3e
       0.23099656 0.24042921 0.24467903 0.30225733
000260 8c cb 1a 3e 65 c9 0a 3e 86 5c d6 3d 2a 4c ff 3d
       0.1511671 0.13553388 0.10466866 0.12465699
000270 d6 fb 67 3e ed c0 25 3e 68 ef 31 3e ef 0c 05 3e
       0.22654662 0.16186877 0.17376482 0.12993215
000280 da ca af 3e 92 7c 8e 3e b5 08 1f 3e b6 67 a2 3e
       0.3433445 0.27829415 0.15530665 0.3171975
000290 14 4b 85 3e cd 28 60 3e 4c 3d a6 3e 29 4f df 3d
       0.26033843 0.21890564 0.3246864 0.109037705
0002a0 89 b9 41 3e 33 6f 14 3e eb 59 8d 3e 7c aa 83 3e
       0.18918432 0.14495544 0.27607664 0.25716007
0002b0 2a 53 ba 3e e4 67 76 3e 9b 89 8c 3e a0 c0 e1 3d
       0.36391574 0.24063069 0.27448735 0.110230684
0002c0 49 1e b0 3e 51 85 ab 3e 5f 2b 22 3e 20 db 04 3e
       0.34398106 0.3350015 0.15836857 0.12974215
0002d0 1e 19 19 3e 25 42 f3 3e 2e 47 de 3d b0 ca b4 3e
       0.14950988 0.47511402 0.1085342 0.35310888
0002e0 88 3d e1 3d a7 85 68 3e af a7 4f 3e 19 08 7f 3e
       0.10998064 0.22707234 0.2027881 0.24905433
0002f0 a5 cc 4f 3e dc fc bb 3e 05 d1 54 3e e3 de 82 3e
       0.2029291 0.36716354 0.2078286 0.25560674
000300 c8 0c 43 3e 45 a9 d8 3d 65 6b 9d 3e 35 eb b7 3e
       0.19047844 0.105791606 0.30745998 0.35921636
000310 6f 8b ab 3e 49 b0 28 3e 35 36 8b 3e 83 0f 32 3e
       0.33504817 0.16473497 0.27189794 0.1738873
000320 d8 80 b6 3e 06 ee 70 3e 08 f6 2c 3e 78 de 6a 3e
       0.35645175 0.23528299 0.16890728 0.22936428
000330 77 b2 2a 3e 1d a5 4c 3e c3 7e 85 3e 5f 90 34 3e
       0.16669641 0.1998486 0.26073274 0.17633198
000340 ed 4a 61 3e ad 3b 1d 3e 1f da c0 3e 8b d7 6b 3e
       0.22001238 0.15354796 0.37666413 0.23031442
000350 35 d0 62 3e 0b 2b 3f 3e 17 7d 1d 3e 0a cc 2d 3e
       0.22149737 0.18668763 0.15379749 0.16972366
000360 5e da 88 3e 71 9c c7 3e b5 c1 47 3e 95 e5 62 3e
       0.267291 0.38986543 0.19507487 0.22157891
000370 90 9c 47 3e 74 84 6c 3e 81 dd 28 3e 14 8e 6f 3e
       0.19493318 0.23097402 0.16490747 0.23394042
000380 6a ab 1e 3e ee 34 b0 3e 61 00 7b 3e 4b ce 98 3e
       0.15495077 0.34415382 0.24511863 0.2984489
000390 09 7c be 3d aa 8d 1b 3e 05 3b a0 3e 6c f1 61 3e
       0.093010016 0.1519076 0.31295028 0.22064751
0003a0 d6 5a e9 3d be 4b 9d 3e c3 7f 60 3e b9 51 d8 3e
       0.11394279 0.3072185 0.21923737 0.4224985
0003b0 54 8a 81 3e fb 15 1d 3e 39 0d 98 3e 37 47 5e 3e
       0.25300848 0.15340416 0.29697588 0.21706854
0003c0 21 91 2e b9 f7 08 30 bd 8e bd fe bc 81 4c a3 3d
       -0.00016647998 -0.0429773 -0.031096246 0.07973576
0003d0 df 7b 25 3d a6 2a d0 3c a1 12 a9 3b 74 5a 87 bd
       0.040401336 0.025410961 0.0051596914 -0.066090494
0003e0 29 72 c2 bc aa a3 af bd e4 26 28 3d bd 1c ea bd
       -0.023736076 -0.08576138 0.041052714 -0.11431263
0003f0 f2 6a e2 bb 23 3c 83 3c eb 81 16 bd 20 48 9f bd
       -0.0069097215 0.016019886 -0.036744993 -0.077774286
