Rudi/checkpoints_02/checkpoint_epoch_96.pth (torch, 587118 bytes, 30 tensors)

encoder_rnn.weight_ih_l0 f4 [192, 40]
00000000: 182a 763e 34b5 cbbd fa35 3abe 1569 d9bd
00000010: db20 9bbd f3ba 16be a7b3 f1bd 7da1 23bc
00000020: 4563 babd 3c0a eebd d3f0 313d 7c52 d6bd
00000030: 0e9b e2bd fc93 00b9 39b6 b8bd 4b6c 963d
00000040: 7f72 a3bd 6838 9d3c 9de5 67bd 6944 dcbd
00000050: 8685 0abe 4c85 753c f6bf 64be 4875 0abd
00000060: ba2f b2bd 5f84 653c 495e 343d 76ef 963d
00000070: 8da2 143e 4759 76bd c1e5 11be 9c9f a1bc
00000080: c457 69bd f795 043e ba58 24bd b2f1 2abe
00000090: 2674 ecbd a0a9 c8bd 87ee 29be 860b d2bd
000000a0: d562 56bd fe9a aabd 2a42 9fbd 9265 803b
000000b0: 10b7 24bd 106a 22bd 59f2 4b3c c195 f6bc
000000c0: dd91 23be d31e ff3b 1aad 113d c9c6 1cbe
000000d0: 3e51 f9ba 88b0 95bc c413 163e 9b4e 163e
000000e0: f915 05bd efbf 4f3e 3065 013e 8ba3 d63d
000000f0: 6c6b 9e3d c819 5d3d c6e6 33bb 61c2 de3d
00000100: 02b2 c73d d12f b63a b82e cc3c 4244 d43b
00000110: 4490 c2bd 6166 14bd 48bc f1bd 2c71 ccbd
00000120: 0080 873b 7b80 bfbd dbe6 94bd c561 33bd
00000130: 4d43 1cbe e901 373d bca0 8fbd e53c 7bbd
00000140: 0a28 af3d 8d3f 3ebe 3516 383e a9c3 a63d
00000150: 4750 0fbe 0e62 913d 3969 ecbd df06 253e
00000160: 9eb9 223e 670b c53d 3363 8dbd 15f7 cc3c
00000170: f3c8 a83d a24c b6bd 2cdb 94bd 12d3 cabd
00000180: 41b8 0bbe 99e1 c9bc a015 973c f3f8 cbbd
00000190: 4cb4 35bd 2238 febd 139f d6bc 9f60 b2bc
000001a0: c74a 68bd a1db f53c 56f7 e6bd 7bda 193e
000001b0: c8dc ffbd 9e35 c7bc ca5b 1f3d fb42 b5bd
000001c0: a8f9 1abd 05ce 0d3d 8c55 913a 5085 9b3c
000001d0: 0822 573d 280b c33d 251a 133e 39ce 7ebd
000001e0: dfed 473e 2094 33bd e572 7a3c 1ba5 a6bd
000001f0: a860 f0bd c9e7 1ebe 3a08 9bbd 5e7e 903d
00000200: 062e 6abc 17bf e7bd 07a3 9dbd a529 9fbd
00000210: c538 e0bd 3300 bf3d d103 c33c b4fe 503a
00000220: ecce ff3c b60d 253d a8bd da3a 1e4a 3ebd
00000230: 6f69 3e3d 6fdc 78bd 7d9c 173d be26 003e
00000240: acb6 013d f8b9 70bd fdaf e3bd 96d2 783d
00000250: 5339 83bd ea44 8ebc ae13 a5bd f4a3 6fbe
00000260: ab3b 26be 57fa b0bc c617 7fb8 a123 f5bd
00000270: 22fc fabd 26aa a53d 635e 29be da5a 0a3d
00000280: 3c46 56bd 6bea 463d 1317 e4bd ff25 91bd
00000290: 32f1 94bc edc6 f4bd 97fd c9bd 383c 073d
000002a0: a630 09be cef2 20be 47b9 673d 88fa 2bbe
000002b0: 7ab8 68bb 5999 643d 8958 9e3d c8d2 0b3d
000002c0: 9c9c 7ebd e8a2 8f3d feab a03d 1016 4d3c
000002d0: 2df1 f53d d1b7 d03d 1d6b 183e 06bb ba3d
000002e0: 80af 9c3d 08e4 77bd e7d5 fdbc 3a87 343d
000002f0: 7726 ad3d 1e21 393e e3f4 cf3d 0f4f ba3c
00000300: 6b08 c3bc a6f2 96bd 34f5 ec3d 17fe 51bd
00000310: ce7b 32be bc28 54bd 39ff c0bd 379f 60bd
00000320: f5e4 4dbc f759 cd3d f3dd 0dbd dcec a4bd
00000330: 8039 c9bd 8e31 2e3d 5ed4 943d c49d cc3d
00000340: 22f3 3bbd 354e adbd 4a0c f33b 828a 3dbe
00000350: bec0 ec3d 5341 723d d067 f838 bef8 5fbb
00000360: 71e9 e63d 28bf e73d 82ec 323d 2039 323d
00000370: e7b6 8bbd b4af fdbd 1576 e03d 1961 643d
00000380: 927a ce3d cea1 8dbd e083 1fbd 9eff 1dbd
00000390: 89a2 a8bc 3d04 3a3d 25b4 cbbc 8b6a 78bd
000003a0: 77f6 ddbd 76e9 ac3d 79bd 963d 5be3 63bd
000003b0: 0895 17be 68c7 64bd 79b5 16bd 315b 57bb
000003c0: ba23 353e 3960 79bd 4486 6cbd 96c8 f1bd
000003d0: c8fa f7bb 149e 3fbe f5fb 92bd f9c2 0dbe
000003e0: d982 89bd 9236 47be e9ed 3bbd d86e 19be
000003f0: 1547 60be d5b8 2f3c 0117 4dbc 4e3d 9b3d
0.24039495 -0.09946671 -0.18184653 -0.10615746 -0.07574626 -0.14719753 -0.11801844 -0.009987232
-0.091009654 -0.11623046 0.04344256 -0.104649514 -0.110647306 -0.0001226216 -0.09019131 0.07344874
-0.07980823 0.019191936 -0.05661546 -0.10755236 -0.13527498 0.014985394 -0.22338852 -0.033803254
-0.08700509 0.0140086105 0.04403523 0.07369892 0.14515133 -0.060143735 -0.142478 -0.019729428
-0.056968465 0.12947832 -0.04012368 -0.16693762 -0.11545591 -0.097979784 -0.16594897 -0.10256104
-0.052340347 -0.08330344 -0.07776292 0.003918358 -0.040213645 -0.03965193 0.012447917 -0.030100705
-0.15973611 0.007785657 0.035565473 -0.15310206 -0.0019021404 -0.018272653 0.14655977 0.14678423
-0.032491658 0.2028806 0.12636256 0.10480412 0.07735333 0.053979665 -0.0027450784 0.108769186
0.09750749 0.0013899748 0.024924621 0.0064778635 -0.09500173 -0.03623045 -0.1180349 -0.09982523
0.004135132 -0.093506776 -0.07270595 -0.043794412 -0.15260048 0.044679556 -0.070130795 -0.06133737
0.08552559 -0.1857893 0.17977221 0.08142788 -0.13995467 0.070987806 -0.11543507 0.16115902
0.1589112 0.096213154 -0.069036864 0.025020162 0.08241453 -0.08901335 -0.07268366 -0.0990354
-0.13644506 -0.024643706 0.018442929 -0.09959593 -0.044361398 -0.1241305 -0.0261989 -0.021774588
-0.05671194 0.030011954 -0.11277644 0.1502475 -0.124932826 -0.024317559 0.038905896 -0.08850666
-0.037835747 0.034620304 0.0011088117 0.018984467 0.05252269 0.09523612 0.14365442 -0.062208388
0.19524334 -0.043842435 0.015286182 -0.0813696 -0.11737186 -0.15518107 -0.075699285 0.07055353
-0.014293199 -0.11315744 -0.076971106 -0.07771615 -0.10948328 0.0932621 0.02380553 0.0007972524
0.031226598 0.04029628 0.0016688602 -0.046457402 0.046487268 -0.060757097 0.037014473 0.12514779
0.03166835 -0.058771104 -0.111175515 0.060747705 -0.06407418 -0.017366845 -0.08060394 -0.23402387
-0.16233699 -0.021603746 -6.081888e-05 -0.11969686 -0.12255122 0.08089094 -0.16539912 0.03377805
-0.052313074 0.048563402 -0.111372136 -0.07087325 -0.018181417 -0.119520046 -0.098628215 0.033016413
-0.13397464 -0.15717623 0.05657318 -0.16794789 -0.0035510347 0.055810306 0.077317305 0.034136564
-0.062161073 0.07013494 0.07845305 0.012517467 0.12008891 0.1019131 0.1488461 0.09117703
0.076506615 -0.060520202 -0.030985786 0.044074275 0.08454602 0.1807904 0.1015413 0.022742776
-0.023807725 -0.073705 0.11570206 -0.05126771 -0.1743004 -0.05179666 -0.0942368 -0.05483934
-0.012566795 0.10026925 -0.034635495 -0.0805299 -0.098254204 0.042527728 0.07267068 0.09991029
-0.045886166 -0.084621824 0.0074172365 -0.18509868 0.115602 0.05914433 0.00011844898 -0.0034175362
0.11274994 0.11315757 0.043682583 0.04351151 -0.06821995 -0.12387028 0.10960022 0.055756662
0.10081972 -0.069156274 -0.038944125 -0.038573854 -0.020585315 0.0454142 -0.024866173 -0.060648482
-0.10838025 0.08442967 0.07360358 -0.055636745 -0.14802945 -0.05585423 -0.03679416 -0.003286075
0.1768941 -0.06088278 -0.057745233 -0.11805837 -0.0075677373 -0.18712646 -0.07176963 -0.13843907
-0.0671441 -0.1945441 -0.045881186 -0.1498369 -0.21902116 0.01072522 -0.012517692 0.07580052

encoder_rnn.weight_hh_l0 f4 [192, 64]
00000000: 50cf 22be b5a5 323c 0fed 1e3d 9d7c 893c
00000010: f615 18bd 47fa 27be cfbf 563d abaa b6bd
00000020: 74a2 8b3d 67a6 3fbd 8c9f cb3d 0faf dbbc
00000030: 0107 b1bd 492c d13d ff09 e5ba a42d 71bd
00000040: d898 643d 098c 39bc 3fd0 9bbd 7976 8b3d
00000050: d488 24bd ff49 323d fd6b 743d 2977 63bd
00000060: 347c 343e 89b8 4d3e 24e3 57be 909c 5e3b
00000070: ff61 29be 5a5f 7fbd 171f 043d 0aef 9cbd
00000080: a09d 0e3d 2792 5a3d dc5d 1f3d b6e9 ae3c
00000090: e8a3 053e debf e23d 7e32 eb3d 7e7b 803e
000000a0: 5bab 6bbd a8fa 5f3d 805a 6bbc 6c08 aabd
000000b0: 8661 1fbd 871e 66bd c2f0 643d 18ab ac3c
000000c0: ab13 233d 7588 4b3d b68d 003e 0694 763d
000000d0: 7475 b53c 9c14 27bc 7408 9b3d 548c 03bd
000000e0: 972c a13c 6122 8dbd 1e93 b73d 8a43 5abd
000000f0: 3cf0 753c b2d5 873d 7ac9 a9bc 9b0a ca3d
00000100: 1939 52bd f270 48bd 5d99 e93d d6b4 03be
00000110: 0235 7fbd db4a 6a3d 586d fabb 5faf 91bb
00000120: 4eed 6cbd 85b2 2ebd bb0d 21bd 2824 b3bc
00000130: f35d 2c3d ac1a d2bc 5e84 4d3c 2f37 493c
00000140: 65be 80be e7a7 ef3c 872d b0bc 5089 07be
00000150: 46cf 4abd e0a3 e33b 527c be3d c84e cbbd
00000160: f18a e23b d06a 0f3d 2add 293c b2e2 a73d
00000170: d32e 883d bd79 45be fdf9 983d fdf1 023e
00000180: 5494 763e c2db f93d f900 c2bd 2b57 953d
00000190: eeeb ebbd f216 7d3b 5827 df3c 0592 113d
000001a0: c5d0 603e f853 cdbd 985b d13d 1af3 403d
000001b0: 35c2 0f3c 032e aabc d7b9 c73d 2a10 e13d
000001c0: 3b37 1b3d fe80 03be a155 943d e890 6ebd
000001d0: 4695 583d 3032 ae3c 9deb 173e f264 53bd
000001e0: 1de8 0cbd 9ae3 663c 6efa 97bd 395a 06bd
000001f0: 7a15 b0bd e44d 513d fa8c 20be ede9 c03d
00000200: 727b 393d 6aef 913d 6690 d039 0713 80bd
00000210: 0fc8 83bd e023 b63d 7a29 70bc 2c28 7cbd
00000220: 4de4 c9bd 7817 29bd be04 8dbd 0280 3cbd
00000230: 27b9 033d 687a 2b3d 8303 8abd 257d 9cbc
00000240: 49df 823d fc72 d2bc 3e17 42bc 8ace 873d
00000250: e712 d13d bfdb 67bd 0673 91bc 8a78 5b3a
00000260: 3e6c 04be b78d 9dbd 931b 9dbd 1b1c c2bd
00000270: 97bc 8b3d 1da4 12bd f439 3c3d 6ec6 a9bc
00000280: d0fc bb3d 6776 f3bc c32b 22bd ad02 f4bc
00000290: 9c7c 21bc ff1f 6ebd ec1f 93bd 1c25 7e3b
000002a0: d94a 943c 9584 e03d 9a30 133c 99ce 173d
000002b0: e9cc 153d a557 983a e93e 2fbd c0ff 0cbd
000002c0: d932 27bd 61f8 863c 949f adbb 2cfb b4bd
000002d0: 80b3 8dbc dba1 803d 845d 1cbe 68a9 9b3d
000002e0: ee84 abbc c45a 7a3c aa2a 933d c466 aa3d
000002f0: 7a17 05bd 97c1 b2bc 2f00 03bd aa12 e2bc
00000300: 8f19 993c bd56 40bd 4435 b23c 2433 adbc
00000310: 4fe4 81bd 9fb6 873a adbf c93d 4be1 7abd
00000320: f05a b03d a688 28be a2e5 3dbc 75eb 29be
00000330: 6bcc c0bb 51bc f2bc 8248 a0bc 1918 ebbd
00000340: d54c 62bb 79e5 843c b1e1 a9bd ef55 d83c
00000350: ec59 5dbd 755e 653b f09e c7bc 6ba1 94bc
00000360: b78f c63d 8b07 5b3d 6100 35bd 8908 d53c
00000370: 73b4 42bc d93f cd3c 61fa 13bc 17fc 98bd
00000380: 7224 9a3c 3ecc ab3c cf74 b3bd 297a 9e3c
00000390: e61e 95bc 9576 6d3d 2596 093d 6280 53bb
000003a0: 43f7 66bc b76d ac3d 44dd 75bd 5a00 8c3d
000003b0: a83d 6a3c 1c38 973c ac79 08bd fb86 9bbc
000003c0: 3972 3f3b 8bc9 8e3b 1313 9b3d cacf 2c3d
000003d0: e8ed acbd affc 53bc fad7 bf3d a755 023e
000003e0: 99e2 5fbd de5f 11be c27d da3d f734 b33c
000003f0: f022 1cbe cd54 f63c 19d7 51bd 504e 6dbc
-0.15899396 0.010903765 0.038800295 0.016783053 -0.03713032 -0.16404067 0.052429017 -0.08919271
0.06818095 -0.046789553 0.099425405 -0.026816873 -0.08643914 0.10213525 -0.0017474293 -0.058881417
0.055809826 -0.011324891 -0.07608079 0.06809706 -0.040169552 0.0435276 0.0596733 -0.05553356
0.17625505 0.20089926 -0.21082741 0.003396783 -0.16541289 -0.062346794 0.032256212 -0.076627806
0.03481829 0.053362038 0.03890787 0.021351676 0.13050807 0.11071752 0.1148424 0.25094217
-0.057536464 0.054682404 -0.014364839 -0.083023876 -0.038911365 -0.056181457 0.055893667 0.021077678
0.03981368 0.049690682 0.12554058 0.06019976 0.022150733 -0.010197785 0.07569972 -0.03211625
0.019674582 -0.06891323 0.08963607 -0.053287067 0.01501089 0.06632556 -0.020725954 0.09865304
-0.051323984 -0.048935838 0.11406205 -0.12861952 -0.06230641 0.057200294 -0.0076424293 -0.0044459547
-0.0578435 -0.04265072 -0.039319735 -0.021867827 0.042081784 -0.025647484 0.012543766 0.012281223
-0.2514526 0.029254867 -0.021506084 -0.13235974 -0.049514078 0.0069470257 0.09301056 -0.09927136
0.0069135358 0.035013974 0.010367671 0.081975356 0.06649556 -0.1928472 0.074695565 0.12787624
0.2408002 0.122001186 -0.09472842 0.072920166 -0.115196094 0.0038618413 0.02724044 0.035539646
0.2195464 -0.100257814 0.10222548 0.04710684 0.00877433 -0.020773893 0.09752243 0.10989411
0.03789447 -0.12842175 0.07242895 -0.058243662 0.052876733 0.021264166 0.14835973 -0.05160994
-0.034401048 0.01409235 -0.074208125 -0.032800887 -0.08597846 0.051099673 -0.15678778 0.09419618
0.045283742 0.07125743 0.00039780437 -0.06253629 -0.064346425 0.08893561 -0.014658326 -0.06156175
-0.09857998 -0.041282147 -0.0688567 -0.046020515 0.032158997 0.041864783 -0.06738951 -0.019102642
0.063902445 -0.025689594 -0.011846362 0.06631191 0.102086835 -0.05660605 -0.017755043 0.0008372149
-0.12931916 -0.076930456 -0.07671275 -0.09478017 0.0682308 -0.035801042 0.045953706 -0.020724501
0.091790795 -0.029719545 -0.039592516 -0.029786432 -0.009856369 -0.058135983 -0.07183823 0.0038779443
0.018102096 0.10962788 0.0089837555 0.03706226 0.03657237 0.00116228 -0.042784605 -0.03442359
-0.040819976 0.016475858 -0.005298564 -0.0883697 -0.017297506 0.062808715 -0.15270048 0.07600671
-0.02093741 0.015280429 0.07185872 0.08320382 -0.032493092 -0.021820826 -0.031982597 -0.02759679
0.018688945 -0.04695772 0.021753915 -0.02114255 -0.063423745 0.0010354108 0.098510124 -0.061250012
0.08611095 -0.16458377 -0.011590393 -0.16593726 -0.0058837435 -0.029630812 -0.019565824 -0.11479206
-0.0034530659 0.016222702 -0.08295 0.026408164 -0.054040834 0.0034998928 -0.02436778 -0.018143376
0.0969538 0.05347399 -0.044189814 0.026005046 -0.011883843 0.025054859 -0.009031863 -0.07469957
0.018816207 0.020971414 -0.08762514 0.01934536 -0.01820321 0.057974417 0.033590455 -0.0032272567
-0.014097038 0.08419364 -0.06002547 0.068360046 0.014296927 0.018459372 -0.03331916 -0.018985262
0.002921237 0.004357522 0.075719975 0.04219035 -0.084438145 -0.012938662 0.09367366 0.12727986
-0.05465946 -0.14196727 0.10668518 0.021875842 -0.15247703 0.030069733 -0.051230524 -0.014484003

encoder_rnn.bias_ih_l0 f4 [192]
00000000: 3ea1 313e 1168 b2bd a2d0 e73d 2bdd 6f3c
00000010: d51a a83d 647e 7c3d 07a1 c53d 122c 0abe
00000020: bc30 d7bc 575a 803b ea24 483d 9b02 b5bb
00000030: 4a99 0cbd 9e98 6ab9 8462 78ba bc05 6cbe
00000040: 3484 59bd fc3e b13c 4376 b0bb 386b 0b3e
00000050: 8fa3 9a3b 8ade 83bd 6d68 313d 9ef0 173d
00000060: 6f56 ac3d 1994 693c d9bc 17bd 6412 5c3d
00000070: 0ff6 61bd d9bb 493d fa3a 503c 84d6 e53d
00000080: 9828 123e 8629 cbbd cac0 6abd 5156 3c3d
00000090: 82c5 ca3d 6790 273e f57d c83d 47c3 4cbd
000000a0: f720 15bd e6f2 cd3d 836d 833d b37b 153d
000000b0: 727d 08bd e4ca 85bd 8280 ecbc 35c2 993c
000000c0: dab4 bdbd c9aa ae3d 8190 f4bc b219 423d
000000d0: 1123 523b 636d 73bd 71fb e5bc 5327 8dbd
000000e0: fda4 86bc af92 acbd c4ce d23c 6d30 c33b
000000f0: fdca 5d3c 4b9f e03d 6ed1 113e 89aa f13d
00000100: d9f3 fb3d 03e4 c73e e1a6 953e c12c 193e
00000110: d538 9f3d 77aa 5d3e 236c ad3e d179 b43e
00000120: 8e42 433e f115 ff3d f607 b73e f388 773e
00000130: 19a9 f93d 312e 323e e33a 863e a5ec c23e
00000140: cb3a 953e 4eaf 713e 06a3 5b3e 5c7d b03e
00000150: 8356 f03e eda3 8c3e 4633 b73e d3f5 b03d
00000160: bff0 983e d5a9 a23e 5fa6 d23d e611 0c3e
00000170: 7685 ca3e 0b4d a53e 0ccd 483e f4c7 743d
00000180: 0193 873e dc8d c73e d8a8 1e3e bee6 b53e
00000190: 4449 ff3d 9671 a03e acac b63e 4649 9f3e
000001a0: be47 9b3e 0c8a 563e 3400 9f3e 4477 5e3e
000001b0: 0e00 613e 7b13 563d d8c0 003e cf79 a73e
000001c0: ed70 d93d 4d45 0a3e b6de 113e ab13 3d3e
000001d0: 8b34 443e 4a3b 3d3e e65a f43d 1337 543e
000001e0: a0e9 e73e afed 713e 1d91 993e 963a 7f3e
000001f0: 149a 373e 8271 f43d 02fc 25bc a4f2 923e
00000200: 9bf4 3dbe f937 71bc 1dd7 a9bd b816 6d3e
00000210: ab07 9c3c a5e6 0abe 6b58 1dbc 7fec 3e3e
00000220: 5a00 6abb e488 283e 398e 773d 7e28 c7bc
00000230: 5d41 31be 621c d03d a96a 803d c71c df3d
00000240: 74ba 61bd dc1e 61be 48ec 13bb 75a6 58bc
00000250: bdeb ff3c dcdf fabd 10b0 22bd 7cd5 0c3e
00000260: 0483 a53d 0e40 503e 6fed 26bd 03e2 b4bd
00000270: 4b0e a93d 6277 643a ead4 f0bd 8418 85bc
00000280: 7794 953b dd1c bf3d d3c7 4d3d 7def 023e
00000290: 9bbc 223e 8741 27bd b5a7 edbd e0d1 5e3e
000002a0: 7d1f ecbd 52e6 963e 63bd 643d 7717 883d
000002b0: c660 983d 7d8d 07be fcf7 46be 5703 36be
000002c0: 6cfd b6bd f040 633e cba7 cebc 3941 d83d
000002d0: 2d1b af3d 91b4 003e 8b4e f7bc e971 2f3c
000002e0: 13a4 003c 63da ecbc ce41 6f3d 4b1b e23d
000002f0: 7e53 193e b1ae c7bc fa0b a33d 7a7f c6bc
0.17346665 -0.08711255 0.113190904 0.014640133 0.08208243 0.061643973 0.09649854 -0.13493374
-0.026268356 0.0039170193 0.04886333 -0.0055239922 -0.034325875 -0.00022372833 -0.0009475129 -0.23049062
-0.053104594 0.021636479 -0.0053851916 0.1361512 0.0047192047 -0.0643893 0.04331248 0.037094705
0.084149234 0.014256501 -0.037045334 0.053728476 -0.0551663 0.04925141 0.012709374 0.11222556
0.14273298 -0.09920029 -0.057312764 0.045980755 0.09900953 0.16363679 0.097896494 -0.04999092
-0.03640839 0.10056095 0.06417372 0.036494922 -0.03332276 -0.06532839 -0.028869871 0.018769363
-0.0926301 0.085286684 -0.029854061 0.047387786 0.0032064358 -0.05943049 -0.028073998 -0.06892266
-0.016436094 -0.08426415 0.02573336 0.0059567005 0.013537166 0.10967883 0.14240047 0.11800105
0.123023696 0.39041147 0.2922888 0.14958479 0.07774512 0.21647058 0.33871564 0.3524919
0.19068357 0.12455357 0.3574826 0.24173336 0.12190456 0.17400433 0.26216802 0.3807117
0.29146418 0.2360203 0.21448907 0.34470642 0.46941003 0.27468815 0.35781306 0.08640637
0.29871175 0.31770197 0.10285639 0.13678703 0.39554948 0.32285342 0.19609469 0.059761003
0.26479343 0.38975418 0.15494096 0.35527605 0.12465146 0.3133666 0.35678613 0.3111059
0.30328172 0.20951098 0.31054842 0.21725184 0.21972677 0.05226467 0.12573564 0.3271012
0.10617242 0.13502999 0.14245114 0.18464534 0.19160669 0.18479648 0.119314 0.20724134
0.4529543 0.23625825 0.29993525 0.24924693 0.1792987 0.119357124 -0.010130884 0.28700745
-0.18550341 -0.014722818 -0.08292983 0.23153198 0.019046625 -0.13564546 -0.0096036 0.18644904
-0.0035705776 0.1645847 0.06043837 -0.0243113 -0.1731009 0.101616636 0.06270344 0.10894161
-0.055109456 -0.21984428 -0.0022571255 -0.01322328 0.031240338 -0.12249729 -0.039718688 0.13753313
0.0808163 0.20336935 -0.040753778 -0.08832171 0.08254679 0.0008715299 -0.1175936 -0.016247042
0.0045648175 0.09331677 0.050239395 0.1278667 0.1589226 -0.040833976 -0.11604253 0.21759748
-0.115294434 0.29472595 0.055844676 0.066451006 0.07440333 -0.13237567 -0.19430536 -0.17774712
-0.08935055 0.2219274 -0.025226494 0.10559315 0.08550105 0.1256888 -0.03018882 0.010708311
0.007851618 -0.028912729 0.058412366 0.11040362 0.14973256 -0.024375292 0.07961269 -0.024230707

encoder_rnn.bias_hh_l0 f4 [192]
00000000: 3c45 703d fbca acbc fce4 713d b159 dc3c
00000010: 2fd8 81bc 6a5e c53c f2fa 10bb f0b2 ebbd
00000020: 06c0 e9bc 5175 243d cc79 b4bc 2fd4 8e3c
00000030: 7954 6f3c 3fad 5cbc 53c2 06be a2f6 3dbe
00000040: 713b 77bd 58ab fdbc e028 e9bc 72c7 e93d
00000050: badb a4bc b22c ffbd 20a7 cbbd c31f 90bc
00000060: f44f 7f3d 0aed 8b3d 5987 1ebd 64eb 623d
00000070: d23d 9d3d 2659 5b3d 61f6 3d3d 3154 1e3c
00000080: b042 c63d 5f13 d03c d444 4dbd a458 dc3d
00000090: 59b1 673d 5e3a b53d 4364 163d a864 81bc
000000a0: 7034 913c 145a 393e 63ee b73d 01fd 5dbd
000000b0: c1b2 e73d d8d7 ad3d 25f1 7c3d 71e9 ff3c
000000c0: 5fa9 fa3c 4239 9fbd f2ba 8c3c a61b b3bc
000000d0: 435f 50bd 4345 b7bd 0eaf e03c cf0e 58bd
000000e0: 3981 6e3d 9b38 67bd 22d8 753c 60fc 4dbd
000000f0: c7ba bcbc d4ff 03bd 385d c53d 3a20 163d
00000100: bfc2 553e fadd 703e 7f49 b33e 9712 c13d
00000110: 9390 983d 2fb5 913e 5d32 953e c042 8c3e
00000120: 11f3 c93d 90bb fa3d 871d ab3e 1561 913e
00000130: 3935 813e 7ba2 5c3e fe06 203e 5dbf f73e
00000140: 1685 a83e 9ddd f53d 6bf2 a93e 5f26 a03e
00000150: ca99 e03e 5537 c03e 65c3 a23e fc15 ab3d
00000160: 3f2d 893e 5785 a83e 254c 863e 52ca 003e
00000170: 4b82 803e 54cd b73e 292a 063e 7afa 643d
00000180: 0313 b73e f374 b43e a375 613e 0e40 923e
00000190: b432 563e 04b5 9b3e 8db8 8c3e b4e5 8e3e
000001a0: 2757 963e 4799 303e 2694 8b3e 9a6a 363e
000001b0: 6a65 453e 7a41 043e 80d4 0d3e 18ac 9e3e
000001c0: 72b2 463e d761 8a3e a2c2 8a3d dd21 923e
000001d0: 94c6 193e ceac 0d3e a6f6 f43d 966e 363e
000001e0: e8db ea3e 63d4 f43d 926a bf3e a4a1 c53e
000001f0: 55d0 e53d 6b77 b23d c770 acbd 4826 603e
00000200: aa29 17be 040c c0bd bfc6 37bd 631d 573e
00000210: 4ec0 14be ae07 b0bd 4985 0f3e 4fff d0bc
00000220: 7196 a43c 5788 ad3d fb46 22be 3a7c 85bd
00000230: d758 69bc e282 cb3d b4e2 f93d 9c3c ce3c
00000240: ce19 fa3d 1364 b6bd 63a4 f7ba 0105 16be
00000250: ce5b a2bc 850d c8bd 3a90 483d f806 813d
00000260: f29c d93d 1cce 0b3e f672 0bbd 4b62 21be
00000270: 3b80 6abd eedd 723d 8dc0 913d 3a11 afbd
00000280: 0d75 97bd 642a 7cbd 481e cf3b 56d6 173d
00000290: d7e4 2a3e 6afa 2c3e d887 dbbd b0e9 0b3e
000002a0: e750 163d 1f5e 543e ae64 b0bd 29d2 753d
000002b0: e1de 283e 2188 303c 436f 0bbe cf62 28be
000002c0: 607d d0bd bda4 d53d 7460 1d3c 228f 393d
000002d0: 6f40 c33d 1473 febc 1efc 6cbd 519c fdbc
000002e0: ec80 da3d 9612 c23d e8db 74bd a474 4c3d
000002f0: fe0d 473e a315 0cbd 1b48 a33e 6084 b43d
0.058659777 -0.021092882 0.059056267 0.026898237 -0.015850155 0.024092872 -0.0022122231 -0.11508739
-0.028533947 0.040150944 -0.022030734 0.017435161 0.014607542 -0.013469039 -0.13160066 -0.18551114
-0.060359422 -0.030965492 -0.028461874 0.11414994 -0.020124305 -0.12459697 -0.09943986 -0.01759327
0.06233211 0.06832321 -0.038703296 0.055400267 0.07677807 0.053551815 0.046377543 0.0096636275
0.096806884 0.025399862 -0.050114468 0.10759094 0.056565616 0.08849023 0.03671671 -0.015795067
0.0177252 0.18100768 0.089810155 -0.05419636 0.113133915 0.084884346 0.06175341 0.031239243
0.03059834 -0.07774593 0.017178986 -0.02186377 -0.0508721 -0.089487575 0.027427223 -0.052748498
0.058228705 -0.056450468 0.015005143 -0.05028951 -0.023038281 -0.0322264 0.09636921 0.036651827
0.20875071 0.23522177 0.3501701 0.09427374 0.0744945 0.28458545 0.29139987 0.27394676
0.09860814 0.12242806 0.33420965 0.2839438 0.25235918 0.21546356 0.15627667 0.48388186
0.32914037 0.1200516 0.33192763 0.31279275 0.43867332 0.37542215 0.317897 0.083538026
0.26792333 0.3291423 0.2622997 0.12577179 0.25099406 0.3589884 0.1310202 0.055902936
0.35756692 0.35245475 0.22017531 0.28564495 0.20917779 0.3041154 0.2748455 0.27909625
0.29363367 0.1724597 0.27261466 0.17814103 0.19276968 0.12915602 0.13850594 0.30990672
0.19404009 0.2702777 0.067754045 0.2854146 0.15017158 0.13835451 0.11961107 0.17815623
0.458709 0.11954572 0.37385994 0.38599885 0.11221377 0.087141834 -0.08419948 0.21889603
-0.14761987 -0.09377292 -0.044867273 0.21007304 -0.14526483 -0.08595215 0.14015688 -0.025512366
0.020091267 0.084732704 -0.1584739 -0.06517835 -0.0142423725 0.09937073 0.12201443 0.025175385
0.12211953 -0.089058064 -0.0018893596 -0.14650346 -0.019819167 -0.09768204 0.04896567 0.06300157
0.10625638 0.13652843 -0.034045182 -0.15760152 -0.057251196 0.05929368 0.07116804 -0.085482076
-0.073953725 -0.061563864 0.0063207485 0.03706964 0.16688858 0.168924 -0.107192695 0.13663363
0.03669825 0.2073903 -0.08612953 0.060014877 0.16491272 0.010774643 -0.13616662 -0.16443942
-0.101801634 0.10431812 0.009605516 0.045302518 0.09533774 -0.031060733 -0.057857625 -0.030958327
0.10669121 0.09476201 -0.05978003 0.049915925 0.19438931 -0.034200322 0.3189095 0.08814311

decoder_rnn.weight_ih_l0 f4 [192, 64]
00000000: a01a 7881 89c7 bf00 940e 3601 b06f d700
00000010: d321 7301 fac3 4081 4079 9e80 e5a7 8301
00000020: d8ef 7b81 1242 2a01 5d1d 8581 6e76 0300
00000030: 68fb 0781 e6c0 7f01 d16b 9080 3405 9a01
00000040: 7eea 5580 3f5e 5c81 1d15 3381 fa13 3901
00000050: e446 7501 4883 6c01 1053 bc80 c0fc 7501
00000060: 0ef8 8601 f2ef 8781 4b47 7901 a48d 8981
00000070: e5e5 6281 bc1d 9181 0c4f 0d00 ad6f 8681
00000080: 470c dd00 5461 8500 1e6c 9d81 3014 3b80
00000090: 08a2 9481 942b d400 7e2e 9e01 bc49 7a00
000000a0: ebc3 ae81 5ec3 8901 9d0a 2681 88f7 4a00
000000b0: ae0a 6700 200b 6481 e4f6 8f00 ee9c 4d81
000000c0: ee21 f280 4a13 3b00 dc4d 7481 9016 7c80
000000d0: f9b6 4f80 b8ae 7180 3c55 2581 ea6c 8601
000000e0: 95fb e880 80ae 9200 283d 1501 43d5 0180
000000f0: e0d4 d500 44da 2980 6d69 a001 8696 2a00
00000100: b4e1 9f01 d80f 0001 3245 d880 ff87 2a00
00000110: f12e b781 1c3c 6c01 f2d1 5e01 28ce d400
00000120: 4ed2 3601 ecf5 5301 3e91 8f01 6b7f 2980
00000130: ecd4 f480 14bd 2481 8890 9e81 062b f280
00000140: 86a6 4801 fab5 a601 8b60 0680 e885 3c00
00000150: 2d53 c300 001e 8180 cf43 0700 638f 8081
00000160: 771a 3a01 24a0 9101 6d81 0681 67aa b601
00000170: 8cc1 dd00 b607 d080 741e b301 62fd 0081
00000180: 68e7 8b00 81b1 3181 aa79 8701 e4d9 e880
00000190: 910b 4d00 4fbe 5881 0c7e 9e00 080d 9480
000001a0: 1975 8e01 8cda a481 be8c 8481 3ef2 5281
000001b0: fc76 7b81 ca5e 8f01 b423 8f00 9f92 be01
000001c0: 1a9b 4901 98df 9201 d6aa 8e01 068d c380
000001d0: b69b ca80 781c 3780 58e0 a201 a637 b381
000001e0: 2205 3581 3696 2081 3441 5b81 848f f700
000001f0: 206a 9a80 48ec 7980 4a4e 2f01 da8a 0801
00000200: cc13 8100 fc43 d800 3469 8600 b0de fb00
00000210: effd 9201 186b 1881 7e75 4381 7c33 6b01
00000220: 047a 2501 fe58 3701 6435 5f01 6bfc 1301
00000230: 8a0f 5c01 3432 6401 243d a381 c89e 8981
00000240: ea6a 8a80 843e 8801 984f 5e81 b630 8001
00000250: 7ec7 4f81 7e33 7601 b84b 0d81 1e87 ce00
00000260: 722c e600 8e26 1400 d212 af01 766e 8200
00000270: d67b 2081 54db 3a01 92c7 2481 b868 4b01
00000280: 4d45 8580 14ba 1f00 83d4 5701 e652 3100
00000290: 18ca ae80 3bce af01 88d1 7981 d65e 7380
000002a0: e882 df80 3085 4501 ee92 5300 1810 6580
000002b0: 623e 1201 f008 4201 e888 2b00 c839 2381
000002c0: 30a5 ee80 3e27 5700 3e88 2381 65c2 9b01
000002d0: 4564 7001 0ae1 7281 90eb 9b80 0052 af80
000002e0: 386f 2f01 6ebe bd01 a977 8f81 74fb 6f81
000002f0: 8e28 7481 3f86 8201 a880 5801 a615 d180
00000300: 8c4b 9281 f25d 9801 504b 7700 5a4c 5881
00000310: e87f 1c81 37ca ae01 ddef e700 c485 6601
00000320: 30ce 3a00 0e3d ae00 50d5 6e81 2c35 3f81
00000330: 7a42 1901 2811 6a00 308c 7500 7514 0a81
00000340: c34c 1f81 ba3b 4e01 30ce 4081 0891 b180
00000350: 50ea 3880 e2f5 e900 d8f9 b181 9232 b701
00000360: 5012 2081 c83d 5881 a683 6281 ae16 0801
00000370: 32e0 7101 0410 fb80 1a66 0e01 4989 3a80
00000380: 1cc6 c880 b4c1 9d80 34a5 cc00 9ae3 5181
00000390: 2ed1 8a81 72b0 2d81 c222 4b81 ad1b 2b81
000003a0: 0fcd 8901 f6e5 1681 727b 4901 b203 ac81
000003b0: b0c7 c000 397c 7201 624d 6f81 263e 6e81
000003c0: 0252 c080 d0dd 2381 2b6b 9881 f823 8381
000003d0: f4fc fb00 78de 4200 0a38 b901 232f 0b81
000003e0: faf3 8c81 98c2 3380 f4f6 5400 2e77 9600
000003f0: fa29 3900 a03d de80 2096 b181 cf17 8701
-4.5569509e-38 1.761216e-38 3.343858e-38 1.9784698e-38 4.465632e-38 -3.5405437e-38 -1.4553505e-38 4.8362717e-38
-4.6273499e-38 3.1271472e-38 -4.889862e-38 3.17991e-40 -2.497596e-38 4.69745e-38 -1.3262989e-38 5.657813e-38
-7.890137e-39 -4.0475237e-38 -3.2892256e-38 3.3993466e-38 4.5050255e-38 4.3440544e-38 -1.729487e-38 4.5180732e-38
4.9579767e-38 -4.993547e-38 4.5785227e-38 -5.0529096e-38 -4.1674586e-38 -5.3307255e-38 1.222218e-39 -4.9384073e-38
2.0300049e-38 1.2249036e-38 -5.782783e-38 -5.425536e-39 -5.4599117e-38 1.9484758e-38 5.8106747e-38 1.1230381e-38
-6.4198634e-38 5.060619e-38 -3.0497e-38 6.884624e-39 9.462887e-39 -4.1884968e-38 1.3221044e-38 -3.7765145e-38
-2.2236362e-38 5.425214e-39 -4.4871583e-38 -1.1395695e-38 -7.320642e-39 -1.0440088e-38 -3.0366866e-38 4.938011e-38
-2.1396086e-38 1.3470581e-38 2.7410855e-38 -1.6834e-40 1.9637326e-38 -3.843554e-39 5.8925996e-38 3.911088e-39
5.8731244e-38 2.3521254e-38 -1.986129e-38 3.905877e-39 -6.729094e-38 4.338948e-38 4.092559e-38 1.954308e-38
3.3579007e-38 3.893102e-38 5.2738316e-38 -3.810964e-39 -2.2484243e-38 -3.02577e-38 -5.8247426e-38 -2.2239624e-38
3.6853673e-38 6.1239893e-38 -5.85646e-40 5.558166e-39 1.793776e-38 -1.1857541e-38 6.67174e-40 -4.7225524e-38
3.4181792e-38 5.349438e-38 -2.4704771e-38 6.7100757e-38 2.0365076e-38 -1.910455e-38 6.5797913e-38 -2.369168e-38
1.2848147e-38 -3.2637118e-38 4.976575e-38 -2.1384e-38 7.075482e-39 -3.9809474e-38 1.4555225e-38 -1.3596328e-38
5.233059e-38 -6.0557685e-38 -4.8691097e-38 -3.874471e-38 -4.6186786e-38 5.266592e-38 1.3145284e-38 7.000537e-38
3.702915e-38 5.395277e-38 5.24077e-38 -1.7958511e-38 -1.8606629e-38 -5.061165e-39 5.983132e-38 -6.5834067e-38
-3.3248132e-38 -2.949513e-38 -4.0270728e-38 2.2734851e-38 -1.4180737e-38 -1.1196857e-38 3.2198593e-38 2.5078876e-38
1.1853881e-38 1.9860855e-38 1.2343696e-38 2.3130595e-38 5.3996307e-38 -2.7994827e-38 -3.590014e-38 4.3199621e-38
3.0393256e-38 3.367564e-38 4.0996937e-38 2.7180737e-38 4.0418767e-38 4.1913005e-38 -5.9964476e-38 -5.055369e-38
-1.2711652e-38 5.0048215e-38 -4.0832066e-38 4.708967e-38 -3.8163024e-38 4.5220008e-38 -2.5951935e-38 1.8966583e-38
2.1138108e-38 1.850541e-39 6.4311853e-38 1.197824e-38 -2.9476207e-38 3.4320165e-38 -3.0265227e-38 3.7360343e-38
-1.2238981e-38 2.913653e-39 3.9641733e-38 4.529678e-39 -1.6051874e-38 6.4580774e-38 -4.5884408e-38 -1.0595103e-38
-2.0526276e-38 3.6278743e-38 7.675055e-39 -9.281158e-39 2.6860722e-38 3.5638585e-38 3.998039e-39 -2.9979828e-38
-2.1916106e-38 8.003766e-39 -3.003612e-38 5.721695e-38 4.4152978e-38 -4.4609838e-38 -1.4319006e-38 -1.6100628e-38
3.222222e-38 6.970089e-38 -5.270161e-38 -4.4077776e-38 -4.484482e-38 4.794709e-38 3.976524e-38 -1.9201385e-38
-5.3740334e-38 5.5970787e-38 1.0955441e-38 -3.9727714e-38 -2.8744443e-38 6.420767e-38 2.1300046e-38 4.23403e-38
5.400425e-39 1.6001279e-38 -4.386674e-38 -3.5119308e-38 2.8149356e-38 9.740717e-39 1.0795043e-38 -2.5361274e-38
-2.9258762e-38 3.7879076e-38 -3.5412763e-38 -1.630691e-38 -5.226843e-39 2.1485877e-38 -6.537804e-38 6.729615e-38
-2.9400497e-38 -3.971726e-38 -4.1604097e-38 2.4995527e-38 4.442556e-38 -2.3056455e-38 2.6154535e-38 -5.375707e-39
-1.8438167e-38 -1.448766e-38 1.8793705e-38 -3.8550534e-38 -5.099335e-38 -3.1901675e-38 -3.731015e-38 -3.1427596e-38
5.0620097e-38 -2.7715638e-38 3.7006437e-38 -6.3188124e-38 1.770405e-38 4.4537506e-38 -4.3952887e-38 -4.3758285e-38
-1.7661834e-38 -3.0097514e-38 -5.598976e-38 -4.817341e-38 2.3141452e-38 6.14095e-39 6.803868e-38 -2.5564087e-38
-5.1777967e-38 -4.753417e-39 7.802772e-39 1.3818078e-38 5.249682e-39 -2.0409587e-38 -6.523495e-38 4.962533e-38

decoder_rnn.weight_hh_l0 f4 [192, 64]
00000000: f5e2 e4bd 09f1 bbbc 9360 8c3d cec4 e0bd
00000010: 3932 3a3d 3d9f d63d 4541 cd3d e811 643d
00000020: c98f a7bb 9899 f53c dc69 fabd 3bbf 9ebd
00000030: 4287 80bd 568c 1e3e dd4e 4b3e fa73 4d3d
00000040: 384d f9bd 1b08 52bd 633f d2bd a391 083e
00000050: c692 a43d d2af 563d 76e7 2dbe 0d0a b4bd
00000060: 2838 2e3e b019 4e3e d299 893d c256 49be
00000070: db33 d1bd 91aa 4cbd d20d f3bd 6934 45bd
00000080: efc4 4bbc 0aca 2f3e ee52 7ebe 7435 763c
00000090: 3331 0d3d d14a 2dba fa30 9dbc 3cea 2b3e
000000a0: 43a4 0a3e e833 9b3e 2e45 e4bd 7cdd 403e
000000b0: 7b1d 083e d0c6 ebbc ccc1 0e3e 62e3 debc
000000c0: e3ba 36be da2f 59be 12ac 833d 215f f3bc
000000d0: 45fa 57be 468d 373d b7cb 7ebb 373b bf3b
000000e0: 5c87 9f3d d0bc e03c 0cd7 4d3d 278e 693d
000000f0: ff13 063e 016a 213c 75ed fc3d 8111 023d
00000100: b867 5f3e 22e5 323e 61c7 813c 24a8 1abe
00000110: de4b 3b3d ceb8 483e 2a82 0ebe 88ce 4e3d
00000120: 2b99 d0bd 2aff bcbd 4ed4 2b3d 11de 70bd
00000130: 1546 fe3d c1a6 13be c5b1 423e 69bb d5be
00000140: 9c02 6fbe 426b 8f3d 4973 fdbd 9747 5ebd
00000150: 4844 083e 87a6 b6bc c71b 213e 8253 e0bc
00000160: e738 b8bc aaa3 bcbd ac0b c73d cef9 963e
00000170: 43c1 753d 283c c5be 885c 913d d219 343e
00000180: b60f db3d d73a d53d 3ccc 943a b63a 70bd
00000190: 1231 cdbd 6da7 0abe 7d17 f1bd ce54 cabd
000001a0: e730 b23e 9c51 60be e6c6 1bbe 616e 823c
000001b0: c277 87be befc 37bd 3646 ff3d 2a95 433d
000001c0: f289 083e 6282 92bd aaf0 173d e300 483c
000001d0: d4b1 873e 5436 883e 2049 74be b8f1 33be
000001e0: 7721 4dbd 092c a53d 323a afbd 5565 3dbd
000001f0: 4231 c5be 5267 033e eec6 aa3b b035 5dbe
00000200: 77e2 e33b ef84 b8bc 0598 13be 4195 9f3c
00000210: 619f 073e 3769 673b cf74 c7bd 0eed 303b
00000220: dfdd 1ebe 0819 2ebe 09aa 453e a669 54bd
00000230: 77a3 6dbc 7916 113e ab0a e93c 57d8 d5bc
00000240: 7e26 25be 0314 953e a998 0bbe d22b 91bd
00000250: ce86 9c3e c956 7b3e 98da cabd 61f3 99bc
00000260: 44fb 8abd 8746 be3d 930d 503c ae38 3a3d
00000270: 0335 3abd 3397 eabd 507f 44be 22cf 41bb
00000280: b73f 523e b6da 013e 88a4 b73d ab36 6bbe
00000290: 686a 84bd 71ed d83a 3c7f e23d e606 9f3d
000002a0: dbf9 07be 691e 00be fe01 35be 59ac 9abb
000002b0: cb33 2d3d da7a 933b 1a21 a13d 5f91 ee3d
000002c0: ba83 2e3e 6f7a 5cbd 801c aa3d aa62 12be
000002d0: 6f16 d0bd 5202 7e3e 6bb0 0ebd dac1 d9bc
000002e0: eef2 85bd 206e 2bbe 830b c63d 3df0 5fbe
000002f0: 1096 fdbd 0e85 e13d 162d 4ebe e3c5 9abd
00000300: fecc 833e ca5e 5fbc ec45 1b3e 23df 1cbe
00000310: e8ac 5c3e 7cac 38be ae8d b5bd 683d cabd
00000320: 3cf1 68be 7139 4fbd e17e d83d 5ecc 653c
00000330: 8f45 14be cea2 403d 77b6 30be ceeb 8c3d
00000340: 38f8 913e 2809 593d a471 ebbd befe 53be
00000350: 32f3 a3bd c6fc 313e e408 3e3e d530 4ebd
00000360: 6ac5 14be bfc5 0bbd 27b1 35be c33b 473e
00000370: 67b5 d0bd 1c85 14be 1a07 67bd 8ddd 283e
00000380: 899c 463e 55f2 453e 9300 0cbe d582 dbbd
00000390: 7039 27be 171c 10be 7dce 363e bd47 9a3c
000003a0: ef15 60be b997 67be 399e c03d 23b2 09be
000003b0: a402 1ebe 6221 1f3e cb07 b03d 55e7 543e
000003c0: 6c5d 733e 3e52 08be 9d01 2b3e 01b7 53be
000003d0: 8dea e7bd 33dd 87bd 0626 10be 5944 2ebe
000003e0: 2984 37be c157 4c3e e268 e53c 7f3b d6bd
000003f0: f3fa 183e c478 873e e799 bcbd 5751 bd3d
-0.11176101 -0.022942083 0.068543576 -0.109750375 0.045458052 0.10479591 0.10022215 0.05568114
-0.005113576 0.029980466 -0.12227222 -0.07751318 -0.062757984 0.15483221 0.19854303 0.050159432
-0.121729314 -0.05127726 -0.10265996 0.13336806 0.08035807 0.05241377 -0.16982827 -0.087909795
0.1701361 0.20126987 0.06718792 -0.19662002 -0.10214969 -0.049967352 -0.118678704 -0.048145685
-0.012437089 0.17166916 -0.24836323 0.015027393 0.03447075 -0.0006610575 -0.019188393 0.16788572
0.13539223 0.3031304 -0.111460075 0.1883449 0.13292496 -0.028781325 0.13941115 -0.027208034
-0.17844729 -0.2120966 0.06429304 -0.029708447 -0.21091564 0.044812463 -0.0038878748 0.0058359164
0.077894896 0.027433783 0.050253913 0.057020333 0.13093565 0.009851933 0.12349979 0.031754974
0.2181691 0.1747022 0.015842142 -0.15103203 0.04572665 0.19601747 -0.13916841 0.050489932
-0.101854645 -0.09228356 0.041950516 -0.05880553 0.12415711 -0.1441908 0.19013126 -0.41744545
-0.23340839 0.0700288 -0.123755045 -0.054267492 0.13307297 -0.022296203 0.15733252 -0.02738357
-0.02248807 -0.09210904 0.09719023 0.2948746 0.05999876 -0.38522458 0.07097727 0.17587975
0.10696356 0.104116134 0.001135237 -0.05864974 -0.10019125 -0.1354043 -0.11772058 -0.098794565
0.34802935 -0.21906132 -0.15212592 0.015921773 -0.26458555 -0.044918768 0.124645635 0.047749676
0.13333872 -0.07153775 0.03709475 0.012207243 0.2650286 0.2660395 -0.2385602 -0.17572677
-0.050080743 0.0806504 -0.08556022 -0.046239216 -0.38514143 0.12832382 0.0052117025 -0.21602511
0.006954487 -0.022524325 -0.1441346 0.01948035 0.13244392 0.0035310516 -0.09739076 0.0026996764
-0.15514325 -0.17001736 0.19303145 -0.051858567 -0.014504305 0.14168729 0.02844747 -0.026104135
-0.16127965 0.2911683 -0.13632454 -0.07088436 0.30571598 0.24544825 -0.09904975 -0.01879281
-0.06786206 0.09290796 0.012698549 0.04546421 -0.045460712 -0.1145462 -0.19189191 -0.0029572924
0.20532118 0.12681088 0.08966929 -0.22970073 -0.06465608 0.0016550255 0.11059424 0.07764988
-0.13278906 -0.125116 -0.17676541 -0.0047202525 0.04228572 0.004500729 0.07867642 0.11648821
0.17042437 -0.0538277 0.08306217 -0.1429545 -0.10160529 0.24805573 -0.034836214 -0.026581693
-0.06540476 -0.16741228 0.096701644 -0.21868987 -0.12382138 0.11011706 -0.20134386 -0.07557275
0.25742334 -0.013633439 0.15163392 -0.15319495 0.21550333 -0.18034548 -0.08864914 -0.098749936
-0.22748274 -0.05059189 0.10571075 0.014025776 -0.1447966 0.047030263 -0.17257105 0.06880914
0.28509688 0.052987248 -0.114962846 -0.20702645 -0.0800537 0.17381582 0.18558079 -0.05033954
-0.14528432 -0.034124132 -0.1774336 0.19456391 -0.1019085 -0.14503902 -0.056403257 0.16490765
0.19395651 0.19330724 -0.13672094 -0.107183136 -0.16330504 -0.14073215 0.17852207 0.018833036
-0.21883367 -0.22616471 0.094051786 -0.1344686 -0.15430695 0.15540078 0.085952364 0.20791371
0.23766106 -0.13312623 0.16699834 -0.20675279 -0.11324034 -0.06633987 -0.14077005 -0.1701826
-0.17921509 0.1995535 0.028004114 -0.10460567 0.1493948 0.26459324 -0.09209042 0.0924403

decoder_rnn.bias_ih_l0 f4 [192]
00000000: 57e4 4b3e 0c35 39be 1b00 673e d7cb 8bbd
00000010: bdd8 8a3d 0ae7 8f3d ca31 13bc e1a9 e8bc
00000020: 03b5 86bd 059c 5a3d 18a7 953d 31e9 073e
00000030: 9c7b 833c e703 fd3d 0708 d33d 2d54 71bd
00000040: 626d 933c 88cd fc3d 4ae2 933d f123 4d3c
00000050: bd5b 553e 897b f23d a90c 023e df88 8ebd
00000060: 0225 00be af2f 7e3e 25ba 923d d784 863d
00000070: 7463 f13d 494c 873d 7da2 b7bc 491e 8b3d
00000080: 6112 ae3d 3bc6 053e 399e dd3d 5846 c03d
00000090: 90d4 613c b700 1b3e b1d0 523b b7e4 bb3d
000000a0: 802b 9d3e 62c7 d6bd df03 fc3d c89d d63d
000000b0: 753e 333d ff33 28bd c4a7 963c 068e 033e
000000c0: 2e59 d7bd b0d5 bd3d 2c50 0d3d 0b28 2b3e
000000d0: abdc 073d 993e b1bd 14d9 3c3d 260d f4bd
000000e0: cb6f c73d 4316 183d 5bc5 d83d e49a 4d3c
000000f0: 1352 1dbd b027 103e 878b 163d 5753 adbd
00000100: c08d b23e 119c ca3e 99f5 143f bfc7 b53e
00000110: 2120 323e df97 8c3e 83ea 953e 9eda b63e
00000120: 04d8 aa3e 6b7a ae3e 0e80 c03e 93b9 023f
00000130: 26af 353e 1d31 a73e 9db7 f83e 5618 403f
00000140: 9160 203f 8e46 3f3e 5e50 b33e f2de e53e
00000150: f3b8 c93e d0b2 693e ef53 ed3e 235e 783e
00000160: 995c 773e 283b 893e 3f2a 0f3e 1a8e 1d3f
00000170: dd02 963e 9378 e63e c8ae 713e 7e4f 4f3e
00000180: e2e0 9e3e 7eb7 293f 0b50 003f 207b bd3e
00000190: e1b8 4e3e 3164 843e a785 c43e 9097 a03e
000001a0: ea26 e53e 2f81 243d ee55 1a3f 931b e43e
000001b0: a0b1 e03e 0ddb a83e 52e9 d43e 00cd a33e
000001c0: c6fc 943e e7e1 ea3e 6023 283e b3b0 a43e
000001d0: eaf9 543e 0583 983e 6f94 da3e 9414 6c3e
000001e0: 63fc 893e 2154 f43e 9418 193f fc55 693e
000001f0: 9d43 d43e a30f b43e 8c73 f53e 782b 303e
00000200: dd00 6a3d 6445 cc3c d203 d13c 93d7 9c3d
00000210: 3b0b fb3c e1fc 6d3d f840 a1bd 0bf3 913d
00000220: dcd6 453d a855 d13b 259b 903d 9ce3 8a3d
00000230: 1425 8abb 4c05 6e3d 906a d03d e412 943d
00000240: 5a4c 3fbb 26ed d0bb edb9 ecbd aa71 9dbd
00000250: 725d eabc 062d d23d 1533 b0bd db81 cb3d
00000260: c08e 4b3c 5232 913d 6ad3 1e3d 2547 b6bd
00000270: 96f8 6ebd ca65 d13d 4e9e cfbd 8632 3dbc
00000280: b57a 4f3d 1a46 93bb 19db 7d3d 0c53 873b
00000290: 2f1b 7e3c cdb7 82bb ca3d b43d 7469 58bd
000002a0: 93ef c53c f5f3 b93d 2a15 dabb 154a a13d
000002b0: cf59 c43d 43d4 64bd fa0e b0ba d90c 773d
000002c0: 85c1 f6bd c5ac 3f3c 77ff ae3d 2b49 5abd
000002d0: bab8 8bbd a0bd b13c 0586 233e 23f0 df3c
000002e0: 1ebc 603d a6a9 81bc 4876 91bc d86e 07bd
000002f0: 0e99 72bd 5ecd d4bd aa95 8bbd e767 58bd
0.19911323 -0.18086642 0.22558634 -0.06825989 0.06779621 0.07026489 -0.008984039 -0.028401317
-0.06577494 0.053371448 0.07307261 0.13272549 0.016050152 0.1235426 0.103042655 -0.058918167
0.017996494 0.123438895 0.072208956 0.012520776 0.20835777 0.11839969 0.12700142 -0.069597
-0.12514117 0.24822877 0.071644105 0.06568306 0.11786547 0.06606347 -0.022416348 0.06792886
0.08499599 0.130639 0.10821194 0.09388417 0.013783589 0.15136991 0.0032167847 0.09174483
0.3069725 -0.10487248 0.12305426 0.10479313 0.043760736 -0.041065212 0.018390544 0.12847146
-0.105150566 0.09269273 0.034500286 0.16714494 0.03316943 -0.08654518 0.04610546 -0.1191657
0.0973812 0.037130605 0.105845176 0.012549136 -0.03840835 0.1407764 0.036754157 -0.084631614
0.34873772 0.39572194 0.5818725 0.35503957 0.17395069 0.27459618 0.2928048 0.35713667
0.33367932 0.34077772 0.37597698 0.51064414 0.17742595 0.32654658 0.48577586 0.75037134
0.6264735 0.18679258 0.35022253 0.44896656 0.39398918 0.22822118 0.463531 0.2425466
0.24156417 0.26802945 0.1398096 0.61544955 0.2929906 0.45013866 0.2360183 0.20245168
0.31030947 0.6629561 0.50122136 0.37008 0.20187713 0.2585769 0.3838322 0.31365633
0.44756252 0.04016226 0.6028737 0.44552287 0.43885517 0.32979622 0.4158426 0.3199234
0.290991 0.45875475 0.16419744 0.3216606 0.2079846 0.2978746 0.4269137 0.23054725
0.26950368 0.47720435 0.5980313 0.22786707 0.41457835 0.3516818 0.47939718 0.17204082
0.05712973 0.024935432 0.025514517 0.07658305 0.030645004 0.058102492 -0.0787372 0.07126435
0.04830061 0.006388385 0.070608415 0.06781694 -0.004215846 0.05811052 0.10176575 0.072301656
-0.0029189796 -0.0063759265 -0.115589 -0.07687695 -0.028609011 0.10262494 -0.08603493 0.09936877
0.012424171 0.07089676 0.03877584 -0.089002885 -0.05834254 0.10224493 -0.10137616 -0.01154769
0.050654132 -0.0044944407 0.061976526 0.004129773 0.015509411 -0.003989196 0.08800848 -0.052834943
0.02416209 0.09079734 -0.006655355 0.07875458 0.09587442 -0.05586649 -0.0013432198 0.060314987
-0.1204863 0.011698906 0.0854482 -0.053292435 -0.06822343 0.021696866 0.15969093 0.027336186
0.054866903 -0.015827965 -0.017756596 -0.033064693 -0.059227996 -0.10390733 -0.068156555 -0.052833464

decoder_rnn.bias_hh_l0 f4 [192]
00000000: 6b1c 4a3d 2866 57be 5f5f d03d e53d 76bd
00000010: 310c 94bc 7008 843d eec9 413e 005b c3bc
00000020: 40e9 dfbd b01d 003e c707 b93d 4b38 f03d
00000030: 73f1 453e 631f a33d 0c9d 7f3d 8490 153e
00000040: 94e4 ad3d 9bd1 a9bd 8cec 0b3e 257e c73d
00000050: 9c49 933e 6333 1bba 2842 0a3d e9fc a93d
00000060: d2e9 71bd 0008 083e 91a1 093e 9cd8 4a3c
00000070: d21b 02bd c4a3 c4bc c042 bf3d a7aa 2e3c
00000080: ac6f 053c 795d ce3d 013d 3e3d c7ad a63d
00000090: ed2b 483d 0652 f63d 7cec 0e3d b7a2 3d3c
000000a0: 6c59 963e b494 05bd 8c39 dd3b ab21 7b3d
000000b0: 4c2c aabb 3d0d 083d 03cd 8c3d 905c 243d
000000c0: fb17 1abe b08a 03be 1114 20bd 0b08 fe3d
000000d0: be3a f53d 2838 d4bd fca9 03bc 5977 b43b
000000e0: 6ca3 273d e661 2cbc c064 6ebd 805b f23d
000000f0: a4f6 1dbe 0822 0c3d 84eb bd3c 32c3 00bd
00000100: 9c90 a23e f721 b83e 3ff2 183f d155 cf3e
00000110: a692 773e 91d5 7a3e 45e8 6c3e 44b4 b83e
00000120: e717 9c3e 5e7a 573e fa24 f93e d8a5 263f
00000130: c593 a23e 343c cb3e 3574 d93e fa2a 143f
00000140: 5768 143f 2746 c23e 7700 8e3e 5518 ef3e
00000150: b3d7 c63e 53b4 693e 6688 fa3e 341c 613e
00000160: 414f 3b3e f3c6 a13e 356c a63e e7b1 db3e
00000170: 0435 cf3e 7033 883e 59ea 4f3e 0498 623e
00000180: ffdf c53e 730d 113f ab70 1f3f 8ce2 8a3e
00000190: 2487 8d3e e696 a63e 5c80 d53e 0a50 d83e
000001a0: 9960 b73e a7e8 453e 8c2b 093f abe7 c23e
000001b0: 9d2b 6b3e 718e a73e 8dcf a83e a34c c43e
000001c0: 910c 033e 44b9 ce3e 06b1 a83e 77c7 303e
000001d0: bb6b 503e b5bc 4e3e f066 f33e ea1b 703e
000001e0: 18e8 a33e b3d1 f73e 4667 183f 1cfb b63e
000001f0: 2b6f dd3e 8715 c63e f10e a33e c6e6 ba3d
00000200: a977 0b3d 2c8f 903c e1f2 13be a792 a83c
00000210: acd5 f53d 2d22 f2bd 6f5e e23d 329a c5bd
00000220: cfec 83bd d320 13bd 1817 adbd 8c1c 02be
00000230: 285b 95bc 1bd5 92bc fb01 933d 13d6 f93c
00000240: b8d4 3d3d edf0 da3d 6b7a fcbd f74b e63d
00000250: 5eda 983c 3fae 54bc 7aa5 7b3d a3af 95bd
00000260: cf7c aabc 4a23 92bb 003b c23d 28fb a83c
00000270: f3d9 68bd 7b8d 56bd 3a67 89b9 e72b 913c
00000280: 6ed1 5d3c a094 1b3d fdf9 f7bd b4c3 40bd
00000290: 21d0 b5bd 88ab ee3c c51b 48bd 287e 893d
000002a0: 8df3 b83d de87 1a3c e189 5fbd 17e0 bb3d
000002b0: b50e 11bd 7cfe 7cbd b7b0 ac3d ebba e9bb
000002c0: 2227 e0bc e211 74bc 56e0 6c3c 7e4c c23d
000002d0: d743 b5bd e8f8 ccbd 4f4a 733c 7bc1 ec3d
000002e0: 7eb2 abbd 671f a3bb a25e c6bc 5212 b6bd
000002f0: 3e36 213d 04f3 483d 1245 0dbd 006f 7abc
0.049343508 -0.21035063 0.101744406 -0.06011762 -0.01807222 0.06446922 0.18924686 -0.023847103
-0.10933161 0.12511325 0.090346865 0.11729487 0.19330387 0.07964971 0.06240563 0.1460591
0.084908634 -0.08291932 0.13664454 0.09740857 0.28767097 -0.0005920438 0.033754498 0.08300192
-0.05906088 0.13284302 0.13440539 0.012380745 -0.031764813 -0.02400387 0.093389034 0.010660804
0.0081443 0.10076422 0.046444897 0.08138614 0.048870016 0.120273635 0.034893498 0.011574439
0.29365098 -0.032612517 0.006751245 0.061311405 -0.005193269 0.03321575 0.068750404 0.040127337
-0.1504821 -0.12845874 -0.039081637 0.12403878 0.11974095 -0.103622735 -0.008036133 0.0055073914
0.040927336 -0.010521388 -0.05820155 0.118338585 -0.15426117 0.034212142 0.023183592 -0.031436153
0.31750953 0.35963413 0.5974464 0.4049516 0.24177036 0.24495532 0.23135479 0.36075032
0.30486986 0.21042773 0.48661023 0.6509681 0.31753364 0.3969437 0.4247147 0.5787808
0.5797171 0.37944147 0.2773473 0.4669825 0.3883644 0.22822694 0.4893219 0.21983415
0.18291952 0.315971 0.3250443 0.42909166 0.40470135 0.26601744 0.2030424 0.22128302
0.38647458 0.56661147 0.6228129 0.27125967 0.27642167 0.32537 0.41699493 0.42248565
0.35815886 0.19327031 0.5358207 0.38067374 0.22965856 0.32725862 0.3297085 0.3833972
0.12797762 0.4037572 0.32947558 0.1726359 0.20353596 0.20189174 0.47539473 0.23448148
0.3201301 0.48402175 0.5953258 0.35738456 0.43248877 0.386883 0.31847337 0.09126048
0.034049664 0.017646395 -0.1444812 0.020577742 0.12003645 -0.11822925 0.11053168 -0.09648551
-0.06441652 -0.035919975 -0.084516704 -0.12706202 -0.018231943 -0.017923882 0.07178112 0.030497586
0.046345443 0.10690484 -0.12328037 0.11244958 0.018658813 -0.012980997 0.061437108 -0.07308891
-0.020811467 -0.004459773 0.094839096 0.020627573 -0.056848478 -0.05238102 -0.00026207586 0.01772113
0.013538701 0.037983537 -0.12108228 -0.047061637 -0.08877588 0.029134527 -0.048854608 0.067135155
0.090308286 0.009431807 -0.05457485 0.09173601 -0.035414416 -0.061766133 0.08432143 -0.007132878
-0.02736241 -0.014896842 0.014457783 0.09487246 -0.0885083 -0.100084126 0.0148492595 0.11560341
-0.08383654 -0.0049781087 -0.024215046 -0.08890213 0.03935837 0.049059883 -0.0344897 -0.0152852535
