Rudi/checkpoints_02/checkpoint_epoch_98.pth (torch, 587118 bytes, 30 tensors)

encoder_rnn.weight_ih_l0 f4 [192, 40]
000000 fa ec 76 3e 0a 16 ce bd 42 bf 37 be 37 e6 d6 bd
       0.24113837 -0.10062797 -0.17944053 -0.10493129
000010 b8 83 9c bd a6 52 1b be cb 9c f0 bd 4e e3 21 bc
       -0.07642311 -0.15168247 -0.11748656 -0.009880854
000020 81 28 c9 bd aa 66 f6 bd 04 93 2a 3d 4c b3 da bd
       -0.09822179 -0.120313 0.04164411 -0.106787294
000030 7b 4f e2 bd 2c 10 f1 bb b1 81 c7 bd 2c fb 8c 3d
       -0.11050316 -0.007356664 -0.097415335 0.06883845
000040 44 f4 b4 bd d0 21 6b 3c 73 0c 80 bd 59 88 d5 bd
       -0.088356525 0.014351323 -0.062523745 -0.10426397
000050 fd d3 0d be 94 c7 ca 3b 40 bd 6f be e9 f2 18 bd
       -0.13850398 0.0061883423 -0.23412037 -0.037341032
000060 07 c4 c0 bd a2 ce 1e 3c 3c af 3e 3d ac 69 91 3d
       -0.09412389 0.00969282 0.046553835 0.071002334
000070 2b bb 15 3e eb 07 71 bd 67 1e 10 be b7 ea bd bc
       0.1462218 -0.05884544 -0.14074098 -0.02318321
000080 ed 25 90 bd 97 d5 04 3e 97 78 1d bd 1a 49 1f be
       -0.07038484 0.12972103 -0.03844508 -0.1555523
000090 8d b7 cf bd d0 f6 bd bd 83 6d 21 be ca 49 cb bd
       -0.101424314 -0.092755914 -0.15764432 -0.099261835
0000a0 2f e2 4d bd bd 2f b0 bd 4d 6f a7 bd ca f6 20 3c
       -0.050264534 -0.08602855 -0.08175526 0.009824464
0000b0 e9 0c 1b bd 04 46 fc bc f8 4c 3e 3c c4 33 1a bd
       -0.03785411 -0.030795105 0.0116150305 -0.037647024
0000c0 16 e3 21 be 4a 4d 49 3c 0d a7 23 3d eb 67 1a be
       -0.15809283 0.012286494 0.039954234 -0.15078704
0000d0 b7 b2 c2 3a 00 0d c0 bc 58 e3 0f 3e 09 a7 17 3e
       0.0014854287 -0.023443699 0.14051569 0.14809813
0000e0 5c 8b 22 bd b6 27 4f 3e 52 47 01 3e 2f b1 e1 3d
       -0.039683685 0.20229992 0.12624863 0.11020123
0000f0 18 bc 95 3d 4f 51 70 3d 5a 80 b0 3b 6e 91 e6 3d
       0.07311267 0.058671292 0.0053863944 0.11258207
000100 4b 2c c3 3d 7e 25 3b bb 9f 34 c5 3c 67 aa 1d bb
       0.095299326 -0.0028556283 0.024072943 -0.0024057867
000110 f3 d2 cb bd cd 10 1f bd a5 7f ff bd 2d 75 c3 bd
       -0.09952345 -0.03883438 -0.12475518 -0.09543834
000120 6c af a0 39 4a fd c2 bd a1 cc 9e bd 79 29 33 bd
       0.00030648278 -0.09520967 -0.077538736 -0.043740723
000130 04 61 12 be 54 6d 35 3d d9 ab 68 bd be 7c 67 bd
       -0.14294821 0.044293717 -0.05680451 -0.056515448
000140 2f 8d b7 3d 2e 1b 30 be 61 4a 43 3e 47 13 a1 3d
       0.089624755 -0.17197868 0.19071342 0.07865005
000150 58 85 07 be 6b 74 47 3d a2 b7 01 be d3 46 32 3e
       -0.1323446 0.04869501 -0.12667707 0.1740983
000160 46 eb 3b 3e 9b 5c c9 3d 12 e6 72 bd 36 e9 ef 3c
       0.18351468 0.09832116 -0.059301443 0.029286008
000170 12 06 91 3d eb 34 a0 bd 4d 60 7f bd 2c df a6 bd
       0.07081236 -0.07822593 -0.0623477 -0.081480354
000180 61 76 f8 bd f6 14 61 bc 37 63 a0 3c 62 22 bf bd
       -0.12131954 -0.013737908 0.01957856 -0.0933273
000190 f4 78 1d bd ce 21 f5 bd 5b 2a 7c bc 19 ce be bb
       -0.038445428 -0.11969338 -0.015390958 -0.0058229086
0001a0 e4 7d 86 bd 97 da 19 3d 50 7d e8 bd 29 3b 1e 3e
       -0.065669805 0.03756198 -0.113520265 0.15452255
0001b0 25 62 01 be 10 29 80 bc 7c 9b 65 3d 02 70 a4 bd
       -0.12635095 -0.01564458 0.056056485 -0.08029176
0001c0 2e ec e1 bc 4b 56 16 3d 7b f7 36 3c 80 c6 99 3c
       -0.02757844 0.03670339 0.011167402 0.01877141
0001d0 72 fd 6f 3d 17 f4 f3 3d cf ec 15 3e 2c 88 68 bd
       0.058591314 0.11911791 0.14641117 -0.05677049
0001e0 6a a5 47 3e 26 86 3f bd e7 1f c9 3c a8 b4 97 bd
       0.19496694 -0.046758793 0.024551345 -0.07407504
0001f0 f1 f0 e6 bd 5d e7 20 be d8 98 a9 bd b9 ec 7d 3d
       -0.11276425 -0.15713258 -0.08281106 0.061993334
000200 b1 9f 41 bc f8 06 cb bd 74 b6 93 bd 03 0c 84 bd
       -0.011817859 -0.099134386 -0.072125345 -0.064476036
000210 94 cc e7 bd e2 f9 cb 3d 11 f4 fb 3c c1 44 c3 3b
       -0.11318317 0.09959771 0.030756028 0.005959124
000220 d2 b7 03 3d 89 c2 53 3d 96 c8 ec 3b 63 9c 56 bd
       0.032157727 0.051699195 0.00722606 -0.052395236
000230 92 19 46 3d fd 5e 66 bd 9a 27 33 3d 71 86 0b 3e
       0.04836423 -0.05624293 0.04373894 0.13625504
000240 98 54 0c 3d cc 11 72 bd 97 12 e1 bd 68 59 87 3d
       0.034260362 -0.059099004 -0.10989874 0.0660885
000250 7a 13 75 bd 5c 6c 7e bc 57 9e b5 bd 1e 03 6c be
       -0.059833027 -0.015528765 -0.088680916 -0.23048064
000260 4a d1 24 be eb 5a 81 bc 03 b9 31 3b fb ee f6 bd
       -0.16095462 -0.015790423 0.0027118332 -0.12057301
000270 a4 24 f5 bd ac ca b1 3d 06 8b 25 be 06 06 0e 3d
       -0.11969879 0.08681235 -0.16166314 0.034673713
000280 75 e9 5e bd 2f d3 46 3d d7 98 e5 bd e2 7d 8f bd
       -0.05442186 0.048541244 -0.112107925 -0.07006432
000290 ff fc 73 bc 31 8c fe bd eb 58 ce bd 6c a5 f1 3c
       -0.014891862 -0.12429083 -0.100755535 0.029497825
0002a0 cb c4 12 be 86 8f 24 be 64 1e 51 3d de 6d 28 be
       -0.14332883 -0.16070375 0.051054373 -0.16448161
0002b0 c1 88 d8 bb 95 e6 5b 3d 09 0d 9b 3d f1 e4 d3 3c
       -0.006608099 0.053686697 0.07570846 0.025866004
0002c0 11 07 87 bd 2a 7a 8e 3d 3a 40 cb 3d 85 cd e4 3b
       -0.06593145 0.06956895 0.099243596 0.0069825076
0002d0 54 6f f8 3d 66 86 f6 3d 05 82 19 3e 5f 3b b2 3d
       0.12130609 0.12037353 0.14991005 0.087027304
0002e0 59 73 ab 3d ef 50 57 bd 67 43 2c bd c8 d4 31 3d
       0.0837161 -0.05256742 -0.042056467 0.043415815
0002f0 85 d4 c7 3d 3b 89 37 3e 4c 86 d4 3d 9e 43 b0 3c
       0.09757332 0.17923443 0.103771776 0.021516617
000300 35 6e bc bc 2d e2 6e bd 51 d0 ea 3d e9 59 79 bd
       -0.02300177 -0.058321167 0.114655145 -0.06087676
000310 b5 0d 33 be 9c f1 5b bd ac 1f c2 bd d5 2e 67 bd
       -0.17485698 -0.053697214 -0.09478697 -0.056441147
000320 54 b5 0c bc bd 81 ca 3d 94 fb 20 bd e1 b8 a6 bd
       -0.008588154 0.09888027 -0.039302424 -0.081407316
000330 fa 52 d0 bd f8 4f 1e 3d 5d ba 8d 3d de 22 d4 3d
       -0.101720765 0.038650483 0.069203116 0.10358213
000340 e7 f4 44 bd 0e 2a ac bd 90 fb 39 3c a5 f4 3c be
       -0.04808512 -0.08406459 0.011351481 -0.184527
000350 7b 59 ec 3d be a6 69 3d 0b f1 23 3c c2 b6 f9 b9
       0.115405045 0.057043783 0.0100062 -0.00047629146
000360 55 3c d3 3d e9 cd e7 3d d9 52 0f 3d 0b 93 e1 3c
       0.10314242 0.11318571 0.03499112 0.027535936
000370 be 33 9b bd 42 d8 f2 bd e7 01 db 3d 85 fc 5f 3d
       -0.075782284 -0.11857654 0.10693722 0.05468418
000380 2d e0 cb 3d 1b 4e 85 bd 4a 64 22 bd dc e2 1e bd
       0.099548675 -0.06509038 -0.039646424 -0.03879057
000390 5a b5 ce bc 87 c7 1a 3d 75 1a c8 bc e1 b6 80 bd
       -0.02523296 0.03778794 -0.024426678 -0.062848814
0003a0 02 8b da bd c8 ca af 3d f4 25 84 3d 43 80 58 bd
       -0.10671045 0.08583599 0.064525515 -0.052856695
0003b0 38 f3 16 be 90 d8 27 bd 95 d4 05 bd a9 4c d0 3b
       -0.14741218 -0.040978014 -0.032673437 0.006356795
0003c0 6a 3f 32 3e d7 dc 85 bd 7a e3 88 bd 08 5f 02 be
       0.17407003 -0.065362625 -0.06684013 -0.12731564
0003d0 3c b7 49 bc 0b 74 40 be 79 0b 99 bd f9 ba 11 be
       -0.012311753 -0.18794267 -0.07472891 -0.1423148
0003e0 b8 f0 89 bd 1b fc 40 be 52 66 35 bd 48 b4 1a be
       -0.067353666 -0.1884617 -0.044287033 -0.15107834
0003f0 da 65 5f be ab bc 63 3c d7 04 9d bc f9 58 9b 3d
       -0.21816197 0.013899962 -0.019167347 0.075853296

encoder_rnn.weight_hh_l0 f4 [192, 64]
000000 e6 7a 21 be 30 db 66 3c 3f f0 40 3d 8a 19 55 3c
       -0.15769538 0.014090344 0.047104117 0.013006577
000010 1b 1f 11 bd 12 99 2d be 05 98 55 3d d8 fd bf bd
       -0.035430055 -0.16952923 0.05214693 -0.09374589
000020 18 f0 84 3d 69 c3 3a bd 7f 03 c8 3d d0 88 c5 bc
       0.06491107 -0.045596514 0.09766292 -0.024113089
000030 db 2c b9 bd ff 78 d9 3d 51 d8 1b bc ea e3 62 bd
       -0.090417586 0.10618781 -0.009512023 -0.055393137
000040 09 05 77 3d 41 8d 09 bc 55 52 9c bd 8c 2f 87 3d
       0.060307536 -0.008395494 -0.07632891 0.06600866
000050 1b ca 11 bd 39 f9 46 3d dc d2 75 3d f8 c5 6c bd
       -0.035593133 0.04857752 0.060015544 -0.057805985
000060 86 03 3d 3e ab 14 4b 3e d2 4a 51 be 1c ed f2 ba
       0.18458375 0.19832103 -0.20438698 -0.0018533799
000070 ec 88 2c be 32 23 68 bd b8 a7 f1 3c 86 cb a0 bd
       -0.16849107 -0.05667419 0.02949892 -0.07851319
000080 9a 76 1d 3d b3 dd 54 3d f7 40 21 3d ff c1 98 3c
       0.038443185 0.05196924 0.039368596 0.018647192
000090 6d 10 02 3e f5 2f e6 3d 95 39 eb 3d dd 79 7d 3e
       0.12701578 0.11239616 0.11485592 0.24753518
0000a0 6f cd 6e bd 2a 6b 50 3d 9d fd 6e bc 44 bd 9b bd
       -0.058301385 0.05088345 -0.014586833 -0.07604459
0000b0 f1 27 2f bd f6 04 57 bd ac b6 76 3d 0e f3 c4 3c
       -0.0427627 -0.052494965 0.060232803 0.024041679
0000c0 19 c8 32 3d a9 8b 3a 3d 41 3f 02 3e 88 94 6b 3d
       0.04364786 0.045543347 0.12719442 0.057514697
0000d0 b8 61 95 3c 25 1f 96 bc f2 b5 8e 3d d4 0a 1e bd
       0.018235072 -0.018325398 0.06968297 -0.038584545
0000e0 fa 0c 84 3c d5 bd 88 bd 43 99 b4 3d 4f 50 67 bd
       0.016119469 -0.066768326 0.08818295 -0.056473073
0000f0 ff f4 27 3c d7 7f 92 3d 9c a5 c5 bc 84 08 d5 3d
       0.010251283 0.0715329 -0.02412682 0.10402015
000100 b0 5a 7f bd 84 0c 79 bd cf c3 e6 3d 04 aa 01 be
       -0.062342346 -0.06080295 0.11267816 -0.12662512
000110 cb 86 66 bd 44 79 62 3d d8 d2 1a bb 71 d4 13 bb
       -0.056280892 0.05529143 -0.0023624208 -0.0022557045
000120 86 39 7b bd 11 bb 49 bd 66 a1 20 bd f8 38 c3 bc
       -0.061334155 -0.049250666 -0.03921642 -0.023830876
000130 1d 38 f6 3c 17 a9 84 bc 52 37 88 3c 14 5c 31 3c
       0.030056054 -0.01619391 0.016627941 0.010825176
000140 bb 88 80 be 77 b6 ce 3c a0 13 c0 bc 56 21 10 be
       -0.25104317 0.02523349 -0.023446858 -0.14075217
000150 27 e5 58 bd 64 6b 32 3c a6 94 bd 3d 7d f6 c1 bd
       -0.05295291 0.010889862 0.09256868 -0.09470842
000160 26 e0 78 3c bd c4 2a 3d 1c 05 bf 3b 81 49 ab 3d
       0.01519016 0.04169153 0.0058294665 0.08363629
000170 f9 99 87 3d 9d 15 49 be a5 e7 89 3d bf 0f fb 3d
       0.06621165 -0.19637151 0.06733636 0.12258863
000180 14 da 7a 3e 67 2e fb 3d d6 2a bf bd fb 28 a0 3d
       0.24497253 0.1226471 -0.09334342 0.078203164
000190 08 3f e1 bd c8 ef 1c 3c ac ec cc 3c 6e bd 3c 3d
       -0.109983504 0.009578653 0.025015198 0.04607909
0001a0 ba 7f 64 3e 11 8d c0 bd 0d 39 e1 3d c7 ba 27 3d
       0.22314349 -0.09401906 0.1099721 0.04094961
0001b0 6b 39 03 3c 91 41 a4 bc 9e dd c0 3d e5 43 df 3d
       0.008009295 -0.020050796 0.0941727 0.10901622
0001c0 c9 e8 24 3d 7e 39 01 be 49 9b aa 3d ec 72 81 bd
       0.040261064 -0.12619588 0.083303995 -0.06320748
0001d0 d1 c4 65 3d dd 78 f5 3c 39 17 1d 3e 61 b1 72 bd
       0.056095902 0.029964859 0.1534089 -0.059251193
0001e0 4a 71 14 bd d1 6a 6b 3c 20 a0 ae bd f4 3f f1 bc
       -0.036240853 0.014368729 -0.08526635 -0.02944944
0001f0 a1 20 aa bd a5 72 55 3d b2 0d 1c be 3d e9 d2 3d
       -0.08307005 0.052111287 -0.152396 0.10298393
000200 38 0c 5d 3d 9b ec a6 3d c3 ab 07 ba f7 b2 60 bd
       0.05396673 0.08150598 -0.0005175436 -0.054858174
000210 8e 1e 83 bd fa 1b bd 3d 30 f3 32 bc 4e 4f 6d bd
       -0.06402312 0.09233852 -0.010922238 -0.05793696
000220 fa 82 b0 bd 8f 4c 2c bd 5c 1c 94 bd a6 f7 70 bd
       -0.08618732 -0.0420652 -0.072319716 -0.058829926
000230 20 ed 2c 3d 01 d6 fc 3c 92 99 68 bd 3f 0f 81 bc
       0.042218328 0.030863764 -0.05678708 -0.01575434
000240 cc c3 8e 3d 70 ff b0 bc db 71 a4 bc 78 7e 72 3d
       0.06970939 -0.021606177 -0.020073822 0.05920264
000250 e5 78 ef 3d 36 e0 81 bd 19 cc d2 bc ff 84 c1 b9
       0.11692981 -0.06341593 -0.025732087 -0.00036910918
000260 69 7d 14 be df 8c b3 bd cb da a7 bd a1 09 c7 bd
       -0.14500965 -0.087671034 -0.08196028 -0.097186334
000270 66 65 9c 3d 80 53 de bc a3 88 57 3d f9 2b 97 bc
       0.07636528 -0.027139425 0.05262054 -0.018453585
000280 43 72 b8 3d d2 ed 31 bd 76 91 fd bc 48 95 27 bd
       0.09006169 -0.043439694 -0.03095315 -0.04091385
000290 39 51 4e bc dd da 82 bd ab 61 96 bd 2c ea fa bb
       -0.012592607 -0.06389401 -0.073428474 -0.00765731
0002a0 5b f9 9e 3c 79 52 d2 3d e3 02 47 3c f1 9b c4 3c
       0.019406011 0.10269637 0.012146684 0.02400014
0002b0 cd c0 19 3d ae 88 3d 3b 6d 55 43 bd 3c d2 24 bd
       0.037537385 0.0028920579 -0.04768889 -0.040239558
0002c0 20 df 36 bd e6 df 5f 3c 65 87 8c bc fe a9 c0 bd
       -0.044646382 0.013664221 -0.017154405 -0.094074234
0002d0 51 9e 00 bd 55 9f 4c 3d bd f2 19 be 82 e6 b0 3d
       -0.031400982 0.04995664 -0.15034004 0.08637716
0002e0 97 4b 99 bc 4c 51 b0 bb c0 f4 8c 3d 64 fb b1 3d
       -0.018712802 -0.005380785 0.0688262 0.08690527
0002f0 55 57 0f bd 8a f1 d5 bc 4e 1a 0a bd 6c b4 03 bd
       -0.034995396 -0.026116151 -0.033716492 -0.032154486
000300 7a 4a eb 3c 8f 03 49 bd ac 08 ba 3c 26 bf d4 bc
       0.028722037 -0.04907566 0.022709213 -0.025970053
000310 9a 8b 8c bd 4b 07 4a 3c b3 e3 d4 3d fb 7d 71 bd
       -0.068625644 0.01233084 0.10394993 -0.058958035
000320 40 47 c3 3d db 18 2c be ac d4 ad bc 64 be 33 be
       0.09535074 -0.16806357 -0.021219574 -0.17553097
000330 40 4a f7 3b 2b 88 31 bd 03 91 95 bc a1 85 f8 bd
       0.007546693 -0.04334275 -0.018257624 -0.12134863
000340 07 30 07 bc 09 34 ae 3c e9 2e af bd d2 a6 f1 3c
       -0.008251197 0.021265047 -0.08553869 0.029498491
000350 76 16 26 bd 7d 77 8c 3a 9f f9 06 bd 23 50 b7 bc
       -0.040548764 0.0010716763 -0.0329529 -0.02237708
000360 bf e4 bc 3d b0 5e 3c 3d 2f 14 31 bd 0f 0d bf 3c
       0.09223317 0.04598874 -0.04323214 0.023321657
000370 ae 3b 0e bc b1 b8 ab 3c d5 91 0b 3b 7e fa 89 bd
       -0.008681221 0.020962091 0.002129664 -0.06737231
000380 2d aa 74 3c 75 57 4a 3c b8 e1 be bd be 1f 69 3c
       0.014933151 0.012349953 -0.09320396 0.014228759
000390 b9 16 d1 bc bd dd 3f 3d c6 c2 dd 3c 18 51 14 bc
       -0.02552353 0.046842325 0.027070414 -0.009052537
0003a0 96 70 bf bb 6c d8 9d 3d c3 51 76 bd 0b 63 8d 3d
       -0.0058422787 0.07707295 -0.060136568 0.069036566
0003b0 5b 12 58 3c 93 af a6 3c e2 9f 05 bd eb 81 a2 bc
       0.01318797 0.020347392 -0.03262318 -0.01983734
0003c0 8c 7c 11 3b 1a 0c 08 3b c3 07 88 3d 52 3e 27 3d
       0.002219948 0.0020759166 0.066421054 0.040830918
0003d0 ea 99 c2 bd 29 d4 a9 bc 86 aa b1 3d c8 98 0c 3e
       -0.09502013 -0.020731049 0.08675103 0.13730156
0003e0 c1 09 49 bd 8a ea 14 be 53 12 e4 3d a1 1d ef 3c
       -0.049081568 -0.14542595 0.111363076 0.029188933
0003f0 f7 6e 21 be 81 3d e9 3c 9c c4 69 bd f8 09 b8 bc
       -0.15764986 0.02847171 -0.057072267 -0.022465691

encoder_rnn.bias_ih_l0 f4 [192]
000000 0f 1f 2d 3e e3 1c a7 bd de 3e d7 3d db 57 bb 3b
       0.16906379 -0.081598066 0.10510038 0.0057172603
000010 5f ec 98 3d 87 2e 78 3d 62 f0 c9 3d b8 04 0b be
       0.07466959 0.060591247 0.098603025 -0.13576019
000020 d2 9a d5 bc 82 8d ed 3b 4c 7f 4b 3d c6 81 d9 ba
       -0.0260748 0.007249535 0.049681947 -0.0016594462
000030 db 25 25 bd 43 c1 ab ba 14 b9 5a 3a 4d c0 72 be
       -0.040319305 -0.0013103861 0.0008343619 -0.2370617
000040 38 0b 56 bd fb a6 c9 3c 00 e7 5a bc 22 83 0d 3e
       -0.052256793 0.024615755 -0.013360739 0.13819554
000050 55 3b a3 3b 46 e9 6c bd 96 d1 3a 3d c1 65 3b 3d
       0.004981438 -0.057839654 0.045610033 0.045751337
000060 63 86 ac 3d 47 19 40 3c 0f 62 15 bd 51 ab 3a 3d
       0.0842407 0.011724777 -0.03647047 0.045573536
000070 30 d7 84 bd 6b e3 2b 3d 06 7f 34 3c 1d c4 e4 3d
       -0.06486356 0.04196493 0.011016613 0.11170218
000080 35 4a 1a 3e 00 ed d5 bd f3 f7 86 bd 34 00 3b 3d
       0.1506737 -0.10445595 -0.06590261 0.04565449
000090 66 9e c8 3d a2 a3 24 3e 20 0a cd 3d e1 b0 69 bd
       0.09795837 0.16078046 0.10011697 -0.05705345
0000a0 d1 28 fd bc 66 19 c7 3d c2 0a 91 3d cb 1b 16 3d
       -0.030903252 0.09721641 0.0708213 0.0366476
0000b0 92 5b c7 bc a7 9c 6f bd d0 06 e1 bc 0c e4 d5 3c
       -0.024335656 -0.058499005 -0.027469069 0.026109718
0000c0 0a 8e cd bd b3 5c aa 3d f3 3a f0 bc c9 96 2f 3d
       -0.100368574 0.08318462 -0.029324984 0.04286841
0000d0 fd f8 ab 3b 47 f4 70 bd 04 91 c9 bc 81 53 8b bd
       0.0052481876 -0.05882671 -0.024605282 -0.068030365
0000e0 15 68 0d bc 96 3f bc bd 05 74 ea 3c 7a 03 ab 3b
       -0.008630772 -0.091918156 0.028619776 0.0052189203
0000f0 8c 7a 7c 3c 29 41 e0 3d 67 93 0e 3e 9f 0b f2 3d
       0.015410077 0.10949928 0.13923417 0.11818623
000100 0e b8 08 3e 63 84 c8 3e fd 8e 97 3e ac d6 1d 3e
       0.13351461 0.39163503 0.2960128 0.15413922
000110 36 f3 c1 3d e2 ea 5d 3e 65 bc ab 3e f7 03 b1 3e
       0.09470217 0.21671632 0.3354217 0.34573337
000120 5f 35 48 3e 62 08 fb 3d 96 7c b9 3e 2c a9 73 3e
       0.1955161 0.12257458 0.36227864 0.23795003
000130 9d d8 f6 3d b6 12 34 3e 15 1f 88 3e b0 35 c0 3e
       0.120530345 0.17585263 0.26586214 0.3754096
000140 54 a4 96 3e 88 a1 73 3e 25 09 5b 3e bd fd af 3e
       0.29422247 0.23792088 0.21390207 0.34373274
000150 13 44 f3 3e 82 ba 89 3e 62 a7 b4 3e 09 21 b7 3d
       0.47512874 0.26900107 0.35283953 0.08941848
000160 43 26 9d 3e 19 e6 a6 3e 7b af ce 3d 65 20 10 3e
       0.30693254 0.32597426 0.10092064 0.14074858
000170 ed 40 d4 3e 24 f0 a7 3e 10 d0 48 3e 63 47 89 3d
       0.41455784 0.328004 0.1961062 0.06703069
000180 9e 9d 87 3e fd bb ca 3e 42 0c 24 3e 6b 47 b9 3e
       0.2648744 0.3959655 0.16020301 0.361873
000190 16 bf ff 3d b5 f2 a2 3e 76 48 b7 3e 84 6c a0 3e
       0.124876186 0.31825796 0.3579747 0.3133279
0001a0 e5 dd 9a 3e 2c f8 56 3e ad 69 a4 3e 56 e0 5a 3e
       0.30247417 0.20993108 0.32111874 0.2137464
0001b0 51 72 5c 3e da df 6c 3d db 45 00 3e b3 b0 a5 3e
       0.21527983 0.05783067 0.12526648 0.32361373
0001c0 7e c9 db 3d 0f 52 0b 3e c0 0f 13 3e 1e fb 43 3e
       0.10731791 0.13605522 0.14361477 0.19138762
0001d0 38 36 48 3e aa 94 31 3e 60 1a e9 3d 15 40 5c 3e
       0.19551933 0.17341867 0.11381984 0.2150882
0001e0 76 52 e7 3e ac 07 72 3e 7f 07 9d 3e 21 d9 85 3e
       0.451801 0.23635739 0.30669782 0.2614222
0001f0 97 5b 3b 3e 7a 54 e5 3d 2e 57 8f bb 05 62 95 3e
       0.18296658 0.11197753 -0.0043744063 0.29176345
000200 b4 e6 38 be 08 19 4b bc 48 7d ac bd fc 3d 69 3e
       -0.18056756 -0.012396105 -0.08422333 0.22777551
000210 51 99 59 3c 01 e7 0a be 46 4c 1d bc 9b 78 44 3e
       0.013281182 -0.13564683 -0.009600705 0.19186632
000220 90 71 57 39 b1 e9 26 3e e5 d7 86 3d a6 aa aa bc
       0.00020546303 0.16300084 0.06584147 -0.020833325
000230 b9 77 2f be 5a a6 d3 3d 6e 17 7c 3d c5 97 c9 3d
       -0.17135514 0.103344634 0.06154578 0.09843401
000240 ff 2a 61 bd 15 66 63 be 3e 29 86 bb 06 f2 64 bc
       -0.054972645 -0.2220691 -0.004094272 -0.0139737185
000250 df 19 fe 3c 7f c5 04 be 02 c3 0b bd ac f4 13 3e
       0.031018196 -0.12965964 -0.03412152 0.14448804
000260 86 42 a0 3d ad 44 4e 3e e0 3d 1a bd 2d a7 b6 bd
       0.07825188 0.20143385 -0.037656665 -0.08918605
000270 e2 02 aa 3d 4c d1 6a 3b 74 c6 f0 bd 8c 1b 31 bc
       0.08301331 0.0035830317 -0.11756602 -0.01080979
000280 19 ef db 3b 00 59 c2 3d ad fd 4e 3d 2d 6a 02 3e
       0.0067118523 0.09489632 0.050534893 0.12735815
000290 fc 55 23 3e 83 67 2c bd ec 88 f8 bd eb 8c 5a 3e
       0.15950769 -0.042090904 -0.12135491 0.21342818
0002a0 6c 18 f2 bd 4e f2 94 3e 6c ce 63 3d d5 fa 85 3d
       -0.11821064 0.29091114 0.05561678 0.06541983
0002b0 c9 4e 90 3d 85 ee 06 be 47 fe 4a be 76 a1 39 be
       0.07046277 -0.13176925 -0.19823562 -0.18127999
0002c0 27 3e b9 bd ea 6e 60 3e da a5 db bc c2 28 d9 3d
       -0.09045058 0.2191731 -0.026812483 0.10603477
0002d0 aa 2e b5 3d 37 d5 00 3e 8f 7c 0b bd 88 e1 79 3c
       0.08846791 0.12581335 -0.034054335 0.015251525
0002e0 5e 01 e7 3b 87 ea 04 bd 74 09 56 3d 91 1e de 3d
       0.0070497235 -0.032450225 0.05225511 0.10845674
0002f0 7e b3 22 3e 0c 8e 9c bc 40 01 af 3d 70 09 d6 bc
       0.15888783 -0.019110702 0.0854516 -0.026127547

encoder_rnn.bias_hh_l0 f4 [192]
000000 13 22 5f 3d 14 21 81 bc 0d 5d 51 3d a1 f0 92 3c
       0.054475855 -0.015762843 0.05111413 0.017937006
000010 10 68 bb bc 1d 90 bd 3c d8 75 a8 39 e6 7b ed bd
       -0.02287677 0.023140008 0.00032131257 -0.115958974
000020 83 19 e8 bc c6 8c 31 3d 27 4b ac bc fa f4 ad 3c
       -0.028332477 0.043347143 -0.02103193 0.021234978
000030 fa d9 0a 3c e5 d2 6d bc 5a 93 04 be 51 df 44 be
       0.008474821 -0.014515613 -0.12946835 -0.19225813
000040 d4 bb 73 bd 49 77 e3 bc 9c 08 15 bd c0 1f ee 3d
       -0.0595053 -0.02776684 -0.036385164 0.116271496
000050 57 5b a2 bc 1d 5e f1 bd 73 ec c5 bd 04 f7 0e bc
       -0.019818945 -0.11785529 -0.0966424 -0.008725885
000060 8b fc 7f 3d 25 65 86 3d 7b 28 1c bd 4c 80 41 3d
       0.062496703 0.065622605 -0.038124543 0.047241494
000070 f8 95 88 3d 9a 70 3d 3d 43 a2 36 3d fa 01 1d 3c
       0.06669229 0.046249963 0.04458834 0.009582991
000080 26 e3 d6 3d fe 51 a1 3c 51 8d 70 bd f3 5c db 3d
       0.10492544 0.019692417 -0.05872852 0.10711088
000090 1b ec 63 3d 0b 13 b0 3d 0c 06 20 3d da ce bb bc
       0.05564509 0.08597382 0.039068267 -0.022925783
0000a0 23 2a bd 3c 28 26 35 3e fb 5b c5 3d 8f 5e 5c bd
       0.023091381 0.17690337 0.096366845 -0.053801116
0000b0 87 3e f9 3d 66 7f ba 3d 17 04 81 3d 86 e1 1d 3d
       0.12170129 0.091063306 0.06299608 0.038545154
0000c0 bf 8a b8 3c 18 17 a3 bd 42 f0 8f 3c 4b 73 d6 bc
       0.022527097 -0.07963389 0.017570619 -0.026178023
0000d0 99 51 47 bd fd de b5 bd 5b 80 fb 3c 94 a7 54 bd
       -0.048661802 -0.08880422 0.030700853 -0.051917627
0000e0 06 c7 86 3d 09 6b 83 bd 00 b9 92 3c 36 4e 50 bd
       0.065809295 -0.064169 0.01791048 -0.050855838
0000f0 42 ac ac bc 4b ce 03 bd a7 1a bf 3d a8 91 18 3d
       -0.021078233 -0.03217916 0.093312554 0.037248284
000100 fe 5d 60 3e 41 5e 72 3e 26 25 b5 3e 66 84 ca 3d
       0.21910855 0.23668768 0.35379905 0.09888534
000110 15 54 bb 3d 04 cb 91 3e 2e 8c 93 3e e6 e4 88 3e
       0.09146897 0.284752 0.28817886 0.26737136
000120 b3 6e d4 3d c6 b3 f6 3d 9b 98 ad 3e c7 64 8f 3e
       0.10372677 0.12046008 0.3390549 0.28006575
000130 3d 70 80 3e 89 6c 5e 3e 2e ef 23 3e d8 ef f4 3e
       0.2508563 0.2172109 0.16009209 0.47839236
000140 d5 e9 a9 3e 51 32 fa 3d 3a 96 a9 3e 81 aa 9f 3e
       0.33186212 0.12216628 0.33122426 0.31184772
000150 5a 8b e3 3e 8a 2b bd 3e 12 44 a0 3e dc 48 b1 3d
       0.44442254 0.3694728 0.31301934 0.08656475
000160 eb 6e 8d 3e c8 bd ac 3e 7c 34 85 3e 48 de 04 3e
       0.27623686 0.33738542 0.26016605 0.12975419
000170 59 60 8a 3e 43 66 ba 3e ce 3f 06 3e 0d 69 81 3d
       0.27026632 0.36406144 0.13110277 0.06318865
000180 8f 0b b7 3e 81 ac b7 3e a8 c3 66 3e ff b1 95 3e
       0.35751006 0.35873798 0.22535574 0.29237363
000190 b7 2d 56 3e d9 39 9e 3e ef 69 8d 3e 9f 0e 90 3e
       0.20915876 0.3090351 0.27619883 0.28136155
0001a0 b8 ee 95 3e 98 3e 31 3e 0b 03 91 3e 00 e7 32 3e
       0.2928369 0.17309034 0.28322634 0.17470932
0001b0 cd e5 40 3e 3b 4c 09 3e 93 54 0d 3e 7b e7 9c 3e
       0.18837662 0.13407986 0.13801794 0.30645356
0001c0 f3 7e 47 3e f9 d5 8a 3e 42 6e 8d 3d 60 78 95 3e
       0.19482021 0.27116373 0.06905796 0.291934
0001d0 09 e7 1d 3e 62 31 02 3e c5 b5 e9 3d 7a 83 3e 3e
       0.15420164 0.1271415 0.11411623 0.18604842
0001e0 84 43 ea 3e 06 af f5 3d d0 d4 c2 3e c1 b9 cb 3e
       0.45754635 0.11996274 0.38052988 0.39790156
0001f0 cf ba ed 3d ed 73 a3 3d b7 91 9f bd 82 2b 65 3e
       0.116078965 0.079810955 -0.07791465 0.22379878
000200 6d de 10 be f3 88 c0 bd 07 b0 40 bd 5e d4 52 3e
       -0.14147349 -0.09401121 -0.047042873 0.20588824
000210 a0 05 1c be 00 3d af bd 8f 55 10 3e 46 4b aa bc
       -0.15236521 -0.08556557 0.14095138 -0.020787846
000220 de 33 c3 3c 0e 3d aa 3d b0 80 20 be e2 c3 81 bd
       0.023828443 0.083124265 -0.1567409 -0.0633619
000230 27 13 33 bc 3c cd cc 3d a9 51 f3 3d fa f1 8b 3c
       -0.010929859 0.10000083 0.1188081 0.017083157
000240 1f b5 f9 3d c8 36 b6 bd 9e 8b 9d bb a0 34 17 be
       0.12192749 -0.088971674 -0.0048079034 -0.14766169
000250 fa 55 b3 bc 28 61 d4 bd 0d 30 52 3d fb ba 89 3d
       -0.021891583 -0.103700936 0.051315356 0.06725117
000260 bf c3 cd 3d 30 69 09 3e 14 b0 00 bd e8 27 23 be
       0.10047101 0.13419032 -0.03141792 -0.15933192
000270 84 8d 6b bd ee 99 82 3d 9d 54 93 3d 0b c6 a7 bd
       -0.057508007 0.06377016 0.07193873 -0.081920706
000280 61 6f 96 bd 92 79 79 bd 00 97 0a 3c c7 74 12 3d
       -0.073454626 -0.060906954 0.008458853 0.0357559
000290 19 02 2a 3e 97 2e 2d 3e 89 91 e5 bd 86 a0 09 3e
       0.16602363 0.16912304 -0.11209399 0.13440141
0002a0 e7 9c 13 3d 75 f6 50 3e 82 46 aa bd 10 23 71 3d
       0.036038306 0.20406516 -0.083142295 0.05887133
0002b0 91 05 28 3e bc 20 1b 3c 27 37 0f be ef eb 2c be
       0.16408373 0.009468254 -0.13985883 -0.16886877
0002c0 15 6d c8 bd f3 98 ce 3d 95 21 14 3c 70 dc 41 3d
       -0.09786431 0.100877665 0.00904121 0.047329366
0002d0 83 29 ca 3d cf 51 ec bc b2 5c 6c bd 37 c9 ec bc
       0.09871199 -0.028847603 -0.05770559 -0.02890454
0002e0 6e 35 da 3d 13 3c b9 3d 4b 69 80 bd 1c 79 4d 3d
       0.10654722 0.090446614 -0.06270083 0.050164327
0002f0 0e d0 54 3e b7 f2 09 bd e0 32 a3 3e f4 82 b1 3d
       0.20782492 -0.033678737 0.31874752 0.086675555

decoder_rnn.weight_ih_l0 f4 [192, 64]
000000 a0 1a 78 81 89 c7 bf 00 94 0e 36 01 b0 6f d7 00
       -4.5569509e-38 1.761216e-38 3.343858e-38 1.9784698e-38
000010 d3 21 73 01 fa c3 40 81 40 79 9e 80 e5 a7 83 01
       4.465632e-38 -3.5405437e-38 -1.4553505e-38 4.8362717e-38
000020 d8 ef 7b 81 12 42 2a 01 5d 1d 85 81 6e 76 03 00
       -4.6273499e-38 3.1271472e-38 -4.889862e-38 3.17991e-40
000030 68 fb 07 81 e6 c0 7f 01 d1 6b 90 80 34 05 9a 01
       -2.497596e-38 4.69745e-38 -1.3262989e-38 5.657813e-38
000040 7e ea 55 80 3f 5e 5c 81 1d 15 33 81 fa 13 39 01
       -7.890137e-39 -4.0475237e-38 -3.2892256e-38 3.3993466e-38
000050 e4 46 75 01 48 83 6c 01 10 53 bc 80 c0 fc 75 01
       4.5050255e-38 4.3440544e-38 -1.729487e-38 4.5180732e-38
000060 0e f8 86 01 f2 ef 87 81 4b 47 79 01 a4 8d 89 81
       4.9579767e-38 -4.993547e-38 4.5785227e-38 -5.0529096e-38
000070 e5 e5 62 81 bc 1d 91 81 0c 4f 0d 00 ad 6f 86 81
       -4.1674586e-38 -5.3307255e-38 1.222218e-39 -4.9384073e-38
000080 47 0c dd 00 54 61 85 00 1e 6c 9d 81 30 14 3b 80
       2.0300049e-38 1.2249036e-38 -5.782783e-38 -5.425536e-39
000090 08 a2 94 81 94 2b d4 00 7e 2e 9e 01 bc 49 7a 00
       -5.4599117e-38 1.9484758e-38 5.8106747e-38 1.1230381e-38
0000a0 eb c3 ae 81 5e c3 89 01 9d 0a 26 81 88 f7 4a 00
       -6.4198634e-38 5.060619e-38 -3.0497e-38 6.884624e-39
0000b0 ae 0a 67 00 20 0b 64 81 e4 f6 8f 00 ee 9c 4d 81
       9.462887e-39 -4.1884968e-38 1.3221044e-38 -3.7765145e-38
0000c0 ee 21 f2 80 4a 13 3b 00 dc 4d 74 81 90 16 7c 80
       -2.2236362e-38 5.425214e-39 -4.4871583e-38 -1.1395695e-38
0000d0 f9 b6 4f 80 b8 ae 71 80 3c 55 25 81 ea 6c 86 01
       -7.320642e-39 -1.0440088e-38 -3.0366866e-38 4.938011e-38
0000e0 95 fb e8 80 80 ae 92 00 28 3d 15 01 43 d5 01 80
       -2.1396086e-38 1.3470581e-38 2.7410855e-38 -1.6834e-40
0000f0 e0 d4 d5 00 44 da 29 80 6d 69 a0 01 86 96 2a 00
       1.9637326e-38 -3.843554e-39 5.8925996e-38 3.911088e-39
000100 b4 e1 9f 01 d8 0f 00 01 32 45 d8 80 ff 87 2a 00
       5.8731244e-38 2.3521254e-38 -1.986129e-38 3.905877e-39
000110 f1 2e b7 81 1c 3c 6c 01 f2 d1 5e 01 28 ce d4 00
       -6.729094e-38 4.338948e-38 4.092559e-38 1.954308e-38
000120 4e d2 36 01 ec f5 53 01 3e 91 8f 01 6b 7f 29 80
       3.3579007e-38 3.893102e-38 5.2738316e-38 -3.810964e-39
000130 ec d4 f4 80 14 bd 24 81 88 90 9e 81 06 2b f2 80
       -2.2484243e-38 -3.02577e-38 -5.8247426e-38 -2.2239624e-38
000140 86 a6 48 01 fa b5 a6 01 8b 60 06 80 e8 85 3c 00
       3.6853673e-38 6.1239893e-38 -5.85646e-40 5.558166e-39
000150 2d 53 c3 00 00 1e 81 80 cf 43 07 00 63 8f 80 81
       1.793776e-38 -1.1857541e-38 6.67174e-40 -4.7225524e-38
000160 77 1a 3a 01 24 a0 91 01 6d 81 06 81 67 aa b6 01
       3.4181792e-38 5.349438e-38 -2.4704771e-38 6.7100757e-38
000170 8c c1 dd 00 b6 07 d0 80 74 1e b3 01 62 fd 00 81
       2.0365076e-38 -1.910455e-38 6.5797913e-38 -2.369168e-38
000180 68 e7 8b 00 81 b1 31 81 aa 79 87 01 e4 d9 e8 80
       1.2848147e-38 -3.2637118e-38 4.976575e-38 -2.1384e-38
000190 91 0b 4d 00 4f be 58 81 0c 7e 9e 00 08 0d 94 80
       7.075482e-39 -3.9809474e-38 1.4555225e-38 -1.3596328e-38
0001a0 19 75 8e 01 8c da a4 81 be 8c 84 81 3e f2 52 81
       5.233059e-38 -6.0557685e-38 -4.8691097e-38 -3.874471e-38
0001b0 fc 76 7b 81 ca 5e 8f 01 b4 23 8f 00 9f 92 be 01
       -4.6186786e-38 5.266592e-38 1.3145284e-38 7.000537e-38
0001c0 1a 9b 49 01 98 df 92 01 d6 aa 8e 01 06 8d c3 80
       3.702915e-38 5.395277e-38 5.24077e-38 -1.7958511e-38
0001d0 b6 9b ca 80 78 1c 37 80 58 e0 a2 01 a6 37 b3 81
       -1.8606629e-38 -5.061165e-39 5.983132e-38 -6.5834067e-38
0001e0 22 05 35 81 36 96 20 81 34 41 5b 81 84 8f f7 00
       -3.3248132e-38 -2.949513e-38 -4.0270728e-38 2.2734851e-38
0001f0 20 6a 9a 80 48 ec 79 80 4a 4e 2f 01 da 8a 08 01
       -1.4180737e-38 -1.1196857e-38 3.2198593e-38 2.5078876e-38
000200 cc 13 81 00 fc 43 d8 00 34 69 86 00 b0 de fb 00
       1.1853881e-38 1.9860855e-38 1.2343696e-38 2.3130595e-38
000210 ef fd 92 01 18 6b 18 81 7e 75 43 81 7c 33 6b 01
       5.3996307e-38 -2.7994827e-38 -3.590014e-38 4.3199621e-38
000220 04 7a 25 01 fe 58 37 01 64 35 5f 01 6b fc 13 01
       3.0393256e-38 3.367564e-38 4.0996937e-38 2.7180737e-38
000230 8a 0f 5c 01 34 32 64 01 24 3d a3 81 c8 9e 89 81
       4.0418767e-38 4.1913005e-38 -5.9964476e-38 -5.055369e-38
000240 ea 6a 8a 80 84 3e 88 01 98 4f 5e 81 b6 30 80 01
       -1.2711652e-38 5.0048215e-38 -4.0832066e-38 4.708967e-38
000250 7e c7 4f 81 7e 33 76 01 b8 4b 0d 81 1e 87 ce 00
       -3.8163024e-38 4.5220008e-38 -2.5951935e-38 1.8966583e-38
000260 72 2c e6 00 8e 26 14 00 d2 12 af 01 76 6e 82 00
       2.1138108e-38 1.850541e-39 6.4311853e-38 1.197824e-38
000270 d6 7b 20 81 54 db 3a 01 92 c7 24 81 b8 68 4b 01
       -2.9476207e-38 3.4320165e-38 -3.0265227e-38 3.7360343e-38
000280 4d 45 85 80 14 ba 1f 00 83 d4 57 01 e6 52 31 00
       -1.2238981e-38 2.913653e-39 3.9641733e-38 4.529678e-39
000290 18 ca ae 80 3b ce af 01 88 d1 79 81 d6 5e 73 80
       -1.6051874e-38 6.4580774e-38 -4.5884408e-38 -1.0595103e-38
0002a0 e8 82 df 80 30 85 45 01 ee 92 53 00 18 10 65 80
       -2.0526276e-38 3.6278743e-38 7.675055e-39 -9.281158e-39
0002b0 62 3e 12 01 f0 08 42 01 e8 88 2b 00 c8 39 23 81
       2.6860722e-38 3.5638585e-38 3.998039e-39 -2.9979828e-38
0002c0 30 a5 ee 80 3e 27 57 00 3e 88 23 81 65 c2 9b 01
       -2.1916106e-38 8.003766e-39 -3.003612e-38 5.721695e-38
0002d0 45 64 70 01 0a e1 72 81 90 eb 9b 80 00 52 af 80
       4.4152978e-38 -4.4609838e-38 -1.4319006e-38 -1.6100628e-38
0002e0 38 6f 2f 01 6e be bd 01 a9 77 8f 81 74 fb 6f 81
       3.222222e-38 6.970089e-38 -5.270161e-38 -4.4077776e-38
0002f0 8e 28 74 81 3f 86 82 01 a8 80 58 01 a6 15 d1 80
       -4.484482e-38 4.794709e-38 3.976524e-38 -1.9201385e-38
000300 8c 4b 92 81 f2 5d 98 01 50 4b 77 00 5a 4c 58 81
       -5.3740334e-38 5.5970787e-38 1.0955441e-38 -3.9727714e-38
000310 e8 7f 1c 81 37 ca ae 01 dd ef e7 00 c4 85 66 01
       -2.8744443e-38 6.420767e-38 2.1300046e-38 4.23403e-38
000320 30 ce 3a 00 0e 3d ae 00 50 d5 6e 81 2c 35 3f 81
       5.400425e-39 1.6001279e-38 -4.386674e-38 -3.5119308e-38
000330 7a 42 19 01 28 11 6a 00 30 8c 75 00 75 14 0a 81
       2.8149356e-38 9.740717e-39 1.0795043e-38 -2.5361274e-38
000340 c3 4c 1f 81 ba 3b 4e 01 30 ce 40 81 08 91 b1 80
       -2.9258762e-38 3.7879076e-38 -3.5412763e-38 -1.630691e-38
000350 50 ea 38 80 e2 f5 e9 00 d8 f9 b1 81 92 32 b7 01
       -5.226843e-39 2.1485877e-38 -6.537804e-38 6.729615e-38
000360 50 12 20 81 c8 3d 58 81 a6 83 62 81 ae 16 08 01
       -2.9400497e-38 -3.971726e-38 -4.1604097e-38 2.4995527e-38
000370 32 e0 71 01 04 10 fb 80 1a 66 0e 01 49 89 3a 80
       4.442556e-38 -2.3056455e-38 2.6154535e-38 -5.375707e-39
000380 1c c6 c8 80 b4 c1 9d 80 34 a5 cc 00 9a e3 51 81
       -1.8438167e-38 -1.448766e-38 1.8793705e-38 -3.8550534e-38
000390 2e d1 8a 81 72 b0 2d 81 c2 22 4b 81 ad 1b 2b 81
       -5.099335e-38 -3.1901675e-38 -3.731015e-38 -3.1427596e-38
0003a0 0f cd 89 01 f6 e5 16 81 72 7b 49 01 b2 03 ac 81
       5.0620097e-38 -2.7715638e-38 3.7006437e-38 -6.3188124e-38
0003b0 b0 c7 c0 00 39 7c 72 01 62 4d 6f 81 26 3e 6e 81
       1.770405e-38 4.4537506e-38 -4.3952887e-38 -4.3758285e-38
0003c0 02 52 c0 80 d0 dd 23 81 2b 6b 98 81 f8 23 83 81
       -1.7661834e-38 -3.0097514e-38 -5.598976e-38 -4.817341e-38
0003d0 f4 fc fb 00 78 de 42 00 0a 38 b9 01 23 2f 0b 81
       2.3141452e-38 6.14095e-39 6.803868e-38 -2.5564087e-38
0003e0 fa f3 8c 81 98 c2 33 80 f4 f6 54 00 2e 77 96 00
       -5.1777967e-38 -4.753417e-39 7.802772e-39 1.3818078e-38
0003f0 fa 29 39 00 a0 3d de 80 20 96 b1 81 cf 17 87 01
       5.249682e-39 -2.0409587e-38 -6.523495e-38 4.962533e-38

decoder_rnn.weight_hh_l0 f4 [192, 64]
000000 e1 6c de bd 21 9d d0 bc 3d 1b 9e 3d da d6 ed bd
       -0.10860611 -0.02546555 0.07720039 -0.11613245
000010 0a e9 23 3d 70 e4 ea 3d b6 af d3 3d e9 da 64 3d
       0.040017165 0.11469352 0.103362486 0.05587283
000020 40 ec 13 bb 36 0e 0f 3d 6f ee 06 be f1 14 a3 bd
       -0.0022571236 0.034925662 -0.13176893 -0.07962979
000030 ba 16 72 bd 1b 7e 1b 3e ee 12 51 3e 7e 8e 64 3d
       -0.059103705 0.15184824 0.20417377 0.055799954
000040 9b cc f1 bd 4a 4e 73 bd 9b 9d d7 bd ba cf 0e 3e
       -0.118066035 -0.059400834 -0.10528108 0.13946429
000050 17 79 b2 3d 3d ca 4d 3d 65 64 31 be c1 91 ad bd
       0.08714502 0.050241698 -0.17323454 -0.08475066
000060 5b 49 30 3e 5c 5d 4b 3e e9 85 99 3d a0 a8 52 be
       0.17215483 0.19859833 0.074962445 -0.20572138
000070 93 a0 ca bd fd 17 21 bd 29 af eb bd f0 b1 47 bd
       -0.09893908 -0.039329518 -0.115080185 -0.04875368
000080 5c 78 94 bc 3c ca 2f 3e 1f ae 82 be aa 97 65 3c
       -0.018123798 0.1716699 -0.2552347 0.01401321
000090 cb d5 1f 3d 03 10 d6 ba 1d f0 b8 bc e1 71 29 3e
       0.03902225 -0.0016331676 -0.022575432 0.16547348
0000a0 bf 2f 09 3e eb d8 9e 3e c7 69 eb bd 72 7a 48 3e
       0.1339712 0.3102487 -0.11494785 0.19577959
0000b0 24 17 0c 3e 66 fa e5 bc 52 fe 0f 3e 0e 31 0f bd
       0.13680702 -0.0280735 0.14061859 -0.03495889
0000c0 fa 7d 37 be 89 02 62 be 48 13 7b 3d 8b 9d b2 bc
       -0.1791915 -0.2207128 0.061297685 -0.021803638
0000d0 2f 53 5d be 80 e9 10 3d dc 25 02 bc 4b 94 37 3a
       -0.21613763 0.035378933 -0.007943597 0.00070029934
0000e0 1c 57 ac 3d d9 fc fc 3c 5c a5 42 3d 55 f4 83 3d
       0.08415052 0.030882286 0.04752098 0.06443087
0000f0 99 19 0c 3e 3f ab bd 3b 90 ea 02 3e a5 5f 18 3d
       0.1368164 0.0057882364 0.12784791 0.03720059
000100 f6 ea 61 3e 7a be 32 3e 6d c3 a1 3c f1 c3 26 be
       0.22062287 0.17455474 0.019746507 -0.16285683
000110 25 f8 13 3d 1f 77 4f 3e a2 24 0f be ae 0a 3b 3d
       0.03612532 0.20260285 -0.13978818 0.04566448
000120 45 2b d4 bd 0a f1 aa bd 95 8e 2b 3d c8 e3 78 bd
       -0.103598155 -0.08346756 0.041884024 -0.060764104
000130 7b b5 05 3e e3 c7 1a be f5 e6 41 3e 9a 35 da be
       0.1305751 -0.15115313 0.1893576 -0.4261902
000140 0b 62 76 be e8 24 82 3d 35 2b fb bd 50 f2 50 bd
       -0.24060838 0.063546956 -0.122641005 -0.051012337
000150 a7 a9 07 3e 0a 4c 0d bd 9f a7 27 3e 8a 52 0b bd
       0.13248311 -0.034496345 0.16372536 -0.034014262
000160 2e 20 ac bc e5 9c c0 bd e6 60 d9 3d f1 a8 96 3e
       -0.021011438 -0.09404925 0.10614185 0.29425767
000170 1f 9a 75 3d a0 39 c9 be eb 50 a9 3d f3 3d 32 3e
       0.059961434 -0.39301777 0.08267387 0.17406444
000180 09 00 ce 3d 9f b5 d1 3d 88 48 41 3b 82 82 75 bd
       0.100586005 0.102397196 0.0029492695 -0.059938915
000190 19 97 ca bd 82 50 0d be 3d e2 00 be 3a 57 cc bd
       -0.09892101 -0.13800243 -0.12586303 -0.09977575
0001a0 32 87 b1 3e ae c9 5e be 42 7a 1c be 8e 2e 9b 3c
       0.34673458 -0.21756622 -0.15281013 0.018943097
0001b0 fe c1 8b be 6b ec 22 bd 09 a8 02 3e 26 fa 4d 3d
       -0.27296442 -0.039776247 0.12759413 0.05028739
0001c0 50 2f 0e 3e c4 bc 9f bd 23 aa 01 3d a7 1d a5 3c
       0.13885236 -0.07799676 0.031656396 0.02015574
0001d0 1b c6 8c 3e 80 e7 8b 3e 3a e5 80 be 27 4f 40 be
       0.27494892 0.27325058 -0.25174886 -0.18780194
0001e0 63 5e 66 bd ed 1d a7 3d df 1c bf bd 0d d5 29 bd
       -0.056242358 0.08160005 -0.093316786 -0.041462947
0001f0 20 2d c8 be e4 23 00 3e 98 eb 27 3b 5e b1 59 be
       -0.39096928 0.12513691 0.0025622603 -0.21259066
000200 68 ef 99 3b 5e f6 58 bc 1b d6 18 be c2 69 9f 3c
       0.004697729 -0.013242332 -0.14925425 0.019459609
000210 e1 c0 0b 3e 85 dc 76 bb 85 ba c9 bd 6f 31 a8 bb
       0.13647796 -0.003766806 -0.09850029 -0.005132846
000220 f3 0d 22 be bf e3 2d be 1f 22 47 3e ef e9 5b bd
       -0.15825634 -0.1698141 0.1944661 -0.053689893
000230 01 61 a2 bc 16 84 13 3e 56 41 f2 3c d1 53 dc bc
       -0.019821646 0.14405856 0.02957217 -0.026895436
000240 21 48 23 be 05 95 90 3e a5 10 11 be af fe 96 bd
       -0.15945484 0.28238693 -0.14166506 -0.07372796
000250 fb b0 9b 3e c9 5c 80 3e 2f 1f be bd 88 f5 85 bc
       0.30408463 0.2507079 -0.092832915 -0.01635243
000260 c0 f9 8b bd e8 a4 be 3d 62 32 77 3c 84 87 40 3d
       -0.068347454 0.09308797 0.015087696 0.047004238
000270 07 ef 4d bd d2 e6 e7 bd 33 a9 47 be 22 4e 01 bb
       -0.050276782 -0.11323322 -0.19498138 -0.0019730409
000280 64 4f 55 3e 0a 5e 02 3e 84 93 c1 3d 80 be 55 be
       0.20831066 0.12731186 0.094519645 -0.20873451
000290 f9 7b 59 bd 64 61 68 3b 42 55 e8 3d bf e4 a1 3d
       -0.053096745 0.003545844 0.11344387 0.07904958
0002a0 c1 cf 0b be 14 fb fa bd 11 c0 2e be a2 2c 3e bc
       -0.1365347 -0.122549206 -0.17065455 -0.011607321
0002b0 0a cd 20 3d 2e b4 dd 39 21 03 a1 3d 53 73 f1 3d
       0.03925804 0.0004228665 0.07861925 0.117895745
0002c0 49 5d 28 3e 77 8f 4d bd 20 5c b1 3d f1 b7 12 be
       0.16441835 -0.050185647 0.086601496 -0.1432798
0002d0 a6 ac cd bd 69 87 81 3e f3 76 2a bd a4 01 f2 bc
       -0.10042696 0.25298622 -0.041617345 -0.029541798
0002e0 90 d6 95 bd 54 8d 2d be 00 42 b8 3d 3b ec 62 be
       -0.07316315 -0.16948444 0.089969635 -0.22160427
0002f0 46 eb fa bd 2d 10 ec 3d fc 90 45 be 6a 19 8a bd
       -0.12251906 0.11526523 -0.19293588 -0.067431286
000300 b2 bf 85 3e f9 ca 60 bc ea 5e 1a 3e be ce 1f be
       0.26122814 -0.013720267 0.1507527 -0.1560621
000310 50 20 5b 3e 0d 28 39 be 19 c8 c5 bd 23 c0 d1 bd
       0.21399045 -0.18081684 -0.09657306 -0.10241725
000320 64 1e 75 be ef df 4d bd ef 83 d7 3d 86 be 5f 3c
       -0.23937374 -0.050262388 0.10523211 0.013656264
000330 39 49 14 be 60 b3 47 3d 69 78 3a be be 3e 8c 3d
       -0.14481057 0.04875505 -0.18209995 0.068479046
000340 4d 6b 91 3e 08 8b 3c 3d 4a 90 e1 bd 19 fe 52 be
       0.28402176 0.046031028 -0.11013849 -0.20604743
000350 0b 9f a6 bd ab 90 32 3e 53 2c 3e 3e 66 fc 5b bd
       -0.08135804 0.17437999 0.18571596 -0.053707503
000360 2d e9 11 be 83 cf 14 bd 7a 5e 37 be 3e 54 43 3e
       -0.14249106 -0.03633071 -0.17907134 0.19075105
000370 2b 8e dc bd 70 55 18 be 7a 15 70 bd bf 07 28 3e
       -0.10769304 -0.14876342 -0.05861423 0.16409205
000380 1a d4 45 3e 83 0c 4a 3e c4 80 0e be f0 a9 de bd
       0.19319192 0.19731335 -0.13916308 -0.10872257
000390 3b 18 26 be f3 d8 11 be f9 03 39 3e 2b be 8a 3c
       -0.1622018 -0.14242916 0.18067922 0.016936382
0003a0 37 45 65 be 29 56 6c be cc e1 b4 3d 55 7c 0a be
       -0.22389685 -0.23079742 0.0883213 -0.13523991
0003b0 f8 04 24 be 09 72 1d 3e e4 d9 b2 3d 4d ca 58 3e
       -0.1601752 0.15375532 0.087329656 0.21170922
0003c0 41 31 7b 3e c6 90 0b be 13 81 2b 3e ac 99 54 be
       0.24530508 -0.13629445 0.16748457 -0.20761746
0003d0 ac b5 e3 bd d2 b6 84 bd 91 73 16 be 80 6e 2c be
       -0.111186355 -0.06480183 -0.14692523 -0.16839027
0003e0 f9 2b 3e be bf ee 4f 3e 78 5f 0d 3d 3b 00 df bd
       -0.18571462 0.20305918 0.034514874 -0.10888716
0003f0 61 d5 11 3e 92 f4 8a 3e 2e d8 cc bd 09 af cb 3d
       0.14241554 0.27139717 -0.100021705 0.09945495

decoder_rnn.bias_ih_l0 f4 [192]
000000 07 29 4c 3e f3 82 41 be 91 c6 6c 3e 9d 96 95 bd
       0.19937526 -0.1889761 0.23122622 -0.07304118
000010 eb 38 8d 3d a2 49 97 3d 48 7d e9 bb ef 18 02 bd
       0.06895622 0.07387091 -0.0071255304 -0.03176206
000020 82 b9 87 bd d9 63 60 3d 6a 76 97 3d ac 0d 08 3e
       -0.0662718 0.054782722 0.073956326 0.13286465
000030 73 6c 78 3c 97 30 00 3e 76 40 d9 3d ff c8 70 bd
       0.015162575 0.12518536 0.10607998 -0.058785435
000040 d0 7c 87 3c d2 a8 fc 3d c9 4d 91 3d 6e 51 5e 3c
       0.016539007 0.123368874 0.070949145 0.013569219
000050 df a5 54 3e 3c 3b f4 3d 66 9b 05 3e 3b e2 8c bd
       0.207664 0.119253606 0.13047561 -0.068790875
000060 16 62 00 be 70 96 7c 3e d2 49 8f 3d 89 7d 84 3d
       -0.12537417 0.24666762 0.06996502 0.064692564
000070 01 bc f9 3d b4 c2 84 3d d7 e4 bf bc bc 7e 87 3d
       0.12194062 0.06482449 -0.023424549 0.066159695
000080 b7 12 b1 3d be 17 04 3e 0d 55 e4 3d 93 85 be 3d
       0.08646148 0.12899682 0.11149035 0.09302821
000090 6a c4 5d 3c 3d d0 1c 3e ec 58 3c 3b fe dc bd 3d
       0.013535598 0.15313812 0.0028739525 0.092706665
0000a0 7b 00 9d 3e 40 92 dd bd 66 39 02 3e 5f e4 d7 3d
       0.3066443 -0.108189106 0.12717208 0.10541605
0000b0 5c 5f 31 3d 04 6a 22 bd d1 5c 7e 3c 4f db 03 3e
       0.043303832 -0.039651886 0.015525059 0.12876628
0000c0 00 23 e4 bd 39 ef bc 3d 48 c1 03 3d cc d2 2b 3e
       -0.11139488 0.092253156 0.03216675 0.16779631
0000d0 f1 63 b7 3c 61 37 b6 bd 12 04 49 3d 66 3d fa bd
       0.022386523 -0.088972814 0.049076147 -0.12218742
0000e0 cb f7 c7 3d 55 af 32 3d db 8a d8 3d 2c 38 60 3c
       0.0976406 0.04362424 0.105733596 0.013685267
0000f0 56 db 18 bd cd 02 12 3e 42 8f 0e 3d 9c 91 a6 bd
       -0.03731855 0.14258881 0.03480459 -0.081332415
000100 c5 f9 b0 3e e1 a4 ce 3e c2 47 15 3f 6b ec ae 3e
       0.3456556 0.40360168 0.5831262 0.34164748
000110 9e 94 37 3e 19 8d 8a 3e 40 fb 94 3e 7d 4b b9 3e
       0.17927787 0.27060774 0.2909794 0.36190405
000120 6e 9d ac 3e fc 5e b2 3e 51 ae bf 3e c3 40 03 3f
       0.3371386 0.34838092 0.3743768 0.51270694
000130 b8 12 34 3e 5f 09 a3 3e 7e b6 f6 3e ed de 40 3f
       0.17585266 0.31843087 0.48186105 0.7534016
000140 29 39 22 3f cf 59 43 3e 09 0b b3 3e 6d c1 e6 3e
       0.6336847 0.19077228 0.34969357 0.45069447
000150 24 b6 ca 3e 8e a3 7c 3e c6 91 ec 3e 02 2b 82 3e
       0.39592087 0.24671766 0.46204966 0.25423437
000160 13 3d 70 3e 6f c9 88 3e f2 39 13 3e a4 5f 1c 3f
       0.23460798 0.26716182 0.14377573 0.61083436
000170 e7 80 92 3e 2d 3f e6 3e ac a4 6d 3e 0a 0b 4e 3e
       0.2861397 0.44970074 0.23207349 0.20121399
000180 2a 12 9d 3e 99 c6 2a 3f 7c b2 ff 3e 16 05 bd 3e
       0.3067792 0.66709286 0.4994086 0.36917943
000190 4e 9e 4f 3e 00 3d 82 3e 7a 90 c7 3e 29 a8 9d 3e
       0.20275232 0.25437164 0.38977414 0.3079236
0001a0 83 41 ec 3e 52 cd 2b 3d 41 14 1b 3f f2 39 e6 3e
       0.4614373 0.041943856 0.6057778 0.44966084
0001b0 21 49 e0 3e b1 01 a7 3e 17 ff d6 3e b1 ee a4 3e
       0.43805793 0.32618478 0.41991493 0.32213357
0001c0 8a 89 93 3e 39 55 eb 3e 81 ba 29 3e c0 e8 a6 3e
       0.2881587 0.45963457 0.16575052 0.3259945
0001d0 6f cf 5a 3e a8 e5 99 3e 26 cc dd 3e 6b 3c 6b 3e
       0.21368192 0.30058026 0.43319815 0.22972266
0001e0 f4 78 8b 3e 3a 53 f4 3e 49 9d 18 3f 1d bc 6c 3e
       0.27240717 0.47719747 0.59615 0.23118635
0001f0 02 cd d5 3e 9b 20 b6 3e 65 76 f9 3e 27 54 33 3e
       0.4175797 0.3557175 0.4872314 0.1751257
000200 a5 0b 6c 3d 4f f7 a5 3c bf 0d d0 3c 09 b2 9c 3d
       0.057628293 0.020259527 0.02539718 0.07651145
000210 69 d9 f7 3c 38 92 68 3d 97 b0 a2 bd 91 44 94 3d
       0.030255036 0.05678007 -0.07943838 0.072396405
000220 ba 3e 4f 3d ab 2a dd 3b 43 5e 90 3d 24 7d 8b 3d
       0.05059693 0.006749471 0.07049229 0.06810978
000230 ae 0f 86 bb e1 05 6b 3d 86 de cd 3d 8e 77 91 3d
       -0.0040912246 0.057378653 0.100522086 0.07102881
000240 e6 73 90 bb 96 a3 d9 bb cd 55 eb bd aa b7 9f bd
       -0.0044083474 -0.0066418154 -0.114909746 -0.07798703
000250 70 c7 fd bc 1e 7f d1 3d c5 d7 ab bd 83 bf ca 3d
       -0.030978888 0.10229324 -0.08390764 0.09899809
000260 69 7c 3c 3c a2 a2 92 3d e7 f4 22 3d d4 3d b0 bd
       0.011504271 0.07159926 0.03978434 -0.08605543
000270 0d 6d 6b bd a0 e1 ca 3d ab ce ce bd d1 0a 35 bc
       -0.057477046 0.09906316 -0.100980125 -0.011049942
000280 39 8e 50 3d f1 64 9e bb 03 da 82 3d 3e fc ae 3b
       0.050916884 -0.0048338105 0.06389239 0.005340128
000290 43 b2 75 3c 02 95 a6 bb 1c f0 b3 3d 6e dd 58 bd
       0.014996114 -0.005083681 0.087860316 -0.052945547
0002a0 d5 da d4 3c 5e c6 b8 3d b0 20 cf bb dd 78 a1 3d
       0.025983253 0.090222105 -0.0063210353 0.07884381
0002b0 57 3e c4 3d f0 08 5b bd d4 af 04 bb 2d 1b 76 3d
       0.09582203 -0.05347532 -0.0020246403 0.06008451
0002c0 ef 91 f1 bd ed 87 62 3c f5 1c af 3d 6e 34 5b bd
       -0.11795413 0.013826353 0.08550445 -0.053516798
0002d0 e5 eb 81 bd c9 55 c1 3c 42 e6 21 3e 7f 65 de 3c
       -0.063438214 0.023600476 0.15810493 0.027148006
0002e0 3a 8f 5f 3d a7 8d 7e bc 89 16 9b bc de 41 07 bd
       0.05457995 -0.015536702 -0.018931644 -0.0330218
0002f0 e7 15 70 bd e9 b0 d3 bd 8d a5 89 bd 84 a6 50 bd
       -0.058614638 -0.10336477 -0.067210294 -0.05094005

decoder_rnn.bias_hh_l0 f4 [192]
000000 b5 69 4b 3d 79 ae 5f be da 1a dc 3d 86 ec 84 bd
       0.049661357 -0.218439 0.10747309 -0.06490426
000010 a2 5f 8a bc fe 6c 8b 3d 9f 91 43 3e 6f e6 de bc
       -0.016891304 0.06807898 0.19098519 -0.027209489
000020 4d df e0 bd d8 85 01 3e 50 d5 ba 3d 30 85 f0 3d
       -0.10980091 0.12648714 0.091227174 0.117441535
000030 e7 f7 44 3e d6 83 a6 3d 7c 15 86 3d 71 91 15 3e
       0.19235192 0.081306145 0.065470666 0.14606263
000040 ff db aa 3d 6c d0 a9 bd 17 9d 0a 3e b6 8e c9 3d
       0.08342742 -0.082917064 0.13536488 0.09841673
000050 8f eb 92 3e 77 2a 9f 39 de d8 18 3d 9d 77 ab 3d
       0.28695342 0.00030358482 0.037316196 0.08372424
000060 20 f2 72 bd e0 78 06 3e ae e1 07 3e fb 1d 3b 3c
       -0.05931294 0.13132048 0.13269684 0.011420722
000070 f4 64 e2 bc dd 53 ce bc da 22 bd 3d 1b fa 11 3c
       -0.027636029 -0.025186474 0.09235163 0.008909727
000080 6f bf 1d 3c 33 05 cb 3d bf c5 4b 3d 53 f0 a4 3d
       0.009628161 0.09913101 0.049749132 0.08053651
000090 a5 13 47 3d 3d f6 f9 3d f2 7e 0d 3d 75 c9 4d 3c
       0.04860272 0.12205169 0.034544893 0.012560238
0000a0 96 2f 96 3e d7 4b 13 bd 6d 06 33 3c fc c6 7d 3d
       0.2933318 -0.035961 0.010926825 0.061957344
0000b0 04 d0 b8 bb 27 a6 0d 3d a5 e1 86 3d 1b a4 25 3d
       -0.005640032 0.034582283 0.06586007 0.040439706
0000c0 7b 71 20 be 90 e1 03 be db 85 29 bd 18 62 ff 3d
       -0.1566829 -0.12879014 -0.04138742 0.12469882
0000d0 ff 09 df 3d f6 2a d9 bd 29 fa a4 bb e6 dd 1d 3b
       0.108905785 -0.10603897 -0.005034704 0.002408856
0000e0 8e c0 28 3d 50 cb 82 bb f6 81 6e bd af a2 f4 3d
       0.04119926 -0.003991522 -0.05822941 0.11945092
0000f0 24 c9 1c be fe ad 13 3d 3a fe ad 3c cb d4 e6 bc
       -0.15311104 0.036054604 0.021239389 -0.02817764
000100 dd fd a0 3e 6c 2e bc 3e 2d 43 19 3f 31 73 c8 3e
       0.31443682 0.36754167 0.5986813 0.39150384
000110 b3 fc 7c 3e 44 c6 76 3e a1 1d 6b 3e b8 24 bb 3e
       0.24705772 0.2409907 0.22960521 0.36551452
000120 2a e2 9d 3e 0b 58 5f 3e 42 4b f8 3e 82 22 27 3f
       0.30836612 0.2181093 0.48494917 0.6528703
000130 93 bd a1 3e dc 0d c7 3e 10 7a d7 3e 4c fa 14 3f
       0.31589946 0.3887776 0.42085314 0.5819442
000140 e1 42 16 3f 2d 3f c4 3e 64 be 8d 3e 4d f9 ef 3e
       0.586958 0.3832945 0.2768432 0.4686989
000150 04 d5 c7 3e 11 a5 7c 3e 57 c3 f9 3e 78 20 6d 3e
       0.39029706 0.24672343 0.48781845 0.23156917
000160 e6 3d 34 3e 02 54 a1 3e c2 68 a8 3e 31 63 d9 3e
       0.17601737 0.31509405 0.32892424 0.4245849
000170 e2 ab cb 3e 0e 14 88 3e c6 e7 4b 3e e3 50 61 3e
       0.39779574 0.265778 0.19912633 0.22003512
000180 41 0d c4 3e 26 22 12 3f 46 f7 1e 3f f9 73 8a 3e
       0.38291362 0.57083356 0.6209606 0.27041605
000190 0b f3 8d 3e db 6c a4 3e 59 88 d8 3e e0 5b d5 3e
       0.2772449 0.321143 0.42291525 0.41671658
0001a0 74 87 be 3e 20 99 47 3e a2 ec 09 3f f8 0d c5 3e
       0.37212718 0.19492006 0.538767 0.3848722
0001b0 b2 79 6a 3e a0 b5 a5 3e dc eb aa 3e af 69 c5 3e
       0.22897986 0.3236513 0.3338307 0.38557193
0001c0 58 52 00 3e 72 30 cf 3e a1 6f a9 3e f1 47 35 3e
       0.12531412 0.40466648 0.3309298 0.17703225
0001d0 71 42 56 3e 79 9f 51 3e 17 99 f6 3e a0 42 6f 3e
       0.20923783 0.2047099 0.48163673 0.23365259
0001e0 f2 60 a5 3e ef cf f7 3e 17 ec 17 3f bb a2 b8 3e
       0.32300526 0.48400828 0.5934462 0.36061653
0001f0 c7 f6 de 3e 47 24 c8 3e 38 29 a7 3e 08 a8 c1 3d
       0.4354765 0.39090177 0.32648635 0.094558775
000200 0e dc 0e 3d c8 8c 47 3c c4 ae 13 be 83 79 aa 3c
       0.03487783 0.012179561 -0.14422137 0.020809894
000210 5c 02 f5 3d 8a e4 f4 bd 08 ab e1 3d a8 3e c3 bd
       0.11963341 -0.11957653 0.1101895 -0.09533435
000220 4c 24 7c bd 98 ea 12 bd b6 2e ad bd 43 87 01 be
       -0.061558053 -0.035868257 -0.08456175 -0.12649255
000230 7c 0a 96 bc e1 66 98 bc 5c 4d 8f 3d 5f c9 f1 3c
       -0.018315546 -0.018603744 0.06997177 0.029514967
000240 b3 e9 31 3d 9e e2 d8 3d 5a b4 fb bd 30 0f e4 3d
       0.043435764 0.10590099 -0.12290259 0.11135709
000250 84 5b 8d 3c c8 34 58 bc fd aa 81 3d ea 30 97 bd
       0.017255552 -0.013196178 0.063314416 -0.073823765
000260 1d d2 a8 bc f5 37 91 bb fb 6d c3 3d e7 f8 c4 3c
       -0.020608002 -0.0044317194 0.095424615 0.024044467
000270 8a c6 66 bd a6 59 63 bd 87 5c f2 38 4f 37 98 3c
       -0.056341685 -0.055505417 0.00011556694 0.01858106
000280 85 8e 5d 3c ae 95 19 3d 51 ab f3 bd 88 bf 34 bd
       0.013522749 0.03749626 -0.118979104 -0.04412797
000290 39 79 b5 bd 79 cf e5 3c 93 e2 48 bd e4 d5 88 3d
       -0.08861012 0.028053032 -0.049044203 0.066814214
0002a0 34 85 bd 3d 93 03 39 3c 4f 4d 5e bd 67 e2 b9 3d
       0.09253922 0.011292356 -0.054272946 0.09076386
0002b0 3e 8a 11 bd 34 dc 7d bd 81 d2 aa 3d e4 ea ef bb
       -0.03553223 -0.06197758 0.08340932 -0.0073217023
0002c0 47 bd cf bc 8c 20 57 bc 33 9c 73 3c 65 b0 c1 3d
       -0.02535881 -0.013130318 0.014868784 0.09457473
0002d0 ac c3 ab bd e5 8a c8 bd 76 af 49 3c 53 db ed 3d
       -0.08386931 -0.09792117 0.0123099 0.116140984
0002e0 bb 5d ac bd fb 8d 8f bb 0a b6 cc bc 14 ca b5 bd
       -0.08416315 -0.004380939 -0.024989147 -0.08876434
0002f0 b3 c3 26 3d 0b 3c 4a 3d 26 77 09 bd c9 d0 6a bc
       0.040713977 0.049373668 -0.033560894 -0.014332005
