Rudi/checkpoints_02/checkpoint_epoch_99.pth (torch, 587118 bytes, 30 tensors)

encoder_rnn.weight_ih_l0 f4 [192, 40]
0.24517207 -0.10253403 -0.18830986 -0.11000954 -0.08622955 -0.15542212 -0.11643511 -0.0053300946
-0.09274537 -0.1204702 0.040673178 -0.10608016 -0.11065131 -0.008096277 -0.096044585 0.068456724
-0.084723465 0.016495332 -0.053321715 -0.09916591 -0.13517223 0.011605546 -0.23512363 -0.033801682
-0.09548612 0.006447041 0.046101116 0.07438168 0.14574839 -0.065038495 -0.14780945 -0.03796232
-0.0852648 0.11950889 -0.042596653 -0.1615457 -0.10568868 -0.09717348 -0.16592173 -0.10478304
-0.054550882 -0.084475435 -0.08190586 0.012558537 -0.03829062 -0.030307978 0.013440695 -0.03735888
-0.15682535 0.01133961 0.040953506 -0.15307686 0.0012848555 -0.021671513 0.14437199 0.15106086
-0.037876923 0.19995052 0.12996854 0.11025876 0.07145173 0.061189603 0.008585053 0.11080753
0.09593377 -0.0035645254 0.019513836 -0.003722597 -0.09801938 -0.042481035 -0.121353775 -0.098747455
0.004468657 -0.09081176 -0.07924271 -0.049757075 -0.14334123 0.039912324 -0.05367344 -0.056249905
0.09045762 -0.17358372 0.18280797 0.08154488 -0.13537164 0.04307025 -0.1374163 0.16373451
0.17905791 0.098855674 -0.05419763 0.030593425 0.07093952 -0.07192519 -0.06198988 -0.07578697
-0.11738258 -0.013786643 0.024360593 -0.09223991 -0.029924631 -0.11557189 -0.012773861 -0.0020831893
-0.062357996 0.044830002 -0.12206867 0.15678303 -0.11585745 -0.018052312 0.05662744 -0.08125135
-0.018512717 0.03897214 0.01648015 0.019050248 0.05929825 0.12031501 0.15047172 -0.063156724
0.20458512 -0.04971012 0.016078455 -0.08159764 -0.11768551 -0.16326265 -0.08213394 0.06956274
-0.0077086594 -0.10631796 -0.0729435 -0.063288264 -0.12092619 0.097371615 0.034179658 0.005295508
0.032359883 0.05001268 0.0027551258 -0.057835896 0.042628225 -0.05555779 0.037580386 0.13263212
0.028168332 -0.05463398 -0.105022825 0.064171076 -0.0662763 -0.010992574 -0.08716174 -0.22527792
-0.1680743 -0.017259745 -0.0010158558 -0.11826467 -0.12426499 0.09255433 -0.17136295 0.03679963
-0.06022612 0.045213323 -0.11554544 -0.0760796 -0.014488508 -0.1276924 -0.101205654 0.033962257
-0.13499258 -0.15618703 0.057136297 -0.16290429 -0.0060329954 0.05579028 0.075341396 0.027419094
-0.056352273 0.06694215 0.10404945 -0.0028920264 0.11445944 0.112638906 0.15449455 0.09892849
0.10330967 -0.034379456 -0.030546866 0.035840776 0.09481867 0.18190147 0.09772943 0.01833339
-0.020192489 -0.07405093 0.123067126 -0.062267307 -0.17506708 -0.056030434 -0.101051696 -0.055354226
-0.010380256 0.10201182 -0.043685526 -0.079674676 -0.105465606 0.03475677 0.063363425 0.10414729
-0.04698079 -0.086000286 0.016493596 -0.18068174 0.11750163 0.057934377 0.008093756 0.007720162
0.10806521 0.1064627 0.043858737 0.032020416 -0.07618306 -0.111620024 0.107737884 0.056293115
0.099248745 -0.059267025 -0.033448227 -0.040814828 -0.02345059 0.034793768 -0.036216315 -0.0713245
-0.1077679 0.07733318 0.061617356 -0.058231607 -0.1595235 -0.046998195 -0.038077418 0.0024941852
0.17806756 -0.06184906 -0.0746593 -0.12651324 -0.017636599 -0.1915628 -0.07580632 -0.14639908
-0.07572005 -0.19317588 -0.04960182 -0.15821835 -0.21700224 0.012290942 -0.018249402 0.0699972
00000000: 630e 7b3e 5dfd d1bd 4dd4 40be af4c e1bd
00000010: 1e99 b0bd fa26 1fbe 8875 eebd 13a8 aebb
00000020: 49f1 bdbd 15b9 f6bd eb98 263d 8e40 d9bd
00000030: 279d e2bd 3fa6 04bc 06b3 c4bd 0a33 8c3d
00000040: 7f83 adbd 3821 873c df67 5abd 7f17 cbbd
00000050: 976a 0abe 3025 3e3c 40c4 70be a273 0abd
00000060: 3a8e c3bd b341 d33b 86d4 3c3d 6c55 983d
00000070: 113f 153e e732 85bd 5c5b 17be 617e 1bbd
00000080: 509f aebd 14c1 f43d d479 2ebd 3c6c 25be
00000090: 4f73 d8bd e402 c7bd 63e7 29be 7e98 d6bd
000000a0: bf70 5fbd 7501 adbd 42be a7bd 52c2 4d3c
000000b0: a0d6 1cbd 7048 f8bc 5c36 5c3c a005 19bd
000000c0: d396 20be c6c9 393c ddbe 273d 2ec0 1cbe
000000d0: 9968 a83a 7588 b1bc 40d6 133e b3af 1a3e
000000e0: d524 1bbd d4bf 4c3e 7916 053e 58cf e13d
000000f0: 4955 923d f3a1 7a3d 52a8 0c3c 0fef e23d
00000100: ed78 c43d d09a 69bb 7bdb 9f3c d0f6 73bb
00000110: 62be c8bd 9800 2ebd 5488 f8bd 1b3c cabd
00000120: d06d 923b 84fb b9bd 004a a2bd 13ce 4bbd
00000130: 0bc8 12be 1b7b 233d aed8 5bbd 4d66 66bd
00000140: d841 b93d eebf 31be 0332 3b3e 0101 a73d
00000150: dd9e 0abe 6e6a 303d dcb6 0cbe 05aa 273e
00000160: f55a 373e d874 ca3d 56fe 5dbd 109f fa3c
00000170: bd48 913d 844d 93bd 1ae9 7dbd 3336 9bbd
00000180: 4766 f0bd 5fe1 61bc de8f c73c 47e8 bcbd
00000190: 8024 f5bc f4b0 ecbd 7549 51bc 1e86 08bb
000001a0: 196b 7fbd aa9f 373d 24ff f9bd bb8b 203e
000001b0: ac46 edbd 71e2 93bc 2df2 673d 1c67 a6bd
000001c0: fba7 97bc 40a1 1f3d 6101 873c 440f 9c3c
000001d0: b9e2 723d b767 f63d 4215 1a3e 5058 81bd
000001e0: c37e 513e d79c 4bbd f7b6 833c aa1c a7bd
000001f0: 1a05 f1bd 532e 27be d735 a8bd e976 8e3d
00000200: ec98 fcbb 3bbd d9bd 6763 95bd 479d 81bd
00000210: 26a8 f7bd c56a c73d f8ff 0b3d f185 ad3b
00000220: cc8b 043d 19da 4c3d 578f 343b 55e5 6cbd
00000230: ef9a 2e3d 9190 63bd e4ed 193d b7d0 073e
00000240: 46c1 e63c e1c7 5fbd 3516 d7bd 206c 833d
00000250: debb 87bd 321a 34bc db81 b2bd 41af 66be
00000260: ab1b 2cbe 4f64 8dbc 7726 85ba bf34 f2bd
00000270: a57e febd 208d bd3d c579 2fbe 35bb 163d
00000280: aaaf 76bd 9b31 393d 16a3 ecbd 9fcf 9bbd
00000290: 3561 6dbc ccc1 02be e944 cfbd 021c 0b3d
000002a0: 7f3b 0abe 7eef 1fbe c007 6a3d 62d0 26be
000002b0: 6fb0 c5bb 5984 643d 974c 9a3d 029e e03c
000002c0: a4d1 66bd f718 893d e117 d53d 2788 3dbb
000002d0: b669 ea3d 3aaf e63d d233 1e3e 059b ca3d
000002e0: 0594 d33d 79d1 0cbd 6c3d fabc c7cd 123d
000002f0: 4a30 c23d 6144 3a3e 5e26 c83d e82f 963c
00000300: b86a a5bc 04a8 97bd 9e0a fc3d 010c 7fbd
00000310: c944 33be 2b80 65bd 31f4 cebd 1dbb 62bd
00000320: f311 2abc 93eb d03d 98ef 32bd 7a2c a3bd
00000330: 5afe d7bd 1d5d 0e3d afc4 813d 2d4b d53d
00000340: ee6e 40bd eb20 b0bd 941d 873c a204 39be
00000350: b2a4 f03d 994c 6d3d ac9b 043c 6af9 fc3b
00000360: 4b51 dd3d 1e09 da3d 38a5 333d d727 033d
00000370: dd05 9cbd 0a99 e4bd aea5 dc3d 9c93 663d
00000380: ed42 cb3d fbc1 72bd 0201 09bd 732d 27bd
00000390: 741b c0bc e983 0e3d 8f57 14bd 9412 92bd
000003a0: 6bb5 dcbd dc60 9e3d 7b62 7c3d 4484 6ebd
000003b0: 215a 23be 2e81 40bd 11f7 1bbd 7c75 233b
000003c0: 5857 363e 7155 7dbd fae6 98bd b08c 01be
000003d0: a17a 90bc 0a29 44be 5840 9bbd a4e9 15be
000003e0: 1d13 9bbd e6cf 45be 472b 4bbd fe03 22be
000003f0: d635 5ebe f25f 493c c57f 95bc b15a 8f3d

encoder_rnn.weight_hh_l0 f4 [192, 64]
-0.1576383 0.0062641865 0.040771853 0.012362575 -0.037701763 -0.16710211 0.056134567 -0.09653774
0.06972596 -0.049324624 0.10292671 -0.031021181 -0.08626535 0.10485528 -0.0021966544 -0.061917506
0.05594961 -0.006300801 -0.07820742 0.06779823 -0.035431724 0.048638824 0.065522105 -0.060329594
0.186962 0.1995486 -0.2074017 0.004592674 -0.17001282 -0.06392406 0.031785622 -0.08098392
0.0404308 0.05562791 0.035267822 0.01944098 0.12423085 0.111983284 0.11607435 0.25006473
-0.050933056 0.048671376 -0.007499258 -0.082338825 -0.04278587 -0.053108834 0.06172339 0.025241403
0.04460028 0.044325247 0.12950797 0.056814555 0.01894058 -0.012924952 0.07661663 -0.03657871
0.015156315 -0.069132835 0.08323634 -0.055869255 0.0062031755 0.07349522 -0.025955277 0.1036744
-0.06260159 -0.061697856 0.11327081 -0.123800166 -0.058066376 0.05754802 -0.0069847186 -0.001949644
-0.060448863 -0.046579428 -0.0390134 -0.020664558 0.030058097 -0.017916186 0.015699647 0.010478772
-0.25331447 0.022642821 -0.017491395 -0.13579617 -0.0575629 0.009039012 0.092007995 -0.09279276
0.016085753 0.042793214 0.00668991 0.0838258 0.065980874 -0.19694464 0.06784837 0.122418806
0.24051471 0.124627866 -0.09404344 0.079736486 -0.10789863 0.008489184 0.02344421 0.048095427
0.22017801 -0.09204055 0.10444333 0.043665938 0.010225286 -0.022546483 0.09259617 0.10741602
0.039720725 -0.12314928 0.081102096 -0.05973339 0.058937117 0.031939838 0.14963022 -0.0566082
-0.033640362 0.017344093 -0.08192281 -0.02847955 -0.0814165 0.05021969 -0.15015976 0.0994741
0.053958822 0.07345522 -0.0013104783 -0.051852703 -0.062092382 0.093553886 -0.0051923185 -0.05719087
-0.08368593 -0.04700841 -0.06904294 -0.05872548 0.04182525 0.032657973 -0.04972547 -0.01670686
0.06824398 -0.018838678 -0.022908002 0.051774297 0.11988438 -0.06368329 -0.01903717 -0.00034725777
-0.14753553 -0.08812873 -0.07883682 -0.08715774 0.08009197 -0.029054293 0.05264316 -0.013675461
0.0948784 -0.042787895 -0.025277331 -0.040954452 -0.012098126 -0.06393119 -0.072151296 -0.008568216
0.026035322 0.102238275 0.017247558 0.018957183 0.03662262 0.005710086 -0.047568314 -0.037029
-0.041624766 0.01406812 -0.014211081 -0.097939275 -0.030530944 0.052885275 -0.14152355 0.08345494
-0.023239695 -0.0075880275 0.060469218 0.08960874 -0.03216835 -0.027463315 -0.03465434 -0.028547239
0.021625785 -0.04568305 0.020714711 -0.022692371 -0.07104196 0.0044916566 0.11280151 -0.057167314
0.09452966 -0.1663681 -0.019779364 -0.18206099 0.0014529504 -0.038890675 -0.011625976 -0.12028403
3.8875813e-05 0.018403364 -0.091747284 0.025449572 -0.040509947 0.0003460125 -0.033296794 -0.017394759
0.099119715 0.052750293 -0.05240808 0.020652544 -0.011988053 0.0198901 -0.005925869 -0.07534226
0.01689385 0.014967757 -0.096009865 0.01994508 -0.021175954 0.052924737 0.028543187 -0.0033292018
-0.008103164 0.08177912 -0.053199917 0.063908175 0.014759198 0.01796489 -0.03575232 -0.023720322
-0.0031349633 0.0023347514 0.07471853 0.042708453 -0.09214512 -0.018028235 0.087511204 0.13639347
-0.05108775 -0.15257296 0.11028961 0.026368529 -0.15356745 0.03090939 -0.052067295 -0.014419961
00000000: ef6b 21be ce43 cd3b 6300 273d 668c 4a3c
00000010: 2a6d 1abd d11c 2bbe 5ced 653d 94b5 c5bd
00000020: 7ccc 8e3d 9e08 4abd 3dcb d23d 2220 febc
00000030: e3ab b0bd 5dbe d63d bff5 0fbb 369d 7dbd
00000040: 6b2b 653d f376 cebb 362b a0bd ccd9 8a3d
00000050: db20 11bd 8139 473d 7430 863d 2a1c 77bd
00000060: f772 3f3e 7856 4c3e 1c61 54be 247e 963b
00000070: d717 2ebe 9eea 82bd a431 023d e6da a5bd
00000080: c49a 253d 17da 633d fe74 103d b142 9f3c
00000090: be6c fe3d 7e57 e53d 64b8 ed3d 7c08 803e
000000a0: 2e9f 50bd a35b 473d 56bc f5bb 42a1 a8bd
000000b0: 3d40 2fbd a688 59bd aad1 7c3d 0fc7 ce3c
000000c0: c8ae 363d 648e 353d bd9d 043e 61b6 683d
000000d0: 4629 9b3c 2ec3 53bc 2ee9 9c3d 8fd3 15bd
000000e0: 3152 783c 8495 8dbd d077 aa3d 29d7 64bd
000000f0: 0244 cb3b a984 963d 29a0 d4bc 3e53 d43d
00000100: 4335 80bd e4b6 7cbd 87fa e73d f18a fdbd
00000110: 02d7 6dbd 79b7 6b3d 11e0 e4bb 328b ffba
00000120: 3a99 77bd 12ca 3ebd 84cc 1fbd b848 a9bc
00000130: 663c f63c f7c4 92bc 8c9c 803c 28af 2b3c
00000140: 6fb2 81be 707d b93c 1d4a 8fbc 270e 0bbe
00000150: 13c7 6bbd 5d18 143c b06e bc3d 210a bebd
00000160: 45c6 833c f047 2f3d 0837 db3b dcac ab3d
00000170: fb20 873d dbab 49be 16f4 8a3d b6b6 fa3d
00000180: 7d49 763e e53c ff3d d999 c0bd e24c a33d
00000190: f5f9 dcbd 3816 0b3c 120e c03c b6ff 443d
000001a0: 5876 613e c27f bcbd 62e6 d53d 0edb 323d
000001b0: f587 273c 67b3 b8bc 10a3 bd3d eefc db3d
000001c0: 33b2 223d b135 fcbd db18 a63d 00ab 74bd
000001d0: 0c68 713d 59d3 023d aa38 193e 00de 67bd
000001e0: 7aca 09bd 3315 8e3c 25c7 a7bd f24d e9bc
000001f0: b2bd a6bd 29b3 4d3d 7bc3 19be 14b9 cb3d
00000200: ed03 5d3d b16f 963d 5bc4 abba 8063 54bd
00000210: 9554 7ebd 2e99 bf3d 5324 aabb f940 6abd
00000220: 8763 abbd e48b 40bd 6366 8dbd 218a 70bd
00000230: f450 2b3d 5ec4 053d efac 4bbd d3dc 88bc
00000240: 80c3 8b3d 9253 9abc 90a9 bbbc 4911 543d
00000250: f185 f53d 626c 82bd d7f3 9bbc 2610 b6b9
00000260: 8e13 17be d67c b4bd 3375 a1bd c27f b2bd
00000270: 4207 a43d 4503 eebc 5ba0 573d 0a0f 60bc
00000280: 9b4f c23d 5c42 2fbd 6812 cfbc dbbf 27bd
00000290: 3837 46bc 5bee 82bd 0fc4 93bd b461 0cbc
000002a0: 0748 d53c 4d62 d13d c04a 8d3c 184c 9b3c
000002b0: 9a01 163d ac1b bb3b fed6 42bd b9ab 17bd
000002c0: bb7e 2abd f97d 663c 98d5 68bc 6394 c8bd
000002d0: 081c fabc 3b9e 583d 8deb 10be 6cea aa3d
000002e0: 2c61 bebc fda4 f8bb 92ae 773d c984 b73d
000002f0: f6c2 03bd bffa e0bc b6f1 0dbd e6db e9bc
00000300: 8f28 b13c 261e 3bbd e6b1 a93c 5ae5 b9bc
00000310: 727e 91bd bf2e 933b 7a04 e73d 4628 6abd
00000320: c498 c13d 665c 2abe 5508 a2bc 326e 3abe
00000330: ed70 be3a d44b 1fbd e17a 3ebc 7957 f6bd
00000340: 960e 2338 a7c2 963c 00e6 bbbd 9f7b d03c
00000350: c2ed 25bd 0369 b539 3862 08bd 747f 8ebc
00000360: 47ff ca3d b110 583d dba9 56bd 862f a93c
00000370: 8a69 44bc 90f0 a23c cb2d c2bb 0b4d 9abd
00000380: f964 8a3c 533b 753c d2a0 c4bd dd63 a33c
00000390: 3279 adbc 9cc7 583d 67d3 e93c bd2e 5abb
000003a0: 22c3 04bc d07b a73d 28e8 59bd 4ae2 823d
000003b0: 90d0 713c 1b2b 933c 0671 12bd 1f51 c2bc
000003c0: f573 4dbb a102 193b 0706 993d 0fef 2e3d
000003d0: 95b6 bcbd f3af 93bc 1339 b33d bbaa 0b3e
000003e0: 6341 51bd 163c 1cbe 85df e13d d002 d83c
000003f0: c940 1dbe b035 fd3c 8444 55bd b341 6cbc

encoder_rnn.bias_ih_l0 f4 [192]
0.16729744 -0.07911101 0.10494692 0.010010717 0.08161099 0.06096618 0.10055126 -0.1425499
-0.029514842 0.0057166186 0.052039124 -0.010285615 -0.039510854 -0.0005374623 -0.0020922855 -0.23984642
-0.053908218 0.011908175 -0.013738344 0.14270672 -0.0023897043 -0.055392295 0.03992436 0.040804468
0.076771386 0.008090321 -0.03846898 0.053946473 -0.059698727 0.04139229 0.011514614 0.1068934
0.14882465 -0.09902007 -0.066618666 0.040578905 0.10121385 0.16454785 0.09978364 -0.060494963
-0.029892748 0.09509991 0.06569883 0.039568692 -0.027681874 -0.057722542 -0.027230319 0.025824517
-0.10390058 0.08358597 -0.026583487 0.044444636 -0.00078697 -0.06422669 -0.02541144 -0.071038276
-0.0066254893 -0.09270132 0.026887443 0.0092514865 0.016016342 0.10795514 0.13984689 0.11687026
0.13378663 0.3912072 0.29854062 0.15406224 0.09089444 0.22251977 0.3312578 0.35370216
0.19994695 0.1211103 0.35395548 0.23485795 0.12076269 0.1749148 0.2639246 0.38085756
0.29497218 0.23362432 0.2108456 0.34131157 0.45905018 0.2697985 0.3598118 0.083298124
0.30874306 0.32176337 0.10009465 0.14441933 0.4138439 0.3253251 0.1965453 0.063484535
0.2642866 0.38844368 0.15339433 0.36389548 0.1284926 0.3168043 0.35133493 0.31800213
0.3028844 0.21135688 0.31912696 0.21769394 0.21242255 0.05752637 0.12816927 0.32027918
0.099868335 0.13778219 0.13538378 0.19467108 0.19859736 0.17399096 0.113118395 0.22423774
0.4519492 0.24458662 0.3149857 0.26072082 0.1828742 0.11028701 -0.004584731 0.2943028
-0.17830445 -0.01114363 -0.08833804 0.2307588 0.013871644 -0.13209757 -0.009194018 0.18962562
0.005666157 0.16513905 0.06904014 -0.024023851 -0.17245224 0.099180624 0.058423236 0.100302875
-0.05496023 -0.22051096 -0.0034816966 -0.016841372 0.034450047 -0.1214857 -0.036948126 0.14253664
0.07336877 0.20390512 -0.035573874 -0.083271936 0.083931826 0.005578908 -0.11568367 -0.005342723
0.007592271 0.09291944 0.049239747 0.12353823 0.16210441 -0.041401673 -0.11507126 0.20687275
-0.119220674 0.2893355 0.054620378 0.06515287 0.0676636 -0.1301047 -0.19987155 -0.1785506
-0.08791698 0.22337016 -0.026057085 0.10541953 0.08749077 0.11961715 -0.03213762 0.017687935
0.005217319 -0.031542942 0.05669449 0.098839186 0.15947822 -0.014475271 0.08639414 -0.033247706
00000000: 0550 2b3e f404 a2bd 69ee d63d fe03 243c
00000010: aa23 a73d acb7 793d d2ed cd3d 9af8 11be
00000020: 1cc9 f1bc 7952 bb3b fa26 553d ff84 28bc
00000030: 22d6 21bd 7ce4 0cba ba1e 09bb 4d9a 75be
00000040: ddce 5cbd 821a 433c cb16 61bc b621 123e
00000050: 969c 1cbb 08e3 62bd ba87 233d 9622 273d
00000060: 513a 9d3d 448d 043c a691 1dbd faf6 5c3d
00000070: a786 74bd f68a 293d cba7 3c3c edea da3d
00000080: 7d65 183e 09cb cabd 5e6f 88bd 1136 263d
00000090: 3549 cf3d 3b7f 283e 5d5b cc3d 91c9 77bd
000000a0: a3e1 f4bc bec3 c23d 1c8d 863d c812 223d
000000b0: 19c5 e2bc 796e 6cbd 1e12 dfbc f08d d33c
000000c0: d4c9 d4bd 1f2f ab3d 9dc5 d9bc 940b 363d
000000d0: aa4c 4eba 4889 83bd a72b d0bc 847c 91bd
000000e0: a21a d9bb 31da bdbd 0e43 dc3c 8c93 173c
000000f0: b434 833c 9617 dd3d 0634 0f3e ad59 ef3d
00000100: 5dff 083e 4f4c c83e 51da 983e 7ec2 1d3e
00000110: dd26 ba3d 39dc 633e 9f9a a93e 7318 b53e
00000120: e5be 4c3e ad08 f83d a739 b53e 9a7e 703e
00000130: 6e52 f73d de1c 333e 2021 873e c3ff c23e
00000140: 9806 973e 373b 6f3e e9e7 573e 64c0 ae3e
00000150: a008 eb3e 0723 8a3e 4139 b83e 3598 aa3d
00000160: 9213 9e3e 2bbe a43e 6dfe cc3d a9e2 133e
00000170: 59e3 d33e 0391 a63e 2c43 493e 2e04 823d
00000180: 9350 873e 17e2 c63e 6713 1d3e 8250 ba3e
00000190: 9093 033e 2c34 a23e 2ce2 b33e 2dd1 a23e
000001a0: aa13 9b3e f06d 583e 9c64 a33e 29eb 5e3e
000001b0: 4c85 593e c5a0 6b3d ce3e 033e a2fb a33e
000001c0: c587 cc3d c616 0d3e 0ca2 0a3e db57 473e
000001d0: 1b5d 4b3e b02a 323e 9eaa e73d 949e 653e
000001e0: e365 e73e ea74 7a3e ce45 a13e 337d 853e
000001f0: 6043 3b3e 28de e13d 833b 96bb dbae 963e
00000200: 7195 36be c693 36bc 93ea b4bd 094c 6c3e
00000210: e445 633c 9644 07be 82a2 16bc 382d 423e
00000220: 2cab b93b 361a 293e eb64 8d3d abcd c4bc
00000230: 5297 30be 361f cb3d 344d 6f3d 986b cd3d
00000240: fa1d 61bd a0cd 61be 2d2d 64bb ebf6 89bc
00000250: 7e1b 0d3d 7fcd f8bd eb56 17bd 20f5 113e
00000260: 5e42 963d 81cc 503e e9b5 11bd 7a8a aabd
00000270: 73e4 ab3d 46cf b63b 8feb ecbd 0212 afbb
00000280: 96c8 f83b 8c4c be3d 9eaf 493d 9d01 fd3d
00000290: b3fe 253e cd94 29bd 7baa ebbd 73d6 533e
000002a0: f829 f4bd c823 943e 9eb9 5f3d de6e 853d
000002b0: 3793 8a3d 2b3a 05be 21ab 4cbe f8d5 36be
000002c0: d10d b4bd 26bb 643e ab75 d5bc 32e6 d73d
000002d0: 5c2e b33d d6f9 f43d bda2 03bd 4ae6 903c
000002e0: 0bf6 aa3b 2c33 01bd 7b38 683d 336c ca3d
000002f0: 424e 233e b029 6dbc 69ef b03d bf2e 08bd

encoder_rnn.bias_hh_l0 f4 [192]
0.052817535 -0.013369251 0.051032558 0.022211296 -0.015745936 0.023564853 0.002481739 -0.12277093
-0.031768583 0.041746426 -0.018585235 0.012577382 0.009213785 -0.013722814 -0.13222174 -0.19513206
-0.06115355 -0.040365934 -0.036736816 0.12082107 -0.027168771 -0.11531248 -0.10207981 -0.013568588
0.05506356 0.061903935 -0.04012109 0.055612512 0.07166726 0.04566969 0.045038678 0.0049929153
0.10316416 0.024901157 -0.059456713 0.10195931 0.058965266 0.089910395 0.03879989 -0.02640144
0.024033349 0.17441404 0.09120014 -0.050760996 0.11814586 0.09151701 0.0631566 0.03824297
0.018830542 -0.0791254 0.020243824 -0.024500106 -0.054614175 -0.094165064 0.029799487 -0.05495554
0.06770295 -0.0649844 0.016187701 -0.04673921 -0.020429619 -0.033610694 0.093979016 0.036137383
0.21931504 0.23638149 0.35627937 0.098837 0.08766985 0.29051703 0.2840501 0.27543017
0.108301476 0.119001225 0.3307559 0.2769269 0.2510244 0.21622333 0.15821531 0.4837481
0.3325934 0.117977925 0.32810923 0.30944064 0.42835972 0.37014282 0.32003796 0.08045148
0.27809045 0.33315983 0.2592393 0.13343485 0.26968303 0.36134455 0.13157712 0.05965032
0.35685366 0.35125178 0.21850593 0.29446167 0.21265338 0.3075955 0.26964217 0.2860576
0.29325247 0.17462133 0.2812553 0.17869376 0.1855454 0.13345745 0.14091119 0.30313596
0.18719202 0.2728214 0.060894463 0.29510826 0.15733711 0.12779415 0.11341442 0.19522005
0.4576899 0.12834871 0.38877204 0.39706594 0.11608139 0.078144684 -0.077866346 0.22641036
-0.14276566 -0.095260456 -0.052224588 0.20979886 -0.15131901 -0.08202246 0.1415741 -0.023995692
0.029391767 0.085724354 -0.15426953 -0.06528702 -0.011793293 0.0959733 0.1148833 0.019649606
0.12165712 -0.08525394 -0.005717478 -0.15082723 -0.017434992 -0.09978997 0.054103464 0.06690539
0.09612259 0.13411374 -0.029713875 -0.15281244 -0.056719664 0.06590931 0.07454752 -0.077301554
-0.072655305 -0.06139966 0.0061472696 0.031842 0.16841136 0.16906318 -0.105538025 0.12851061
0.034746982 0.20184487 -0.08435954 0.06160396 0.15807946 0.012000251 -0.14066239 -0.16507383
-0.09577034 0.10180565 0.00926629 0.0460893 0.0965805 -0.034088984 -0.054568667 -0.028857386
0.104986966 0.091906466 -0.060870778 0.039962806 0.20670375 -0.029990597 0.3198893 0.07814151
00000000: 3357 583d b40a 5bbc 8407 513d 77f4 b53c
00000010: 9ffd 80bc 140b c13c aca4 223b 536f fbbd
00000020: c61f 02bd 4dfe 2a3d 1040 98bc 5d11 4e3c
00000030: 6af5 163c a7d5 60bc 2365 07be b3d0 47be
00000040: 257c 7abd c056 25bd 5879 16bd 0a71 f73d
00000050: 0b91 debc f328 ecbd 380f d1bd c84e 5ebc
00000060: 548a 613d fb8e 7d3d 0356 24bd f2c9 633d
00000070: 49c6 923d 2410 3b3d 7a7a 383d 9c9b a33b
00000080: bb47 d33d 83fd cb3c e288 73bd 0bd0 d03d
00000090: 9085 713d f122 b83d a2ec 1e3d d547 d8bc
000000a0: 96e1 c43c 9899 323e 24c7 ba3d c3ea 4fbd
000000b0: 75f6 f13d 456d bb3d 3f58 813d a9a4 1c3d
000000c0: 8242 9a3c 7f0c a2bd 60d6 a53c 72b4 c8bc
000000d0: 1db3 5fbd 9dd9 c0bd 0e1e f43c 0f19 61bd
000000e0: d8a7 8a3d 8b16 85bd 129c 843c 9d71 3fbd
000000f0: 045c a7bc 5eab 09bd 1278 c03d cb04 143d
00000100: 1f94 603e fd0d 723e 406a b63e 0e6b ca3d
00000110: 408c b33d a6be 943e 046f 913e 2f05 8d3e
00000120: 2acd dd3d eab6 f33d d658 a93e 5dc9 8d3e
00000130: 4586 803e a669 5d3e 3203 223e d5ad f73e
00000140: af49 aa3e 699e f13d effd a73e 016f 9e3e
00000150: f751 db3e 5c83 bd3e 04dc a33e bfc3 a43d
00000160: df61 8e3e ed93 aa3e 03bb 843e 25a3 083e
00000170: e513 8a3e 2702 b93e 27bc 063e e553 743d
00000180: 86b5 b63e 46d7 b33e 05c0 5f3e aec3 963e
00000190: cfc1 593e 287d 9d3e 8a0e 8a3e 2476 923e
000001a0: 3025 963e efcf 323e b200 903e 7ffb 363e
000001b0: 9dff 3d3e 12a9 083e 064b 103e a334 9b3e
000001c0: 44af 3f3e 3faf 8b3e 796c 793d 6e18 973e
000001d0: fb1c 213e 78dc 023e d245 e83d c4e7 473e
000001e0: 5556 ea3e d86d 033e 210d c73e 3a4c cb3e
000001f0: 14bc ed3d 520a a03d 6478 9fbd 1ed8 673e
00000200: 2931 12be ea17 c3bd 73e9 55bd 83d5 563e
00000210: 5ff3 1abe 64fb a7bd cdf8 103e 9d92 c4bc
00000220: 01c7 f03c 4090 af3d d5f8 1dbe 33b5 85bd
00000230: a838 41bc a68d c43d f047 eb3d 36f8 a03c
00000240: 5e27 f93d 9e99 aebd af59 bbbb 7472 1abe
00000250: d4d3 8ebc af5e ccbd 989b 5d3d b105 893d
00000260: ecdb c43d 1d55 093e 836a f3bc dd7a 1cbe
00000270: e152 68bd 76fb 863d 5fac 983d 4750 9ebd
00000280: 4ecc 94bd 367e 7bbd 096f c93b c26c 023d
00000290: 0774 2c3e e61e 2d3e 5224 d8bd 4998 033e
000002a0: da52 0e3d 6cb0 4e3e b2c4 acbd 6f54 7c3d
000002b0: 95df 213e b39c 443c cd09 10be 1d09 29be
000002c0: 3d23 c4bd 7b7f d03d a3d1 173c 22c8 3c3d
000002d0: ffcb c53d e4a0 0bbd 6583 5fbd 5366 ecbc
000002e0: 6803 d73d 7539 bc3d a353 79bd 0ab0 233d
000002f0: 26aa 533e d7ae f5bc 88c8 a33e a808 a03d

decoder_rnn.weight_ih_l0 f4 [192, 64]
-4.5569509e-38 1.761216e-38 3.343858e-38 1.9784698e-38 4.465632e-38 -3.5405437e-38 -1.4553505e-38 4.8362717e-38
-4.6273499e-38 3.1271472e-38 -4.889862e-38 3.17991e-40 -2.497596e-38 4.69745e-38 -1.3262989e-38 5.657813e-38
-7.890137e-39 -4.0475237e-38 -3.2892256e-38 3.3993466e-38 4.5050255e-38 4.3440544e-38 -1.729487e-38 4.5180732e-38
4.9579767e-38 -4.993547e-38 4.5785227e-38 -5.0529096e-38 -4.1674586e-38 -5.3307255e-38 1.222218e-39 -4.9384073e-38
2.0300049e-38 1.2249036e-38 -5.782783e-38 -5.425536e-39 -5.4599117e-38 1.9484758e-38 5.8106747e-38 1.1230381e-38
-6.4198634e-38 5.060619e-38 -3.0497e-38 6.884624e-39 9.462887e-39 -4.1884968e-38 1.3221044e-38 -3.7765145e-38
-2.2236362e-38 5.425214e-39 -4.4871583e-38 -1.1395695e-38 -7.320642e-39 -1.0440088e-38 -3.0366866e-38 4.938011e-38
-2.1396086e-38 1.3470581e-38 2.7410855e-38 -1.6834e-40 1.9637326e-38 -3.843554e-39 5.8925996e-38 3.911088e-39
5.8731244e-38 2.3521254e-38 -1.986129e-38 3.905877e-39 -6.729094e-38 4.338948e-38 4.092559e-38 1.954308e-38
3.3579007e-38 3.893102e-38 5.2738316e-38 -3.810964e-39 -2.2484243e-38 -3.02577e-38 -5.8247426e-38 -2.2239624e-38
3.6853673e-38 6.1239893e-38 -5.85646e-40 5.558166e-39 1.793776e-38 -1.1857541e-38 6.67174e-40 -4.7225524e-38
3.4181792e-38 5.349438e-38 -2.4704771e-38 6.7100757e-38 2.0365076e-38 -1.910455e-38 6.5797913e-38 -2.369168e-38
1.2848147e-38 -3.2637118e-38 4.976575e-38 -2.1384e-38 7.075482e-39 -3.9809474e-38 1.4555225e-38 -1.3596328e-38
5.233059e-38 -6.0557685e-38 -4.8691097e-38 -3.874471e-38 -4.6186786e-38 5.266592e-38 1.3145284e-38 7.000537e-38
3.702915e-38 5.395277e-38 5.24077e-38 -1.7958511e-38 -1.8606629e-38 -5.061165e-39 5.983132e-38 -6.5834067e-38
-3.3248132e-38 -2.949513e-38 -4.0270728e-38 2.2734851e-38 -1.4180737e-38 -1.1196857e-38 3.2198593e-38 2.5078876e-38
1.1853881e-38 1.9860855e-38 1.2343696e-38 2.3130595e-38 5.3996307e-38 -2.7994827e-38 -3.590014e-38 4.3199621e-38
3.0393256e-38 3.367564e-38 4.0996937e-38 2.7180737e-38 4.0418767e-38 4.1913005e-38 -5.9964476e-38 -5.055369e-38
-1.2711652e-38 5.0048215e-38 -4.0832066e-38 4.708967e-38 -3.8163024e-38 4.5220008e-38 -2.5951935e-38 1.8966583e-38
2.1138108e-38 1.850541e-39 6.4311853e-38 1.197824e-38 -2.9476207e-38 3.4320165e-38 -3.0265227e-38 3.7360343e-38
-1.2238981e-38 2.913653e-39 3.9641733e-38 4.529678e-39 -1.6051874e-38 6.4580774e-38 -4.5884408e-38 -1.0595103e-38
-2.0526276e-38 3.6278743e-38 7.675055e-39 -9.281158e-39 2.6860722e-38 3.5638585e-38 3.998039e-39 -2.9979828e-38
-2.1916106e-38 8.003766e-39 -3.003612e-38 5.721695e-38 4.4152978e-38 -4.4609838e-38 -1.4319006e-38 -1.6100628e-38
3.222222e-38 6.970089e-38 -5.270161e-38 -4.4077776e-38 -4.484482e-38 4.794709e-38 3.976524e-38 -1.9201385e-38
-5.3740334e-38 5.5970787e-38 1.0955441e-38 -3.9727714e-38 -2.8744443e-38 6.420767e-38 2.1300046e-38 4.23403e-38
5.400425e-39 1.6001279e-38 -4.386674e-38 -3.5119308e-38 2.8149356e-38 9.740717e-39 1.0795043e-38 -2.5361274e-38
-2.9258762e-38 3.7879076e-38 -3.5412763e-38 -1.630691e-38 -5.226843e-39 2.1485877e-38 -6.537804e-38 6.729615e-38
-2.9400497e-38 -3.971726e-38 -4.1604097e-38 2.4995527e-38 4.442556e-38 -2.3056455e-38 2.6154535e-38 -5.375707e-39
-1.8438167e-38 -1.448766e-38 1.8793705e-38 -3.8550534e-38 -5.099335e-38 -3.1901675e-38 -3.731015e-38 -3.1427596e-38
5.0620097e-38 -2.7715638e-38 3.7006437e-38 -6.3188124e-38 1.770405e-38 4.4537506e-38 -4.3952887e-38 -4.3758285e-38
-1.7661834e-38 -3.0097514e-38 -5.598976e-38 -4.817341e-38 2.3141452e-38 6.14095e-39 6.803868e-38 -2.5564087e-38
-5.1777967e-38 -4.753417e-39 7.802772e-39 1.3818078e-38 5.249682e-39 -2.0409587e-38 -6.523495e-38 4.962533e-38
00000000: a01a 7881 89c7 bf00 940e 3601 b06f d700
00000010: d321 7301 fac3 4081 4079 9e80 e5a7 8301
00000020: d8ef 7b81 1242 2a01 5d1d 8581 6e76 0300
00000030: 68fb 0781 e6c0 7f01 d16b 9080 3405 9a01
00000040: 7eea 5580 3f5e 5c81 1d15 3381 fa13 3901
00000050: e446 7501 4883 6c01 1053 bc80 c0fc 7501
00000060: 0ef8 8601 f2ef 8781 4b47 7901 a48d 8981
00000070: e5e5 6281 bc1d 9181 0c4f 0d00 ad6f 8681
00000080: 470c dd00 5461 8500 1e6c 9d81 3014 3b80
00000090: 08a2 9481 942b d400 7e2e 9e01 bc49 7a00
000000a0: ebc3 ae81 5ec3 8901 9d0a 2681 88f7 4a00
000000b0: ae0a 6700 200b 6481 e4f6 8f00 ee9c 4d81
000000c0: ee21 f280 4a13 3b00 dc4d 7481 9016 7c80
000000d0: f9b6 4f80 b8ae 7180 3c55 2581 ea6c 8601
000000e0: 95fb e880 80ae 9200 283d 1501 43d5 0180
000000f0: e0d4 d500 44da 2980 6d69 a001 8696 2a00
00000100: b4e1 9f01 d80f 0001 3245 d880 ff87 2a00
00000110: f12e b781 1c3c 6c01 f2d1 5e01 28ce d400
00000120: 4ed2 3601 ecf5 5301 3e91 8f01 6b7f 2980
00000130: ecd4 f480 14bd 2481 8890 9e81 062b f280
00000140: 86a6 4801 fab5 a601 8b60 0680 e885 3c00
00000150: 2d53 c300 001e 8180 cf43 0700 638f 8081
00000160: 771a 3a01 24a0 9101 6d81 0681 67aa b601
00000170: 8cc1 dd00 b607 d080 741e b301 62fd 0081
00000180: 68e7 8b00 81b1 3181 aa79 8701 e4d9 e880
00000190: 910b 4d00 4fbe 5881 0c7e 9e00 080d 9480
000001a0: 1975 8e01 8cda a481 be8c 8481 3ef2 5281
000001b0: fc76 7b81 ca5e 8f01 b423 8f00 9f92 be01
000001c0: 1a9b 4901 98df 9201 d6aa 8e01 068d c380
000001d0: b69b ca80 781c 3780 58e0 a201 a637 b381
000001e0: 2205 3581 3696 2081 3441 5b81 848f f700
000001f0: 206a 9a80 48ec 7980 4a4e 2f01 da8a 0801
00000200: cc13 8100 fc43 d800 3469 8600 b0de fb00
00000210: effd 9201 186b 1881 7e75 4381 7c33 6b01
00000220: 047a 2501 fe58 3701 6435 5f01 6bfc 1301
00000230: 8a0f 5c01 3432 6401 243d a381 c89e 8981
00000240: ea6a 8a80 843e 8801 984f 5e81 b630 8001
00000250: 7ec7 4f81 7e33 7601 b84b 0d81 1e87 ce00
00000260: 722c e600 8e26 1400 d212 af01 766e 8200
00000270: d67b 2081 54db 3a01 92c7 2481 b868 4b01
00000280: 4d45 8580 14ba 1f00 83d4 5701 e652 3100
00000290: 18ca ae80 3bce af01 88d1 7981 d65e 7380
000002a0: e882 df80 3085 4501 ee92 5300 1810 6580
000002b0: 623e 1201 f008 4201 e888 2b00 c839 2381
000002c0: 30a5 ee80 3e27 5700 3e88 2381 65c2 9b01
000002d0: 4564 7001 0ae1 7281 90eb 9b80 0052 af80
000002e0: 386f 2f01 6ebe bd01 a977 8f81 74fb 6f81
000002f0: 8e28 7481 3f86 8201 a880 5801 a615 d180
00000300: 8c4b 9281 f25d 9801 504b 7700 5a4c 5881
00000310: e87f 1c81 37ca ae01 ddef e700 c485 6601
00000320: 30ce 3a00 0e3d ae00 50d5 6e81 2c35 3f81
00000330: 7a42 1901 2811 6a00 308c 7500 7514 0a81
00000340: c34c 1f81 ba3b 4e01 30ce 4081 0891 b180
00000350: 50ea 3880 e2f5 e900 d8f9 b181 9232 b701
00000360: 5012 2081 c83d 5881 a683 6281 ae16 0801
00000370: 32e0 7101 0410 fb80 1a66 0e01 4989 3a80
00000380: 1cc6 c880 b4c1 9d80 34a5 cc00 9ae3 5181
00000390: 2ed1 8a81 72b0 2d81 c222 4b81 ad1b 2b81
000003a0: 0fcd 8901 f6e5 1681 727b 4901 b203 ac81
000003b0: b0c7 c000 397c 7201 624d 6f81 263e 6e81
000003c0: 0252 c080 d0dd 2381 2b6b 9881 f823 8381
000003d0: f4fc fb00 78de 4200 0a38 b901 232f 0b81
000003e0: faf3 8c81 98c2 3380 f4f6 5400 2e77 9600
000003f0: fa29 3900 a03d de80 2096 b181 cf17 8701

decoder_rnn.weight_hh_l0 f4 [192, 64]
-0.111279905 -0.030650906 0.074011505 -0.11191545 0.04024205 0.120000236 0.10803617 0.053348374
-0.0010320297 0.02938023 -0.13393266 -0.08248703 -0.061367255 0.15207918 0.20873477 0.05203871
-0.12162667 -0.056943625 -0.10615204 0.14360908 0.08820442 0.04916324 -0.17702574 -0.08645878
0.17439352 0.20063864 0.07039566 -0.20489103 -0.10101442 -0.043189656 -0.11560378 -0.052399166
-0.017216267 0.17012194 -0.25741673 0.015504802 0.03479619 0.0014165988 -0.019128926 0.16834138
0.1355221 0.30909652 -0.1119762 0.19413853 0.13721825 -0.029507855 0.13966155 -0.039613318
-0.18213162 -0.21948136 0.06698877 -0.02508474 -0.21641684 0.038122747 0.0004120012 0.0011308194
0.0841732 0.02872689 0.04607658 0.06641332 0.13576007 0.004081061 0.12748593 0.03384496
0.2255849 0.17938472 0.021939894 -0.16301918 0.034417983 0.20415714 -0.14484195 0.044016413
-0.10499568 -0.07796177 0.041169584 -0.05801832 0.13703465 -0.15510817 0.18717343 -0.42612708
-0.24299248 0.06511534 -0.121815786 -0.049369927 0.13252757 -0.035345085 0.1665587 -0.030883068
-0.018573137 -0.09671238 0.10667784 0.29416102 0.05756247 -0.38908076 0.086084306 0.17708556
0.09540892 0.101366825 0.005988016 -0.05917597 -0.09321864 -0.14307864 -0.12685812 -0.10394403
0.34282538 -0.2246436 -0.15970425 0.017254591 -0.27533793 -0.045372874 0.13157128 0.05175049
0.1420316 -0.07366326 0.02285843 0.021678817 0.27583602 0.27446777 -0.24826291 -0.19155894
-0.056077503 0.08894933 -0.09068196 -0.042965487 -0.3907112 0.12705275 -0.0025954193 -0.20683044
0.0043858225 -0.014191082 -0.15257865 0.0192229 0.13291799 -0.00041135814 -0.096180014 -0.0067503783
-0.1614853 -0.16827752 0.1924469 -0.05718821 -0.01334297 0.14152102 0.028990598 -0.0313766
-0.16269505 0.27190742 -0.14163902 -0.074821755 0.30529085 0.24838433 -0.09201849 -0.01808362
-0.0649775 0.09505122 0.023314068 0.044075027 -0.05013002 -0.114958644 -0.19608952 -0.0045528365
0.20595148 0.12500517 0.094500326 -0.19691934 -0.046798155 0.0052773007 0.10725979 0.08067535
-0.13675235 -0.119322866 -0.17109007 -0.013064697 0.039610986 -0.003030812 0.07955423 0.11561193
0.16523707 -0.047548257 0.08417111 -0.13489625 -0.09898681 0.25552887 -0.046073742 -0.03071728
-0.072209 -0.16975468 0.090908445 -0.2167505 -0.12380535 0.11423939 -0.18415613 -0.06602688
0.26274008 -0.014235292 0.15453206 -0.15644999 0.21120726 -0.1765803 -0.09660509 -0.10196842
-0.2405808 -0.048233617 0.10389368 0.0142371515 -0.14195332 0.04745465 -0.18373932 0.07255484
0.28349912 0.0411783 -0.10936346 -0.2070872 -0.08030858 0.17260702 0.18450047 -0.052258164
-0.14048405 -0.03645784 -0.17484787 0.19107331 -0.10992359 -0.14730091 -0.055733383 0.16526608
0.19249478 0.19864713 -0.14265746 -0.10680539 -0.15768646 -0.14323364 0.17859569 0.01695482
-0.2229848 -0.23250625 0.0844496 -0.12957925 -0.16164254 0.15623733 0.08755939 0.21018513
0.24981093 -0.13746703 0.16525352 -0.20436907 -0.112425044 -0.0688025 -0.14734584 -0.16915467
-0.18557465 0.20531783 0.034616377 -0.10839574 0.1432482 0.2724291 -0.10003594 0.10503119
00000000: b8e6 e3bd 9c17 fbbc 5893 973d ed33 e5bd
00000010: d9d4 243d afc2 f53d 1142 dd3d d383 5a3d
00000020: 2c45 87ba cfae f03c a525 09be f6ee a8bd
00000030: 3b5c 7bbd a5ba 1b3e 91be 553e 8b26 553d
00000040: 6717 f9bd b83d 69bd 3e66 d9bd 420e 133e
00000050: 85a4 b43d 655f 493d 3c46 35be 4d11 b1bd
00000060: 3794 323e 3774 4d3e 9a2b 903d f4ce 51be
00000070: a6e0 cebd a3e7 30bd adc1 ecbd 82a0 56bd
00000080: 2109 8dbc 7234 2e3e 20cc 83be da07 7e3c
00000090: 7386 0e3d 2bad b93a 44b4 9cbc af61 2c3e
000000a0: 4ec6 0a3e e641 9e3e c753 e5bd 40cc 463e
000000b0: f182 0c3e 75ba f1bc 7003 0f3e 9341 22bd
000000c0: b680 3abe b9bf 60be 6931 893d 837e cdbc
000000d0: 609c 5dbe 9926 1c3d dd01 d839 0138 943a
000000e0: 0063 ac3d a854 eb3c ccba 3c3d b503 883d
000000f0: b004 0b3e 6cba 853b ac8b 023e 03a1 0a3d
00000100: baff 663e a1b0 373e 4bbb b33c 80ee 26be
00000110: dff9 0c3d 920e 513e 7351 14be 8e4a 343d
00000120: fa07 d7bd 6caa 9fbd 70a1 283d 9ea4 6dbd
00000130: d052 0c3e add4 1ebe 64aa 3f3e 542d dabe
00000140: 05d3 78be 315b 853d 8e7a f9bd 1f38 4abd
00000150: 4fb5 073e 02c6 10bd 5d8e 2a3e 7dfe fcbc
00000160: b126 98bc 2411 c6bd e979 da3d 469c 963e
00000170: a0c6 6b3d 9835 c7be f84c b03d eb55 353e
00000180: c065 c33d 6999 cf3d 1e37 c43b 8062 72bd
00000190: 6ae9 bebd 3583 12be 18e7 01be 9ce0 d4bd
000001a0: cf86 af3e f908 66be 8389 23be 8059 8d3c
000001b0: 18f9 8cbe e8d8 39bd 9fba 063e 52f8 533d
000001c0: bb70 113e c3dc 96bd 9a41 bb3c c697 b13c
000001d0: 613a 8d3e 0a87 8c3e a238 7ebe 0728 44be
000001e0: 86b1 65bd 112b b63d 77b7 b9bd 94fc 2fbd
000001f0: 4c0b c8be 1e1a 023e e917 2abb 5ccb 53be
00000200: f2b6 8f3b b681 68bc 943d 1cbe 5879 9d3c
00000210: a71b 083e 8eab d7b9 07fa c4bd 4732 ddbb
00000220: 675c 25be f150 2cbe cd10 453e 2f3e 6abd
00000230: 799c 5abc e3ea 103e b17d ed3c c084 00bd
00000240: 8899 26be 7337 8b3e d209 11be 263c 99bd
00000250: 154f 9c3e 7658 7e3e 3174 bcbd 1a24 94bc
00000260: ec12 85bd 37aa c23d 25fd be3c 0488 343d
00000270: 2355 4dbd 706f ebbd b1cb 48be f62f 95bb
00000280: f2e4 523e 5b01 003e 6389 c13d 39a5 49be
00000290: 6caf 3fbd 35ed ac3b 05ab db3d 1e39 a53d
000002a0: cf08 0cbe 8c5f f4bd 3c32 2fbe 500d 56bc
000002b0: 213f 223d 96a0 46bb 54ed a23d f3c5 ec3d
000002c0: e833 293e f6c1 42bd e761 ac3d 3e22 0abe
000002d0: 99b9 cabd aed4 823e d2b7 3cbd cea2 fbbc
000002e0: 50e2 93bd 2cd4 2dbe 352e ba3d d8f3 5dbe
000002f0: a98d fdbd 57f6 e93d 6d93 3cbe 1a39 87bd
00000300: de85 863e 243b 69bc a73d 1e3e 6d34 20be
00000310: b746 583e 77d1 34be e4d8 c5bd d2d4 d0bd
00000320: d05a 76be 9d90 45bd 36c6 d43d f142 693c
00000330: 365c 11be cf5f 423d 2926 3cbe a297 943d
00000340: cc26 913e 94aa 283d f3f9 dfbd ab0e 54be
00000350: d378 a4bd e5bf 303e b1ed 3c3e a80c 56bd
00000360: 0ddb 0fbe d154 15bd 520b 33be b9a8 433e
00000370: 9f1f e1bd 0dd6 16be b048 64bd 833b 293e
00000380: 5a1d 453e 276a 4b3e cc14 12be c9bc dabd
00000390: 8f78 21be d7ab 12be cae1 363e d6e4 8a3c
000003a0: 2156 64be 1e16 6ebe e9f3 ac3d 6cb0 04be
000003b0: 9f85 25be aefc 1f3e 5652 b33d c53a 573e
000003c0: 70ce 7f3e 28c4 0cbe 3838 293e 2046 51be
000003d0: 1a3f e6bd 53e8 8cbd d4e1 16be e236 2dbe
000003e0: 4807 3ebe d63e 523e e7c9 0d3d 96fe ddbd
000003f0: a8af 123e d47b 8b3e a5df ccbd 981a d73d

decoder_rnn.bias_ih_l0 f4 [192]
0.2006944 -0.19406214 0.23299251 -0.07497294 0.06839433 0.070915595 -0.0077382564 -0.031384774
-0.06548399 0.054466646 0.0740582 0.13319324 0.01575948 0.12622182 0.10412324 -0.05586395
0.014632343 0.12222716 0.07272841 0.014920703 0.2096058 0.119068824 0.12954794 -0.06943433
-0.12478663 0.24678583 0.06888934 0.06694322 0.122445635 0.0661036 -0.02334612 0.06611289
0.0864381 0.13128835 0.10793168 0.092403226 0.011650901 0.15292174 0.0031380334 0.09299026
0.30805364 -0.108905576 0.12642696 0.10761794 0.042901177 -0.037298456 0.014101071 0.12848651
-0.11250606 0.093681574 0.03407933 0.16758353 0.026856426 -0.08668081 0.05154097 -0.12308042
0.09693533 0.048735905 0.10894552 0.013285295 -0.038153276 0.14280906 0.03701811 -0.08823567
0.34788072 0.4041483 0.5876803 0.3438074 0.17839263 0.2673246 0.29643628 0.362742
0.33405447 0.3513836 0.3696821 0.51056194 0.17643696 0.32140988 0.4872884 0.7528497
0.6361252 0.19065176 0.3547264 0.45534396 0.39745635 0.24179575 0.4587423 0.2646854
0.23432368 0.26910892 0.14800744 0.6128903 0.29426375 0.4519432 0.22985123 0.20509297
0.30424067 0.67439044 0.5023362 0.3682501 0.20533921 0.2580924 0.39340967 0.3097024
0.4653316 0.04493754 0.60919255 0.45185024 0.4374147 0.3341354 0.42001605 0.32859108
0.29029822 0.4614462 0.17110454 0.3266084 0.20942776 0.30115834 0.43381706 0.22079845
0.2687633 0.48046902 0.60173917 0.23266913 0.42464828 0.35093778 0.49149892 0.17638063
0.055887938 0.020446844 0.025834832 0.07660557 0.030988254 0.054647945 -0.079692 0.07127427
0.04883297 0.006965637 0.07062016 0.07026983 -0.0052630464 0.058854118 0.098966114 0.07257055
-0.0023819786 -0.007009186 -0.11516614 -0.07708563 -0.032546543 0.1028698 -0.083346315 0.09928817
0.012246995 0.072913885 0.039279673 -0.08652876 -0.058961757 0.099569485 -0.10176689 -0.011811549
0.050966997 -0.0028585633 0.06536584 0.005696371 0.015463888 -0.0030327393 0.08835656 -0.051774673
0.022963705 0.090428606 -0.005906986 0.08076003 0.096085675 -0.054040123 -0.0014955587 0.06013278
-0.11769286 0.013451142 0.08586617 -0.053442534 -0.06528199 0.02258242 0.15958026 0.026216693
0.054663166 -0.0128571205 -0.017732423 -0.03402987 -0.058151703 -0.1039305 -0.06774411 -0.04845828
00000000: d582 4d3e 3ab8 46be 9795 6e3e 6a8b 99bd
00000010: 5412 8c3d 323c 913d 3391 fdbb 528d 00bd
00000020: 781c 86bd 6b18 5f3d d3ab 973d cf63 083e
00000030: 061a 813c 4b40 013e 913e d53d 99d1 64bd
00000040: 7fbc 6f3c 3c52 fa3d a2f2 943d f775 743c
00000050: e7a2 563e 5bda f33d 37a8 043e 9633 8ebd
00000060: 2290 ffbd 6db5 7c3e db15 8d3d 8719 893d
00000070: c7c4 fa3d 5361 873d 5d40 bfbc 3266 873d
00000080: 7506 b13d 7470 063e 490b dd3d e73d bd3d
00000090: 6ce3 3e3c 8497 1c3e 77a7 4d3b ad71 be3d
000000a0: 35b9 9d3e e309 dfbd 1276 013e cb66 dc3d
000000b0: 25b9 2f3d 44c6 18bd 2e08 673c f891 033e
000000c0: 9469 e6bd 20dc bf3d c496 0b3d 049b 2b3e
000000d0: 0202 dc3c b585 b1bd a01c 533d 9611 fcbd
000000e0: 0886 c63d 4d9f 473d d41e df3d 91aa 593c
000000f0: 9c46 1cbd 8a3c 123e 4da0 173d e7b4 b4bd
00000100: 6c1d b23e 87ec ce3e 3772 163f 8607 b03e
00000110: 8fac 363e c5de 883e 7fc6 973e 52b9 b93e
00000120: 3009 ab3e 8de8 b33e f946 bd3e 30b4 023f
00000130: e4ab 343e d68f a43e dd7d f93e c2ba 403f
00000140: 1ad9 223f 373a 433e b39e b53e d822 e93e
00000150: 667f cb3e 4e99 773e 45e0 ea3e d884 873e
00000160: 8cf2 6f3e a5c8 893e 438f 173e 61e6 1c3f
00000170: bda9 963e 1965 e73e 1f5e 6b3e e403 523e
00000180: 6fc5 9b3e daa4 2c3f 1b99 003f 478b bc3e
00000190: 7144 523e b024 843e fe6c c93e 5091 9e3e
000001a0: f23f ee3e 6d10 383d 0bf4 1b3f ea58 e73e
000001b0: d2f4 df3e cc13 ab3e 580c d73e 173d a83e
000001c0: f8a1 943e ad42 ec3e 0736 2f3e 3739 a73e
000001d0: 3b74 563e 6d31 9a3e 451d de3e fd18 623e
000001e0: 589b 893e 0900 f63e 940b 1a3f d140 6e3e
000001f0: 806b d93e 1eae b33e bfa5 fb3e 209d 343e
00000200: c0ea 643d 2480 a73c 92a3 d33c 62e3 9c3d
00000210: 14db fd3c 86d6 5f3d 8f35 a3bd 3ff8 913d
00000220: 1505 483d 0040 e43b 4da1 903d a1e9 8f3d
00000230: a275 acbb 0411 713d bfae ca3d de9f 943d
00000240: f81a 1cbb 50ad e5bb 3adc ebbd 12df 9dbd
00000250: 864f 05bd 67ad d23d 79b1 aabd 9957 cb3d
00000260: 9fa7 483c e053 953d b9e3 203d fe35 b1bd
00000270: e281 71bd 16eb cb3d 296b d0bd 3a85 41bc
00000280: c5c2 503d bc56 3bbb 87de 853d a0a8 ba3b
00000290: 3f5c 7d3c ecc0 46bb 49f4 b43d ae11 54bd
000002a0: 611e bc3c a232 b93d 648f c1bb 8465 a53d
000002b0: 91c8 c43d 2d59 5dbd 9f06 c4ba ca4d 763d
000002c0: f408 f1bd 2e62 5c3c 9ada af3d 8fe6 5abd
000002d0: 90b2 85bd c4fe b83c 0269 233e 64c4 d63c
000002e0: 7ce6 5f3d aca6 52bc 9643 91bc e862 0bbd
000002f0: 7b30 6ebd 84d9 d4bd 6dbd 8abd 307c 46bd

decoder_rnn.bias_hh_l0 f4 [192]
0.05100848 -0.22351447 0.10928401 -0.06683874 -0.01744265 0.065125555 0.19031146 -0.026833026
-0.10899915 0.12615216 0.09132735 0.11777383 0.19291641 0.082349494 0.063527785 0.14892049
0.08150893 -0.084022656 0.13713422 0.09974792 0.2888834 0.00013987091 0.036432344 0.08303859
-0.058734972 0.13145809 0.1316063 0.013686677 -0.027104273 -0.02387935 0.09241531 0.008871983
0.009614034 0.10142701 0.04620327 0.0799146 0.046708275 0.12184022 0.03480607 0.012855899
0.29474565 -0.03669332 0.010210096 0.06417067 -0.006037608 0.036912493 0.06442358 0.040168665
-0.15777187 -0.12730746 -0.039460886 0.12449035 0.11334959 -0.10374129 -0.0025544865 0.0014771965
0.040500242 0.0011379849 -0.054975927 0.11903895 -0.15391587 0.03629 0.023455596 -0.035100956
0.31666663 0.36810207 0.6032261 0.39363623 0.24615283 0.23771927 0.23509881 0.366351
0.3053004 0.22115035 0.48022458 0.65064406 0.31645337 0.39173177 0.42630664 0.5814588
0.5894133 0.38311067 0.28188828 0.47334275 0.391833 0.24180149 0.4845002 0.24204291
0.17575985 0.31703645 0.33311284 0.4266933 0.40589353 0.268117 0.19691852 0.22390905
0.38035968 0.578172 0.62386906 0.26951444 0.27980557 0.32485297 0.42654 0.41847742
0.37606835 0.1978496 0.54220235 0.3870919 0.22839567 0.33160415 0.33395696 0.3920119
0.1275373 0.40649277 0.33623517 0.17767727 0.20498595 0.20534416 0.48223487 0.22472638
0.3193474 0.4872765 0.59903646 0.36205533 0.44253847 0.3861135 0.33084244 0.09591977
0.033088952 0.00993331 -0.14320102 0.020654822 0.12028711 -0.12140422 0.11043106 -0.096201666
-0.06270833 -0.03576969 -0.08430554 -0.12480585 -0.019093577 -0.017033748 0.06899818 0.03101039
0.047305606 0.105214216 -0.123734035 0.112301335 0.015371792 -0.012558096 0.06410754 -0.07368006
-0.019269407 -0.0031370572 0.094666086 0.022968104 -0.05802953 -0.054888528 -0.000745266 0.017727347
0.013634655 0.03928265 -0.11750585 -0.04278735 -0.08827844 0.030114042 -0.04850945 0.06804031
0.09002427 0.012795891 -0.053613298 0.09212613 -0.035472773 -0.063018315 0.08402859 -0.0072004297
-0.025886888 -0.013454562 0.01468238 0.094545245 -0.086964816 -0.098855264 0.01358395 0.1154797
-0.08415797 -0.0019571814 -0.022905264 -0.089683294 0.042442497 0.048981912 -0.034027144 -0.013002543
00000000: 45ee 503d fae0 64be 4cd0 df3d c0e2 88bd
00000010: e3e3 8ebc 8c60 853d 02e1 423e efd0 dbbc
00000020: f23a dfbd 082e 013e d509 bb3d 6833 f13d
00000030: e18b 453e daa6 a83d db1a 823d 9d7e 183e
00000040: 27ee a63d 1214 acbd ea6c 0c3e a348 cc3d
00000050: 86e8 933e 50aa 1239 153a 153d 2310 aa3d
00000060: 1594 70bd f39c 063e cdc3 063e 163e 603c
00000070: c809 debc a09e c3bc 3d44 bd3d cb5b 113c
00000080: 2e84 1d3c f7b8 cf3d a43f 3d3d 44aa a33d
00000090: 2d51 3f3d 5e87 f93d cf90 0e3d 8ca1 523c
000000a0: e7e8 963e bc4b 16bd 3f48 273c ea6b 833d
000000b0: 20d7 c5bb 8e31 173d 83f0 833d e687 243d
000000c0: f38e 21be e35c 02be bda1 21bd ccf4 fe3d
000000d0: d423 e83d 5076 d4bd 2c69 27bb 7d9e c13a
000000e0: 95e3 253d 7028 953a 702e 61bd b1ca f33d
000000f0: 1f9c 1dbe d3a4 143d f325 c03c 05c6 0fbd
00000100: 2122 a23e e077 bc3e 076d 1a3f b08a c93e
00000110: 7d0f 7c3e ae6c 733e bebd 703e 5c92 bb3e
00000120: 5650 9c3e 3d75 623e ffdf f53e 9c90 263f
00000130: 2d06 a23e 1191 c83e dd44 da3e 7cda 143f
00000140: cae3 163f 1527 c43e a953 903e fb59 f23e
00000150: 569e c83e cf9a 773e 6910 f83e 19da 773e
00000160: 64fa 333e 9a52 a23e c48d aa3e 8b77 da3e
00000170: 47d1 cf3e a246 893e 02a5 493e 6a48 653e
00000180: 81be c23e 1503 143f e2b5 1f3f ccfd 893e
00000190: ad42 8f3e 2153 a63e 7363 da3e ac42 d63e
000001a0: 088c c03e 1699 4a3e c6cd 0a3f e930 c63e
000001b0: 8ee0 693e 05c8 a93e 68fc aa3e c9b5 c83e
000001c0: 2399 023e d21f d03e 0427 ac3e 08f1 353e
000001d0: d6e7 513e bd45 523e 7de7 f63e ac1e 663e
000001e0: 8181 a33e 4e7c f93e 745a 193f 515f b93e
000001f0: 6794 e23e abb0 c53e 2e64 a93e 9671 c43d
00000200: 4888 073d 52bf 223c 4aa3 12be 4d34 a93c
00000210: 1759 f63d c7a2 f8bd ae29 e23d 6105 c5bd
00000220: 3a6d 80bd 3d83 12bd 62a8 acbd 369a ffbd
00000230: 226a 9cbc 5c8a 8bbc eb4e 8d3d 8009 fe3c
00000240: 86c3 413d 8d7a d73d 4568 fdbd 3efe e53d
00000250: f8d9 7b3c 79c0 4dbc d04a 833d 92e5 96bd
00000260: e0da 9dbc 1697 4dbb 4be0 c13d 9b27 bc3c
00000270: 5fb0 6dbd cbd2 60bd f45d 43ba f138 913c
00000280: e363 5f3c d8e6 203d e8a6 f0bd ca41 2fbd
00000290: 54cb b4bd b9b1 f63c d8b1 46bd b858 8b3d
000002a0: a55e b83d dba5 513c 9e99 5bbd a0ac bc3d
000002b0: e64b 11bd bf0f 81bd 2e17 ac3d 95f1 ebbb
000002c0: bd10 d4bc 8670 5cbc 5d8e 703c f0a0 c13d
000002d0: 9c1a b2bd a174 cabd 378f 5e3c 9f80 ec3d
000002e0: 045b acbd 0e44 00bb d2a3 bbbc e0ab b7bd
000002f0: 2fd8 2d3d 42a1 483d 0c60 0bbd 9e08 55bc
