Rudi/checkpoints_02/checkpoint_epoch_97.pth (torch, 587118 bytes, 30 tensors)

encoder_rnn.weight_ih_l0 f4 [192, 40]
0	0x3e76fc74	0.2411974
1	0xbdc957dd	-0.09831212
2	0xbe37b53f	-0.17940234
3	0xbddc9e3c	-0.10772368
4	0xbd9dee61	-0.07711483
5	0xbe1c4a4d	-0.15262718
6	0xbdf04754	-0.11732355
7	0xbbfad5f0	-0.007654898
8	0xbdc0eb0d	-0.094198324
9	0xbdf85f49	-0.12127549
10	0x3d2f1998	0.042749017
11	0xbddd2d11	-0.10799611
12	0xbde3821a	-0.11108799
13	0xba0c01b2	-0.0005340829
14	0xbdc09622	-0.094036356
15	0x3d90f584	0.070780784
16	0xbda7cf49	-0.081938334
17	0x3c964bf8	0.018346772
18	0xbd6f4b3c	-0.05842136
19	0xbdd78e9b	-0.10525247
20	0xbe0be686	-0.13662156
21	0x3c24306d	0.010021311
22	0xbe6a3276	-0.22870812
23	0xbd05f9f8	-0.032709092
24	0xbdb87fc3	-0.090087436
25	0x3c103469	0.008801558
26	0x3d3c7f0d	0.046019603
27	0x3d98f4b7	0.07468551
28	0x3e168e06	0.14702615
29	0xbd6bd42e	-0.057575397
30	0xbe135bad	-0.1439044
31	0xbcbd239e	-0.023088273
32	0xbd84cc52	-0.064842835
33	0x3e068e4a	0.13140216
34	0xbd164418	-0.036686033
35	0xbe22d04d	-0.15899773
36	0xbde985bf	-0.11402463
37	0xbdcab42f	-0.098976485
38	0xbe29e4ae	-0.1659114
39	0xbdd982a1	-0.106206186
40	0xbd4deb68	-0.05027333
41	0xbda91741	-0.082563885
42	0xbda64331	-0.081182845
43	0x3bb5c2d1	0.0055469056
44	0xbd2f9a1f	-0.04287159
45	0xbd1ee518	-0.0387927
46	0x3c3f54e9	0.011677959
47	0xbd01f75d	-0.031730045
48	0xbe24039a	-0.16016999
49	0x3c17c7c7	0.009263939
50	0x3d105aec	0.03524296
51	0xbe1ff1f3	-0.1561964
52	0xbaf9a643	-0.0019046742
53	0xbc8623c4	-0.016374476
54	0x3e14c0ee	0.14526722
55	0x3e155763	0.14584117
56	0xbd14353b	-0.036183577
57	0x3e51aa54	0.20475131
58	0x3e00dd73	0.12584476
59	0x3ddc6066	0.10760574
60	0x3d9d1db5	0.07671682
61	0x3d644aef	0.055735525
62	0x3ab36d00	0.0013689101
63	0x3de1171a	0.109907344
64	0x3dbf55bb	0.09342524
65	0xba05e81a	-0.0005108133
66	0x3ca72e68	0.02040787
67	0x3bc7752b	0.0060869656
68	0xbdc2b021	-0.0950625
69	0xbd1e652e	-0.03867071
70	0xbdfd6535	-0.12372819
71	0xbdcd2ab2	-0.10017909
72	0x3b61a9cb	0.003443348
73	0xbdbcb795	-0.09214703
74	0xbd996a73	-0.07491007
75	0xbd3aaa7a	-0.045572735
76	0xbe1afaf5	-0.15134795
77	0x3d307abb	0.043085795
78	0xbd8492db	-0.06473323
79	0xbd765692	-0.060141154
80	0x3db0cd36	0.08632891
81	0xbe397fb5	-0.18115123
82	0x3e4047be	0.18777367
83	0x3da91d9d	0.082576014
84	0xbe0b29fa	-0.13590232
85	0x3d7fcd7a	0.062451817
86	0xbdf09b4e	-0.11748372
87	0x3e2b3400	0.16719055
88	0x3e2eafdd	0.17059274
89	0x3dc58683	0.09644797
90	0xbd8680a6	-0.065675065
91	0x3ce5da7a	0.02805828
92	0x3da37525	0.07981328
93	0xbdad27e9	-0.08454878
94	0xbd896090	-0.06707871
95	0xbdbd9f03	-0.09258845
96	0xbe074ac3	-0.13212113
97	0xbcb73e6f	-0.022368638
98	0x3ca530bd	0.020164842
99	0xbdcc75d0	-0.099834085
100	0xbd3914de	-0.045185916
101	0xbdfde502	-0.123971954
102	0xbccfaf11	-0.025352033
103	0xbc6e8ab4	-0.014559437
104	0xbd7c8ce1	-0.06165779
105	0x3d03c082	0.03216601
106	0xbdece7f9	-0.11567683
107	0x3e1f484f	0.15554927
108	0xbe02f5f4	-0.12789136
109	0xbca668aa	-0.02031358
110	0x3d3f1a8e	0.046656184
111	0xbdb77692	-0.08958162
112	0xbd10ec50	-0.035381615
113	0x3d1a3e9c	0.037657365
114	0x3b87d492	0.0041452134
115	0x3c8f1707	0.017467035
116	0x3d596015	0.053070147
117	0x3dd70ba4	0.10500267
118	0x3e1248f2	0.14285639
119	0xbd6c21cb	-0.057649415
120	0x3e43dfb4	0.19128305
121	0xbd2f440b	-0.0427895
122	0x3cb8ad33	0.022543525
123	0xbd9a1c4c	-0.075249285
124	0xbde69659	-0.11259145
125	0xbe1fa0f5	-0.15588744
126	0xbd9e1a55	-0.07719866
127	0x3d83e5fd	0.06440351
128	0xbc7511a9	-0.014957824
129	0xbddefe17	-0.108883075
130	0xbd94dcce	-0.07268678
131	0xbd93878f	-0.0720359
132	0xbde08372	-0.10962571
133	0x3dcad145	0.09903196
134	0x3cf12eb9	0.029441224
135	0xb9e14e74	-0.00042973796
136	0x3d0c382e	0.034233265
137	0x3d484e3c	0.048902735
138	0x3bc955f3	0.006144279
139	0xbd385cc5	-0.045010347
140	0x3d51532e	0.051104717
141	0xbd786e9b	-0.060652357
142	0x3d203f02	0.03912259
143	0x3e02360a	0.12715927
144	0x3d01119d	0.031510938
145	0xbd76df9e	-0.06027185
146	0xbde2deb7	-0.11077636
147	0x3d7bc152	0.06146366
148	0xbd73ca01	-0.059518818
149	0xbc980e47	-0.018561495
150	0xbdafcba1	-0.08583761
151	0xbe72f1d5	-0.23725064
152	0xbe2754fc	-0.16341013
153	0xbc9c316c	-0.019066535
154	0x3a317e30	0.00067708176
155	0xbdf2e65d	-0.118603446
156	0xbdf0e248	-0.1176191
157	0x3da6a5fd	0.081371285
158	0xbe245c54	-0.16050845
159	0x3cd79f90	0.026321203
160	0xbd523df6	-0.05132862
161	0x3d3359cb	0.043786805
162	0xbdef76a7	-0.11692553
163	0xbd8dd9f3	-0.06926336
164	0xbc8e0c70	-0.017339915
165	0xbdf29883	-0.118454956
166	0xbdcba906	-0.09944348
167	0x3cf4a959	0.029865908
168	0xbe0e20de	-0.13879725
169	0xbe233e85	-0.15941818
170	0x3d4c599b	0.049890142
171	0xbe25cacc	-0.16190642
172	0xb9aae9d9	-0.00032599157
173	0x3d646bf0	0.055767
174	0x3d9a00e4	0.07519701
175	0x3d0a2c95	0.033733923
176	0xbd86250f	-0.06550037
177	0x3d93252b	0.071848236
178	0x3dae09f3	0.084979914
179	0x3c83810a	0.016052742
180	0x3df07161	0.11740375
181	0x3de80dee	0.11330782
182	0x3e1f01ed	0.15528078
183	0x3dbae335	0.091253676
184	0x3dab8d85	0.08376602
185	0xbd7e057f	-0.06201696
186	0xbd1970d0	-0.037461102
187	0x3d2757f8	0.040855378
188	0x3dbbba16	0.091663525
189	0x3e388c7f	0.18022345
190	0x3de38bd2	0.11110653
191	0x3ccfb07a	0.025352705
192	0xbcaac426	-0.020845484
193	0xbd91b22a	-0.0711406
194	0x3df9fb25	0.12206105
195	0xbd61ce23	-0.055128228
196	0xbe305d5d	-0.17223115
197	0xbd526a40	-0.05137086
198	0xbdb8de15	-0.09026734
199	0xbd546a96	-0.05185946
200	0xbc790f50	-0.015201405
201	0x3dcb2117	0.09918421
202	0xbd17d8d8	-0.037072033
203	0xbd9ffd15	-0.078119434
204	0xbdc6a98a	-0.09700306
205	0x3d338d7f	0.043836113
206	0x3d833106	0.06405835
207	0x3dc729c8	0.09724766
208	0xbd42dae9	-0.04757205
209	0xbda77ef1	-0.08178509
210	0x3c40e068	0.011772253
211	0xbe408429	-0.18800415
212	0x3df2d61d	0.11857245
213	0x3d5e6181	0.054292206
214	0x3ba84034	0.0051346067
215	0xbaa5c24b	-0.0012646405
216	0x3ddaa515	0.10676018
217	0x3de59603	0.11210253
218	0x3d1d050e	0.0383349
219	0x3d124630	0.035711467
220	0xbd980fd8	-0.07424897
221	0xbdfd8a13	-0.12379851
222	0x3ddd994f	0.10820257
223	0x3d5f16c4	0.05446507
224	0x3dcb6879	0.09932036
225	0xbd8fa9a1	-0.07014776
226	0xbd290c15	-0.041271288
227	0xbd285c28	-0.041103512
228	0xbcb206f4	-0.021731831
229	0x3d18f4e0	0.037342906
230	0xbccbfe43	-0.024901515
231	0xbd744298	-0.05963382
232	0xbdd68af9	-0.10475726
233	0x3da92a67	0.08260041
234	0x3d8d925b	0.06912681
235	0xbd69627a	-0.05697868
236	0xbe187dfe	-0.14891812
237	0xbd5c837b	-0.053836327
238	0xbd091870	-0.03347057
239	0xba8eb2c4	-0.0010887017
240	0x3e351af1	0.17686059
241	0xbd7d57a1	-0.061851148
242	0xbd74e20d	-0.05978589
243	0xbdfbc294	-0.12292972
244	0xbc50e3d6	-0.012749633
245	0xbe405688	-0.18783009
246	0xbd96348f	-0.073342435
247	0xbe0dafcf	-0.13836597
248	0xbd885394	-0.06656566
249	0xbe427fde	-0.1899409
250	0xbd3687e1	-0.044563178
251	0xbe181cc2	-0.1485472
252	0xbe5d0ca7	-0.21586858
253	0x3c893b86	0.016752016
254	0xbc70c207	-0.014694697
255	0x3d99a8b1	0.075028785

encoder_rnn.weight_hh_l0 f4 [192, 64]
0	0xbe2116bd	-0.1573133
1	0x3c521bcf	0.012824013
2	0x3d2dab2f	0.04239958
3	0x3c7ef6ae	0.015561743
4	0xbd133b0f	-0.035944995
5	0xbe2981d9	-0.16553439
6	0x3d53715d	0.051621784
7	0xbdbc776d	-0.09202466
8	0x3d8db494	0.06919208
9	0xbd3e9f8d	-0.04653888
10	0x3dcd565d	0.10026238
11	0xbce62378	-0.028093085
12	0xbdb154a3	-0.08658721
13	0x3dd1167e	0.10209368
14	0xbb886257	-0.0041621136
15	0xbd6ebaf5	-0.058283765
16	0x3d671d49	0.056424413
17	0xbc2672d4	-0.010159213
18	0xbd9adadf	-0.075612776
19	0x3d8afa77	0.06786054
20	0xbd175a44	-0.03695132
21	0x3d3bcd3c	0.045850024
22	0x3d728a0f	0.059213694
23	0xbd6cccd6	-0.057812534
24	0x3e37a02f	0.17932199
25	0x3e4b3e28	0.1984793
26	0xbe571263	-0.21003108
27	0x3ad1012f	0.0015945787
28	0xbe2a8fd9	-0.16656436
29	0xbd7734b9	-0.060353015
30	0x3d039b36	0.032130443
31	0xbd9ff278	-0.07809919
32	0x3d128470	0.035770833
33	0x3d53afdc	0.051681384
34	0x3d21615c	0.03939949
35	0x3c9ddb6c	0.019269668
36	0x3e037cef	0.12840627
37	0x3de2d907	0.11076551
38	0x3deafd41	0.114740856
39	0x3e7ebf40	0.24877644
40	0xbd67b091	-0.05656487
41	0x3d56e10d	0.05246072
42	0xbc591920	-0.013250619
43	0xbda3f7e8	-0.08006269
44	0xbd265ed8	-0.040617794
45	0xbd5f5a9a	-0.054529764
46	0x3d6ea309	0.05826095
47	0x3cb61350	0.022226006
48	0x3d2c80b9	0.042114947
49	0x3d45beb1	0.04827756
50	0x3dff139b	0.12454911
51	0x3d706fdc	0.058700427
52	0x3ca251c9	0.019814389
53	0xbc664e53	-0.01405676
54	0x3d98c44a	0.07459314
55	0xbd0c8a20	-0.034311414
56	0x3c9451f2	0.01810548
57	0xbd8dc84e	-0.06922971
58	0x3db7dbb2	0.089774504
59	0xbd63eebd	-0.0556476
60	0x3c429da5	0.011878406
61	0x3d8bfcc8	0.068353236
62	0xbcb8e05b	-0.022567919
63	0x3dce1d6a	0.10064204
64	0xbd5d2cea	-0.05399791
65	0xbd56a627	-0.05240455
66	0x3de582cc	0.11206588
67	0xbe03d831	-0.12875439
68	0xbd777cf5	-0.060421903
69	0x3d665d4c	0.05624132
70	0xbbc3ee87	-0.0059793624
71	0xbbb15a96	-0.00541241
72	0xbd6d4956	-0.057931267
73	0xbd3bc0da	-0.045838214
74	0xbd177788	-0.03697923
75	0xbcc2a4fb	-0.02376031
76	0x3d1d7598	0.038442224
77	0xbcb38f66	-0.021918964
78	0x3c622ed0	0.013805106
79	0x3c329b84	0.010901336
80	0xbe80619d	-0.25074473
81	0x3cef2767	0.029193593
82	0xbcc3dd5c	-0.023909263
83	0xbe09c3e6	-0.13453636
84	0xbd528d33	-0.05140419
85	0x3c1e5234	0.009663153
86	0x3dc0e84d	0.09419308
87	0xbdcc43b7	-0.09973853
88	0x3c11193d	0.008856115
89	0x3d1277aa	0.03575865
90	0x3bf9b4b6	0.0076204194
91	0x3dab48b4	0.083634764
92	0x3d853d22	0.06505801
93	0xbe47fd2d	-0.19530173
94	0x3d91305a	0.070893005
95	0x3e0268eb	0.12735336
96	0x3e7901d2	0.243171
97	0x3df859f3	0.121265315
98	0xbdbd7462	-0.09250714
99	0x3d96177f	0.073287
100	0xbdeb4fdf	-0.114898436
101	0x3be15cd4	0.006877521
102	0x3ceb20a3	0.028702086
103	0x3d1ad259	0.03779826
104	0x3e60fef7	0.21972261
105	0xbdcbc398	-0.09949416
106	0x3dd77d80	0.10521984
107	0x3d3370df	0.043808814
108	0x3bede41b	0.0072598583
109	0xbc9bbbd7	-0.019010467
110	0x3dc7bfb2	0.0975336
111	0x3de33646	0.11094336
112	0x3d209593	0.039205145
113	0xbe041eba	-0.12902346
114	0x3d99b1a8	0.07504588
115	0xbd7c5732	-0.061606593
116	0x3d5b450a	0.053532638
117	0x3cbf55a4	0.023356266
118	0x3e1b0134	0.15137178
119	0xbd5eaf7d	-0.054366577
120	0xbd148691	-0.036261145
121	0x3c507924	0.012724195
122	0xbda0ac26	-0.07845335
123	0xbd09abb6	-0.033611022
124	0xbdb26fb6	-0.087127134
125	0x3d57b16a	0.05265943
126	0xbe2148c4	-0.15750414
127	0x3dc65086	0.096833274
128	0x3d52a5b2	0.05142755
129	0x3d9ee3a1	0.077582605
130	0x3b8e62a3	0.0043452545
131	0xbd7bae78	-0.061445683
132	0xbd8f4ede	-0.069974646
133	0x3dbce1f6	0.09222786
134	0xbc8a9837	-0.016918285
135	0xbd739753	-0.059470486
136	0xbdc1ddc1	-0.09466124
137	0xbd25ca9a	-0.04047642
138	0xbd972db9	-0.07381768
139	0xbd5c7b84	-0.05382873
140	0x3d1c4ba7	0.038158085
141	0x3d0e195c	0.034692153
142	0xbd87d482	-0.066323295
143	0xbc93d19e	-0.01804429
144	0x3d856e4d	0.06515179
145	0xbcdb2ecb	-0.026755711
146	0xbc5d8d8e	-0.013522519
147	0x3d8de245	0.06927923
148	0x3ddc3efd	0.107542016
149	0xbd74e04b	-0.059784215
150	0xbcd161ce	-0.025559332
151	0x3acccff2	0.0015625937
152	0xbe0acc67	-0.13554536
153	0xbda7fdfa	-0.08202739
154	0xbda35dea	-0.07976897
155	0xbdd3e97f	-0.1034727
156	0x3d9270b5	0.071504034
157	0xbcfbe505	-0.030748853
158	0x3d4ebacd	0.050471116
159	0xbcad1b3d	-0.021131152
160	0x3db4a0d4	0.08819738
161	0xbd118421	-0.0355264
162	0xbd24ae79	-0.040205453
163	0xbd0f1184	-0.034928814
164	0xbc4dfe1e	-0.012572793
165	0xbd7f98ad	-0.062401462
166	0xbd9c225d	-0.07623742
167	0xbaba3162	-0.0014205391
168	0x3c9d3e42	0.019194726
169	0x3ddac7ca	0.10682638
170	0x3bc3fd12	0.005981096
171	0x3d16fa05	0.03685953
172	0x3d199f9e	0.03750574
173	0xbacb19cc	-0.0015495359
174	0xbd38252e	-0.044957332
175	0xbd2196df	-0.039450523
176	0xbd35a71c	-0.04434882
177	0x3c7fd98f	0.015615835
178	0xbc5c28bc	-0.013437446
179	0xbdb31df0	-0.087459445
180	0xbcc7a036	-0.024368387
181	0x3d6258a9	0.055260334
182	0xbe22a528	-0.15883315
183	0x3da74dc4	0.081691295
184	0xbc8db30a	-0.017297287
185	0x3c11288c	0.008859765
186	0x3d9bfe56	0.0761687
187	0x3db16a6d	0.08662877
188	0xbd0fba79	-0.035089944
189	0xbcbd66c2	-0.023120288
190	0xbd076486	-0.03305485
191	0xbd020ecd	-0.031752396
192	0x3cd343f2	0.025789235
193	0xbd4711b7	-0.04860088
194	0x3caead82	0.02132297
195	0xbcdd6073	-0.02702353
196	0xbd82e91f	-0.063921206
197	0x3c0582c8	0.008148856
198	0x3dc66d40	0.096888065
199	0xbd844164	-0.06457785
200	0x3dbeb421	0.093117006
201	0xbe2c2707	-0.16811763
202	0xbc74cd07	-0.01494146
203	0xbe2c51ab	-0.16828029
204	0x3b83676d	0.004010132
205	0xbd1d1c48	-0.03835705
206	0xbcb18139	-0.021668063
207	0xbdf8df13	-0.12151923
208	0xbc0dba72	-0.008650409
209	0x3cabca9b	0.020970633
210	0xbda619b8	-0.08110374
211	0x3cf56d51	0.029959353
212	0xbd402040	-0.046905756
213	0x3ba7bd95	0.0051190355
214	0xbcd9838f	-0.02655199
215	0xbcca1f4f	-0.024673132
216	0x3dbe7b35	0.093008436
217	0x3d43ad7a	0.047772862
218	0xbd299f26	-0.04141154
219	0x3ce90ff4	0.02844999
220	0xbc598476	-0.01327621
221	0x3c976b5c	0.01848381
222	0xbaf843fa	-0.0018941157
223	0xbd8e9365	-0.06961707
224	0x3c823052	0.015892182
225	0x3c9a623f	0.018845676
226	0xbdb688e1	-0.08912826
227	0x3c6bec5e	0.014399616
228	0xbcd220df	-0.02565044
229	0x3d528f59	0.05140624
230	0x3d0231eb	0.031785887
231	0xbbf39207	-0.0074331793
232	0xbbc5f956	-0.006041686
233	0x3d9d046d	0.0766686
234	0xbd803601	-0.062603004
235	0x3d8f94d5	0.07010809
236	0x3c462caf	0.012095614
237	0x3caeb93f	0.021328567
238	0xbcea6308	-0.028611675
239	0xbc868ea9	-0.016425448
240	0x3bd2d066	0.0064335344
241	0x3adfbd38	0.0017069941
242	0x3d8b9eb3	0.06817379
243	0x3d2438ff	0.04009342
244	0xbdb6be08	-0.08922964
245	0xbc935285	-0.017983684
246	0x3db92273	0.09039774
247	0x3e080840	0.13284397
248	0xbd57df03	-0.052702915
249	0xbe110fad	-0.14166136
250	0x3ddfe442	0.109322086
251	0x3cb7ebc0	0.022451282
252	0xbe230de5	-0.15923269
253	0x3cfca197	0.03083877
254	0xbd6cd9d2	-0.057824917
255	0xbcba1002	-0.022712711

encoder_rnn.bias_ih_l0 f4 [192]
0	0x3e2f3abf	0.17112254
1	0xbdb0e235	-0.086368956
2	0x3de04f54	0.10952631
3	0x3bcd7c5a	0.0062709274
4	0x3d9b5558	0.075846374
5	0x3d79eb9f	0.06101572
6	0x3dcb98cf	0.09941255
7	0xbe0a8a39	-0.1352929
8	0xbcd3748f	-0.025812415
9	0x3c09b146	0.008404082
10	0x3d3165d6	0.04331001
11	0xbb854c0c	-0.0040679034
12	0xbd0f4ed0	-0.03498727
13	0xbb3e385b	-0.002902529
14	0x3b728998	0.0037008282
15	0xbe6eeb82	-0.23332027
16	0xbd5d3662	-0.05400694
17	0x3cbdfdd0	0.023192316
18	0xbc14e1e1	-0.009087057
19	0x3e096ef0	0.13421226
20	0x3b7b9c7e	0.0038392837
21	0xbd78c1d8	-0.06073174
22	0x3d405522	0.04695619
23	0x3d2d006a	0.042236723
24	0x3dacd4dd	0.08439038
25	0x3c709df9	0.014686101
26	0xbd1479ee	-0.036249094
27	0x3d368396	0.044559084
28	0xbd7263e7	-0.059177306
29	0x3d4bd8e6	0.049767397
30	0x3c205e1f	0.009788065
31	0x3de64833	0.1124424
32	0x3e11a019	0.14221229
33	0xbdcbde71	-0.09954537
34	0xbd70d7af	-0.058799442
35	0x3d273376	0.04082056
36	0x3dca6493	0.09882464
37	0x3e26ac08	0.16276562
38	0x3dc57499	0.0964138
39	0xbd5878b5	-0.05284949
40	0xbcf98a2c	-0.030461393
41	0x3dbf161c	0.09330389
42	0x3d8a0599	0.06739349
43	0x3d1eb967	0.038751032
44	0xbd02ea67	-0.031961825
45	0xbd7dc10a	-0.061951675
46	0xbcf16ad7	-0.02946989
47	0x3cbbd20e	0.02292731
48	0xbdc99b88	-0.09844118
49	0x3daa658f	0.08320152
50	0xbceba483	-0.028764969
51	0x3d39003e	0.045166247
52	0x3be9c8a4	0.007134514
53	0xbd6bfcc5	-0.057614107
54	0xbcc85785	-0.024455795
55	0xbd86f4a7	-0.065896325
56	0xbc4aecb6	-0.012385538
57	0xbdaf49ba	-0.08558984
58	0x3ccaba96	0.024747174
59	0x3c0d1279	0.008610361
60	0x3c9e018a	0.019287843
61	0x3ddea222	0.10870768
62	0x3e0e1370	0.13874602
63	0x3dfad5dd	0.122478224
64	0x3dff5786	0.12467866
65	0x3ec756ba	0.38933355
66	0x3e96724d	0.2938408
67	0x3e1bfc78	0.15233028
68	0x3db1ab58	0.08675259
69	0x3e554aee	0.20829365
70	0x3eab412e	0.33448166
71	0x3eb3222a	0.34987003
72	0x3e4549b0	0.19266391
73	0x3ded01b1	0.11572588
74	0x3eb6fb1b	0.35738453
75	0x3e780c8a	0.24223533
76	0x3df61ff1	0.12017811
77	0x3e34ffe9	0.17675747
78	0x3e89a5dc	0.26884353
79	0x3ec24f39	0.37951067
80	0x3e96742b	0.29385504
81	0x3e750568	0.23927844
82	0x3e5f0fec	0.21783417
83	0x3eaf49e1	0.34236053
84	0x3ef42260	0.47682476
85	0x3e8a6eba	0.27037603
86	0x3eb34613	0.350144
87	0x3db6e247	0.08929878
88	0x3e976e06	0.2957613
89	0x3ea3e525	0.3201076
90	0x3dcfd5a5	0.10148171
91	0x3e0b8acb	0.13627164
92	0x3ece68d8	0.40314364
93	0x3eaad1cb	0.33363184
94	0x3e436e01	0.19084932
95	0x3d8cc582	0.06873609
96	0x3e856c39	0.2605913
97	0x3ec81e03	0.39085397
98	0x3e223a22	0.15842488
99	0x3eb6ad42	0.3567906
100	0x3e035c9b	0.12828295
101	0x3e9fe405	0.31228653
102	0x3eb7ed08	0.35923028
103	0x3e9f82d2	0.31154495
104	0x3e9aa52f	0.3020415
105	0x3e5545c6	0.20827398
106	0x3ea1cd35	0.31601873
107	0x3e5a9483	0.21345715
108	0x3e5e039b	0.21681063
109	0x3d5f5d0a	0.05453209
110	0x3e0023c3	0.12513642
111	0x3ea4eb68	0.3221085
112	0x3dda2f45	0.10653547
113	0x3e0a1de0	0.13487959
114	0x3e0ff31a	0.1405758
115	0x3e3daeae	0.18523666
116	0x3e434e69	0.1907288
117	0x3e354872	0.17703417
118	0x3df44d31	0.119287856
119	0x3e54a114	0.20764571
120	0x3ee7e675	0.45293012
121	0x3e72fb53	0.23728685
122	0x3e9994b2	0.29996258
123	0x3e83cf8c	0.25744283
124	0x3e37cbc2	0.17948821
125	0x3df1358d	0.11777792
126	0xbbd559ee	-0.0065109646
127	0x3e934cbe	0.28769487
128	0xbe3b5652	-0.18294647
129	0xbc806d25	-0.015677044
130	0xbda8c77b	-0.08241173
131	0x3e68ce24	0.22734886
132	0x3c656092	0.014000075
133	0xbe0b9bb5	-0.13633616
134	0xbbdc681a	-0.006726277
135	0x3e4168fb	0.18887703
136	0xbb15a2f4	-0.0022832723
137	0x3e2475ff	0.16060637
138	0x3d814a3c	0.06312987
139	0xbcbc783a	-0.023006547
140	0xbe324e87	-0.17412768
141	0x3dcb93f7	0.099403314
142	0x3d7f89f1	0.06238741
143	0x3dd4461c	0.10364935
144	0xbd630601	-0.055425648
145	0xbe610881	-0.219759
146	0xbb13bddf	-0.0022543592
147	0xbc7ea27d	-0.01554167
148	0x3cff7246	0.03118242
149	0xbe01afe8	-0.12664759
150	0xbd03a492	-0.03213937
151	0x3e126833	0.14297561
152	0x3da1b405	0.07895664
153	0x3e4ea2b6	0.20179257
154	0xbd2115a2	-0.03932727
155	0xbdb91173	-0.09036531
156	0x3dac1645	0.08402685
157	0x3b1ee1e4	0.0024243528
158	0xbdf41b4d	-0.1191927
159	0xbc41040c	-0.01178075
160	0x3c0415d4	0.008061845
161	0x3dc28bb1	0.094993
162	0x3d521f1f	0.05129921
163	0x3dfcaf88	0.123381674
164	0x3e24f8ab	0.16110484
165	0xbd30c100	-0.04315281
166	0xbdf3159d	-0.11869357
167	0x3e5dab70	0.2164743
168	0xbde8e58b	-0.11371907
169	0x3e94cc15	0.29061952
170	0x3d74c56a	0.05975858
171	0x3d83ec2b	0.0644153
172	0x3d8f11c4	0.069858104
173	0xbe073be8	-0.13206446
174	0xbe48253c	-0.19545454
175	0xbe352fbf	-0.17693995
176	0xbdb89011	-0.090118535
177	0x3e60e96a	0.2196404
178	0xbccedac5	-0.025250802
179	0x3dd2d17f	0.102938645
180	0x3db4006f	0.08789145
181	0x3e017370	0.12641692
182	0xbd03eae5	-0.032206435
183	0x3c268696	0.010163924
184	0x3b80da96	0.0039323075
185	0xbce9e569	-0.028551774
186	0x3d6a8a1d	0.05726062
187	0x3de52e43	0.11190464
188	0x3e1a898a	0.1509153
189	0xbcb036c9	-0.021510499
190	0x3da3d2da	0.07999201
191	0xbca3826b	-0.01995965

encoder_rnn.bias_hh_l0 f4 [192]
0	0x3d671dc5	0.056424875
1	0xbca773eb	-0.020441016
2	0x3d6330e5	0.05546655
3	0x3c97a1df	0.018509803
4	0xbcb357b8	-0.021892413
5	0x3cc0a156	0.023514431
6	0x3a706f32	0.0009171843
7	0xbdec7b12	-0.11546911
8	0xbce5fb93	-0.028074061
9	0x3d368ea2	0.04456962
10	0xbce13af9	-0.02749394
11	0x3c9a7dcc	0.018858813
12	0x3c635ab6	0.013876608
13	0xbc841e87	-0.016127838
14	0xbe01d1c8	-0.12677681
15	0xbe40f363	-0.18842845
16	0xbd7aea50	-0.061258614
17	0xbcf00625	-0.029299805
18	0xbd03a2a5	-0.03213753
19	0x3de5e324	0.11224964
20	0xbcabe3d2	-0.020982657
21	0xbdf77cb4	-0.12084332
22	0xbdc3ad80	-0.09554577
23	0xbc4a443a	-0.012345368
24	0x3d80399a	0.062609866
25	0x3d8ca1e9	0.068668194
26	0xbd1b4266	-0.03790512
27	0x3d3d5a96	0.046228968
28	0x3d94a0f7	0.07257264
29	0x3d5d6e1b	0.054060083
30	0x3d31cca1	0.04340804
31	0x3c25811a	0.010101581
32	0x3dc56099	0.09637565
33	0x3ccb6611	0.024828942
34	0xbd536876	-0.051613294
35	0x3dd19e9b	0.1023533
36	0x3d673426	0.056446217
37	0x3db3cad2	0.08778919
38	0x3d10962d	0.03529947
39	0xbc99172b	-0.018687805
40	0x3cc159fb	0.023602476
41	0x3e318650	0.17336392
42	0x3dbe6e79	0.09298415
43	0xbd543f6d	-0.0518183
44	0x3dea0e39	0.11428494
45	0x3db4173e	0.087934956
46	0x3d7a28fe	0.06107425
47	0x3d10ea9f	0.035380002
48	0x3cc9b22e	0.024621096
49	0xbda3461e	-0.07972358
50	0x3c951731	0.018199535
51	0xbcc4762b	-0.023982128
52	0xbd3fefb5	-0.04685946
53	0xbdb377ea	-0.08763106
54	0x3cfd851f	0.030947266
55	0xbd4bc9c9	-0.049752984
56	0x3d7ea2c4	0.062166944
57	0xbd6cc8b3	-0.05780859
58	0x3c65d745	0.014028375
59	0xbd42c3b2	-0.04754991
60	0xbc8d42ec	-0.017243825
61	0xbd078356	-0.033084236
62	0x3dbdfe2b	0.09276994
63	0x3d294e07	0.04133418
64	0x3e57630a	0.21033874
65	0x3e6fe33a	0.23426524
66	0x3eb40eb1	0.3516746
67	0x3dc6c108	0.097047865
68	0x3dab07a6	0.08351068
69	0x3e8d8030	0.27636862
70	0x3e930c47	0.28720304
71	0x3e8af71c	0.27141654
72	0x3dce4c04	0.100730926
73	0x3de8aa37	0.11360591
74	0x3eab13ee	0.33413643
75	0x3e919cab	0.2843984
76	0x3e804a82	0.25056845
77	0x3e5f66e9	0.21816601
78	0x3e26ecc6	0.1630126
79	0x3ef715bc	0.4825877
80	0x3ea9bc13	0.33151302
81	0x3dfcc1d5	0.12341658
82	0x3eaba14b	0.33521494
83	0x3e9ef4c6	0.31046122
84	0x3ee467a0	0.4461031
85	0x3ebdf0d8	0.37097812
86	0x3e9edc92	0.31027657
87	0x3db1064d	0.0864378
88	0x3e87b0c1	0.2650204
89	0x3ea9bebc	0.3315333
90	0x3e858b12	0.26082665
91	0x3e004602	0.12526706
92	0x3e847720	0.25872135
93	0x3ebd4d04	0.3697282
94	0x3e00d47e	0.1258106
95	0x3d84e2fe	0.06488608
96	0x3eb4e329	0.3532956
97	0x3eb509dc	0.35359085
98	0x3e64fc41	0.22361852
99	0x3e930f36	0.28722543
100	0x3e59cac0	0.21268749
101	0x3e9b2957	0.30304977
102	0x3e8e03a4	0.27737153
103	0x3e8f2218	0.279557
104	0x3e95b54e	0.29239887
105	0x3e2f70a2	0.1713281
106	0x3e8e63de	0.27810568
107	0x3e32917f	0.17438315
108	0x3e427014	0.18988067
109	0x3e063fb2	0.13110235
110	0x3e0d34f3	0.1378973
111	0x3e9c1ff5	0.3049313
112	0x3e46e15c	0.19421905
113	0x3e8a44ed	0.2700571
114	0x3d8710d0	0.065950036
115	0x3e92609e	0.28589338
116	0x3e18eff2	0.14935282
117	0x3e05cfc8	0.13067544
118	0x3df4e8c4	0.11958459
119	0x3e36de95	0.17858346
120	0x3eead820	0.45868015
121	0x3df742ea	0.1207331
122	0x3ebf6811	0.37384084
123	0x3ec9c1ec	0.39405763
124	0x3de66860	0.11250377
125	0x3daf483c	0.085586995
126	0xbda47bb5	-0.08031408
127	0x3e60eddf	0.2196574
128	0xbe14c038	-0.1452645
129	0xbdc2f462	-0.095192686
130	0xbd394bad	-0.045238186
131	0x3e52b2e3	0.20576052
132	0xbe1abf45	-0.15112026
133	0xbdb19b6b	-0.08672222
134	0x3e124920	0.14285707
135	0xbcbf21f6	-0.023331624
136	0x3cb97eba	0.022643436
137	0x3da67ba5	0.08129052
138	0xbe2057cf	-0.15658496
139	0xbd81eca2	-0.06343962
140	0xbc6313ca	-0.013859699
141	0x3dc8444f	0.09778654
142	0x3df7a589	0.1209212
143	0x3cb77b89	0.022397773
144	0x3df9fd74	0.122065455
145	0xbdb778db	-0.08958598
146	0xbb651b8d	-0.0034959048
147	0xbe18c23b	-0.14917843
148	0xbcab41ef	-0.020905463
149	0xbdd0d32d	-0.101965286
150	0x3d564155	0.0523084
151	0x3d84ed6c	0.06490597
152	0x3dd3e4ad	0.10346351
153	0x3e09f666	0.134729
154	0xbd09b5e8	-0.033620745
155	0xbe22c7f4	-0.15896589
156	0xbd65f363	-0.056140315
157	0x3d809ac5	0.0627952
158	0x3d907128	0.07052833
159	0xbda8d150	-0.08243048
160	0xbd91a49a	-0.071114734
161	0xbd77e19a	-0.060517885
162	0x3bd923c2	0.006626577
163	0x3d05ca24	0.03266348
164	0x3e2ba6f0	0.167629
165	0x3e2aec92	0.16691807
166	0xbdde7784	-0.108626395
167	0x3e0a943a	0.13533106
168	0x3d190940	0.037362337
169	0x3e4f8529	0.2026564
170	0xbda65e6f	-0.081234805
171	0x3d6befba	0.057601668
172	0x3e268c98	0.1626457
173	0x3c1f04cb	0.009705733
174	0xbe0c678c	-0.13711375
175	0xbe284992	-0.16434315
176	0xbdccd9ea	-0.10002501
177	0x3dcfe02c	0.10150179
178	0x3c1a44a9	0.009415784
179	0x3d2c4f99	0.042068098
180	0x3dc59178	0.096468866
181	0xbcf00acb	-0.029302021
182	0xbd754228	-0.059877545
183	0xbd059c33	-0.032619666
184	0x3dd38b9a	0.10329361
185	0x3dc1ea1a	0.094684795
186	0xbd7c98e0	-0.06166923
187	0x3d58cdad	0.052930523
188	0x3e4ac3e0	0.19801283
189	0xbd0ba69c	-0.034094438
190	0x3ea245c9	0.31693867
191	0x3dbe7408	0.09299475

decoder_rnn.weight_ih_l0 f4 [192, 64]
0	0x81781aa0	-4.5569509e-38
1	0x00bfc789	1.761216e-38
2	0x01360e94	3.343858e-38
3	0x00d76fb0	1.9784698e-38
4	0x017321d3	4.465632e-38
5	0x8140c3fa	-3.5405437e-38
6	0x809e7940	-1.4553505e-38
7	0x0183a7e5	4.8362717e-38
8	0x817befd8	-4.6273499e-38
9	0x012a4212	3.1271472e-38
10	0x81851d5d	-4.889862e-38
11	0x0003766e	3.17991e-40
12	0x8107fb68	-2.497596e-38
13	0x017fc0e6	4.69745e-38
14	0x80906bd1	-1.3262989e-38
15	0x019a0534	5.657813e-38
16	0x8055ea7e	-7.890137e-39
17	0x815c5e3f	-4.0475237e-38
18	0x8133151d	-3.2892256e-38
19	0x013913fa	3.3993466e-38
20	0x017546e4	4.5050255e-38
21	0x016c8348	4.3440544e-38
22	0x80bc5310	-1.729487e-38
23	0x0175fcc0	4.5180732e-38
24	0x0186f80e	4.9579767e-38
25	0x8187eff2	-4.993547e-38
26	0x0179474b	4.5785227e-38
27	0x81898da4	-5.0529096e-38
28	0x8162e5e5	-4.1674586e-38
29	0x81911dbc	-5.3307255e-38
30	0x000d4f0c	1.222218e-39
31	0x81866fad	-4.9384073e-38
32	0x00dd0c47	2.0300049e-38
33	0x00856154	1.2249036e-38
34	0x819d6c1e	-5.782783e-38
35	0x803b1430	-5.425536e-39
36	0x8194a208	-5.4599117e-38
37	0x00d42b94	1.9484758e-38
38	0x019e2e7e	5.8106747e-38
39	0x007a49bc	1.1230381e-38
40	0x81aec3eb	-6.4198634e-38
41	0x0189c35e	5.060619e-38
42	0x81260a9d	-3.0497e-38
43	0x004af788	6.884624e-39
44	0x00670aae	9.462887e-39
45	0x81640b20	-4.1884968e-38
46	0x008ff6e4	1.3221044e-38
47	0x814d9cee	-3.7765145e-38
48	0x80f221ee	-2.2236362e-38
49	0x003b134a	5.425214e-39
50	0x81744ddc	-4.4871583e-38
51	0x807c1690	-1.1395695e-38
52	0x804fb6f9	-7.320642e-39
53	0x8071aeb8	-1.0440088e-38
54	0x8125553c	-3.0366866e-38
55	0x01866cea	4.938011e-38
56	0x80e8fb95	-2.1396086e-38
57	0x0092ae80	1.3470581e-38
58	0x01153d28	2.7410855e-38
59	0x8001d543	-1.6834e-40
60	0x00d5d4e0	1.9637326e-38
61	0x8029da44	-3.843554e-39
62	0x01a0696d	5.8925996e-38
63	0x002a9686	3.911088e-39
64	0x019fe1b4	5.8731244e-38
65	0x01000fd8	2.3521254e-38
66	0x80d84532	-1.986129e-38
67	0x002a87ff	3.905877e-39
68	0x81b72ef1	-6.729094e-38
69	0x016c3c1c	4.338948e-38
70	0x015ed1f2	4.092559e-38
71	0x00d4ce28	1.954308e-38
72	0x0136d24e	3.3579007e-38
73	0x0153f5ec	3.893102e-38
74	0x018f913e	5.2738316e-38
75	0x80297f6b	-3.810964e-39
76	0x80f4d4ec	-2.2484243e-38
77	0x8124bd14	-3.02577e-38
78	0x819e9088	-5.8247426e-38
79	0x80f22b06	-2.2239624e-38
80	0x0148a686	3.6853673e-38
81	0x01a6b5fa	6.1239893e-38
82	0x8006608b	-5.85646e-40
83	0x003c85e8	5.558166e-39
84	0x00c3532d	1.793776e-38
85	0x80811e00	-1.1857541e-38
86	0x000743cf	6.67174e-40
87	0x81808f63	-4.7225524e-38
88	0x013a1a77	3.4181792e-38
89	0x0191a024	5.349438e-38
90	0x8106816d	-2.4704771e-38
91	0x01b6aa67	6.7100757e-38
92	0x00ddc18c	2.0365076e-38
93	0x80d007b6	-1.910455e-38
94	0x01b31e74	6.5797913e-38
95	0x8100fd62	-2.369168e-38
96	0x008be768	1.2848147e-38
97	0x8131b181	-3.2637118e-38
98	0x018779aa	4.976575e-38
99	0x80e8d9e4	-2.1384e-38
100	0x004d0b91	7.075482e-39
101	0x8158be4f	-3.9809474e-38
102	0x009e7e0c	1.4555225e-38
103	0x80940d08	-1.3596328e-38
104	0x018e7519	5.233059e-38
105	0x81a4da8c	-6.0557685e-38
106	0x81848cbe	-4.8691097e-38
107	0x8152f23e	-3.874471e-38
108	0x817b76fc	-4.6186786e-38
109	0x018f5eca	5.266592e-38
110	0x008f23b4	1.3145284e-38
111	0x01be929f	7.000537e-38
112	0x01499b1a	3.702915e-38
113	0x0192df98	5.395277e-38
114	0x018eaad6	5.24077e-38
115	0x80c38d06	-1.7958511e-38
116	0x80ca9bb6	-1.8606629e-38
117	0x80371c78	-5.061165e-39
118	0x01a2e058	5.983132e-38
119	0x81b337a6	-6.5834067e-38
120	0x81350522	-3.3248132e-38
121	0x81209636	-2.949513e-38
122	0x815b4134	-4.0270728e-38
123	0x00f78f84	2.2734851e-38
124	0x809a6a20	-1.4180737e-38
125	0x8079ec48	-1.1196857e-38
126	0x012f4e4a	3.2198593e-38
127	0x01088ada	2.5078876e-38
128	0x008113cc	1.1853881e-38
129	0x00d843fc	1.9860855e-38
130	0x00866934	1.2343696e-38
131	0x00fbdeb0	2.3130595e-38
132	0x0192fdef	5.3996307e-38
133	0x81186b18	-2.7994827e-38
134	0x8143757e	-3.590014e-38
135	0x016b337c	4.3199621e-38
136	0x01257a04	3.0393256e-38
137	0x013758fe	3.367564e-38
138	0x015f3564	4.0996937e-38
139	0x0113fc6b	2.7180737e-38
140	0x015c0f8a	4.0418767e-38
141	0x01643234	4.1913005e-38
142	0x81a33d24	-5.9964476e-38
143	0x81899ec8	-5.055369e-38
144	0x808a6aea	-1.2711652e-38
145	0x01883e84	5.0048215e-38
146	0x815e4f98	-4.0832066e-38
147	0x018030b6	4.708967e-38
148	0x814fc77e	-3.8163024e-38
149	0x0176337e	4.5220008e-38
150	0x810d4bb8	-2.5951935e-38
151	0x00ce871e	1.8966583e-38
152	0x00e62c72	2.1138108e-38
153	0x0014268e	1.850541e-39
154	0x01af12d2	6.4311853e-38
155	0x00826e76	1.197824e-38
156	0x81207bd6	-2.9476207e-38
157	0x013adb54	3.4320165e-38
158	0x8124c792	-3.0265227e-38
159	0x014b68b8	3.7360343e-38
160	0x8085454d	-1.2238981e-38
161	0x001fba14	2.913653e-39
162	0x0157d483	3.9641733e-38
163	0x003152e6	4.529678e-39
164	0x80aeca18	-1.6051874e-38
165	0x01afce3b	6.4580774e-38
166	0x8179d188	-4.5884408e-38
167	0x80735ed6	-1.0595103e-38
168	0x80df82e8	-2.0526276e-38
169	0x01458530	3.6278743e-38
170	0x005392ee	7.675055e-39
171	0x80651018	-9.281158e-39
172	0x01123e62	2.6860722e-38
173	0x014208f0	3.5638585e-38
174	0x002b88e8	3.998039e-39
175	0x812339c8	-2.9979828e-38
176	0x80eea530	-2.1916106e-38
177	0x0057273e	8.003766e-39
178	0x8123883e	-3.003612e-38
179	0x019bc265	5.721695e-38
180	0x01706445	4.4152978e-38
181	0x8172e10a	-4.4609838e-38
182	0x809beb90	-1.4319006e-38
183	0x80af5200	-1.6100628e-38
184	0x012f6f38	3.222222e-38
185	0x01bdbe6e	6.970089e-38
186	0x818f77a9	-5.270161e-38
187	0x816ffb74	-4.4077776e-38
188	0x8174288e	-4.484482e-38
189	0x0182863f	4.794709e-38
190	0x015880a8	3.976524e-38
191	0x80d115a6	-1.9201385e-38
192	0x81924b8c	-5.3740334e-38
193	0x01985df2	5.5970787e-38
194	0x00774b50	1.0955441e-38
195	0x81584c5a	-3.9727714e-38
196	0x811c7fe8	-2.8744443e-38
197	0x01aeca37	6.420767e-38
198	0x00e7efdd	2.1300046e-38
199	0x016685c4	4.23403e-38
200	0x003ace30	5.400425e-39
201	0x00ae3d0e	1.6001279e-38
202	0x816ed550	-4.386674e-38
203	0x813f352c	-3.5119308e-38
204	0x0119427a	2.8149356e-38
205	0x006a1128	9.740717e-39
206	0x00758c30	1.0795043e-38
207	0x810a1475	-2.5361274e-38
208	0x811f4cc3	-2.9258762e-38
209	0x014e3bba	3.7879076e-38
210	0x8140ce30	-3.5412763e-38
211	0x80b19108	-1.630691e-38
212	0x8038ea50	-5.226843e-39
213	0x00e9f5e2	2.1485877e-38
214	0x81b1f9d8	-6.537804e-38
215	0x01b73292	6.729615e-38
216	0x81201250	-2.9400497e-38
217	0x81583dc8	-3.971726e-38
218	0x816283a6	-4.1604097e-38
219	0x010816ae	2.4995527e-38
220	0x0171e032	4.442556e-38
221	0x80fb1004	-2.3056455e-38
222	0x010e661a	2.6154535e-38
223	0x803a8949	-5.375707e-39
224	0x80c8c61c	-1.8438167e-38
225	0x809dc1b4	-1.448766e-38
226	0x00cca534	1.8793705e-38
227	0x8151e39a	-3.8550534e-38
228	0x818ad12e	-5.099335e-38
229	0x812db072	-3.1901675e-38
230	0x814b22c2	-3.731015e-38
231	0x812b1bad	-3.1427596e-38
232	0x0189cd0f	5.0620097e-38
233	0x8116e5f6	-2.7715638e-38
234	0x01497b72	3.7006437e-38
235	0x81ac03b2	-6.3188124e-38
236	0x00c0c7b0	1.770405e-38
237	0x01727c39	4.4537506e-38
238	0x816f4d62	-4.3952887e-38
239	0x816e3e26	-4.3758285e-38
240	0x80c05202	-1.7661834e-38
241	0x8123ddd0	-3.0097514e-38
242	0x81986b2b	-5.598976e-38
243	0x818323f8	-4.817341e-38
244	0x00fbfcf4	2.3141452e-38
245	0x0042de78	6.14095e-39
246	0x01b9380a	6.803868e-38
247	0x810b2f23	-2.5564087e-38
248	0x818cf3fa	-5.1777967e-38
249	0x8033c298	-4.753417e-39
250	0x0054f6f4	7.802772e-39
251	0x0096772e	1.3818078e-38
252	0x003929fa	5.249682e-39
253	0x80de3da0	-2.0409587e-38
254	0x81b19620	-6.523495e-38
255	0x018717cf	4.962533e-38

decoder_rnn.weight_hh_l0 f4 [192, 64]
0	0xbde03b91	-0.109488614
1	0xbcac0238	-0.020997152
2	0x3d8f6a9e	0.070027575
3	0xbde8af76	-0.113615915
4	0x3d39cb23	0.045359742
5	0x3de1ee3a	0.11031766
6	0x3dc9d6b0	0.098554015
7	0x3d63df2b	0.05563275
8	0xbbbf1094	-0.0058308337
9	0x3d00256e	0.031285696
10	0xbe01649d	-0.12636037
11	0xbda2adb3	-0.07943287
12	0xbd7c366f	-0.06157535
13	0x3e1d5be4	0.15367085
14	0x3e4d36eb	0.20040481
15	0x3d560db5	0.052259166
16	0xbdf75b7c	-0.12077996
17	0xbd594161	-0.053040866
18	0xbdd69954	-0.10478464
19	0x3e0e34e4	0.13887364
20	0x3dadd60f	0.08488094
21	0x3d580683	0.052740585
22	0xbe31f4d5	-0.17378552
23	0xbdaf540f	-0.08560955
24	0x3e2fed4b	0.17180364
25	0x3e4c1fca	0.19934002
26	0x3d8c0298	0.06836432
27	0xbe4f3bbc	-0.2023763
28	0xbdce0b7a	-0.10060783
29	0xbd3670a4	-0.044541016
30	0xbdf20bae	-0.11818634
31	0xbd46c09b	-0.048523527
32	0xbc7409a2	-0.014894875
33	0x3e30f519	0.17280997
34	0xbe80efdf	-0.25183007
35	0x3c2ffd2e	0.010741515
36	0x3d15cbf7	0.03657147
37	0xba96773d	-0.0011479628
38	0xbc9f74cc	-0.019464873
39	0x3e2a162a	0.16610017
40	0x3e086d6b	0.1332299
41	0x3e9bb34b	0.30410227
42	0xbdee2d4d	-0.11629734
43	0x3e45d754	0.19320422
44	0x3e08cf10	0.13360238
45	0xbcf7e6d0	-0.030261427
46	0x3e0e3370	0.1388681
47	0xbcf740b7	-0.030182226
48	0xbe347918	-0.17624319
49	0xbe5d6ac8	-0.21622765
50	0x3d82ba0c	0.06383142
51	0xbce10cff	-0.027472017
52	0xbe5d339f	-0.21601723
53	0x3d28bbfe	0.04119491
54	0xbb99f417	-0.004698287
55	0x3b15a1fd	0.0022832148
56	0x3da406b0	0.08009088
57	0x3cfaf4c5	0.030634293
58	0x3d55d629	0.052206192
59	0x3d70f989	0.058831725
60	0x3e059669	0.13045658
61	0x3c170461	0.009217353
62	0x3dfcf2fe	0.123510346
63	0x3d0b4f50	0.034011185
64	0x3e615eb1	0.22008778
65	0x3e334a0d	0.17508717
66	0x3c9ac81a	0.018894244
67	0xbe22b829	-0.15890564
68	0x3d2e9e6e	0.04263156
69	0x3e4988eb	0.19681136
70	0xbe0f9126	-0.14020213
71	0x3d453f42	0.04815603
72	0xbdd11916	-0.10209863
73	0xbdb3fe51	-0.087887414
74	0x3d34694d	0.044045735
75	0xbd718502	-0.058964737
76	0x3e025c41	0.12730505
77	0xbe182adf	-0.14860104
78	0x3e42c12f	0.19019006
79	0xbed77848	-0.42083955
80	0xbe71f48e	-0.23628446
81	0x3d8f3de1	0.06994224
82	0xbdfdb519	-0.12388057
83	0xbd652426	-0.055942677
84	0x3e05eba8	0.13078177
85	0xbcef5e47	-0.02921976
86	0x3e2703f6	0.16310105
87	0xbd0ac227	-0.033876564
88	0xbccd7041	-0.02507794
89	0xbdc003cf	-0.093757264
90	0x3dcead24	0.10091618
91	0x3e9621a8	0.29322553
92	0x3d7afba9	0.061275158
93	0xbec8101c	-0.3907479
94	0x3d9aa7d8	0.07551545
95	0x3e35f1f0	0.17768073
96	0x3ddaa85b	0.106766425
97	0x3dd8ea1e	0.10591529
98	0x3b4c2f1c	0.003115601
99	0xbd759536	-0.05995675
100	0xbdcdb609	-0.10044486
101	0xbe0d3f9b	-0.13793795
102	0xbdf53dcc	-0.119746774
103	0xbdce9b0b	-0.10088166
104	0x3eb1a767	0.3469803
105	0xbe61888c	-0.22024745
106	0xbe1b0259	-0.15137614
107	0x3c809888	0.015697733
108	0xbe8a7e83	-0.27049646
109	0xbd237b56	-0.039912544
110	0x3e039fc4	0.12853914
111	0x3d4bcba9	0.049754772
112	0x3e0b5ffc	0.13610834
113	0xbd9aebd0	-0.07564509
114	0x3d0f946a	0.035053648
115	0x3c6c63c8	0.014428087
116	0x3e8a619d	0.27027598
117	0x3e8ac696	0.27104634
118	0xbe7d21e6	-0.24719962
119	0xbe363b74	-0.17796117
120	0xbd625985	-0.055261154
121	0x3da49f35	0.08038179
122	0xbdbe18b4	-0.092820555
123	0xbd3c3f6f	-0.045958932
124	0xbec51d21	-0.38498786
125	0x3e036344	0.12830836
126	0x3b184fb0	0.0023240857
127	0xbe5b7d3c	-0.21434492
128	0x3b93bad2	0.0045083547
129	0xbc9bb4fa	-0.019007195
130	0xbe150345	-0.14552028
131	0x3c8aac1f	0.016927777
132	0x3e09ba75	0.13450034
133	0x3b202cbe	0.002444073
134	0xbdc8ca77	-0.09804242
135	0xbbbc068c	-0.005738085
136	0xbe1ebb16	-0.15501055
137	0xbe2ce830	-0.16885448
138	0x3e449f8f	0.19201492
139	0xbd57f957	-0.052728023
140	0xbc845fb6	-0.01615892
141	0x3e145308	0.14484799
142	0x3cf0710e	0.029350784
143	0xbcd8f516	-0.026484054
144	0xbe25ce2b	-0.16191928
145	0x3e91209e	0.28345197
146	0xbe0d6d68	-0.13811266
147	0xbd8f0ea9	-0.06985218
148	0x3e9ac741	0.30230144
149	0x3e7d7bfe	0.2475433
150	0xbdc55029	-0.0963443
151	0xbc7aec40	-0.015315115
152	0xbd7eb350	-0.062182724
153	0x3dc0e9b2	0.09419574
154	0x3c8462ea	0.016160447
155	0x3d3787c0	0.044807196
156	0xbd4fe9c0	-0.05076003
157	0xbdee04e1	-0.11622024
158	0xbe44c1fd	-0.19214626
159	0xbb4dc259	-0.0031396358
160	0x3e50ebe0	0.20402479
161	0x3e02187c	0.12704653
162	0x3db7e852	0.089798585
163	0xbe61735e	-0.22016665
164	0xbd655c21	-0.055996064
165	0x3b5a9bb3	0.0033356964
166	0x3ddfa840	0.10920763
167	0x3da24491	0.07923234
168	0xbe08c00f	-0.13354515
169	0xbdfcfd0b	-0.123529516
170	0xbe32b300	-0.17451096
171	0xbbc6a9ed	-0.006062737
172	0x3d309265	0.043108363
173	0xba6a86ba	-0.00089464674
174	0x3da5ec06	0.081016585
175	0x3deae344	0.11469129
176	0x3e2c2635	0.1681145
177	0xbd555829	-0.05208603
178	0x3da7b1bd	0.08188198
179	0xbe1109df	-0.14163922
180	0xbdcb8b36	-0.09938662
181	0x3e816daa	0.2527898
182	0xbd15c34d	-0.036563206
183	0xbce7c249	-0.028290885
184	0xbd8882c8	-0.066655695
185	0xbe2a8e49	-0.1665584
186	0x3dc188f9	0.094499536
187	0xbe5f87dd	-0.21829171
188	0xbdfdcc5a	-0.123924926
189	0x3de2438c	0.1104804
190	0xbe486042	-0.1956797
191	0xbd917ecf	-0.07104265
192	0x3e84302f	0.2581801
193	0xbc8c99f5	-0.017163256
194	0x3e1aa922	0.15103582
195	0xbe1ecc7d	-0.15507694
196	0x3e5c50a9	0.21515144
197	0xbe3560db	-0.17712729
198	0xbdb82a52	-0.08992447
199	0xbdd08bb5	-0.10182897
200	0xbe685ba2	-0.22691205
201	0xbd531a6e	-0.051538877
202	0x3dd95eff	0.10613822
203	0x3c70dd93	0.014701265
204	0xbe14a9c0	-0.1451788
205	0x3d44ecb6	0.048077308
206	0xbe31df88	-0.17370427
207	0x3d87deea	0.06634314
208	0x3e912475	0.28348127
209	0x3d561220	0.05226338
210	0xbde528d9	-0.11189432
211	0xbe54207d	-0.20715518
212	0xbda579dc	-0.080798835
213	0x3e311ce0	0.17296171
214	0x3e3ddd74	0.18541509
215	0xbd5c1f6a	-0.053740896
216	0xbe142698	-0.14467847
217	0xbd0addee	-0.033903055
218	0xbe34f976	-0.17673287
219	0x3e45d3a1	0.19319011
220	0xbdd25327	-0.10269766
221	0xbe18cef1	-0.14922692
222	0xbd6bbdbb	-0.057553988
223	0x3e272cd6	0.16325697
224	0x3e469cb0	0.19395709
225	0x3e467394	0.19380027
226	0xbe0de9e2	-0.1385875
227	0xbde004ed	-0.109384395
228	0xbe285525	-0.1643873
229	0xbe0f95f7	-0.14022051
230	0x3e371556	0.17879233
231	0x3c9f9995	0.019482413
232	0xbe5fc356	-0.21851858
233	0xbe67458f	-0.22585128
234	0x3dc28483	0.09497931
235	0xbe09ea70	-0.13468337
236	0xbe1fc52f	-0.15602563
237	0x3e1fb9fc	0.15598291
238	0x3db14b42	0.086569324
239	0x3e562360	0.20911932
240	0x3e767b6e	0.24070522
241	0xbe0aa499	-0.13539352
242	0x3e2c0a1f	0.16800736
243	0xbe54b8a1	-0.20773555
244	0xbde46b1b	-0.11153241
245	0xbd84d022	-0.06485011
246	0xbe10b5aa	-0.141318
247	0xbe2a1a89	-0.16611685
248	0xbe39105c	-0.18072647
249	0x3e4bf44e	0.19917414
250	0x3cf12ba1	0.02943975
251	0xbdd6de34	-0.10491601
252	0x3e154995	0.1457885
253	0x3e87f586	0.26554507
254	0xbdc328e2	-0.09529282
255	0x3dbb7bd0	0.09154475

decoder_rnn.bias_ih_l0 f4 [192]
0	0x3e4c93bf	0.19978236
1	0xbe3c0cf8	-0.18364322
2	0x3e6b6250	0.22986722
3	0xbd8fb656	-0.070172
4	0x3d8fa44c	0.07013759
5	0x3d94a5e5	0.07258204
6	0xbc0c1db3	-0.008552003
7	0xbcebf73d	-0.028804416
8	0xbd851709	-0.06498534
9	0x3d6874fe	0.056752197
10	0x3d970211	0.07373441
11	0x3e0761e2	0.13220933
12	0x3c8c682d	0.017139519
13	0x3e01b8b9	0.12668122
14	0x3dda1fdd	0.10650609
15	0xbd7ac3d5	-0.061221916
16	0x3c95ea0d	0.01830008
17	0x3dfe6db3	0.12423267
18	0x3d923139	0.07138295
19	0x3c4e1c3d	0.012579975
20	0x3e55c413	0.20875578
21	0x3df4205e	0.11920236
22	0x3e03299e	0.12808844
23	0xbd8c03fa	-0.06836696
24	0xbe012768	-0.12612689
25	0x3e7d9a49	0.24765886
26	0x3d935585	0.07194046
27	0x3d81de09	0.06341178
28	0x3df89db8	0.121394575
29	0x3d86b697	0.06577795
30	0xbcb08e00	-0.021552086
31	0x3d881fe7	0.0664671
32	0x3dafabb5	0.085776724
33	0x3e06d260	0.13166189
34	0x3de43854	0.11143556
35	0x3dbf62b6	0.093449995
36	0x3c73f7d1	0.014890627
37	0x3e1cc115	0.1530803
38	0x3b6eb1c3	0.0036421872
39	0x3dbd7bd9	0.09252138
40	0x3e9c58a9	0.30536392
41	0xbddad320	-0.106848
42	0x3e023f72	0.12719515
43	0x3dd6cde3	0.104884885
44	0x3d35e5c9	0.044408593
45	0xbd25f15a	-0.040513374
46	0x3c943dcc	0.018095873
47	0x3e03f586	0.12886629
48	0xbde0098e	-0.109393224
49	0x3dbf3dcb	0.09337958
50	0x3d0e21d0	0.034700215
51	0x3e2c1807	0.1680604
52	0x3cd200fb	0.025635233
53	0xbdb65f13	-0.08904853
54	0x3d44bf88	0.04803422
55	0xbdfd067d	-0.12354753
56	0x3dc84014	0.09777847
57	0x3d2e9fcc	0.042632863
58	0x3dd623cc	0.104560465
59	0x3c70df91	0.01470174
60	0xbd198748	-0.03748253
61	0x3e1250d3	0.14288644
62	0x3d177675	0.036978204
63	0xbda54b75	-0.08071033
64	0x3eb216e4	0.3478309
65	0x3ecd4dcd	0.4009842
66	0x3f1503db	0.5820901
67	0x3eb24bf9	0.34823588
68	0x3e380cca	0.17973629
69	0x3e8b5b95	0.2721831
70	0x3e94ed12	0.2908712
71	0x3eb6bdae	0.3569159
72	0x3eab9258	0.3351009
73	0x3eb1456b	0.34623274
74	0x3ebe4780	0.37163925
75	0x3f035bfb	0.51312226
76	0x3e352eae	0.17693588
77	0x3ea466f3	0.32109794
78	0x3ef87813	0.4852911
79	0x3f411694	0.75425076
80	0x3f21d770	0.63219357
81	0x3e419634	0.18904954
82	0x3eb297b0	0.34881353
83	0x3ee74df7	0.4517667
84	0x3ec995ab	0.39372
85	0x3e743b96	0.23850855
86	0x3eed6f3e	0.46373934
87	0x3e7b5137	0.245427
88	0x3e75e9e6	0.24015006
89	0x3e88a35d	0.26687136
90	0x3e118aa7	0.14213048
91	0x3f1c79f6	0.611236
92	0x3e93b84c	0.28851545
93	0x3ee74547	0.45170042
94	0x3e6e718d	0.23285504
95	0x3e4dcdb1	0.20097996
96	0x3e9d7e58	0.30760455
97	0x3f2a1c65	0.66449577
98	0x3f002ced	0.5006855
99	0x3ebcb07b	0.36853394
100	0x3e4f2072	0.2022722
101	0x3e82ba17	0.255326
102	0x3ec4615b	0.38355526
103	0x3e9ea364	0.30984032
104	0x3ee9ae31	0.4564071
105	0x3d1d65fc	0.038427338
106	0x3f1ab656	0.6043447
107	0x3ee62144	0.44947255
108	0x3edf20b6	0.43579644
109	0x3ea76c39	0.32699755
110	0x3ed40744	0.41411793
111	0x3ea3ecca	0.32016593
112	0x3e93f744	0.28899586
113	0x3ee96ad2	0.4558931
114	0x3e2ac885	0.16678055
115	0x3ea47d50	0.32126856
116	0x3e56b28c	0.20966548
117	0x3e9b4fd7	0.3033435
118	0x3edc5e45	0.43040672
119	0x3e6dc168	0.2321831
120	0x3e8956de	0.26824087
121	0x3ef486b9	0.47759035
122	0x3f1866ac	0.59531665
123	0x3e6cd075	0.23126395
124	0x3ed48870	0.41510344
125	0x3eb5d90d	0.3551716
126	0x3ef5a3c3	0.47976503
127	0x3e34604a	0.17614856
128	0x3d69b1ae	0.057054214
129	0x3cb126db	0.021624973
130	0x3cdbef85	0.02684761
131	0x3d987979	0.07445044
132	0x3cffe381	0.031236412
133	0x3d6c1ca7	0.057644513
134	0xbda3afab	-0.079924904
135	0x3d8fe4d6	0.07026069
136	0x3d44179b	0.047874074
137	0x3bb6be9b	0.005576921
138	0x3d9304d0	0.07178652
139	0x3d8e7224	0.06955364
140	0xbbadcd27	-0.005303997
141	0x3d70eefa	0.058821656
142	0x3dccf4b9	0.10007615
143	0x3d901cb0	0.07036722
144	0xbb9e135a	-0.004824084
145	0xbbbf9a4e	-0.005847252
146	0xbdeb7553	-0.11496987
147	0xbd9e4eb7	-0.077298574
148	0xbcfa9c6b	-0.030592164
149	0x3dd3e6c9	0.10346753
150	0xbda8f718	-0.082502544
151	0x3dc82b2b	0.09773859
152	0x3c5310ae	0.012882395
153	0x3d937393	0.071997784
154	0x3d1f9261	0.038957957
155	0xbdb1bdbc	-0.08678767
156	0xbd72c08f	-0.05926567
157	0x3dcb58e8	0.09929067
158	0xbdd219f5	-0.10258857
159	0xbc37b015	-0.011211415
160	0x3d555292	0.0520807
161	0xbb4342b7	-0.0029794404
162	0x3d7966e7	0.06088915
163	0x3b9ba3cd	0.004749751
164	0x3c6ad007	0.014331824
165	0xbb9842d4	-0.0046466384
166	0x3db6b363	0.08920934
167	0xbd54df5a	-0.051970817
168	0x3ccc8680	0.024966478
169	0x3db95cae	0.0905088
170	0xbbde0962	-0.006776021
171	0x3da4ebde	0.080528006
172	0x3dc1c266	0.09460907
173	0xbd5e2dc2	-0.054242857
174	0x399bca8c	0.00029714813
175	0x3d7bb252	0.061449356
176	0xbdf33bea	-0.11876662
177	0x3c2c4e7b	0.010516758
178	0x3db18fe7	0.08670025
179	0xbd5f4b42	-0.05451513
180	0xbd85501e	-0.06509422
181	0x3cc80e39	0.024420844
182	0x3e20cf7d	0.1570415
183	0x3cd46c05	0.025930414
184	0x3d5bdca0	0.0536772
185	0xbc69fb7c	-0.01428115
186	0xbc9b9f1b	-0.018996766
187	0xbd0c8a1c	-0.0343114
188	0xbd748dc1	-0.0597055
189	0xbdd1a416	-0.10236375
190	0xbd8db765	-0.06919745
191	0xbd537136	-0.05162164

decoder_rnn.bias_hh_l0 f4 [192]
0	0x3d4cf748	0.050040513
1	0xbe5a3b48	-0.21311677
2	0x3dd93b04	0.106069595
3	0xbd7e15b5	-0.06203242
4	0xbc80c810	-0.015720397
5	0x3d88c848	0.066788256
6	0x3e422b7c	0.189619
7	0xbcc6aa13	-0.02425102
8	0xbdde4417	-0.10852831
9	0x3e038f11	0.12847544
10	0x3dba61d9	0.09100694
11	0x3def2ba4	0.11678246
12	0x3e4706a0	0.19436121
13	0x3da9907f	0.082795136
14	0x3d86ed9e	0.06588291
15	0x3e13239b	0.14369051
16	0x3dae7d7d	0.08520029
17	0xbda81e79	-0.08208937
18	0x3e0b116c	0.13580865
19	0x3dc792a7	0.097447686
20	0x3e937c38	0.2880571
21	0x3972a2b8	0.00023139536
22	0x3d0ee3d9	0.03488526
23	0x3dac6be6	0.084190175
24	0xbd75fd65	-0.06005611
25	0x3e0777a7	0.13229237
26	0x3e09eb65	0.13468702
27	0x3c25e1ea	0.010124663
28	0xbce7166d	-0.028208936
29	0xbcc6bf62	-0.02426118
30	0x3dc1003e	0.09423874
31	0x3c16dd70	0.009208068
32	0x3c1260cf	0.008934214
33	0x3dd0781d	0.1017916
34	0x3d4b7ecd	0.049681474
35	0x3da5cbd1	0.080955155
36	0x3d4caaa5	0.049967427
37	0x3df9d55a	0.12198897
38	0x3d10a787	0.035316017
39	0x3c4a8df2	0.012362944
40	0x3e95872e	0.29204696
41	0xbd0dbced	-0.034604
42	0x3c32eebf	0.010921179
43	0x3d7b8e01	0.061414722
44	0xbb94c71c	-0.0045403372
45	0x3d0a374f	0.033744153
46	0x3d8c2c04	0.06844333
47	0x3d2603c6	0.040530942
48	0xbe1e6a81	-0.15470316
49	0xbe02c87a	-0.12771788
50	0xbd1f33ee	-0.038867883
51	0x3dffea45	0.12495855
52	0x3de5beee	0.112180576
53	0xbdd955a5	-0.106120385
54	0xbbc79fbe	-0.006092041
55	0x3a8e8575	0.0010873514
56	0x3d294a8f	0.04133087
57	0xbba3df39	-0.0050009754
58	0xbd737c07	-0.059444454
59	0x3df6bddc	0.120479316
60	0xbe1cfc01	-0.15330507
61	0x3d14d63c	0.036337122
62	0x3cbfc701	0.023410322
63	0xbce1919f	-0.027535258
64	0x3ea21a5e	0.31660742
65	0x3ebad586	0.3649103
66	0x3f18ffe4	0.5976546
67	0x3ecbd662	0.39812
68	0x3e7d7a1c	0.24753612
69	0x3e78601b	0.24255411
70	0x3e6af755	0.22945912
71	0x3eb8971d	0.3605279
72	0x3e9cd4a6	0.30630988
73	0x3e5d1aaa	0.21592203
74	0x3ef6e85f	0.4822416
75	0x3f274304	0.6533663
76	0x3ea24f8a	0.31701308
77	0x3ec86eba	0.39146978
78	0x3ed93823	0.4242564
79	0x3f152d8b	0.5827262
80	0x3f15e030	0.5854521
81	0x3ec365ae	0.38163513
82	0x3e8d496c	0.2759508
83	0x3ef08699	0.4697769
84	0x3ec6b47a	0.38809568
85	0x3e743d19	0.23851432
86	0x3efaa245	0.48951927
87	0x3e641593	0.22273855
88	0x3e39e39b	0.18153231
89	0x3ea12e8d	0.31480828
90	0x3ea796c1	0.32732204
91	0x3ed990c8	0.42493272
92	0x3ecce6d9	0.40019873
93	0x3e890d26	0.26767844
94	0x3e4cb0e4	0.19989353
95	0x3e6114df	0.21980618
96	0x3ec47b72	0.3837543
97	0x3f11752a	0.56819403
98	0x3f1f4c40	0.62225723
99	0x3e8a1bab	0.26974234
100	0x3e8db788	0.27679086
101	0x3ea4eb60	0.32210827
102	0x3ed55aa4	0.41670716
103	0x3ed6597d	0.4186515
104	0x3ebbedf8	0.36704993
105	0x3e441075	0.19146903
106	0x3f098d56	0.53731287
107	0x3ec4f14e	0.3846535
108	0x3e68196c	0.22665948
109	0x3ea61fe4	0.32446206
110	0x3ea7f0cf	0.3280091
111	0x3ec46a1d	0.38362208
112	0x3e0117b7	0.12606703
113	0x3ecd4421	0.4009104
114	0x3ea9fd1d	0.33200923
115	0x3e3068eb	0.17227523
116	0x3e5224f6	0.20521912
117	0x3e54650b	0.2074167
118	0x3ef52df6	0.47886628
119	0x3e71c82f	0.2361152
120	0x3ea340b4	0.31885302
121	0x3ef803dc	0.48440444
122	0x3f17b56c	0.592612
123	0x3eb8b2a9	0.36073807
124	0x3eddb31c	0.43300712
125	0x3ec7ddd3	0.39036426
126	0x3ea34b06	0.31893176
127	0x3dc3884a	0.095474795
128	0x3d0c3349	0.034228597
129	0x3c745f68	0.014915325
130	0xbe127bfe	-0.14305112
131	0x3c9916d2	0.01868764
132	0x3df68d45	0.12038664
133	0xbdf2c3e9	-0.11853773
134	0x3de0b2c5	0.109715976
135	0xbdc8be98	-0.09801978
136	0xbd84a4cd	-0.06476746
137	0xbd166100	-0.0367136
138	0xbdab6d3c	-0.08370444
139	0xbe0017d3	-0.12509088
140	0xbc9e4a86	-0.019322645
141	0xbc8b6372	-0.017015193
142	0x3d8f75d5	0.070048966
143	0x3cf118cf	0.029430775
144	0x3d32f991	0.043695036
145	0x3ddbb8a0	0.10728574
146	0xbdfbee6f	-0.12301337
147	0x3de537b1	0.11192263
148	0x3c8e751f	0.017389832
149	0xbc47a6be	-0.0121857505
150	0x3d83ce8d	0.06435881
151	0xbd99b7d1	-0.07505763
152	0xbca234f8	-0.019800648
153	0xbb834a97	-0.0040066945
154	0x3dc275d7	0.094951324
155	0x3cc131cc	0.023583315
156	0xbd6e0ea4	-0.05811943
157	0xbd63a853	-0.05558045
158	0xbaaf1072	-0.0013356342
159	0x3c96690c	0.018360637
160	0x3c6e06c0	0.0145279765
161	0x3d209837	0.039207663
162	0xbdf9a970	-0.12190521
163	0xbd3a435b	-0.04547439
164	0xbdb7d9e2	-0.08977105
165	0x3ce97fe0	0.028503358
166	0xbd449f69	-0.048003588
167	0x3d8a96f1	0.06767071
168	0x3dba6ed5	0.09103171
169	0x3c2d540a	0.0105791185
170	0xbd62db61	-0.055384997
171	0x3dbe1821	0.09281946
172	0xbd15ef30	-0.03660506
173	0xbd7b9be6	-0.061427973
174	0x3db01ec7	0.0859962
175	0xbbc455de	-0.0059916815
176	0xbcd93013	-0.026512181
177	0xbc85de3a	-0.016341317
178	0x3c7d77ec	0.015470486
179	0x3dc01375	0.09378711
180	0xbdb0b8e2	-0.086290136
181	0xbdc65fe8	-0.096862614
182	0x3c3e4e71	0.011615382
183	0x3dec7e3d	0.115475155
184	0xbdae2d9f	-0.08504795
185	0xbb488df6	-0.0030602193
186	0xbcce6b16	-0.025197547
187	0xbdb841a1	-0.08996893
188	0x3d1e3d7e	0.038632862
189	0x3d4dad74	0.050214246
190	0xbd115f71	-0.03549141
191	0xbc6bbcba	-0.014388258
