Rudi/checkpoints_02/checkpoint_epoch_95.pth (torch, 587118 bytes, 30 tensors)

encoder_rnn.weight_ih_l0 f4 [192, 40]
0.24041344 -0.09608302 -0.18287148 -0.10976043 -0.07705204 -0.14880091 -0.11696857 -0.010477947
-0.09211483 -0.11956868 0.046020675 -0.10456295 -0.1147444 0.0041987905 -0.09045043 0.07768267
-0.07771818 0.018006738 -0.056233365 -0.10830091 -0.1326889 0.016967148 -0.22464918 -0.034032155
-0.08562681 0.018924685 0.044953037 0.07457692 0.1456322 -0.06314509 -0.1395129 -0.013507313
-0.05469398 0.12693493 -0.04123029 -0.16738953 -0.11335925 -0.09773291 -0.16771926 -0.09670468
-0.050564073 -0.08781027 -0.081423745 0.0013918974 -0.04326514 -0.039057024 0.015026519 -0.027050527
-0.15803702 0.0061811125 0.034589823 -0.1526096 -0.0012683596 -0.02175687 0.14254433 0.14529388
-0.03283925 0.20474045 0.12982254 0.106510065 0.075089246 0.053028643 -0.0031923868 0.110842414
0.10323843 -9.510065e-05 0.026226932 0.010410453 -0.09427471 -0.03373949 -0.11606984 -0.09828616
0.006024227 -0.09347003 -0.07305412 -0.04134104 -0.15459603 0.042051833 -0.068794966 -0.06323133
0.08622707 -0.1850508 0.17504342 0.07391677 -0.14560781 0.071593724 -0.114027336 0.15765335
0.1475742 0.09645979 -0.0734545 0.02579381 0.084995225 -0.08634997 -0.07225721 -0.095038414
-0.13319688 -0.022024471 0.01952966 -0.09011072 -0.041381165 -0.11844755 -0.02170247 -0.016969904
-0.054291915 0.033464216 -0.112123795 0.1474133 -0.12737602 -0.025744502 0.038782984 -0.08499251
-0.04222521 0.037453618 0.0013355535 0.024687234 0.058087222 0.095068626 0.1354712 -0.06686221
0.19496018 -0.04237098 0.015990332 -0.07977166 -0.11303119 -0.15070911 -0.073999256 0.07035997
-0.018033592 -0.11476869 -0.08041986 -0.08079025 -0.10999815 0.089004874 0.027898306 0.003965404
0.030148149 0.040148422 -0.0037772038 -0.049062792 0.047163904 -0.062253 0.03685721 0.12776645
0.035443544 -0.05569047 -0.11050395 0.059038345 -0.06869806 -0.014636893 -0.0759164 -0.23178354
-0.16249675 -0.017946687 -0.002356757 -0.11673399 -0.12169152 0.07917525 -0.16142027 0.038512632
-0.05322784 0.05402556 -0.10165129 -0.06726587 -0.013288431 -0.122485906 -0.093681775 0.030344753
-0.14899184 -0.15584435 0.05103857 -0.16561796 0.0021596693 0.06279282 0.072663374 0.022789437
-0.07752745 0.061443996 0.081538826 0.003617615 0.12616535 0.101067886 0.15135396 0.08812622
0.063541256 -0.046169363 -0.023894383 0.056782965 0.09154611 0.19124322 0.10128281 0.022684878
-0.026448641 -0.074971266 0.114475414 -0.043738473 -0.16448382 -0.057740495 -0.09009035 -0.056531113
-0.0150959315 0.096557446 -0.030720623 -0.0821305 -0.10026214 0.03862168 0.07217228 0.10217664
-0.04730047 -0.08989279 0.0044845855 -0.18972057 0.11456156 0.06530187 -0.0046020816 -0.0053333966
0.11424483 0.10661315 0.040339895 0.04335946 -0.06907932 -0.1281056 0.10705297 0.05357678
0.09536179 -0.06614591 -0.035477553 -0.038924076 -0.01990107 0.046825558 -0.02316072 -0.058151852
-0.1074875 0.08851543 0.07790974 -0.049499083 -0.14509474 -0.0520852 -0.036720145 0.004410232
0.1754713 -0.053316567 -0.058554925 -0.118623205 -0.007659432 -0.18628787 -0.07280027 -0.1435802
-0.07466626 -0.19595094 -0.036882956 -0.14784558 -0.21884935 0.011530878 -0.010771957 0.07806259
00000000: f12e 763e 2dc7 c4bd a942 3bbe 14ca e0bd
00000010: 76cd 9dbd 445f 18be 388d efbd b2ab 2bbc
00000020: b3a6 bcbd 6de0 f4bd 2d80 3c3d 1a25 d6bd
00000030: 1dff eabd 0296 893b 133e b9bd 1718 9f3d
00000040: b62a 9fbd de82 933c f554 66bd decc ddbd
00000050: 99df 07be b0fe 8a3c 6f0a 66be 4d65 0bbd
00000060: 1c5d afbd f107 9b3c ad20 383d c9bb 983d
00000070: 9c20 153e 3752 81bd 78dc 0ebe c74d 5dbc
00000080: cb06 60bd 3bfb 013e 18e1 28bd 2968 2bbe
00000090: e528 e8bd 3128 c8bd 99be 2bbe 1a0d c6bd
000000a0: 461c 4fbd dfd5 b3bd 7ec1 a6bd 5470 b63a
000000b0: ca36 31bd 42fa 1fbd ca31 763c 1199 ddbc
000000c0: 75d4 21be ee8a ca3b 0fae 0d3d b145 1cbe
000000d0: 163f a6ba 773b b2bc 24f7 113e ebc7 143e
000000e0: 7382 06bd 7ba7 513e 33f0 043e f321 da3d
000000f0: 64c8 993d 9034 593d 5d37 51bb 5901 e33d
00000100: ac6e d33d c670 c7b8 ddd9 d63c 9b90 2a3c
00000110: 1913 c1bd 6b32 0abd 06b6 edbd 414a c9bd
00000120: e166 c53b 376d bfbd 669d 95bd 3955 29bd
00000130: 6c4e 1ebe 8b3e 2c3d 60e4 8cbd 6d7f 81bd
00000140: d197 b03d f57d 3dbe 953e 333e ad61 973d
00000150: 371a 15be bb9f 923d 2a87 e9bd e16f 213e
00000160: b11d 173e b68c c53d 506f 96bd 8a4d d33c
00000170: fa11 ae3d 41d8 b0bd 97fb 93bd 80a3 c2bd
00000180: c364 08be aa6c b4bc aafc 9f3c f88b b8bd
00000190: 4c7f 29bd a194 f2bd 61c9 b1bc 7804 8bbc
000001a0: 3361 5ebd c611 093d 29a1 e5bd 83f3 163e
000001b0: dc6e 02be 22e6 d2bc e8da 1e3d 8e10 aebd
000001c0: 58f4 2cbd f768 193d bd0d af3a e23c ca3c
000001d0: deec 6d3d 57b3 c23d f6b8 0a3e 0eef 88bd
000001e0: a4a3 473e 318d 2dbd 28fe 823c 535f a3bd
000001f0: e67c e7bd 7d53 1abe ec8c 97bd e318 903d
00000200: 2fbb 93bc d90b ebbd 2bb3 a4bd 5c75 a5bd
00000210: b646 e1bd 3048 b63d fd8a e43c 38f0 813b
00000220: 40f9 f63c ac72 243d f78a 77bb 11f6 48bd
00000230: f02e 413d 00fd 7ebd 96f7 163d 35d5 023e
00000240: 402d 113d b11b 64bd e54f e2bd 31d2 713d
00000250: 92b1 8cbd 94cf 6fbc 0f7a 9bbd aa58 6dbe
00000260: 8c65 26be ee04 93bc d273 1abb 3b12 efbd
00000270: 6739 f9bd a226 a23d 5b4b 25be 6cbf 1d3d
00000280: 7005 5abd e849 5d3d 8d2e d0bd b0c2 89bd
00000290: b8b7 59bc e4d9 fabd 3bdc bfbd 8f95 f83c
000002a0: 5191 18be a995 1fbe d20d 513d c197 29be
000002b0: 3d89 0d3b 8699 803d 89d0 943d eab0 ba3c
000002c0: b6c6 9ebd b3ac 7b3d d4fd a63d 8215 6d3b
000002d0: 7d31 013e aefc ce3d 88fc 1a3e 857b b43d
000002e0: eb21 823d 161c 3dbd 27be c3bc 4195 683d
000002f0: 877c bb3d 43d5 433e 5d6d cf3d a3d5 b93c
00000300: d2aa d8bc 898a 99bd 1672 ea3d 1d27 33bd
00000310: 726e 28be 4c81 6cbd 4a81 b8bd 2b8d 67bd
00000320: ed54 77bc e9bf c53d d1a9 fbbc 0934 a8bd
00000330: 3d56 cdbd c431 1e3d 0fcf 933d fc41 d13d
00000340: 23be 41bd b619 b8bd 6ef3 923b 1c46 42be
00000350: 409f ea3d fdbc 853d 0fcd 96bb c6c3 aebb
00000360: 32f9 e93d ff57 da3d 723b 253d b099 313d
00000370: 7579 8dbd 1d2e 03be 963e db3d 5373 5b3d
00000380: 0b4d c33d 8277 87bd e950 11bd da6e 1fbd
00000390: 9207 a3bc 28cc 3f3d 8dbb bdbc a330 6ebd
000003a0: 6822 dcbd 9447 b53d 248f 9f3d 8dbf 4abd
000003b0: b793 14be 4a57 55bd dd67 16bd b583 903b
000003c0: c0ae 333e 7962 5abd 4ad7 6fbd b9f0 f2bd
000003d0: f9fb fabb 3fc2 3ebe 4f18 95bd b006 13be
000003e0: a0ea 98bd 5da7 48be 9512 17bd d564 17be
000003f0: 0b1a 60be 02ec 3c3c dd7c 30bc 47df 9f3d

encoder_rnn.weight_hh_l0 f4 [192, 64]
-0.16203424 0.009311681 0.036710773 0.017058793 -0.03691241 -0.16732492 0.0549624 -0.089332245
0.069481954 -0.04728487 0.1012808 -0.027901927 -0.08802567 0.1031541 0.0010394631 -0.05889251
0.058196187 -0.009782342 -0.07923898 0.06318444 -0.040597633 0.042146567 0.06189038 -0.054612268
0.17548679 0.20289268 -0.21057193 0.0064267796 -0.1658837 -0.063345 0.028928185 -0.07632995
0.036002938 0.05498687 0.039575815 0.020803897 0.13094497 0.11062154 0.11642422 0.2522899
-0.059356194 0.05473435 -0.0112143895 -0.08662464 -0.038208447 -0.055863854 0.05556384 0.021318074
0.04001702 0.049628742 0.12737691 0.05951592 0.02225494 -0.010498638 0.07877096 -0.03179635
0.018769601 -0.070364274 0.085408 -0.052258275 0.01635014 0.066188775 -0.020410603 0.09872153
-0.052988797 -0.050092082 0.11699745 -0.12774067 -0.06355339 0.05569083 -0.009970514 -0.0024914935
-0.058534764 -0.039677206 -0.041095983 -0.020162288 0.040238887 -0.025365843 0.013669776 0.013952598
-0.25129163 0.027163958 -0.020532062 -0.13218307 -0.051941995 0.004568585 0.09187708 -0.0968777
0.009609696 0.036469083 0.01116616 0.08083961 0.06596846 -0.19095165 0.07232676 0.12541659
0.2389419 0.1231068 -0.096602164 0.07433053 -0.1125243 0.003858773 0.024710407 0.03663411
0.21957655 -0.098458685 0.10253874 0.047880948 0.01116082 -0.023597037 0.09582414 0.10835642
0.036476802 -0.12621638 0.0741108 -0.055489965 0.05396192 0.021474728 0.14841142 -0.052029673
-0.03233099 0.015800439 -0.074112706 -0.031786337 -0.08323184 0.04884283 -0.15478072 0.094826005
0.045403443 0.06720759 0.0004801204 -0.06419986 -0.05893563 0.08913207 -0.010917576 -0.061903033
-0.096261516 -0.04241173 -0.06673524 -0.04274356 0.03170268 0.04386128 -0.062394775 -0.017702457
0.064997554 -0.021076407 -0.014240727 0.060300946 0.103999175 -0.05852375 -0.013085787 0.001211365
-0.13105941 -0.0786432 -0.073117435 -0.08730908 0.06997382 -0.036107704 0.045047622 -0.017438324
0.09504049 -0.030697936 -0.04040936 -0.032122362 -0.009874046 -0.05844067 -0.07112921 0.0022323139
0.018928703 0.10717598 0.015537633 0.034659036 0.035504106 0.005702102 -0.042022828 -0.032093458
-0.038075298 0.014184315 -0.0039169663 -0.09269651 -0.01804629 0.063643694 -0.14516526 0.07443431
-0.023058483 0.014296128 0.06449721 0.08236682 -0.03103231 -0.021385083 -0.03300103 -0.025678374
0.0184555 -0.04830421 0.024225974 -0.022910975 -0.06302321 0.0011719973 0.099944666 -0.06240511
0.08318651 -0.16351901 -0.011863824 -0.16350181 -0.0069997367 -0.028147712 -0.021428142 -0.1133969
-0.0055912705 0.017148005 -0.08485815 0.022547955 -0.053916816 0.0036107756 -0.023231205 -0.018199923
0.09576759 0.05348298 -0.042938948 0.025389297 -0.009345875 0.023096371 -0.0081799645 -0.07369426
0.024470765 0.023240888 -0.08904897 0.01776066 -0.0182259 0.057656847 0.032705788 -0.0037489645
-0.013893805 0.08402294 -0.057205983 0.07035444 0.013269678 0.021385076 -0.03172069 -0.018418312
0.0034658911 0.001875325 0.07753331 0.038285848 -0.08269528 -0.013426913 0.0922089 0.12135216
-0.056795616 -0.14130868 0.10175819 0.022714732 -0.15189922 0.032500394 -0.05181635 -0.010940284
00000000: 4eec 25be 0590 183c 095e 163d e2be 8b3c
00000010: 7831 17bd 3957 2bbe 4120 613d d3f3 b6bd
00000020: 8e4c 8e3d c8ad 41bd 4f6c cf3d 9592 e4bc
00000030: cd46 b4bd 7542 d33d 983e 883a 4639 71bd
00000040: 205f 6e3d 1e46 20bc 0c48 a2bd d866 813d
00000050: b449 26bd e1a1 2c3d c480 7d3d 1db1 5fbd
00000060: cfb2 333e 19c3 4f3e 2ba0 57be bc97 d23b
00000070: 6bdd 29be 06bb 81bd cdfa ec3c e052 9cbd
00000080: d177 133d ea39 613d 401a 223d ef6c aa3c
00000090: 7016 063e 8c8d e23d d26f ee3d 242c 813e
000000a0: 7b1f 73bd 2031 603d 8fbc 37bc 4268 b1bd
000000b0: 7680 1cbd 7fd1 64bd e996 633d 3ea3 ae3c
000000c0: e3e8 233d 8247 4b3d 186f 023e f7c6 733d
000000d0: fe4f b63c 7b02 2cbc ab52 a13d e43c 02bd
000000e0: b5c2 993c 251b 90bd 64ea ae3d c60c 56bd
000000f0: bbf0 853c fb8d 873d 2334 a7bc 832e ca3d
00000100: c80a 59bd 5b2d 4dbd 5c9c ef3d 73ce 02be
00000110: 4828 82bd 111c 643d 5e5b 23bc 5348 23bb
00000120: 26c2 6fbd 9184 22bd 4354 28bd 622b a5bc
00000130: 88d1 243d 07cc cfbc 32f7 5f3c 7099 643c
00000140: 4ca9 80be f386 de3c db32 a8bc 005b 07be
00000150: 21c1 54bd 12b4 953b 0d2a bc3d d167 c6bd
00000160: fd71 1d3c 9b60 153d 45f2 363c 3d8f a53d
00000170: 791a 873d d488 43be 0d20 943d 356d 003e
00000180: 2fad 743e 6b1f fc3d 5bd7 c5bd 9b3a 983d
00000190: 2473 e6bd 78e3 7c3b 7b6d ca3c a60d 163d
000001a0: add8 603e b5a4 c9bd d5ff d13d d01e 443d
000001b0: dfdb 363c 934e c1bc 723f c43d f9e9 dd3d
000001c0: b368 153d de3e 01be 67c7 973d 7249 63bd
000001d0: 2d07 5d3d c5eb af3c 2af9 173e 111d 55bd
000001e0: 806d 04bd ec6f 813c 67c8 97bd 6432 02bd
000001f0: 7475 aabd 6b0f 483d d67e 1ebe 2334 c23d
00000200: f6f8 393d 22a4 893d abb8 fb39 377b 83bd
00000210: 7d66 71bd e08a b63d a2df 32bc 098e 7dbd
00000220: c224 c5bd ecb7 2dbd 7cac 88bd df13 2fbd
00000230: abda 013d e3a7 333d aa91 7fbd be04 91bc
00000240: 701d 853d 6ea8 acbc f051 69bc 20fe 763d
00000250: 85fd d43d 9ab6 6fbd c565 56bc aac6 9e3a
00000260: 7034 06be b00f a1bd 98be 95bd 1acf b2bd
00000270: 6f4e 8f3d ace5 13bd db83 383d d1da 8ebc
00000280: 97a4 c23d 3d7a fbbc 4984 25bd bd92 03bd
00000290: c0c6 21bc 7c5f 6fbd 31ac 91bd 034c 123b
000002a0: 5e10 9b3c 157f db3d 8e91 7e3c a2f6 0d3d
000002b0: c16c 113d b3d8 ba3b 2120 2cbd 6e74 03bd
000002c0: d8f4 1bbd 5465 683c e559 80bb abd7 bdbd
000002d0: d0d5 93bc a057 823d 34a6 14be 0471 983d
000002e0: 25e5 bcbc 4f3a 6a3c 1d17 843d efaf a83d
000002f0: 7937 febc c52f afbc 172c 07bd 745b d2bc
00000300: fd2f 973c a3da 45bd 8d75 c63c ccaf bbbc
00000310: 5012 81bd b49d 993a caaf cc3d 809c 7fbd
00000320: b05d aa3d 8771 27be 7c60 42bc 056d 27be
00000330: 0c5e e5bb 0896 e6bc 128a afbc a23c e8bd
00000340: fa36 b7bb f979 8c3c 1cca adbd 7db6 b83c
00000350: e1d7 5cbd c3a2 6c3b 5e4f bebc 0118 95bc
00000360: cc21 c43d f810 5b3d c0e0 2fbd 37fd cf3c
00000370: 711f 19bc 9a34 bd3c 4205 06bc 04ed 96bd
00000380: ea76 c83c ad63 be3c 4e5f b6bd ce7e 913c
00000390: 7c4e 95bc 9629 6c3d 81f6 053d 30b1 75bb
000003a0: d8a2 63bc 3814 ac3d d250 6abd fd15 903d
000003b0: 1069 593c c12f af3c 8eed 01bd 00e2 96bc
000003c0: 0124 633b 77cd f53a c9c9 9e3d 9fd1 1c3d
000003d0: 255c a9bd 8efc 5bbc 05d8 bc3d 7b87 f83d
000003e0: 85a2 68bd 39b3 10be 9966 d03d 3f14 ba3c
000003f0: 788b 1bbe 221f 053d 623d 54bd e03e 33bc

encoder_rnn.bias_ih_l0 f4 [192]
0.17385726 -0.085161194 0.11123472 0.015162413 0.0789057 0.062231183 0.09617501 -0.13229088
-0.029331593 0.0013887405 0.03902418 -0.007397301 -0.041315813 0.00072961673 0.003259587 -0.23435703
-0.051238373 0.019573733 -0.0038435522 0.13680702 0.0068728784 -0.064083986 0.049635727 0.035231344
0.08169589 0.012208935 -0.036644187 0.056181084 -0.05507588 0.05401844 0.011669084 0.11130618
0.14605841 -0.099500544 -0.06640544 0.039809037 0.09432953 0.16127253 0.09877931 -0.05563131
-0.038603265 0.10102966 0.060855072 0.041400705 -0.03201546 -0.067973495 -0.03195791 0.01772807
-0.097853884 0.082376786 -0.031549834 0.047082912 0.00639558 -0.06008393 -0.034005444 -0.06762584
-0.016280642 -0.083717674 0.027766606 0.010838202 0.01104278 0.11061534 0.1413448 0.11411863
0.121856 0.38531536 0.28433713 0.1498216 0.0829333 0.22040093 0.33591333 0.35103872
0.18717457 0.12864053 0.3538688 0.23960218 0.1265368 0.17188883 0.26451007 0.3762792
0.2860639 0.23659667 0.21042794 0.34588698 0.46258023 0.27130497 0.35766435 0.08970004
0.3048309 0.31767872 0.102620475 0.13404642 0.39740518 0.31801614 0.19409987 0.060931694
0.25488824 0.3862024 0.14901277 0.3618367 0.12827988 0.31657827 0.34995085 0.31326827
0.30075023 0.21525207 0.30778593 0.21727891 0.22386277 0.043309975 0.12551191 0.32604697
0.09151164 0.13152298 0.13667743 0.18262507 0.18183327 0.18378082 0.11765855 0.20986304
0.4515995 0.23303226 0.2987048 0.256287 0.17818181 0.11421628 -0.007899732 0.2793506
-0.18426786 -0.017190527 -0.08550432 0.23200409 0.015948825 -0.13475133 -0.012524743 0.18497203
-0.00025618623 0.16617776 0.06019056 -0.0269357 -0.16790716 0.107765764 0.059664186 0.106479
-0.05353068 -0.21766408 0.0002141048 -0.011952071 0.037167393 -0.12347879 -0.035758313 0.13394728
0.07888386 0.20401661 -0.04122058 -0.08870674 0.079089575 0.0018962276 -0.116076455 -0.014525115
0.009449917 0.09264662 0.04951655 0.123792596 0.15713833 -0.04089104 -0.11602091 0.21403164
-0.112894654 0.29386955 0.05808976 0.06356654 0.07667807 -0.12891726 -0.19029231 -0.17897207
-0.087471694 0.21729495 -0.027316136 0.10828299 0.08864002 0.1250197 -0.030262193 0.012200229
0.007449849 -0.035165425 0.05834982 0.10544543 0.14784858 -0.02319785 0.08061651 -0.029046884
00000000: a307 323e fe68 aebd 07cf e33d c56b 783c
00000010: 5099 a13d 20e6 7e3d 67f7 c43d 4377 07be
00000020: cf48 f0bc 6606 b63a d2d7 1f3d 0f65 f2bb
00000030: c53a 29bd c043 3f3a cc9e 553b 4afb 6fbe
00000040: 54df 51bd 1859 a03c 1be4 7bbb 2417 0c3e
00000050: e235 e13b 773e 83bd d54e 4b3d be4e 103d
00000060: 2d50 a73d fc07 483c 3718 16bd 231e 663d
00000070: 3f97 61bd 7142 5d3d b02f 3f3c 7ff4 e33d
00000080: 5690 153e f1c6 cbbd 93ff 87bd cd0e 233d
00000090: d72f c13d a024 253e cf4c ca3d a8dd 63bd
000000a0: 751e 1ebd a3e8 ce3d 2b43 793d c993 293d
000000b0: a522 03bd b035 8bbd 4ce6 02bd 753a 913c
000000c0: 9e67 c8bd 29b5 a83d 663a 01bd 03da 403d
000000d0: 0392 d13b 911a 76bd 4b49 0bbd 6b7f 8abd
000000e0: fb5e 85bc 2c74 abbd cb76 e33c b792 313c
000000f0: c7ec 343c 4c8a e23d b1bc 103e 07b7 e93d
00000100: a38f f93d 0e48 c53e a394 913e d56a 193e
00000110: efd8 a93d c8b0 613e d5fc ab3e 59bb b33e
00000120: b1aa 3f3e 58ba 033e 4b2e b53e 465a 753e
00000130: dd92 013e a003 303e dd6d 873e aba7 c03e
00000140: f876 923e 6646 723e 6c7a 573e 1918 b13e
00000150: 51d7 ec3e 7ce8 8a3e c81f b73e a8b4 b73d
00000160: cc12 9c3e c9a6 a23e af2a d23d 7743 093e
00000170: b178 cb3e 03d3 a23e 1ec2 463e 8393 793d
00000180: b680 823e 52bc c53e ce96 183e a942 b93e
00000190: cd5b 033e 8c16 a23e c22c b33e b364 a03e
000001a0: effb 993e 0a6b 5c3e 1e96 9d3e 5d7e 5e3e
000001b0: 483c 653e cd65 313d 3286 003e a1ef a63e
000001c0: 746a bb3d f6ad 063e 2bf5 0b3e 1102 3b3e
000001d0: 8032 3a3e 0a31 3c3e f7f6 f03d 56e6 563e
000001e0: 0d38 e73e 02a0 6e3e d6ef 983e 0d38 833e
000001f0: 4b75 363e 3aea e93d e16d 01bc 0b07 8f3e
00000200: b7b0 3cbe 26d3 8cbc e41c afbd 7b92 6d3e
00000210: 1ca7 823c 41fc 09be 9434 4dbc 4f69 3d3e
00000220: bc50 86b9 812a 2a3e 608a 763d 42a8 dcbc
00000230: dbef 2bbe 4cb4 dc3d 6f62 743d a911 da3d
00000240: fc42 5bbd 55e3 5ebe 5281 6039 9fd2 43bc
00000250: d63c 183d 73e2 fcbd 4f77 12bd 7a29 093e
00000260: dc8d a13d bbe9 503e e9d6 28bd e1ab b5bd
00000270: b7f9 a13d d78a f83a 7eb9 edbd bffa 6dbc
00000280: d3d3 1a3c 83bd bd3d ded1 4a3d f986 fd3d
00000290: dfe8 203e 5d7d 27bd 5f9c edbd 1c2b 5b3e
000002a0: 5035 e7bd 1276 963e 87ef 6d3d 2d2f 823d
000002b0: 6409 9d3d e302 04be fddb 42be 7444 37be
000002c0: 5c24 b3bd 9182 5e3e 17c6 dfbc 79c3 dd3d
000002d0: e688 b53d 2a05 003e 6be8 f7bc 78e3 473c
000002e0: dd1d f43b 9f09 10bd 3900 6f3d c6f3 d73d
000002f0: 9e65 173e 6b09 bebc 451a a53d bbf3 edbc

encoder_rnn.bias_hh_l0 f4 [192]
0.058941513 -0.019050833 0.057024814 0.027439903 -0.019224204 0.024630254 -0.002756374 -0.11242206
-0.03160112 0.037691504 -0.031960424 0.015594597 0.0076866616 -0.012535655 -0.12756854 -0.189289
-0.058496337 -0.033137858 -0.026946586 0.1147672 -0.017992219 -0.1243874 -0.09336582 -0.019563219
0.059842084 0.06636016 -0.03830408 0.057854824 0.07706233 0.058326516 0.045385882 0.008522659
0.100041494 0.025324283 -0.05919482 0.10149649 0.051820286 0.08595566 0.037534222 -0.021401454
0.015600824 0.1818611 0.0865375 -0.049414 0.11465247 0.08256632 0.058744606 0.030215153
0.02554249 -0.08076369 0.015551448 -0.022272175 -0.047767416 -0.09018133 0.021595191 -0.05142085
0.058497198 -0.055871215 0.017028965 -0.045494918 -0.025576655 -0.031403247 0.0952577 0.032563306
0.20765021 0.23000428 0.34226552 0.094481446 0.07967377 0.28855658 0.28855962 0.27240294
0.094954684 0.12650943 0.33057073 0.28185967 0.25705606 0.21339878 0.15855731 0.47954082
0.32375816 0.12052039 0.32792512 0.3139588 0.43182853 0.37217084 0.31770024 0.086824246
0.27399427 0.32913354 0.26216087 0.123020455 0.2527157 0.3541915 0.12898925 0.05706534
0.34773022 0.34886685 0.21428773 0.29213896 0.21292862 0.30731255 0.267929 0.28123692
0.29109675 0.17809473 0.2698314 0.17813161 0.19687817 0.120523565 0.1382916 0.30883485
0.17956464 0.26684132 0.06190644 0.28350726 0.14033951 0.13725454 0.11795602 0.18075478
0.4573589 0.116161495 0.3726762 0.3931823 0.11099552 0.08197666 -0.08223926 0.21116485
-0.14813527 -0.0949686 -0.047367334 0.21031532 -0.14798099 -0.084942505 0.136784 -0.02571007
0.022752067 0.086634494 -0.15782905 -0.06659225 -0.009075659 0.10267361 0.1204238 0.022689609
0.12343582 -0.08669409 -0.0011779362 -0.14523077 -0.015658826 -0.09885417 0.053868398 0.060374327
0.1042396 0.13655224 -0.03379272 -0.15809168 -0.060068574 0.060542032 0.073274314 -0.08454956
-0.07040828 -0.06177148 0.008169897 0.032335494 0.16324581 0.16886154 -0.10653739 0.13195859
0.03737302 0.206248 -0.08409653 0.060538165 0.16646677 0.0151870595 -0.13252817 -0.1656735
-0.097807996 0.10132229 0.007997558 0.04841822 0.099726126 -0.03158028 -0.05791076 -0.028752621
0.10683835 0.090997845 -0.061010722 0.04485854 0.19224545 -0.034478307 0.31803575 0.08280132
00000000: a86c 713d 7e10 9cbc da92 693d a6c9 e03c
00000010: 147c 9dbc 63c5 c93c 48a4 34bb 893d e6bd
00000020: 2d70 01bd 6862 1a3d efe8 02bd 7b80 7f3c
00000030: 64e0 fb3b 5962 4dbc 54a1 02be fad4 41be
00000040: db99 6fbd 90bb 07bd 16bf dcbc 110b eb3d
00000050: 6b64 93bc d2be febd 9436 bfbd 0b43 a0bc
00000060: f91c 753d d6e7 873d bde4 1cbd 2ef9 6c3d
00000070: dbd2 9d3d c9e7 6e3d 8ce6 393d 9fa2 0b3c
00000080: 8ee2 cc3d df74 cf3c 4476 72bd 64dd cf3d
00000090: 8241 543d 8509 b03d 7cbd 193d 1a52 afbc
000000a0: 999a 7f3c cc39 3a3e 933a b13d 5666 4abd
000000b0: eace ea3d 8818 a93d 2f9e 703d c585 f73c
000000c0: 7c3e d13c 6f67 a5bd 80cb 7e3c 2374 b6bc
000000d0: c4a7 43bd fdb0 b8bd 66e8 b03c ab9e 52bd
000000e0: c29a 6f3d 37d9 64bd 5480 8b3c e158 3abd
000000f0: 2286 d1bc b1a0 00bd 7816 c33d 1a61 053d
00000100: 42a2 543e 3e86 6b3e 6d3d af3e 7d7f c13d
00000110: 002c a33d b0bd 933e 16be 933e 6678 8b3e
00000120: 9a77 c23d b08b 013e 9140 a93e e94f 903e
00000130: da9c 833e 3685 5a3e d95c 223e 6086 f53e
00000140: a1c3 a53e 65d3 f63d cde5 a73e 35bf a03e
00000150: a118 dd3e 2d8d be3e 9ba9 a23e e9d0 b13d
00000160: fa48 8c3e 3184 a83e f339 863e 26f2 fb3d
00000170: f463 813e 9758 b53e c215 043e 59bd 693d
00000180: b209 b23e ad9e b23e 3e6e 5b3e 3d93 953e
00000190: f609 5a3e 1258 9d3e fd2d 893e 49fe 8f3e
000001a0: a20a 953e 775e 363e 5727 8a3e 2268 363e
000001b0: 6e9a 493e 0fd5 f63d 509c 0d3e 9a1f 9e3e
000001c0: cbdf 373e 6d9f 883e 9b91 7d3d dd27 913e
000001d0: 29b5 0f3e 748c 0c3e ed92 f13d c817 393e
000001e0: f22a ea3e 14e6 ed3d 6acf be3e 314f c93e
000001f0: 9f51 e33d 61e3 a73d 0f6d a8bd 993b 583e
00000200: c6b0 17be e67e c2bd 4004 42bd e65c 573e
00000210: 5488 17be 56f6 adbd 1b11 0c3e ed9d d2bc
00000220: 8b62 ba3c 6d6d b13d f09d 21be 8461 88bd
00000230: 13b2 14bc 8b46 d23d c1a0 f63d 8fdf b93c
00000240: ebcb fc3d ac8c b1bd fb64 9aba 60b7 14be
00000250: f046 80bc 0e74 cabd 1ca5 5c3d 124b 773d
00000260: 927b d53d 5ad4 0b3e 3c6a 0abd c9e2 21be
00000270: 770a 76bd ecfa 773d d810 963d 5228 adbd
00000280: 3732 90bd 1704 7dbd 08db 053c 3972 043d
00000290: e929 273e 0aea 2c3e 4630 dabd 2720 073e
000002a0: 7414 193d ad32 533e cd3a acbd def6 773d
000002b0: 4476 2a3e 25d3 783c 77b5 07be 50a6 29be
000002c0: 8f4f c8bd 1082 cf3d 3108 033c 2f52 463d
000002d0: 363d cc3d 535a 01bd d533 6dbd 9e8a ebbc
000002e0: 11ce da3d 145d ba3d 61e6 79bd 97bd 373d
000002f0: fedb 443e 2039 0dbd 95d5 a23e bd93 a93d

decoder_rnn.weight_ih_l0 f4 [192, 64]
-4.5569509e-38 1.761216e-38 3.343858e-38 1.9784698e-38 4.465632e-38 -3.5405437e-38 -1.4553505e-38 4.8362717e-38
-4.6273499e-38 3.1271472e-38 -4.889862e-38 3.17991e-40 -2.497596e-38 4.69745e-38 -1.3262989e-38 5.657813e-38
-7.890137e-39 -4.0475237e-38 -3.2892256e-38 3.3993466e-38 4.5050255e-38 4.3440544e-38 -1.729487e-38 4.5180732e-38
4.9579767e-38 -4.993547e-38 4.5785227e-38 -5.0529096e-38 -4.1674586e-38 -5.3307255e-38 1.222218e-39 -4.9384073e-38
2.0300049e-38 1.2249036e-38 -5.782783e-38 -5.425536e-39 -5.4599117e-38 1.9484758e-38 5.8106747e-38 1.1230381e-38
-6.4198634e-38 5.060619e-38 -3.0497e-38 6.884624e-39 9.462887e-39 -4.1884968e-38 1.3221044e-38 -3.7765145e-38
-2.2236362e-38 5.425214e-39 -4.4871583e-38 -1.1395695e-38 -7.320642e-39 -1.0440088e-38 -3.0366866e-38 4.938011e-38
-2.1396086e-38 1.3470581e-38 2.7410855e-38 -1.6834e-40 1.9637326e-38 -3.843554e-39 5.8925996e-38 3.911088e-39
5.8731244e-38 2.3521254e-38 -1.986129e-38 3.905877e-39 -6.729094e-38 4.338948e-38 4.092559e-38 1.954308e-38
3.3579007e-38 3.893102e-38 5.2738316e-38 -3.810964e-39 -2.2484243e-38 -3.02577e-38 -5.8247426e-38 -2.2239624e-38
3.6853673e-38 6.1239893e-38 -5.85646e-40 5.558166e-39 1.793776e-38 -1.1857541e-38 6.67174e-40 -4.7225524e-38
3.4181792e-38 5.349438e-38 -2.4704771e-38 6.7100757e-38 2.0365076e-38 -1.910455e-38 6.5797913e-38 -2.369168e-38
1.2848147e-38 -3.2637118e-38 4.976575e-38 -2.1384e-38 7.075482e-39 -3.9809474e-38 1.4555225e-38 -1.3596328e-38
5.233059e-38 -6.0557685e-38 -4.8691097e-38 -3.874471e-38 -4.6186786e-38 5.266592e-38 1.3145284e-38 7.000537e-38
3.702915e-38 5.395277e-38 5.24077e-38 -1.7958511e-38 -1.8606629e-38 -5.061165e-39 5.983132e-38 -6.5834067e-38
-3.3248132e-38 -2.949513e-38 -4.0270728e-38 2.2734851e-38 -1.4180737e-38 -1.1196857e-38 3.2198593e-38 2.5078876e-38
1.1853881e-38 1.9860855e-38 1.2343696e-38 2.3130595e-38 5.3996307e-38 -2.7994827e-38 -3.590014e-38 4.3199621e-38
3.0393256e-38 3.367564e-38 4.0996937e-38 2.7180737e-38 4.0418767e-38 4.1913005e-38 -5.9964476e-38 -5.055369e-38
-1.2711652e-38 5.0048215e-38 -4.0832066e-38 4.708967e-38 -3.8163024e-38 4.5220008e-38 -2.5951935e-38 1.8966583e-38
2.1138108e-38 1.850541e-39 6.4311853e-38 1.197824e-38 -2.9476207e-38 3.4320165e-38 -3.0265227e-38 3.7360343e-38
-1.2238981e-38 2.913653e-39 3.9641733e-38 4.529678e-39 -1.6051874e-38 6.4580774e-38 -4.5884408e-38 -1.0595103e-38
-2.0526276e-38 3.6278743e-38 7.675055e-39 -9.281158e-39 2.6860722e-38 3.5638585e-38 3.998039e-39 -2.9979828e-38
-2.1916106e-38 8.003766e-39 -3.003612e-38 5.721695e-38 4.4152978e-38 -4.4609838e-38 -1.4319006e-38 -1.6100628e-38
3.222222e-38 6.970089e-38 -5.270161e-38 -4.4077776e-38 -4.484482e-38 4.794709e-38 3.976524e-38 -1.9201385e-38
-5.3740334e-38 5.5970787e-38 1.0955441e-38 -3.9727714e-38 -2.8744443e-38 6.420767e-38 2.1300046e-38 4.23403e-38
5.400425e-39 1.6001279e-38 -4.386674e-38 -3.5119308e-38 2.8149356e-38 9.740717e-39 1.0795043e-38 -2.5361274e-38
-2.9258762e-38 3.7879076e-38 -3.5412763e-38 -1.630691e-38 -5.226843e-39 2.1485877e-38 -6.537804e-38 6.729615e-38
-2.9400497e-38 -3.971726e-38 -4.1604097e-38 2.4995527e-38 4.442556e-38 -2.3056455e-38 2.6154535e-38 -5.375707e-39
-1.8438167e-38 -1.448766e-38 1.8793705e-38 -3.8550534e-38 -5.099335e-38 -3.1901675e-38 -3.731015e-38 -3.1427596e-38
5.0620097e-38 -2.7715638e-38 3.7006437e-38 -6.3188124e-38 1.770405e-38 4.4537506e-38 -4.3952887e-38 -4.3758285e-38
-1.7661834e-38 -3.0097514e-38 -5.598976e-38 -4.817341e-38 2.3141452e-38 6.14095e-39 6.803868e-38 -2.5564087e-38
-5.1777967e-38 -4.753417e-39 7.802772e-39 1.3818078e-38 5.249682e-39 -2.0409587e-38 -6.523495e-38 4.962533e-38
00000000: a01a 7881 89c7 bf00 940e 3601 b06f d700
00000010: d321 7301 fac3 4081 4079 9e80 e5a7 8301
00000020: d8ef 7b81 1242 2a01 5d1d 8581 6e76 0300
00000030: 68fb 0781 e6c0 7f01 d16b 9080 3405 9a01
00000040: 7eea 5580 3f5e 5c81 1d15 3381 fa13 3901
00000050: e446 7501 4883 6c01 1053 bc80 c0fc 7501
00000060: 0ef8 8601 f2ef 8781 4b47 7901 a48d 8981
00000070: e5e5 6281 bc1d 9181 0c4f 0d00 ad6f 8681
00000080: 470c dd00 5461 8500 1e6c 9d81 3014 3b80
00000090: 08a2 9481 942b d400 7e2e 9e01 bc49 7a00
000000a0: ebc3 ae81 5ec3 8901 9d0a 2681 88f7 4a00
000000b0: ae0a 6700 200b 6481 e4f6 8f00 ee9c 4d81
000000c0: ee21 f280 4a13 3b00 dc4d 7481 9016 7c80
000000d0: f9b6 4f80 b8ae 7180 3c55 2581 ea6c 8601
000000e0: 95fb e880 80ae 9200 283d 1501 43d5 0180
000000f0: e0d4 d500 44da 2980 6d69 a001 8696 2a00
00000100: b4e1 9f01 d80f 0001 3245 d880 ff87 2a00
00000110: f12e b781 1c3c 6c01 f2d1 5e01 28ce d400
00000120: 4ed2 3601 ecf5 5301 3e91 8f01 6b7f 2980
00000130: ecd4 f480 14bd 2481 8890 9e81 062b f280
00000140: 86a6 4801 fab5 a601 8b60 0680 e885 3c00
00000150: 2d53 c300 001e 8180 cf43 0700 638f 8081
00000160: 771a 3a01 24a0 9101 6d81 0681 67aa b601
00000170: 8cc1 dd00 b607 d080 741e b301 62fd 0081
00000180: 68e7 8b00 81b1 3181 aa79 8701 e4d9 e880
00000190: 910b 4d00 4fbe 5881 0c7e 9e00 080d 9480
000001a0: 1975 8e01 8cda a481 be8c 8481 3ef2 5281
000001b0: fc76 7b81 ca5e 8f01 b423 8f00 9f92 be01
000001c0: 1a9b 4901 98df 9201 d6aa 8e01 068d c380
000001d0: b69b ca80 781c 3780 58e0 a201 a637 b381
000001e0: 2205 3581 3696 2081 3441 5b81 848f f700
000001f0: 206a 9a80 48ec 7980 4a4e 2f01 da8a 0801
00000200: cc13 8100 fc43 d800 3469 8600 b0de fb00
00000210: effd 9201 186b 1881 7e75 4381 7c33 6b01
00000220: 047a 2501 fe58 3701 6435 5f01 6bfc 1301
00000230: 8a0f 5c01 3432 6401 243d a381 c89e 8981
00000240: ea6a 8a80 843e 8801 984f 5e81 b630 8001
00000250: 7ec7 4f81 7e33 7601 b84b 0d81 1e87 ce00
00000260: 722c e600 8e26 1400 d212 af01 766e 8200
00000270: d67b 2081 54db 3a01 92c7 2481 b868 4b01
00000280: 4d45 8580 14ba 1f00 83d4 5701 e652 3100
00000290: 18ca ae80 3bce af01 88d1 7981 d65e 7380
000002a0: e882 df80 3085 4501 ee92 5300 1810 6580
000002b0: 623e 1201 f008 4201 e888 2b00 c839 2381
000002c0: 30a5 ee80 3e27 5700 3e88 2381 65c2 9b01
000002d0: 4564 7001 0ae1 7281 90eb 9b80 0052 af80
000002e0: 386f 2f01 6ebe bd01 a977 8f81 74fb 6f81
000002f0: 8e28 7481 3f86 8201 a880 5801 a615 d180
00000300: 8c4b 9281 f25d 9801 504b 7700 5a4c 5881
00000310: e87f 1c81 37ca ae01 ddef e700 c485 6601
00000320: 30ce 3a00 0e3d ae00 50d5 6e81 2c35 3f81
00000330: 7a42 1901 2811 6a00 308c 7500 7514 0a81
00000340: c34c 1f81 ba3b 4e01 30ce 4081 0891 b180
00000350: 50ea 3880 e2f5 e900 d8f9 b181 9232 b701
00000360: 5012 2081 c83d 5881 a683 6281 ae16 0801
00000370: 32e0 7101 0410 fb80 1a66 0e01 4989 3a80
00000380: 1cc6 c880 b4c1 9d80 34a5 cc00 9ae3 5181
00000390: 2ed1 8a81 72b0 2d81 c222 4b81 ad1b 2b81
000003a0: 0fcd 8901 f6e5 1681 727b 4901 b203 ac81
000003b0: b0c7 c000 397c 7201 624d 6f81 263e 6e81
000003c0: 0252 c080 d0dd 2381 2b6b 9881 f823 8381
000003d0: f4fc fb00 78de 4200 0a38 b901 232f 0b81
000003e0: faf3 8c81 98c2 3380 f4f6 5400 2e77 9600
000003f0: fa29 3900 a03d de80 2096 b181 cf17 8701

decoder_rnn.weight_hh_l0 f4 [192, 64]
-0.11243292 -0.021839876 0.067875184 -0.10432426 0.04472887 0.10070659 0.09800717 0.054722805
-0.008408573 0.029244676 -0.1184739 -0.076938204 -0.064528 0.15411991 0.1943249 0.049100254
-0.119644985 -0.053821728 -0.103362486 0.13013338 0.079807945 0.052784164 -0.16438098 -0.083745256
0.17037785 0.20155208 0.06341975 -0.19919245 -0.10211642 -0.048655245 -0.11795441 -0.047288403
-0.01322667 0.17087509 -0.24322747 0.020167364 0.040527973 -0.0017172202 -0.019992499 0.16729975
0.13271272 0.30063522 -0.110794 0.18402992 0.13067542 -0.029344667 0.13775463 -0.026348809
-0.18048084 -0.20281954 0.06395848 -0.030672781 -0.20587444 0.04696211 -0.0033968778 0.0033568249
0.07809328 0.027210824 0.050134644 0.056641392 0.13298237 0.011324923 0.12448026 0.035874665
0.21323164 0.16939858 0.010822177 -0.14275879 0.04632022 0.19824606 -0.13151242 0.051659867
-0.09971458 -0.09753395 0.036465786 -0.0627551 0.12368305 -0.14091225 0.19332996 -0.42158622
-0.23143868 0.06519571 -0.12317817 -0.047411244 0.1378161 -0.020137534 0.15459223 -0.022813005
-0.018688476 -0.08857583 0.092948034 0.2939339 0.05940658 -0.3846208 0.07163751 0.16847716
0.10430195 0.09801959 -0.0036353993 -0.053373195 -0.09796266 -0.12930642 -0.11978057 -0.0942711
0.35225433 -0.21190219 -0.15032169 0.015210297 -0.2528519 -0.051649746 0.118095286 0.040796634
0.123196304 -0.06452534 0.040295962 0.014383068 0.25779808 0.26251367 -0.22886509 -0.17533162
-0.042742703 0.07979297 -0.0832369 -0.039779864 -0.3865744 0.12259239 0.01329246 -0.21979421
0.008469099 -0.024989711 -0.14680985 0.023408953 0.13293408 0.0018571841 -0.09489845 -0.00207083
-0.1570672 -0.1734117 0.19714952 -0.05146891 -0.012069486 0.14195006 0.03069864 -0.03197441
-0.16205953 0.28689194 -0.1353819 -0.0729181 0.3033148 0.24330893 -0.09662861 -0.019405702
-0.065091304 0.09344548 0.00937979 0.051689122 -0.043265417 -0.12472213 -0.19043311 -0.0049558887
0.20702632 0.121792346 0.09100781 -0.22914483 -0.066172026 -4.769351e-05 0.114862636 0.0769592
-0.13115592 -0.12644257 -0.17322083 -0.008876122 0.041642826 0.0005749649 0.07705299 0.12001927
0.16778573 -0.049697638 0.088781066 -0.14508854 -0.0974998 0.24822493 -0.03201093 -0.028542815
-0.06811523 -0.17127897 0.095268026 -0.2214745 -0.12523991 0.10933967 -0.19660942 -0.079935074
0.2568115 -0.011768496 0.15304466 -0.15365939 0.2132317 -0.18283011 -0.08647784 -0.09798822
-0.22808854 -0.04864553 0.108532466 0.01810664 -0.14349538 0.04415362 -0.17142628 0.068992555
0.28571972 0.050850436 -0.11519905 -0.21315761 -0.081691325 0.1696977 0.19211113 -0.049917415
-0.14927962 -0.034411456 -0.17590761 0.20124626 -0.09926045 -0.1460038 -0.053114425 0.17053841
0.19549023 0.19271912 -0.13342534 -0.100523174 -0.1637803 -0.14335825 0.17743105 0.01852486
-0.21563101 -0.22977446 0.101260915 -0.13703445 -0.15442982 0.15794946 0.0865847 0.20730656
0.23300582 -0.13049679 0.16690369 -0.20650657 -0.111753695 -0.065631635 -0.14310303 -0.17059587
-0.17806624 0.19835843 0.019473597 -0.105501175 0.15466584 0.26456004 -0.08939663 0.09172064
00000000: 3b43 e6bd 8ae9 b2bc 2502 8b3d f5a7 d5bd
00000010: 9f35 373d 423f ce3d fcb7 c83d 0525 603d
00000020: 1dc4 09bc 8892 ef3c 72a2 f2bd c791 9dbd
00000030: 4227 84bd 9cd1 1d3e 1bfd 463e 591d 493d
00000040: 6e08 f5bd 2c74 5cbd b6af d3bd af41 053e
00000050: 5972 a33d 3534 583d 7d53 28be a282 abbd
00000060: 8877 2e3e ab63 4e3e 37e2 813d 1bf9 4bbe
00000070: 6a22 d1bd b94a 47bd 1592 f1bd 7cb1 41bd
00000080: adb4 58bc e1f9 2e3e 9f10 79be 0736 a53c
00000090: a900 263d 5914 e1ba 4fc7 a3bc a050 2b3e
000000a0: d8e5 073e dcec 993e f7e7 e2bd 5772 3c3e
000000b0: c7cf 053e 3a64 f0bc 8d0f 0d3e 75d9 d7bc
000000c0: f8cf 38be edaf 4fbe aafc 823d 7c45 fbbc
000000d0: c0d0 52be 575b 403d 279e 5ebb 2dfe 5b3b
000000e0: 5fef 9f3d 3ce9 de3c fc59 4d3d ce00 683d
000000f0: 882c 083e 2b8c 393c 82ef fe3d 50f1 123d
00000100: 6559 5a3e d276 2d3e 804f 313c 5c2f 12be
00000110: 45ba 3d3d 0401 4b3e 31ab 06be 4c99 533d
00000120: 2837 ccbd e1bf c7bd 265d 153d bf85 80bd
00000130: 8a4d fd3d 4d4b 10be 4af8 453e 26da d7be
00000140: 43fe 6cbe 5485 853d d644 fcbd 4b32 42bd
00000150: aa1f 0d3e 78f7 a4bc 6d4d 1e3e 57e2 babc
00000160: 9318 99bc 3f67 b5bd 8a5b be3d 817e 963e
00000170: 5054 733d 04ed c4be b0b6 923d 4785 2c3e
00000180: 439c d53d 7fbe c83d e13f 6ebb da9d 5abd
00000190: a6a0 c8bd e768 04be 844f f5bd 3511 c1bd
000001a0: ae5a b43e e3fc 58be eeed 19be 9c34 793c
000001b0: ce75 81be af8e 53bd f1db f13d 5f1a 273d
000001c0: 584e fc3d dd25 84bd 610d 253d f6a6 6b3c
000001d0: 1cfe 833e 3168 863e 9c5b 6abe 228a 33be
000001e0: f912 2fbd 7f6a a33d 1c78 aabd 36f0 22bd
000001f0: 14ed c5be b811 fb3d 9ec8 593c bc11 61be
00000200: fac1 0a3c 39b7 ccbc 5255 16be 22c4 bf3c
00000210: df1f 083e c26c f33a 1e5a c2bd c3b6 07bb
00000220: 39d6 20be d692 31be 90e1 493e 10d1 52bd
00000230: 18bf 45bc 5b5b 113e b77b fb3c 99f7 02bd
00000240: eff2 25be 80e3 923e 8ea1 0abe 1656 95bd
00000250: 144c 9b3e fa25 793e 38e5 c5bd b5f8 9ebc
00000260: 974e 85bd 5860 bf3d b1ad 193c f9b7 533d
00000270: 1437 31bd 516e ffbd e600 43be 0265 a2bb
00000280: b5fe 533e 446e f93d 4d62 ba3d f1a4 6abe
00000290: 3385 87bd 840a 48b8 1a3d eb3d c99c 9d3d
000002a0: bd4d 06be 297a 01be cd60 31be 276d 11bc
000002b0: ab91 2a3d 3eb9 163a f5cd 9d3d aacc f53d
000002c0: 06d0 2b3e c08f 4bbd d9d2 b53d 1792 14be
000002d0: faad c7bd ad2e 7e3e e51d 03bd 9fd2 e9bc
000002e0: ff7f 8bbd c163 2fbe e21b c33d 36ca 62be
000002f0: e43e 00be 7aed df3d fb53 49be 00b5 a3bd
00000300: cc7c 833e a6d0 40bc bdb7 1c3e e358 1dbe
00000310: 6959 5a3e d137 3bbe 4b1b b1bd 0cae c8bd
00000320: 0b90 69be 8940 47bd 4546 de3d 6054 943c
00000330: 74f0 12be 6dda 343d 5f8a 2fbe f84b 8d3d
00000340: db49 923e 8c48 503d 7bed ebbd fd45 5abe
00000350: c84d a7bd 3cc5 2d3e c8b8 443e 3476 4cbd
00000360: c2dc 18be 07f3 0cbd 2021 34be 8013 4e3e
00000370: 1049 cbbd 0582 15be 838e 59bd 9fa1 2e3e
00000380: 972e 483e 2958 453e a7a0 08be 18df cdbd
00000390: 06b6 27be 81cc 12be 7cb0 353e 72c1 973c
000003a0: 60ce 5cbe ff49 6bbe e261 cf3d c252 0cbe
000003b0: da22 1ebe 81bd 213e 5253 b13d 2c48 543e
000003c0: 1499 6e3e f3a0 05be cde8 2a3e 7576 53be
000003d0: 1fdf e4bd e169 86bd 9a89 12be afb0 2ebe
000003e0: ff56 36be 791e 4b3e 1887 9f3c 0011 d8bd
000003f0: b960 1e3e 6a74 873e 9515 b7bd 08d8 bb3d

decoder_rnn.bias_ih_l0 f4 [192]
0.19760396 -0.17793518 0.22367938 -0.069556296 0.06813522 0.0674842 -0.009321828 -0.027396737
-0.06571797 0.051769216 0.07304944 0.13539642 0.014931174 0.12432444 0.103233375 -0.058410566
0.015664192 0.12420306 0.07295322 0.012015263 0.20899686 0.11884654 0.12237597 -0.069730744
-0.12454112 0.24925983 0.06837698 0.06301193 0.116655536 0.064973384 -0.022044657 0.0686761
0.08501884 0.13182577 0.10829143 0.095289834 0.014219977 0.15007554 0.003202072 0.091707766
0.30368713 -0.1042332 0.12167943 0.10299124 0.043548066 -0.042027205 0.01865398 0.12856804
-0.10486054 0.09285754 0.033789355 0.16634496 0.03245376 -0.08821125 0.04521437 -0.119078286
0.097812384 0.03965641 0.10329038 0.013324397 -0.038563635 0.13989802 0.036588244 -0.083959945
0.34912673 0.39865056 0.57108456 0.36219245 0.17269166 0.27321878 0.29101342 0.35321492
0.33414176 0.3398043 0.3683317 0.5033569 0.17707969 0.3248806 0.48680118 0.7508682
0.625847 0.18359703 0.35009986 0.45130822 0.39252144 0.22238901 0.46409944 0.2394741
0.242514 0.2706081 0.1389577 0.61667186 0.290316 0.45226166 0.23744114 0.19924878
0.30787432 0.66398865 0.4972692 0.36568555 0.20341113 0.2567458 0.3864963 0.31376663
0.44315267 0.037271637 0.5997958 0.44117928 0.43789583 0.32942697 0.4153707 0.32029006
0.29764223 0.45497867 0.1658882 0.32232568 0.20730974 0.30069336 0.42730045 0.23131935
0.26656616 0.4821243 0.59468025 0.22361329 0.4161858 0.3552499 0.47707942 0.1757238
0.057491973 0.02424143 0.02535768 0.07663526 0.030307118 0.06020969 -0.078216575 0.07133432
0.049919125 0.0057514156 0.07046926 0.06639615 -0.0036492827 0.057736102 0.102898985 0.06988335
-0.003513111 -0.0064442446 -0.11514468 -0.07581596 -0.028085863 0.10216927 -0.08663292 0.09895902
0.012370741 0.07081463 0.038869027 -0.088869244 -0.05790976 0.10154665 -0.10096137 -0.01173354
0.05039868 -0.005146293 0.06131184 0.0034149305 0.015164945 -0.0043150247 0.087641776 -0.052473433
0.025994208 0.09065214 -0.006189173 0.07857657 0.09600849 -0.05558808 -0.0014304111 0.0600998
-0.12116295 0.011616723 0.08518051 -0.053124495 -0.06600181 0.022339003 0.15950797 0.028110508
0.055053424 -0.017755164 -0.018618336 -0.032290675 -0.060203224 -0.10375581 -0.06832474 -0.053931054
00000000: b158 4a3e a434 36be 350c 653e 8873 8ebd
00000010: 7a8a 8b3d 2835 8a3d 95ba 18bc 1f6f e0bc
00000020: 2597 86bd f50b 543d f29a 953d 5ca5 0a3e
00000030: e2a1 743c d09d fe3d 056c d33d eb3f 6fbd
00000040: 3152 803c 2d5e fe3d 7f68 953d aadb 443c
00000050: 4603 563e d165 f33d 41a0 fa3d fece 8ebd
00000060: 6a0f ffbd f83d 7f3e 3b09 8c3d 660c 813d
00000070: 19e9 ee3d c410 853d ff96 b4bc 0ea6 8c3d
00000080: 5c1e ae3d 56fd 063e e6c7 dd3d 5127 c33d
00000090: e8fa 683c 67ad 193e dbd9 513b 48d1 bb3d
000000a0: e17c 9b3e 3778 d5bd 1133 f93d 12ed d23d
000000b0: 755f 323d b824 2cbd 3bd0 983c 57a7 033e
000000c0: 1fc1 d6bd 182c be3d b566 0a3d 5556 2a3e
000000d0: 3cee 043d 1aa8 b4bd b432 393d 51df f3bd
000000e0: dc51 c83d c36e 223d e889 d33d 924e 5a3c
000000f0: e7f4 1dbd 6d41 0f3e 8edd 153d 31f3 abbd
00000100: bdc0 b23e ed1b cc3e 9932 123f 4a71 b93e
00000110: 15d6 303e 55e3 8b3e b6ff 943e 96d8 b43e
00000120: a114 ab3e d4fa ad3e f995 bc3e ffdb 003f
00000130: 6154 353e c056 a63e 013e f93e e638 403f
00000140: 8237 203f dc00 3c3e 4a40 b33e df11 e73e
00000150: 92f8 c83e f2b9 633e 719e ed3e b338 753e
00000160: 9755 783e 258d 8a3e ed4a 0e3e 35de 1d3f
00000170: 4ca4 943e d78e e73e c523 733e df07 4c3e
00000180: b4a1 9d3e 29fb 293f 129a fe3e 233b bb3e
00000190: 024b 503e 2f74 833e d8e2 c53e 05a6 a03e
000001a0: e8e4 e23e 25aa 183d 388c 193f 40e2 e13e
000001b0: e233 e03e a7aa a83e 78ab d43e 0ffd a33e
000001c0: 9064 983e f7f2 e83e 99de 293e df07 a53e
000001d0: 0149 543e 7bf4 993e 20c7 da3e fbde 6c3e
000001e0: 5c7b 883e ffd8 f63e f73c 183f e2fa 643e
000001f0: 4e16 d53e 51e3 b53e c143 f43e f1f0 333e
00000200: b47c 6b3d f795 c63c e9ba cf3c f2f2 9c3d
00000210: a246 f83c 709e 763d 0330 a0bd ba17 923d
00000220: ff77 4c3d 5f76 bc3b 3052 903d b4fa 873d
00000230: ce28 6fbb b17c 6c3d b4bc d23d 001f 8f3d
00000240: 393c 66bb 3e2a d3bb f9d0 ebbd 6645 9bbd
00000250: 5314 e6bc 1f3e d13d 9a6c b1bd 07ab ca3d
00000260: a6ae 4a3c 4307 913d 2135 1f3d 1401 b6bd
00000270: c932 6dbd b1f7 cf3d d6c4 cebd 093e 40bc
00000280: d96e 4e3d 3ca2 a8bb 2022 7b3d 07cd 5f3b
00000290: 6476 783c 0d65 8dbb 887d b33d 62ee 56bd
000002a0: cef1 d43c d4a7 b93d 8cce cabb c1ec a03d
000002b0: 19a0 c43d 54b0 63bd a27c bbba 352b 763d
000002c0: 4824 f8bd 1154 3e3c 1f73 ae3d 1299 59bd
000002d0: f52b 87bd 4900 b73c 0f56 233e 0248 e63c
000002e0: b37f 613d 4773 91bc 7b85 98bc 3a43 04bd
000002f0: a897 76bd ed7d d4bd d7ed 8bbd cfe6 5cbd

decoder_rnn.bias_hh_l0 f4 [192]
0.047806405 -0.20743011 0.09979271 -0.06141132 -0.017743636 0.061686672 0.18896857 -0.02284172
-0.10928825 0.1235295 0.09032536 0.119962126 0.19221668 0.08042474 0.062582485 0.14663331
0.08258832 -0.08219146 0.13739878 0.09692306 0.28832206 -0.0001658633 0.029085817 0.0829096
-0.058451265 0.13385488 0.1311529 0.00969448 -0.03300157 -0.025122248 0.09377515 0.01139905
0.00815794 0.10194653 0.046511415 0.08278856 0.04931593 0.11897442 0.034881677 0.011525488
0.29036108 -0.03195719 0.0053464356 0.059497956 -0.0054110424 0.032277107 0.06902618 0.040215086
-0.15021355 -0.12834752 -0.03980629 0.12323448 0.11905168 -0.105294555 -0.008942597 0.0056331195
0.04135227 -0.008013914 -0.06079792 0.119125694 -0.15444693 0.033318818 0.023015007 -0.030744163
0.3178937 0.36254868 0.5866673 0.4121324 0.24053128 0.24356592 0.22952588 0.3568303
0.30531368 0.20941433 0.4789952 0.64375985 0.31721807 0.39530265 0.42571372 0.57920897
0.5790758 0.3763093 0.27721214 0.46932992 0.3868962 0.22239478 0.4899014 0.21673757
0.18384193 0.31855434 0.3242357 0.4302597 0.40205383 0.26804 0.20445104 0.2180852
0.38405505 0.56760097 0.6188808 0.26683608 0.27798158 0.32354975 0.41966993 0.42261437
0.35370165 0.19044586 0.53272176 0.37629995 0.2286394 0.32688725 0.32921165 0.3837817
0.13454118 0.3999667 0.33121613 0.17326926 0.20285884 0.2046548 0.47580338 0.23525567
0.31720707 0.4889451 0.5919739 0.3531742 0.43410313 0.39045954 0.31606573 0.094835125
0.034212753 0.017574795 -0.14473827 0.020512741 0.119742185 -0.11606485 0.110751174 -0.09666544
-0.06289737 -0.03650523 -0.08462968 -0.12870954 -0.017781425 -0.01845818 0.07282641 0.028228182
0.045306243 0.10654602 -0.12332924 0.11354027 0.019184763 -0.013523456 0.061019786 -0.0735453
-0.020899262 -0.0043785153 0.09494687 0.021176884 -0.056234196 -0.05298006 0.00031071695 0.01754939
0.013223839 0.03722583 -0.12061507 -0.04841736 -0.08926212 0.029112287 -0.04920896 0.06748293
0.09109444 0.0074782064 -0.055046663 0.09093973 -0.0353131 -0.06064365 0.08430129 -0.0073022735
-0.02702482 -0.014760926 0.014325822 0.09501188 -0.085333146 -0.09897155 0.0148436045 0.116938636
-0.08359714 -0.006171853 -0.02514934 -0.08807472 0.03769509 0.04908951 -0.03481705 -0.015177057
00000000: a6d0 433d 8f68 54be 1f60 cc3d 708a 7bbd
00000010: 1a5b 91bc 2aab 7c3d fa80 413e 8f1e bbbc
00000020: 85d2 dfbd 09fd fc3d 81fc b83d b4ae f53d
00000030: 73d4 443e bab5 a43d 3f2b 803d 0b27 163e
00000040: 1124 a93d ff53 a8bd 44b2 0c3e 997f c63d
00000050: f39e 933e 97eb 2db9 6145 ee3c 82cc a93d
00000060: 986a 6fbd 4111 093e f24c 063e 99d5 1e3c
00000070: a72c 07bd 2ccd cdbc 300d c03d 15c3 3a3c
00000080: e1a8 053c 58c9 d03d c182 3e3d 0c8d a93d
00000090: 80ff 493d dca8 f33d 17e0 0e3d 67d5 3c3c
000000a0: 35aa 943e 8be5 02bd 2731 af3b 21b4 733d
000000b0: 1d4f b1bb 0035 043d 995d 8d3d 93b8 243d
000000c0: 95d1 19be 886d 03be ec0b 23bd 5c62 fc3d
000000d0: 5ed1 f33d aca4 d7bd f883 12bc 0896 b83b
000000e0: ff60 293d cb4c 03bc 3d07 79bd 2cf8 f33d
000000f0: 5627 1ebe 5079 083d f889 bc3c 2fdb fbbc
00000100: f7c2 a23e fb9f b93e d42f 163f 0503 d33e
00000110: d54d 763e 5869 793e d508 6b3e 76b2 b63e
00000120: 1352 9c3e b670 563e dc3e f53e 72cd 243f
00000130: 686a a23e 1c65 ca3e 26f7 d93e 0a47 143f
00000140: 503e 143f 9dab c03e c0ee 8d3e 034c f03e
00000150: 4217 c63e 75bb 633e 5bd4 fa3e 74f0 5d3e
00000160: 0f41 3c3e 8e19 a33e 3902 a63e 004b dc3e
00000170: 00da cd3e 8a3c 893e 9d5b 513e ba51 5f3e
00000180: dda2 c43e 4c4e 113f f96e 1e3f bd9e 883e
00000190: 9a53 8e3e 50a8 a53e fade d63e e960 d83e
000001a0: 6218 b53e 3d04 433e 7460 083f 63aa c03e
000001b0: 7220 6a3e c45d a73e 6e8e a83e 097f c43e
000001c0: 2ac5 093e 6fc8 cc3e 2995 a93e 7f6d 313e
000001d0: 3aba 4f3e 0791 513e 809c f33e dde6 703e
000001e0: f768 a23e 0357 fa3e 9a8b 173f 40d3 b43e
000001f0: c442 de3e 50ea c73e 5ed3 a13e eb38 c23d
00000200: ac22 0c3d 04f9 8f3c 4536 14be 560a a83c
00000210: 643b f53d 68b3 edbd 83d1 e23d 88f8 c5bd
00000220: 56d0 80bd 8286 15bd 5352 adbd 6fcc 03be
00000230: 5aaa 91bc 9c35 97bc 0326 953d ca3e e73c
00000240: 0a93 393d cd34 da3d 0a94 fcbd cd87 e83d
00000250: 5d29 9d3c 7c91 5dbc e2ef 793d eb9e 96bd
00000260: ee34 abbc a679 8fbb 8173 c23d 257b ad3c
00000270: d455 66bd 9f01 59bd b9e7 a239 bdc3 8f3c
00000280: cda8 583c 1d7a 183d 0905 f7bd 4851 46bd
00000290: 0fcf b6bd e47c ee3c 568f 49bd 7e34 8a3d
000002a0: b98f ba3d be0b f53b 9c78 61bd 9c3e ba3d
000002b0: 78a4 10bd 7a65 78bd 28a6 ac3d e947 efbb
000002c0: 2863 ddbc d0d7 71bc dab6 6a3c 9795 c23d
000002d0: 25c3 aebd 99b1 cabd 9732 733c 867d ef3d
000002e0: fa34 abbd 413d cabb fd05 cebc 8560 b4bd
000002f0: 2b66 1a3d 1512 493d 539c 0ebd 31a9 78bc
