Rudi/checkpoints/autoencoder_model_epoch_5.pth (torch, 682100 bytes, 10 tensors)

encoder_rnn.weight_ih_l0 f4 [384, 40]
-0.033814766 -0.027877377 0.0612191 -0.023891846 -0.057800572 0.06882521 0.15102586 0.072288685
0.10920001 0.043478753 0.044406243 0.054787483 0.10034962 -0.009111202 0.055933848 0.052276365
0.0077728317 -0.08265418 0.07323763 -0.022060284 0.11294294 0.024900546 0.03699225 0.07486631
0.086720616 -0.046625864 0.08976854 -0.031048307 -0.006332706 0.08406643 -0.010821422 -0.03142692
0.09744004 -0.07006697 0.09324377 0.04379401 -0.02720811 0.0893996 -0.06637535 0.08214484
-0.063192755 0.06824102 0.12585391 -0.021202512 0.0713733 0.079404876 -0.13495643 0.02826483
-0.053882807 0.058906507 -0.03432745 0.03518794 0.0626506 0.08118893 0.052655004 -0.006568096
0.025501588 0.059597936 0.033780374 0.012292756 0.017908394 -0.058252003 -0.07517696 -0.06125107
0.07896729 0.052311335 -0.09745662 -0.03514955 -0.041546073 0.044787094 -0.023424422 0.056101833
0.052041423 -0.047853876 -0.07093565 0.1078384 0.03777175 0.010175467 -0.08959858 0.056899194
0.0041805874 0.15402567 -0.009277842 -0.0019869697 0.09881154 -0.024423636 -0.019654028 -0.047740705
-0.056522038 -0.0033654454 -0.06215087 0.088719994 -0.039202154 -0.04190312 0.024540594 0.016512772
0.023195636 0.04645357 0.013254085 -0.025793731 -0.0864425 -0.01738126 -0.047762368 0.0074305567
-0.15569384 0.056649856 -0.086861305 0.09571275 -0.12453764 -0.04351701 0.005885448 -0.07623096
-0.014801046 0.041827224 0.08360142 0.07341945 -0.09155446 -0.0016390112 -0.08857391 -0.053061746
0.09263408 0.06887365 -0.010651085 -0.04765173 0.06682914 -0.009761226 -0.09136231 0.008010968
-0.07595499 0.10823655 -0.01764925 0.042715143 -0.0128033 -0.11594453 -0.04218684 -0.08986627
-0.063398905 -0.09115907 -0.040499765 -0.05843041 -0.07442902 -0.022690637 -0.03003078 0.03777254
-0.039376985 0.046958566 0.033494137 -0.09616033 -0.043552935 -0.045700572 0.06528969 0.030294577
-0.0180627 -0.068897724 -0.062184084 0.04170332 0.048333153 -0.04508841 -0.019820344 -0.07562458
0.07800539 -0.068159476 0.026327876 0.013564014 -0.11506931 -0.08455336 -0.11244853 0.044839077
-0.018943923 0.024610443 0.06590145 0.0016230841 0.08532175 0.112640075 -0.0018320429 0.0037910254
-0.011317017 0.116861075 0.08994645 0.034553505 0.070095025 -0.037125386 0.057408262 0.008946682
-0.044088956 0.03865353 0.07183792 -0.06831664 -0.034162443 -0.098876625 -0.06505926 0.03445096
0.01636578 -0.031572476 -0.010566505 -0.059401695 -0.0057354257 -0.11020398 -0.1193151 0.038628303
-0.03471278 0.034899376 0.094932966 0.020216996 -0.0501263 0.091707006 -0.09020314 0.10495047
-0.009359963 -0.046597674 0.09478413 -0.07154155 0.025693864 -0.04371252 0.036295373 -0.051858176
0.006990488 -0.019051166 0.008124384 -0.09465499 0.03614936 0.036930736 0.052900255 -0.007257737
-0.03771396 -2.403694e-05 -0.05135722 -0.076155365 0.075693704 0.01896484 0.035242252 0.0059520463
0.09039311 -0.10991393 0.06426506 -0.11858922 0.014323882 -0.068496495 0.091224454 0.06396863
-0.0076809586 0.1359279 0.0463912 -0.0710936 0.0038616203 0.046984933 0.09354094 -0.043172996
0.0085850535 0.088810466 -0.09369651 -0.03534771 0.047911115 0.04216087 0.02173834 0.030550933
00000000: 5a81 0abd 195f e4bc e1c0 7a3d d5b8 c3bc
00000010: 4bc0 6cbd 3bf4 8c3d 86a6 1a3e 170c 943d
00000020: 41a4 df3d c716 323d 52e3 353d d768 603d
00000030: 1a84 cd3d 2747 15bc e41a 653d be1f 563d
00000040: 3db3 fe3b 9846 a9bd 9cfd 953d c5b7 b4bc
00000050: a14e e73d 3bfc cb3c 2f85 173d 8253 993d
00000060: 949a b13d c3fa 3ebd 91d8 b73d 0559 febc
00000070: 9782 cfbb 052b ac3d 554c 31bc 84b9 00bd
00000080: a58e c73d 467f 8fbd 97f6 be3d 5961 333d
00000090: 8be3 debc 2317 b73d cdef 87bd 8e3b a83d
000000a0: 346b 81bd f3c1 8b3d d9df 003e e4b0 adbc
000000b0: 2a2c 923d 069f a23d 0532 0abe a58b e73c
000000c0: 38b4 5cbd f347 713d f19a 0cbd 3b21 103d
000000d0: f54e 803d 6246 a63d c6ac 573d 2f39 d7bb
000000e0: b5e8 d03c f71c 743d 4a5d 0a3d 8e67 493c
000000f0: a0b4 923c a799 6ebd 61f6 99bd 67e2 7abd
00000100: 9ab9 a13d 6944 563d 5697 c7bd f9f8 0fbd
00000110: 372c 2abd ac72 373d 93e4 bfbc 09cb 653d
00000120: 6329 553d 6d02 44bd b646 91bd 61da dc3d
00000130: 8db6 1a3d 00b7 263c 767f b7bd 210f 693d
00000140: 4ffd 883b e8b8 1d3e 1702 18bc d237 02bb
00000150: b45d ca3d 1414 c8bc 7c01 a1bc c28b 43bd
00000160: a783 67bd ce8e 5cbb e991 7ebd d4b2 b53d
00000170: 7092 20bd 9ba2 2bbd 5b09 c93c cb45 873c
00000180: c604 be3c 1946 3e3d a927 593c 604d d3bc
00000190: c408 b1bd 2563 8ebc 79a2 43bd 077c f33b
000001a0: 356e 1fbe ae09 683d 57e4 b1bd 0c05 c43d
000001b0: 970d ffbd e43e 32bd b7da c03b fa1e 9cbd
000001c0: 1680 72bc 0653 2b3d 3937 ab3d f05c 963d
000001d0: e880 bbbd 17d4 d6ba 3d66 b5bd 4657 59bd
000001e0: f0b6 bd3d a10d 8d3d e381 2ebc 762e 43bd
000001f0: b7dd 883d 8ded 1fbc 2a1c bbbd 6f40 033c
00000200: 4a8e 9bbd 20ab dd3d 2995 90bc 13f6 2e3d
00000210: efc4 51bc 5374 edbd 1ccc 2cbd cf0b b8bd
00000220: 49d7 81bd 9bb1 babd 15e3 25bd ba54 6fbd
00000230: 3e6e 98bd b7e1 b9bc 1c03 f6bc 61b7 1a3d
00000240: c349 21bd a057 403d 2631 093d b5ef c4bd
00000250: 9064 32bd 8630 3bbd 9ab6 853d 552c f83c
00000260: 3af8 93bc 401a 8dbd bdb4 7ebd 1ad1 2a3d
00000270: fcf8 453d a0ae 38bd 465e a2bc 0fe1 9abd
00000280: 4ac1 9f3d 3297 8bbd 8fad d73c 993b 5e3c
00000290: 75a9 ebbd 502a adbd 6a4b e6bd 2ea9 373d
000002a0: 4930 9bbc d79b c93c 57f7 863d aabd d43a
000002b0: 2bbd ae3d d7af e63d 2921 f0ba da72 783b
000002c0: 026b 39bc dc54 ef3d d835 b83d fa87 0d3d
000002d0: fb8d 8f3d ca10 18bd ed24 6b3d 1b95 123c
000002e0: 9f96 34bd 2a53 1e3d c21f 933d 98e9 8bbd
000002f0: ebed 0bbd d47f cabd ca3d 85bd 731c 0d3d
00000300: 8711 863c 2452 01bd 221f 2dbc 314f 73bd
00000310: 3df0 bbbb a0b2 e1bd 7a5b f4bd b638 1e3d
00000320: fd2e 0ebd a6f2 0e3d 376c c23d 1d9e a53c
00000330: 3c51 4dbd e2d0 bb3d 6dbc b8bd 46f0 d63d
00000340: 885a 19bc 34dd 3ebd 2f1e c23d 6084 92bd
00000350: f07b d23c e60b 33bd 75aa 143d 3d69 54bd
00000360: 7710 e53b 3111 9cbc 231c 053c 7ada c1bd
00000370: 5a11 143d af44 173d f0ad 583d 50d2 edbb
00000380: f479 1abd f0a2 c9b7 f35b 52bd 58f7 9bbd
00000390: 4d05 9b3d 275c 9b3c 2e5a 103d 6209 c33b
000003a0: 0620 b93d 8e1a e1bd 669d 833d e8de f2bd
000003b0: b7ae 6a3c e447 8cbd e3d3 ba3d fc01 833d
000003c0: 8db0 fbbb af30 0b3e b304 3e3d 8599 91bd
000003d0: 3d13 7d3b 4673 403d 6492 bf3d 2bd6 30bd
000003e0: 53a8 0c3c 43e2 b53d f5e3 bfbd c3c8 10bd
000003f0: 723e 443d e0b0 2c3d 9a14 b23c f345 fa3c

encoder_rnn.weight_hh_l0 f4 [384, 128]
-0.055787105 -0.10910009 0.01688582 -0.02965613 0.044411935 0.060743924 -0.075910546 0.028319804
-0.030582229 0.06216762 0.0687323 0.09294612 -0.025095612 0.10877689 -0.03617864 0.057493225
0.033102017 -0.058474094 -0.07644446 -0.017146658 -0.036935773 0.023831533 0.03234593 -0.07320677
-0.07371661 -0.039970476 -0.010765221 -0.048094973 -0.06485659 0.055657614 0.011307749 0.06090171
0.11448948 -0.016733387 -0.04886768 -0.02613617 0.016914986 0.07870934 -0.08079187 -0.11034305
0.009129747 -0.118071295 -0.099027924 0.065446556 0.059805 0.039158598 0.035677638 -0.011537875
0.06842645 0.08004647 0.031792387 -0.0048217396 0.0776433 0.07204586 -0.015223299 -0.07056647
-0.02011577 -0.049830187 -0.007957793 0.0621243 0.014589514 -0.08575759 -0.0063126213 0.098821744
-0.03262585 -0.0072395457 0.064714454 -0.03769612 0.08371381 0.102656625 0.051466994 -0.07725633
0.10602095 -0.014962909 0.091926254 0.0009708963 -0.011505982 0.04680487 0.051587798 -0.008266928
-0.043522574 0.081318036 -0.023753759 0.047194894 0.033037033 -0.11496626 0.11092245 0.056014854
-0.00072592834 0.07790123 -0.016167296 0.09032194 0.0023376755 0.048485927 -0.064231806 0.12754391
0.08124089 -0.07291791 -0.0419054 0.08947067 -0.06077937 -0.06741531 -0.0108974185 -0.018643577
-0.10076108 0.120477304 -0.05220926 0.02125549 0.0064769434 -0.10658949 -0.12866618 0.066022635
0.03480785 0.043929666 -0.042167705 0.012798587 -0.12961142 0.035837762 -0.022034397 -0.006166325
0.0821352 0.005324656 -0.03642749 0.041670173 -0.05164461 -0.049780022 -0.07406347 -0.038564917
0.019015182 -0.023021663 -0.02366983 0.062043436 0.001076874 0.10142293 -0.07072268 0.010245917
-0.023415588 0.018938502 -0.0118385535 -0.030914549 0.026964555 -0.035917044 0.0832873 -0.037221946
-0.046867725 -0.06639285 -0.05066767 0.15981302 -0.028847056 -0.07891487 -0.032541495 0.0066038067
0.04662548 0.0078693 -0.092652716 0.005893851 -0.08089794 -0.062003203 0.05975219 -0.018757382
0.05348792 -0.03315113 -0.05820547 0.0068306355 -0.01364881 0.020534545 0.11025924 0.08949415
0.02094078 -0.017047774 0.021462658 -0.09739229 -0.05127516 -0.037029475 -0.040212814 0.107258335
0.095840715 0.015272884 0.002361883 0.023818929 -0.13864852 0.10423874 0.07347272 -0.03158877
0.09442687 -0.08071791 -0.067242205 -0.060981117 -0.038077272 -0.037992604 -0.038773954 0.017756185
0.07158364 -0.11118327 0.015950767 -0.11182999 0.06791942 0.016738888 0.050351374 0.022422025
0.13237482 -0.009440523 0.051733576 -0.059727956 -0.0142362295 0.057520792 0.048402797 0.04534054
-0.08669387 -0.09427059 0.02231217 0.037987646 0.05700168 -0.06899599 0.054911427 -0.03290613
-0.06926508 -0.011553773 -0.0556224 -0.09327257 -0.11154458 -0.059262093 0.091870144 -0.041656777
0.050662335 -0.11426252 0.02812251 -0.09124278 0.07709335 0.04373705 -0.02797789 -0.009584112
0.13626148 0.0029741216 -0.0621443 0.06416613 0.07259664 0.123126544 0.06533122 0.0753581
0.056982964 0.06999173 0.030058462 -0.0092420215 -0.015861744 -0.11630455 -0.006982629 -0.064069435
-0.033782873 0.09566145 0.07272639 0.06894805 -0.13084123 0.060641456 0.022939486 0.10833247
00000000: 0581 64bd de6f dfbd 2254 8a3c 6af1 f2bc
00000010: 4ae9 353d 9fce 783d fd76 9bbd effe e73c
00000020: 9587 fabc 79a3 7e3d 85c3 8c3d 895a be3d
00000030: 5095 cdbc 6bc6 de3d 0e30 14bd 047e 6b3d
00000040: fb95 073d 8882 6fbd ea8e 9cbd 2677 8cbc
00000050: f749 17bd 593a c33c 2a7d 043d 6eed 95bd
00000060: bcf8 96bd 15b8 23bd 9c60 30bc 3cff 44bd
00000070: 88d3 84bd 3df9 633d 2344 393c 1274 793d
00000080: 7679 ea3d 7514 89bc 7a29 48bd 851b d6bc
00000090: 4c91 8a3c 5d32 a13d 3576 a5bd 89fb e1bd
000000a0: ef94 153c 5dcf f1bd 27cf cabd d808 863d
000000b0: 16f6 743d c464 203d b722 123d 5b09 3dbc
000000c0: 2b23 8c3d 67ef a33d bc38 023d afff 9dbb
000000d0: 7303 9f3d c88c 933d 256b 79bc 2785 90bd
000000e0: d4c9 a4bc bd1a 4cbd 6761 02bc 0d76 7e3d
000000f0: db08 6f3c ada1 afbd 1bda cebb 0e63 ca3d
00000100: afa2 05bd b639 edbb 0389 843d 3f67 1abd
00000110: 2572 ab3d a33d d23d 0ecf 523d 9138 9ebd
00000120: 8321 d93d fd26 75bc d543 bc3d bf83 7e3a
00000130: 9683 3cbc 77b6 3f3d ba4d 533d 0272 07bc
00000140: ba44 32bd 128a a63d 3e97 c2bc 6f4f 413d
00000150: d751 073d 6e73 ebbd 4f2b e33d d56f 653d
00000160: 3a4c 3eba ae8a 9f3d 4771 84bc b6fa b83d
00000170: b033 193b 2e99 463d f78b 83bd df9a 023e
00000180: a061 a63d fc55 95bd ffa4 2bbd 663c b73d
00000190: caf3 78bd 0a11 8abd 168b 32bc 6aba 98bc
000001a0: d35b cebd cebc f63d 61d9 55bd fe1f ae3c
000001b0: 8a3c d43b 974b dabd 11c1 03be e036 873d
000001c0: ad92 0e3d 98ef 333d 0bb8 2cbd 2ab1 513c
000001d0: dbb8 04be 9eca 123d 7b81 b4bc e20e cabb
000001e0: 8036 a83d 747a ae3b fe34 15bd 58ae 2a3d
000001f0: 4c89 53bd 23e6 4bbd 97ae 97bd 3ff6 1dbd
00000200: bac5 9b3c ed97 bcbc 3be7 c1bc 4221 7e3d
00000210: e525 8d3a d3b6 cf3d 0dd7 90bd 7ede 273c
00000220: 0cd2 bfbc eb24 9b3c 7ef6 41bc 8240 fdbc
00000230: c5e4 dc3c c01d 13bd 8892 aa3d 0a76 18bd
00000240: 5ff8 3fbd f9f8 87bd e788 4fbd 06a6 233e
00000250: a950 ecbc 1f9e a1bd 3b4a 05bd bf64 d83b
00000260: 5cfa 3e3d 3dee 003c b5c0 bdbd 3521 c13b
00000270: d2ad a5bd 12f7 7dbd b6be 743d 15a9 99bc
00000280: 2616 5b3d 7bc9 07bd dc68 6ebd 86d3 df3b
00000290: 429f 5fbc 1038 a83c 99cf e13d b548 b73d
000002a0: 008c ab3c c6a7 8bbc 75d2 af3c 9c75 c7bd
000002b0: e705 52bd 38ac 17bd 31b6 24bd 42aa db3d
000002c0: 2348 c43d 1e3b 7a3c d2c9 1a3b ea1f c33c
000002d0: e1f9 0dbe 1f7b d53d de78 963d 3a63 01bd
000002e0: e062 c13d 6e4f a5bd 48b6 89bd 56c7 79bd
000002f0: eaf6 1bbd 229e 1bbd 70d1 1ebd 6b75 913c
00000300: 729a 923d 0eb4 e3bd 2fab 823c 1f07 e5bd
00000310: 5619 8b3d fe1f 893c 3e3d 4e3d 65ae b73c
00000320: 448d 073e 6cac 1abc 96e6 533d 4da5 74bd
00000330: 133f 69bc ec9a 6b3d 0342 463d 01b7 393d
00000340: 8e8c b1bd f010 c1bd 03c8 b63c ef98 1b3d
00000350: 987a 693d c54d 8dbd ceea 603d 94c8 06bd
00000360: dada 8dbd 094c 3dbc 50d4 63bd b005 bfbd
00000370: 7c71 e4bd cfbc 72bd 6a26 bc3d 4ca0 2abd
00000380: 4f83 4f3d 7802 eabd 2e61 e63c 7fdd babd
00000390: 1ee3 9d3d 9f25 333d e331 e5bc ae06 1dbc
000003a0: 2188 0b3e 7be9 423b 068b 7ebd 8869 833d
000003b0: 8cad 943d c529 fc3d 60cc 853d 5955 9a3d
000003c0: f866 693d d357 8f3d 2a3d f63c d96b 17bc
000003d0: 7df0 81bc 1431 eebd 8ace e4bb d636 83bd
000003e0: e95f 0abd 26ea c33d 93f1 943d a334 8d3d
000003f0: 3efb 05be 2d63 783d 97eb bb3c 6add dd3d

encoder_rnn.bias_ih_l0 f4 [384]
-0.008764387 0.06187786 0.10502018 -0.058415044 -0.071300104 0.017731424 -0.07299242 0.092760175
-0.05861961 -0.015697805 0.08425012 0.055319946 -0.08517574 -0.02055155 -0.0013171289 -0.0053182547
0.0182715 -0.011442103 -0.048297554 -0.0066103237 0.10901044 -0.054423597 -0.079314075 -0.06094405
0.05081997 0.06599443 0.039540622 -0.0761207 0.053150542 0.005389898 -0.03029822 -0.07341048
0.07463659 0.031956803 -0.078694224 -0.051172476 -0.09127195 0.0912392 -0.043812763 0.082867496
0.09699024 -0.011761608 0.09755796 -0.06442355 0.09600272 0.13048303 0.08186206 -0.011141911
0.1366023 0.027080389 -0.03604533 0.12575102 -0.13683271 -0.053044867 0.029015478 -0.059785396
0.0022188018 0.12649396 -0.006191772 -0.064366445 -0.025597945 -0.03414486 0.108252965 -0.0063384757
0.07100837 -0.058906212 -0.01289857 0.031830464 0.086723566 -0.07069668 0.04281104 -0.00024268494
-0.09348507 0.018415023 0.036340028 0.0017761908 0.026860198 0.08190682 -0.024954863 -0.066536166
0.08362221 0.021404125 0.102229774 -0.0035148114 -0.018554352 0.0046853945 0.03570402 0.088173494
-0.031451717 -0.04504012 0.019604351 0.10792422 -0.08517506 -0.018244304 -0.008579323 -0.086688645
0.058361307 -0.072312206 -0.006978375 0.04709401 0.09144338 0.021958366 -0.0085655395 0.008168827
-0.047667943 -0.009663818 0.0021111586 -0.08644572 0.036562365 0.13220379 0.011294614 0.083943196
0.025447277 -0.07448872 -0.10465615 -0.056919172 0.058794178 0.0020239344 -0.027437206 -0.02197345
-0.0058020856 0.025950987 -0.1032513 0.015945522 0.0017379421 0.061209977 -0.010276166 -0.05128138
-0.037260935 0.014819114 -0.020815313 0.09649161 0.023406764 0.033031046 0.010270262 -0.025432704
0.034225266 0.04335763 -0.05589526 0.0049315942 0.075889565 0.04656344 0.041140106 -0.111692555
0.006388899 0.089439444 -0.024356259 0.08086342 0.10305002 -0.053743854 -0.001502213 0.031331412
0.04669085 -0.079635136 -0.013881903 0.043779153 -0.042245094 -0.00012742753 -0.01408742 -0.002490029
-0.09787423 -0.062188827 0.096251726 0.08274916 -0.071453005 -0.059935994 0.09593487 0.022325404
0.0296712 -0.057187516 0.1491183 0.03874943 0.018295161 0.048965566 0.021390647 0.0025850646
-0.10110926 0.03500129 0.015692888 0.031464245 0.015637627 0.089754835 -0.031621523 -0.057820745
0.06720401 0.061409947 0.10004919 -0.11249659 -0.012330322 -0.103696264 0.0011560698 0.10048468
-0.039928712 -0.02341113 0.036604807 0.034560505 -0.090619855 0.0045221173 -0.01902101 -0.049468126
-0.006825855 0.04637728 -0.052274086 0.06846182 0.077189036 0.09671927 -0.052480776 -0.009931625
0.022485908 -0.05685271 0.005004419 -0.12660472 -0.035891134 -0.0749985 0.035705082 -0.1088448
0.019974843 -0.07157451 -0.017335469 0.06782912 -0.049240038 0.08811637 -0.08205904 0.06272277
-0.0666147 0.04998988 -0.11581128 0.024082817 -0.011757483 0.043403495 -0.089835376 -0.0019368138
-0.033335548 -0.07834399 -0.013677126 -0.055645358 -0.026802028 0.08852237 0.02991221 0.064126246
0.0032540918 0.01807129 0.0221089 0.082745716 -0.020135786 0.070146985 -0.07476336 0.004074366
-0.030517897 0.07580697 0.03542453 -0.06384421 0.068086535 -0.032941714 -0.040339988 0.008875656
00000000: 8198 0fbc a473 7d3d d214 d73d 9d44 6fbd
00000010: ca05 92bd 7e41 913c 0d7d 95bd 0cf9 bd3d
00000020: 1e1b 70bd af98 80bc 548b ac3d 2b97 623d
00000030: 9e70 aebd b95b a8bc 83a3 acba c144 aebb
00000040: 1dae 953c a977 3bbc a8d3 45bd 6a9b d8bb
00000050: de40 df3d 47eb 5ebd 6b6f a2bd 78a0 79bd
00000060: 9a28 503d 1628 873d 59f5 213d 2be5 9bbd
00000070: 62b4 593d be9d b03b f933 f8bc 3c58 96bd
00000080: 12db 983d 23e5 023d 702a a1bd 3b9a 51bd
00000090: caec babd 9edb ba3d 0375 33bd 6fb6 a93d
000000a0: d2a2 c63d c2b3 40bc 78cc c73d 7ff0 83bd
000000b0: 139d c43d 589d 053e 4ca7 a73d 908c 36bc
000000c0: 79e1 0b3e b1d7 dd3c 45a4 13bd e0c4 003e
000000d0: e01d 0cbe 9345 59bd deb1 ed3c 88e1 74bd
000000e0: 5169 113b a287 013e 59e4 cabb 8ed2 83bd
000000f0: c8b2 d1bc 7bdb 0bbd bbb3 dd3d fdb2 cfbb
00000100: d66c 913d a447 71bd 8654 53bc a960 023d
00000110: 209c b13d 6cc9 90bd a15a 2f3d 3e79 7eb9
00000120: 1a75 bfbd 1adb 963c 48d9 143d 13cf e83a
00000130: eb09 dc3c c3be a73d 246e ccbc 1d44 88bd
00000140: 1f42 ab3d b457 af3c d85d d13d c058 66bb
00000150: 4cff 97bc f087 993b 613e 123d 4e94 b43d
00000160: 84d3 00bd fd7b 38bd 4e99 a03c 6007 dd3d
00000170: 4370 aebd 1475 95bc 4a90 0cbc d189 b1bd
00000180: 440c 6f3d 6c18 94bd daaa e4bb a6e5 403d
00000190: ab46 bb3d 08e2 b33c 7a56 0cbc 8bd6 053c
000001a0: 763f 43bd fe54 1ebc 5d5b 0a3b 740a b1bd
000001b0: 6bc2 153d 6e60 073e 0b0d 393c 69ea ab3d
000001c0: cf76 d03c 8b8d 98bd f755 d6bd 1424 69bd
000001d0: 2ad2 703d fca3 043b fec3 e0bc aa01 b4bc
000001e0: 6c1f bebb 2a97 d43c 6b75 d3bd 2fa0 823c
000001f0: a9cb e33a 50b7 7a3d 5d5d 28bc 6d0c 52bd
00000200: ec9e 18bd decb 723c e084 aabc 659d c53d
00000210: 8bbf bf3c 904b 073d 9a44 283c 3f58 d0bc
00000220: cb2f 0c3d c597 313d 6ef2 64bd 3699 a13b
00000230: fd6b 9b3d 4eb9 3e3d 8782 283d 11bf e4bd
00000240: f859 d13b 072c b73d c786 c7bc b99b a53d
00000250: e40b d33d 8422 5cbd e7e5 c4ba 5e55 003d
00000260: e83e 3f3d bf17 a3bd ec70 63bc c551 333d
00000270: 3109 2dbd 119e 05b9 ecce 66bc c12f 23bb
00000280: 4972 c8bd b6b9 7ebd a01f c53d 6478 a93d
00000290: f455 92bd 727f 75bd 8079 c43d c4e3 b63c
000002a0: 0411 f33c 753d 6abd 78b2 183e b9b7 1e3d
000002b0: bcdf 953c 1e90 483d 703b af3c 306a 293b
000002c0: 5f12 cfbd 835d 0f3d 5f8e 803c a7e0 003d
000002d0: 7b1a 803c 62d1 b73d 9285 01bd 72d5 6cbd
000002e0: 42a2 893d ff88 7b3d 97e6 cc3d 9d64 e6bd
000002f0: 1e05 4abc b55e d4bd 4487 973a e9ca cd3d
00000300: 4a8c 23bd b3c8 bfbc ecee 153d 518f 0d3d
00000310: e796 b9bd 452e 943b f3d1 9bbc 179f 4abd
00000320: 6cab dfbb 1af6 3d3d 5a1d 56bd b635 8c3d
00000330: 4915 9e3d c114 c63d 15f6 56bd 41b8 22bc
00000340: 5e34 b83c 63de 68bd 1cfc a33b aba4 01be
00000350: 9502 13bd d098 99bd 7e3f 123d 06ea debd
00000360: 48a2 a33c a895 92bd 1d03 8ebc fee9 8a3d
00000370: ecaf 49bd 5b76 b43d 920e a8bd cc74 803d
00000380: 4a6d 88bd 30c2 4c3d 772e edbd 5449 c53c
00000390: 75a2 40bc ddc7 313d 9cfb b7bd b0dc fdba
000003a0: db8a 08bd d072 a0bd 0616 60bc 63ec 63bd
000003b0: ed8f dbbc 374b b53d 730a f53c 9f54 833d
000003c0: 9a42 553b 3e0a 943c b91d b53c 9676 a93d
000003d0: cef3 a4bc 39a9 8f3d 881d 99bd 4282 853b
000003e0: ab00 fabc af40 9b3d 5019 113d c1c0 82bd
000003f0: f470 8b3d e4ed 06bd 8b3b 25bd 336b 113c

encoder_rnn.bias_hh_l0 f4 [384]
0.0070257536 -0.038078923 -0.04814422 -0.065425165 0.02396812 -0.02520644 0.05556571 -0.025677634
0.046999086 0.08729428 -0.027978465 0.050725274 0.034592632 -0.054829214 0.011696118 0.005587061
-0.025404617 -0.07380651 -0.004248731 0.059062168 -0.013859181 0.058555134 0.014798576 0.009756484
0.0106783165 0.047329567 0.055243205 -0.068552256 -0.02399427 0.110217705 0.05971252 -0.10614741
0.044357944 0.04424338 -0.068985686 -0.09793688 -0.053043414 -0.023404436 -0.010060028 0.055455282
0.012175866 -0.020522708 0.054732 0.016224772 0.018387683 -0.011760964 -0.04872209 -0.034432776
0.1133824 0.08806164 -0.09356177 0.07829995 -0.03454962 -0.080010846 0.06042609 -0.02028379
0.08685602 0.019767737 -0.042503104 0.08320358 0.105468325 -0.104614764 -0.03248457 -0.08295207
0.039902125 0.02843377 -0.028655022 0.063481726 0.080582544 -0.1530945 0.03969202 -0.062243365
-0.013914538 0.047871336 0.0664279 0.10030924 0.009630981 0.10874947 0.034053717 -0.08783213
0.014326014 0.075413145 0.033145953 0.06468785 -0.016300391 0.10039615 0.0040320377 0.0003320323
0.03699689 -0.07402575 0.0044917963 0.053295307 -0.101687565 -0.08674494 -0.08348648 -0.0839306
0.08128641 -0.021572446 0.06243812 0.058641147 0.023726597 -0.03521381 -0.037392527 -0.060339462
-0.12907748 -0.11236118 -0.15516843 -0.007280986 -0.062434096 0.066553876 -0.033725206 -0.021038728
0.0863793 0.053144854 0.031719964 -0.00573899 -0.08568084 0.058325462 -0.09087298 -0.011985053
-0.00037421804 -0.03453517 0.014454476 -0.065563165 0.012082489 0.041028343 0.0233764 -0.04152275
-0.0034134607 -0.08230084 0.05085786 0.006120306 -0.027626568 -0.047280688 -0.07259629 -0.06289641
-0.020706613 0.07757578 0.02759035 -0.00033350755 0.016666489 0.017850492 0.037769195 -0.00019997428
-0.025778418 0.008238566 0.13410234 -0.0018257883 -0.02873547 -0.02062408 -0.053689204 -0.06444518
0.050074026 -0.049296875 0.039561577 -0.058256563 0.002312778 -0.011509896 -0.011400668 0.028683197
-0.06424504 0.0031983873 0.006311684 -0.019716162 -0.0045496724 -0.012381689 -0.023668723 0.045900773
-0.093025304 0.033373736 0.020830851 -0.07463288 0.04647276 -0.08077531 0.013584167 0.093522996
-0.021878256 -0.04139999 0.062064707 -0.002606311 0.10521917 -0.06993427 -0.069975704 -0.0057844785
-0.0036982582 -0.039717432 0.039801296 0.0032176697 0.025087655 -0.088544674 0.015250946 -0.044873327
-0.1441842 0.064599 0.10204701 0.044666726 0.02936622 -0.066762775 -0.028102886 -0.073964156
-0.008597268 0.07874891 0.030385997 -0.04130024 0.07669792 -0.016170904 0.047277138 0.08342128
0.000610516 0.049481507 -0.040386304 -0.03347945 0.0866883 -0.07552618 0.040436354 -0.09288921
0.08700875 -0.082641505 0.027033279 0.097054735 0.028791508 0.056628488 -0.12078716 -0.018186066
-0.13673869 -0.10681906 -0.11137907 0.057907183 -0.030692816 0.011799129 -0.051666796 0.028799333
-0.034240775 0.04689733 -0.0447245 -0.04431405 0.0411892 0.12502882 0.03634172 -0.04807087
0.15291633 0.021214327 0.02819827 0.05671342 0.09094388 -0.05830242 0.03558136 0.026142722
0.042257737 0.04868015 -0.055268575 0.03374522 -0.06963201 -0.046664856 0.025822358 -0.08638035
00000000: 4b38 e63b a5f8 1bbd e032 45bd a1fd 85bd
00000010: ca58 c43c bc7d cebc df98 633d e759 d2bc
00000020: 1d82 403d 58c7 b23d 1833 e5bc 4ec5 4f3d
00000030: 01b1 0d3d 9994 60bd 13a1 3f3c aa13 b73b
00000040: 581d d0bc de27 97bd f038 8bbb 2ceb 713d
00000050: 9e11 63bc 82d7 6f3d ba75 723c a9d9 1f3c
00000060: 1bf4 2e3c a6dc 413d b346 623d 2065 8cbd
00000070: a28f c4bc d2b9 e13d 1e95 743d d063 d9bd
00000080: adb0 353d 8c38 353d 5e48 8dbd 2293 c8bd
00000090: 0d44 59bd a9ba bfbc d1d2 24bc 1425 633d
000000a0: 497d 473c 3d1f a8bc a92e 603d d0e9 843c
000000b0: c4a1 963c 0fb1 40bc d090 47bd 6209 0dbd
000000c0: 0835 e83d a959 b43d 509d bfbd b95b a03d
000000d0: e783 0dbd badc a3bd 5981 773d 312a a6bc
000000e0: 92e1 b13d f3ef a13c bc17 2ebd a366 aa3d
000000f0: c7ff d73d 4440 d6bd 8a0e 05bd c6e2 a9bd
00000100: 6970 233d f0ed e83c f0bd eabc b502 823d
00000110: 7608 a53d cec4 1cbe 1994 223d e6f2 7ebd
00000120: cdf9 63bc bc14 443d 5a0b 883d ee6e cd3d
00000130: 43cb 1d3c 0bb8 de3d e97b 0b3d 55e1 b3bd
00000140: a8b7 6a3c 3572 9a3d 0dc4 073d 107b 843d
00000150: 6688 85bc 7f9c cd3d 2f1f 843b 9f14 ae39
00000160: 0d8a 173d d09a 97bd eb2f 933b 2e4c 5a3d
00000170: 9241 d0bd 55a7 b1bd f6fa aabd cee3 abbd
00000180: 7d79 a63d b3b8 b0bc 1dbf 7f3d b331 703d
00000190: 485e c23c 5b3c 10bd e828 19bd 8326 77bd
000001a0: e32c 04be 9e1d e6bd 79e4 1ebe 5695 eebb
000001b0: e5ba 7fbd 664d 883d 7123 0abd 6959 acbc
000001c0: a1e7 b03d 6bae 593d cbec 013d 230e bcbb
000001d0: 7079 afbd aee6 6e3d 9d1b babd f55c 44bc
000001e0: b232 c4b9 c074 0dbd 77d2 6c3c fb45 86bd
000001f0: a2f5 453c 560d 283d dd7f bf3c c213 2abd
00000200: 5eb4 5fbb 588d a8bd 5550 503d d98c c83b
00000210: 1d51 e2bc 65a9 41bd 5dad 94bd d5cf 80bd
00000220: eaa0 a9bc 0de0 9e3d 2805 e23c a0da aeb9
00000230: 2988 883c 323b 923c dfb3 1a3d 30b0 51b9
00000240: 432d d3bc 0dfb 063c 2052 093e 4a4f efba
00000250: a666 ebbc d5f3 a8bc 36e9 5bbd d6fb 83bd
00000260: 6c1a 4d3d 85eb 49bd 520b 223d 6f9e 6ebd
00000270: fa91 173b 0194 3cbc dec9 3abc 06f9 ea3c
00000280: e792 83bd 099c 513b 3ed2 ce3b ca83 a1bc
00000290: 6b15 95bb 91dc 4abc e9e4 c1bc 7302 3c3d
000002a0: 0d84 bebd e6b2 083d 76a5 aa3c 20d9 98bd
000002b0: 395a 3e3d 876d a5bd 2090 5e3c fc88 bf3d
000002c0: 073a b3bc 0993 29bd 9037 7e3d a5ce 2abb
000002d0: 267d d73d b339 8fbd 6c4f 8fbd b98b bdbb
000002e0: 7a5e 72bb bfae 22bd af06 233d 8adf 523b
000002f0: a084 cd3c e956 b5bd 1bdf 793c 18cd 37bd
00000300: 06a5 13be 7b4c 843d 06fe d03d 75f4 363d
00000310: 6d91 f03c ecba 88bd 0638 e6bc 857a 97bd
00000320: 8edb 0cbc 1c47 a13d 0eec f83c 712a 29bd
00000330: cd13 9d3d d878 84bc aca5 413d c7d8 aa3d
00000340: 090b 203a 1fad 4a3d 1c6c 25bd bf21 09bd
00000350: a389 b13d 78ad 9abd 97a0 253d b33c bebd
00000360: a531 b23d f33f a9bd e574 dd3c a2c4 c63d
00000370: 2bdc eb3c 46f3 673d 425f f7bd f2fa 94bc
00000380: 3a05 0cbe f4c3 dabd b61a e4bd 1530 6d3d
00000390: 806f fbbc 2251 413c 90a0 53bd 94ec eb3c
000003a0: 0e40 0cbd 6a17 403d 0a31 37bd a682 35bd
000003b0: 02b6 283d 8e07 003e 0edb 143d f6e5 44bd
000003c0: 1996 1c3e abc9 ad3c 0f00 e73c 554c 683d
000003d0: c940 ba3d 85ce 6ebd c3bd 113d 4329 d63c
000003e0: 7316 2d3d d664 473d 4d61 62bd 6e38 0a3d
000003f0: 3a9b 8ebd a623 3fbd 6989 d33c 2ee8 b0bd

decoder_rnn.weight_ih_l0 f4 [384, 128]
0.024653051 0.025982372 -0.030415073 0.08057437 0.0033173468 -0.08207045 -0.06692255 0.08362358
-0.053361755 0.07990497 0.0793885 -0.011052337 -0.054245133 -0.040209778 0.04795819 0.05696802
-0.060327332 -0.01459852 -0.033221535 0.03479214 -0.036318686 -0.033305723 -0.062693976 0.039929662
-0.0637587 -0.07999337 0.08759682 -0.082374 -0.07704593 -0.07210241 0.063830286 -0.0043158163
-0.067088366 0.023911962 0.048948053 0.017920682 -0.019459253 -0.01280397 0.025423042 -0.07322526
-0.0518755 -0.05626777 0.07914919 -0.048667345 0.011819925 0.02185234 0.0003936621 -0.017266184
-0.030869015 0.051775653 0.06790425 0.08125272 0.046365134 -0.02169136 0.011479168 -0.020632526
0.01765108 0.07949293 -0.06990944 -0.0800755 -0.07885077 -0.046325117 0.040087573 0.010317717
-0.00018996638 0.029957747 0.019432446 -0.085129246 -0.01851626 0.0430054 -0.04743628 0.044710357
-0.013413487 0.046174854 -0.047606066 -0.059162784 0.004666573 0.053387348 -0.081064634 -0.0046333503
-0.080373205 0.060838006 -0.07121921 0.0564384 0.011578308 -0.037055835 0.08829046 -0.059910364
-0.06954725 0.03165913 0.022459213 0.016124247 0.034575462 -0.045725483 0.022095812 -0.013021521
0.06967053 0.08546915 -0.007803099 0.08155128 -0.025185386 0.08666948 -0.0015113439 -0.086045265
0.03474325 0.047214594 -0.069749534 -0.037109498 0.06756715 -0.02543245 -0.07680252 -0.03594888
0.002519391 -0.036599215 -0.08071435 0.02856863 -0.07246881 -0.015327555 -0.08821287 0.05815995
-0.040487558 -0.014846828 -0.04385074 0.0843613 0.009261116 -0.0059452765 -0.013612262 -0.061297394
0.011320485 -0.040976916 0.059150826 -0.009655548 -0.049713776 0.033195216 0.052544203 -0.027775088
0.004472476 0.0067217164 -0.06708311 0.0153994365 -0.061197918 -0.07943057 0.028678706 -0.075686276
-0.03645494 0.020376768 0.0036599163 0.08727201 -0.0652486 -0.050655864 -0.012030597 0.06880199
0.026091576 -0.002872571 -0.009682259 -0.033847556 0.00044473354 -0.014102989 0.008748685 -0.063148536
-0.08789187 -0.0029886225 -0.023049952 0.08200886 -0.053891413 -0.012528793 0.042651713 -0.020581275
-0.07032127 0.07022754 -0.0016046148 0.0846621 0.040607814 -0.035655845 -0.015366214 0.024284571
-0.027650576 -0.056320243 -0.03829158 0.06212734 -0.052456398 0.07764736 -0.053766828 -0.023049384
-0.06523879 -0.047134254 -0.07045332 0.078367546 -0.045236718 0.029914474 0.03331055 -0.05269068
-0.05708053 0.076692216 0.024244057 -0.010612723 0.065744005 0.06261482 0.06845878 -0.018027114
0.07494262 0.0020144612 -0.014872864 -0.040900975 -0.034785047 0.03218325 0.051771037 0.0727225
-0.034256663 0.024248967 0.010815303 0.041620117 0.00028876914 0.08021938 -0.00065887114 -0.015989207
0.028333778 0.0049927155 -0.0686863 -0.05184604 -0.075943656 -0.05395451 0.027420012 0.0035061752
-0.06395385 -0.047862265 -0.0015669882 0.021869441 0.026701966 -0.025678346 0.07137286 0.06666971
-0.08273274 0.03163304 -0.009325865 -0.084894 0.071200736 -0.041939717 -0.062478572 -0.014912039
-0.030761234 -0.014829474 0.05106667 0.045655973 -0.07214533 -0.008547844 0.067466766 -0.064571455
0.049024392 -0.053336572 0.08241371 0.059705224 -0.0059520304 0.0629329 -0.077044226 -0.08611868
00000000: 32f5 c93c fcd8 d43c 0829 f9bc 2d04 a53d
00000010: d867 593b 8d14 a8bd b10e 89bd d742 ab3d
00000020: db91 5abd 38a5 a33d 7096 a23d dc14 35bc
00000030: 2530 5ebd 02b3 24bd cf6f 443d 4c57 693d
00000040: cb19 77bd a12e 6fbc 4e13 08bd 3482 0e3d
00000050: e7c2 14bd 956b 08bd b365 80bd 498d 233d
00000060: ec93 82bd 90d3 a3bd f665 b33d b3b3 a8bd
00000070: 42ca 9dbd 6eaa 93bd 74b9 823d b16b 8dbb
00000080: a065 89bd 05e3 c33c c17d 483d 65ce 923c
00000090: 0369 9fbc bec7 51bc fc43 d03c 20f7 95bd
000000a0: 677b 54bd 0879 66bd f818 a23d 6957 47bd
000000b0: 5ca8 413c ae03 b33c 6f64 ce39 d071 8dbc
000000c0: 04e1 fcbc b512 543d 6211 8b3d d367 a63d
000000d0: 5ee9 3d3d 14b2 b1bc 1f13 3c3c 8b05 a9bc
000000e0: ff98 903c 30cd a23d ae2c 8fbd a0fe a3bd
000000f0: 837c a1bd 68bf 3dbd de32 243d a40b 293c
00000100: b631 47b9 f369 f53c cb30 9f3c 3e58 aebd
00000110: 69af 97bc 6e26 303d 8b4c 42bd 3522 373d
00000120: 3ec4 5bbc d821 3d3d 94fe 42bd ad54 72bd
00000130: 0dea 983b b1ac 5a3d 3705 a6bd 5cd3 97bb
00000140: b59a a4bd 4631 793d 61db 91bd f42b 673d
00000150: f2b2 3d3c dcc7 17bd a1d1 b43d 9264 75bd
00000160: ca6e 8ebd 01ad 013d 62fc b73c ff16 843c
00000170: 009f 0d3d a54a 3bbd 4702 b53c 3858 55bc
00000180: 6caf 8e3d 730a af3d 24b1 ffbb 5c04 a73d
00000190: 9551 cebc c57f b13d 4918 c6ba 8038 b0bd
000001a0: f04e 0e3d 1764 413d d8d8 8ebd 2100 18bd
000001b0: a560 8a3d b757 d0bc a44a 9dbd 223f 13bd
000001c0: 5e1c 253b 0fe9 15bd 914d a5bd c208 ea3c
000001d0: 876a 94bd 6d20 7bbc f3a8 b4bd 2139 6e3d
000001e0: 48d6 25bd 1c40 73bc d59c 33bd 9ec5 ac3d
000001f0: f0bb 173c 98d0 c2bb f705 5fbc fa12 7bbd
00000200: 8e79 393c 69d7 27bd 2348 723d 4e32 1ebc
00000210: aca0 4bbd b5f7 073d 9738 573d 9588 e3bc
00000220: d98d 923b d841 dc3b df62 89bd eb4d 7c3c
00000230: abaa 7abd 7fac a2bd 9bef ea3c 6801 9bbd
00000240: c651 15bd 2eed a63c 35db 6f3b abbb b23d
00000250: 0fa1 85bd 867c 4fbd fb1b 45bc 0fe8 8c3d
00000260: 00be d53c bf41 3cbb 56a2 1ebc bca3 0abd
00000270: 202b e939 3910 67bc a556 0f3c 0554 81bd
00000280: a700 b4bd c4dc 43bb 41d3 bcbc 43f4 a73d
00000290: 3ebd 5cbd 9145 4dbc 90b3 2e3d 109a a8bc
000002a0: 9904 90bd 75d3 8f3d f051 d2ba 5363 ad3d
000002b0: 6154 263d dd0b 12bd 93c2 7bbc 70f0 c63c
000002c0: 7683 e2bc 0eb0 66bd a2d7 1cbd 3d79 7e3d
000002d0: 85dc 56bd 9405 9f3d 9b3a 5cbd 10d2 bcbc
000002e0: ea9b 85bd d90f 41bd d549 90bd 2a7f a03d
000002f0: 234a 39bd 330f f53c a570 083d 2fd2 57bd
00000300: 46cd 69bd cf10 9d3d 799b c63c fde0 2dbc
00000310: cba4 863d 333c 803d 1e34 8c3d 99ad 93bc
00000320: 847b 993d 0d05 043b 50ad 73bc c887 27bd
00000330: c47a 0ebd 95d2 033d de0d 543d 89ef 943d
00000340: b750 0cbd c5a5 c63c ab32 313c db79 2a3d
00000350: f065 9739 0f4a a43d 18b8 2cba ccfb 82bc
00000360: 3d1c e83c ef99 a33b 67ab 8cbd 835c 54bd
00000370: 5988 9bbd 67ff 5cbd ef9f e03c dcc7 653b
00000380: 3cfa 82bd 390b 44bd 6663 cdba 8b27 b33c
00000390: 15be da3c 655b d2bc ef2b 923d 218a 883d
000003a0: c86f a9bd a691 013d 83cb 18bc e8dc adbd
000003b0: b1d1 913d fbc8 2bbd 88e9 7fbd a051 74bc
000003c0: fcfe fbbc 52f7 72bc 492b 513d c201 3b3d
000003d0: eec0 93bd 420c 0cbc 042c 8a3d 0a3e 84bd
000003e0: cdcd 483d 7377 5abd 85c8 a83d 778d 743d
000003f0: 4009 c3bb f7e2 803d 5dc9 9dbd fe5e b0bd

decoder_rnn.weight_hh_l0 f4 [384, 128]
0.14078817 0.004100518 0.08311822 0.12595066 0.086860575 0.10263927 -0.086667806 0.068763636
0.025908036 0.010094049 -0.12980896 -0.005530313 0.054332376 -0.030972403 -0.077929616 -0.0430828
0.034967437 -0.045650117 0.07157226 -0.035193145 0.10525524 0.0720235 -0.116131775 -0.027836384
-0.09275144 0.023482768 0.032582294 0.08015569 -0.08077571 0.030633444 0.0011305994 0.029271634
-0.12374616 0.15227085 -0.09238906 -0.01934682 0.045528207 0.0036135942 0.038057484 0.059179306
-0.06368935 0.15855145 0.1012457 0.014323171 0.070338406 0.072090924 0.034938864 -0.00039917752
0.07899794 -0.079631895 -0.11611309 0.08091079 -0.015754169 -0.06671055 -0.05817049 0.007235191
-0.017940048 -0.0572124 -0.058650043 -0.0461548 -0.14320195 -0.02966368 0.090393014 -0.06549576
0.08425875 -0.12940677 -0.027525669 -0.07355987 0.035081886 -0.0048043462 -0.050623454 0.058354802
0.08780945 -0.06482355 0.035823215 -0.06255884 0.0168752 0.0058882143 0.036581885 0.08490133
-0.04322866 -0.028733952 -0.1573811 0.009413993 0.033020392 0.060284685 0.067547806 -0.11024859
-0.072769396 0.08171465 0.024894869 0.014809094 -0.069544375 0.08913483 0.12894063 0.002123293
-0.045297205 0.035102457 0.037386347 0.040303804 0.06114187 0.053428356 -0.12118029 -0.008077881
-0.017156543 0.08265277 -0.019381648 0.03745229 -0.026064895 0.13573873 0.036064424 -0.08781358
-0.004149027 -0.07542098 0.013292301 0.018078512 -0.061312538 -0.046519976 -0.035894178 -0.014109659
-0.03956413 0.010578806 0.013541058 0.09637102 0.03252249 -0.058578674 0.0046960665 -0.08069031
-0.010645091 0.047105614 0.049193475 -0.00095172436 -0.05191012 0.05517887 0.033340055 -0.053894807
-0.04483438 0.0743105 0.024855925 0.0369857 0.01556927 -0.0039508855 -0.090887405 0.00946511
-0.07724053 0.09208898 -0.040898208 0.06826478 -0.0012344145 0.11010372 -0.04534389 -0.037336804
-0.014502005 -0.045075662 -0.046878066 0.074897856 -0.023276778 0.12206402 -0.017151913 0.06417659
-0.1169512 0.027173506 0.026584454 0.04505308 -0.04125266 -0.047431342 -0.021616893 -0.024062159
0.01474558 0.06884752 0.104101144 -0.07112292 -0.009965907 0.066819504 -0.08042548 0.07518731
0.023617364 -0.054248035 0.045904934 0.03841406 0.057578456 0.032720275 0.046821147 0.0759322
-0.042814378 -0.044816766 -0.0032511852 -0.030232467 -0.010619281 -0.06403497 -0.057649393 -0.05929
0.008987927 -0.013938023 -0.100306526 0.044444613 -0.0002442725 -0.010669067 0.06216323 0.030329956
0.026899787 -0.037321754 0.0062180064 0.022105685 0.030517088 0.1270985 -0.031724893 -0.028357537
0.004764814 0.045398377 0.009919919 0.03595107 -0.011826291 0.028967965 -0.060486387 -0.047950618
-0.08912557 0.06582075 0.0028345105 0.021073 -0.1329929 -0.05993917 0.056073066 -0.06705087
-0.08222337 0.05574996 0.11787293 0.014797735 -0.02302878 -0.03891531 -0.018328592 0.034094468
0.022518404 -0.061451167 0.10989214 0.060887355 0.060549732 0.06966617 -0.057102464 -0.044240482
0.059293263 0.06883599 -0.044628933 0.07654849 -0.04819811 0.045787882 -0.08402403 -0.090335585
-0.09323535 -0.023848612 0.13656653 -0.0067756753 0.03387321 0.048845712 0.056591004 -0.015739102
00000000: c62a 103e a35d 863b e339 aa3d 36f9 003e
00000010: f5e3 b13d 8a34 d23d e47e b1bd f3d3 8c3d
00000020: 173d d43c 8361 253c a4ec 04be a137 b5bb
00000030: a08b 5e3d d6b9 fdbc 9099 9fbd 9777 30bd
00000040: 043a 0f3d 9efb 3abd 7a94 923d b026 10bd
00000050: 0f90 d73d 0f81 933d 7fd6 edbd 2109 e4bc
00000060: 78f4 bdbd ef5e c03c 0375 053d ab28 a43d
00000070: bc6d a5bd fdf2 fa3c 9f30 943a 11cb ef3c
00000080: a06e fdbd e4ec 1b3e 7a36 bdbd 397d 9ebc
00000090: c97b 3a3d 0dd2 6c3b 2ae2 1b3d 0066 723d
000000a0: 906f 82bd 505b 223e e859 cf3d bcab 6a3c
000000b0: 950d 903d 68a4 933d 0e1c 0f3d b348 d1b9
000000c0: acc9 a13d 0c16 a3bd b3cc edbd 8eb4 a53d
000000d0: e30e 81bc 8a9f 88bd 2e44 6ebd 2e15 ed3b
000000e0: 02f7 92bc 8d57 6abd 073b 70bd d10c 3dbd
000000f0: 88a3 12be 3f01 f3bc f91f b93d a422 86bd
00000100: da8f ac3d 3583 04be 837d e1bc 8fa6 96bd
00000110: 06b2 0f3d c76d 9dbb 8a5a 4fbd 7205 6f3d
00000120: 71d5 b33d 36c2 84bd 5dbb 123d d91e 80bd
00000130: dc3d 8a3c ecf1 c03b e3d6 153d c0e0 ad3d
00000140: 8910 31bd 7763 ebbc 8328 21be 263d 1a3c
00000150: 6440 073d 13ed 763d 8156 8a3d 03ca e1bd
00000160: 1f08 95bd 035a a73d 53f0 cb3c d8a1 723c
00000170: 486d 8ebd 528c b63d 0309 043e f226 0b3b
00000180: 9089 39bd 98c7 0f3d 6d22 193d 9a15 253d
00000190: e66f 7a3d b1d7 5a3d 5f2d f8bd 1759 04bc
000001a0: e18b 8cbc db45 a93d 43c6 9ebc 9367 193d
000001b0: 0c86 d5bc 18ff 0a3e 4ab8 133d 9bd7 b3bd
000001c0: 90f4 87bb 5176 9abd f4c7 593c 6319 943c
000001d0: db22 7bbd bb8b 3ebd c605 13bd 332c 67bc
000001e0: ff0d 22bd ba52 2d3c 50db 5d3c 2b5e c53d
000001f0: 4d36 053d 31f0 6fbd 76e1 993b f640 a5bd
00000200: bf68 2ebc d1f1 403d 197f 493d 247d 79ba
00000210: b59f 54bd 3d03 623d 958f 083d cdc0 5cbd
00000220: 41a4 37bd 1a30 983d a79e cb3c 517e 173d
00000230: 4016 7f3c 6e76 81bb 2d23 babd 8c13 1b3c
00000240: 4830 9ebd 2699 bc3d e184 27bd 68ce 8b3d
00000250: 14cc a1ba 0f7e e13d 84ba 39bd 7aee 18bd
00000260: d199 6dbc 42a1 38bd 3703 40bd 0c64 993d
00000270: f1ae bebc b3fc f93d 2b82 8cbc 046f 833d
00000280: 1c84 efbd f99a de3c a4c7 d93c 9489 383d
00000290: 8df8 28bd 5e47 42bd e915 b1bc 011e c5bc
000002a0: 7297 713c eeff 8c3d fb32 d53d e5a8 91bd
000002b0: 0b48 23bc aad8 883d 1db6 a4bd cefb 993d
000002c0: 3479 c13c 3033 5ebd d006 3c3d 1058 1d3d
000002d0: 63d7 6b3d b205 063d 88c7 3f3d 5782 9b3d
000002e0: 215e 2fbd c991 37bd d611 55bb 14aa f7bc
000002f0: 7efc 2dbc c424 83bd c521 6cbd 12da 72bd
00000300: 1942 133c 4e5c 64bc 826d cdbd 8e0b 363d
00000310: b311 80b9 4fcd 2ebc df9e 7e3d 8776 f83c
00000320: f15c dc3c b2de 18bd 6bc0 cb3b fb16 b53c
00000330: f9fe f93c 1c26 023e f6f1 01bd 114e e8bc
00000340: 2822 9c3b a6f3 393d 2887 223c 6e41 133d
00000350: 0fc3 41bc 3a4e ed3c 93c0 77bd de67 44bd
00000360: 7887 b6bd 08cd 863d 32c3 393b 49a1 ac3c
00000370: 4a2f 08be c682 75bd dfac 653d f751 89bd
00000380: ba64 a8bd 125a 643d 5d67 f13d 3372 723c
00000390: daa6 bcbc a965 1fbd d825 96bc a4a6 0b3d
000003a0: 8478 b83c 38b4 7bbd 210f e13d 0565 793d
000003b0: ff02 783d 23ad 8e3d 46e4 69bd 8235 35bd
000003c0: 7edd 723d e2f9 8c3d d4cc 36bd 74c5 9c3d
000003d0: 626b 45bd 138c 3b3d ca14 acbd dd01 b9bd
000003e0: 2df2 bebd 2a5e c3bc 19d8 0b3e 7c06 debb
000003f0: a3be 0a3d 7112 483d f8cb 673d 4aef 80bc

decoder_rnn.bias_ih_l0 f4 [384]
0.038183417 0.05978243 -0.03036093 -0.018704997 0.010343225 0.014155878 0.023972897 0.09872883
0.05229966 0.0058033406 0.10130121 0.11118904 -0.010366006 -0.049703024 -0.0438471 -0.07634485
0.024664586 -0.006106069 0.07277832 0.08223048 0.052611068 0.019427601 0.024595449 -0.070917174
-0.020281378 -0.052289706 0.10615378 -0.06145533 0.13377433 -0.07858274 -0.0386242 0.046503857
0.01926851 0.06697949 -0.033406578 0.054030024 0.04193649 -0.03226957 0.013961023 -0.022818817
0.014030122 0.09545184 0.09144961 -0.04195358 0.024947867 0.04023599 -0.038314972 0.059907828
0.001987459 0.096492976 0.07529159 0.11391766 -0.016720373 0.10681717 0.012713214 0.02609183
0.09411742 0.06632521 0.050790895 0.055325426 -0.004899213 0.10301474 0.05422785 0.047419205
0.04715012 0.10975702 0.0055556498 0.11821999 -0.003809412 -0.03551069 0.082610734 0.0809009
0.10904372 -0.007869694 0.04413991 0.04492233 0.1104122 0.015730955 0.033524465 0.058940433
0.058239523 -0.011748359 0.10034617 -0.002448963 -0.059263103 -0.04571655 -0.054041483 -0.03766749
0.031504013 -0.0046218145 0.104090646 0.0925798 0.016441042 -0.052462615 0.04748462 0.099272445
-0.003717147 0.03677219 -0.030448861 0.037525646 0.030372309 0.053646922 0.08343801 0.02319795
-0.010227239 -0.021257237 0.1143239 -0.03738777 0.07686721 -0.040994562 0.0796003 0.03845002
-0.02330914 0.027639613 0.076023355 -0.03796226 0.06980796 0.12651259 -0.027982127 0.07953266
0.011368492 0.07108374 0.054995477 -8.84254e-05 -0.012483074 0.06412702 -0.01555182 0.10078517
0.10109262 0.088430494 0.03366635 0.115091614 0.046012174 -0.0915025 0.00016483909 0.04773806
-0.112630695 0.08256336 -0.009416684 -0.04224333 0.017913869 0.11589378 0.07705153 0.09660855
0.032221716 -0.0018478875 0.18226567 0.06095784 0.08309963 0.016305923 0.16665037 0.042171553
0.0012235241 0.1177567 0.13945648 0.096636854 0.054307815 0.090520754 0.058865365 -0.1588789
0.035505135 0.06285579 -0.0113801975 -0.11373013 -0.021859257 0.03970029 -0.0076068807 0.11162637
-0.0058927145 0.14226276 0.0666908 0.022810604 -0.009579949 0.057421662 0.0034445138 0.18572405
0.01912424 0.14050676 0.0776251 0.082546204 -0.026420884 0.028613769 0.018744433 0.09630204
0.036526915 0.13550557 0.011159841 0.044679265 0.19768761 -0.0007791166 -0.047308516 0.13650066
0.020879142 0.048417956 0.12864032 0.04439361 -0.0061971336 0.06516103 -0.07812212 -0.010090774
0.11433218 -0.07678989 0.04329968 0.07840485 0.1549235 -0.025731716 0.039709933 0.12935053
-0.024046533 0.0072107706 -0.012346502 -0.0019517508 0.03319663 0.02376 0.03604513 0.047569677
0.079782136 -0.041220315 0.10765687 0.043585666 0.088111855 -0.08966146 0.16216575 0.07407181
-0.06842573 -0.020403743 0.13885371 0.12398462 0.13148388 0.07240692 0.063517936 0.10537126
0.041014995 -0.012138142 -0.04738468 -0.073460124 0.007812472 0.1803323 0.041579366 0.00039609818
0.068174876 -0.03913651 0.059001025 -0.005410081 0.07781242 0.024471167 0.1151887 -0.060019627
0.043699406 -0.032429464 0.10640039 0.011539685 0.0070287157 -0.10712104 0.08276953 0.15177433
00000000: 3766 1c3d 6cde 743d 7cb7 f8bc 393b 99bc
00000010: a176 293c 0eee 673c cf62 c43c 5732 ca3d
00000020: 2b38 563d f329 be3b 0277 cf3d 14b7 e33d
00000030: 2ed6 29bc 6695 4bbd 0499 33bd b05a 9cbd
00000040: 630d ca3c 6b15 c8bb cd0c 953d 7468 a83d
00000050: b47e 573d a226 9f3c 657c c93c 063d 91bd
00000060: 2225 a6bc bb2d 56bd 2767 d93d 96b8 7bbd
00000070: 23fc 083e fdef a0bd 6934 1ebd d47a 3e3d
00000080: ffd8 9d3c 8b2c 893d 56d5 08bd 964e 5d3d
00000090: 99c5 2b3d 192d 04bd c6bc 643c 87ee babc
000000a0: 99de 653c 417c c33d ef49 bb3d 84d7 2bbd
000000b0: 785f cc3c 7ece 243d 29f0 1cbd e961 753d
000000c0: 0740 023b 1c9e c53d 7a32 9a3d aa4d e93d
000000d0: 2af9 88bc f6c2 da3d 164b 503c 89be d53c
000000e0: a2c0 c03d 83d5 873d 1d0a 503d ea9c 623d
000000f0: 9489 a0bb 64f9 d23d 061e 5e3d a43a 423d
00000100: 7c20 413d 4ac8 e03d 2b0c b63b 521d f23d
00000110: 54a7 79bb a873 11bd d12f a93d 5faf a53d
00000120: 5052 df3d e4ef 00bc 0dcc 343d 7a00 383d
00000130: cb1f e23d 34de 803c f350 093d 866b 713d
00000140: 918c 6e3d 307c 40bc 4b82 cd3d c87e 20bb
00000150: debd 72bd 4741 3bbd 9a5a 5dbd 3a49 1abd
00000160: 5a0a 013d 9772 97bb 7a2d d53d 7a9a bd3d
00000170: 5daf 863c 0ae3 56bd 3c7f 423d 5a4f cb3d
00000180: 619b 73bb 709e 163d e46f f9bc 7eb4 193d
00000190: 59cf f83c e0bc 5b3d 8ce1 aa3d a109 be3c
000001a0: 2690 27bc a823 aebc a622 ea3d eb23 19bd
000001b0: 8e6c 9d3d eae9 27bd 7b05 a33d c57d 1d3d
000001c0: cff2 bebc 786c e23c 22b2 9b3d 517e 1bbd
000001d0: 7af7 8e3d 848c 013e c63a e5bc 05e2 a23d
000001e0: e942 3a3c 5a94 913d f042 613d 0671 b9b8
000001f0: cf85 4cbc 0755 833d 10cd 7ebc 7568 ce3d
00000200: a609 cf3d 0c1b b53d bae5 093d 27b5 eb3d
00000210: 4377 3c3d aa65 bbbd a8d8 2c39 fc88 433d
00000220: ecaa e6bd fb16 a93d 6f48 1abc 5807 2dbd
00000230: 1bc0 923c b859 ed3d 31cd 9d3d b4da c53d
00000240: ebfa 033d d134 f2ba daa3 3a3e eeae 793d
00000250: 2430 aa3d 0094 853c 65a6 2a3e 14bc 2c3d
00000260: a85e a03a 6d2a f13d aecd 0e3e 8be9 c53d
00000270: df71 5e3d f262 b93d cf1c 713d 26b1 22be
00000280: d56d 113d 89ba 803d 0274 3abc 58eb e8bd
00000290: 2f12 b3bc c59c 223d 2443 f9bb 5e9c e43d
000002a0: ac17 c1bb 54ad 113e 3095 883d 4edd ba3c
000002b0: 38f5 1cbc fa32 6b3d 5abd 613b 722e 3e3e
000002c0: 70aa 9c3c 01e1 0f3e e9f9 9e3d fc0d a93d
000002d0: 9c70 d8bc 6c67 ea3c ed8d 993c 013a c53d
000002e0: 3f9d 153d f9c1 0a3e c4d7 363c 9b01 373d
000002f0: 9f6e 4a3e a13d 4cba 93c6 41bd d4c6 0b3e
00000300: bc0a ab3c e851 463d 4aba 033e 13d6 353d
00000310: 5311 cbbb 2573 853d 7dfe 9fbd c653 25bc
00000320: fd26 ea3d 0544 9dbd 015b 313d b992 a03d
00000330: 44a4 1e3e 52cb d2bc e2a6 223d 7774 043e
00000340: 3cfd c4bc 5448 ec3b fc48 4abc e4d1 ffba
00000350: 31f9 073d 55a4 c23c 0fa4 133d 6cd8 423d
00000360: d164 a33d a2d6 28bd 347b dc3d e286 323d
00000370: fd73 b43d 6da0 b7bd c70e 263e f6b2 973d
00000380: ca22 8cbd c025 a7bc ab2f 0e3e a6eb fd3d
00000390: b6a3 063e 144a 943d b115 823d e3cc d73d
000003a0: 57ff 273d 0fdf 46bc 7016 42bd 4372 96bd
000003b0: c4ff ff3b 08a9 383e 204f 2a3d 66ab cf39
000003c0: 459f 8b3d 9b4d 20bd 0fab 713d 0c47 b1bb
000003d0: 1e5c 9f3d c277 c83c 0ee8 eb3d 24d7 75bd
000003e0: 26fe 323d c2d4 04bd 73e8 d93d f210 3d3c
000003f0: 2451 e63b 4762 dbbd 1283 a93d bb6a 1b3e
