Rudi/checkpoints/autoencoder_model_epoch_9.pth (torch, 682100 bytes, 10 tensors)

encoder_rnn.weight_ih_l0 f4 [384, 40]
0	0xbc7b2275	-0.015328039
1	0xbd3080f6	-0.043091737
2	0x3d24b815	0.040214617
3	0xbd305466	-0.04304924
4	0xbd98e480	-0.07465458
5	0x3d128cae	0.035778694
6	0x3e2cc7d4	0.16873103
7	0x3d9a523a	0.07535215
8	0x3e153358	0.14570367
9	0x3d56d029	0.05244461
10	0x3dc5ba0d	0.09654627
11	0x3d6e8ea0	0.058241487
12	0x3e0e1ca8	0.13878119
13	0xbce2360d	-0.027613664
14	0x3d9f68b4	0.077836424
15	0x3d7304fd	0.05933093
16	0x3c1ff3f6	0.009762755
17	0xbdb5a115	-0.088686146
18	0x3d8df9b1	0.069323905
19	0xbcfe4853	-0.031040346
20	0x3dbc98f6	0.092088625
21	0x3c0804f5	0.008301963
22	0x3d0fdaec	0.03512089
23	0x3dcbde69	0.09954531
24	0x3da5792a	0.08079751
25	0xbd54828d	-0.051882315
26	0x3db3a86d	0.08772359
27	0xbd08cf2f	-0.03340071
28	0x3c98f0ea	0.018669564
29	0x3de46ea0	0.111539125
30	0xbc7c7bfc	-0.01541042
31	0xbc823ef9	-0.015899168
32	0x3db724f0	0.08942592
33	0xbdae89ae	-0.08522354
34	0x3dd9d088	0.10635477
35	0x3c813efa	0.0157771
36	0xbd005aa4	-0.03133644
37	0x3da8a82d	0.08235202
38	0xbd8eecae	-0.06978737
39	0x3db00371	0.085944064
40	0xbdb40fed	-0.087921
41	0x3d222bbe	0.039592497
42	0x3decdf6b	0.11566051
43	0xbd7652d0	-0.06013757
44	0x3d22c32f	0.039736923
45	0x3de024fd	0.10944555
46	0xbe1b0fca	-0.15142742
47	0x3d22ddad	0.039762188
48	0xbb85ebec	-0.004086962
49	0x3d55ccfa	0.052197434
50	0xbc8ffe5d	-0.017577345
51	0x3c585e84	0.013206128
52	0x3dbc6f3d	0.092009045
53	0x3d31ff13	0.04345615
54	0x3b90e5f9	0.004421946
55	0xbd3f2e38	-0.046674937
56	0x3ca3dfb5	0.020004133
57	0x3d102d39	0.035199378
58	0x3cc3e1a5	0.023911307
59	0xbcd2036a	-0.025636394
60	0x3d114b25	0.035472054
61	0xbd9735fc	-0.073833436
62	0xbd6b1fb3	-0.057403278
63	0xbd779958	-0.060448974
64	0x3ddd273c	0.10798499
65	0x3cc1066c	0.023562633
66	0xbd84c57c	-0.0648298
67	0xbd802939	-0.062578626
68	0xbd53a3e8	-0.051669985
69	0x3cf7c97e	0.030247446
70	0xbb8cdc1b	-0.0042986996
71	0x3d31c524	0.0434009
72	0x3dabc026	0.08386259
73	0xbd4d6d62	-0.050153144
74	0xbd82625e	-0.06366418
75	0x3de45457	0.11148899
76	0x3d219f61	0.039458636
77	0xbd0d3353	-0.034472775
78	0xbd86c2f0	-0.0658015
79	0x3d9d04fd	0.07666967
80	0x3a1f00b8	0.0006065476
81	0x3e2ef846	0.17086896
82	0x3c824547	0.015902175
83	0x3c024f58	0.007953487
84	0x3db92475	0.09040157
85	0xbb42fa9c	-0.0029751426
86	0xbcb639ec	-0.022244416
87	0xbd29fcac	-0.041500732
88	0xbd0b199d	-0.033959974
89	0xbc3804d7	-0.011231623
90	0xbd64a878	-0.055824727
91	0x3db39dfc	0.087703675
92	0xbceba2b2	-0.028764103
93	0xbd13b1c1	-0.03605819
94	0x3d14a99e	0.036294572
95	0x3c17aca3	0.009257468
96	0x3cd3d032	0.025856111
97	0x3d7b09dc	0.0612887
98	0x3cdae590	0.026720792
99	0xbcd17f7b	-0.025573483
100	0xbdb33543	-0.08750393
101	0xbc40cf13	-0.01176812
102	0xbd01b8e7	-0.031670477
103	0x3bc49387	0.005999032
104	0xbe12f4c7	-0.14351188
105	0x3d4f958e	0.050679736
106	0xbd9abae4	-0.07555178
107	0x3dd38a31	0.10329092
108	0xbdd6c73a	-0.10487218
109	0xbd1fe13d	-0.039033163
110	0x3c9dbdb0	0.01925549
111	0xbdaae782	-0.08344938
112	0xbc230cc4	-0.009951774
113	0x3d6379c8	0.05553606
114	0x3dc99ffa	0.09844966
115	0x3db2cdec	0.08730683
116	0xbda941dc	-0.08264515
117	0x3bf21013	0.00738717
118	0xbdd837e9	-0.10557539
119	0xbd2f3fe9	-0.04278556
120	0x3db9bfe7	0.090698056
121	0x3d80b3c1	0.06284285
122	0xbc19a6ee	-0.009378178
123	0xbd415cf4	-0.047207788
124	0x3d867d6f	0.06566893
125	0xbc0909e4	-0.0083641745
126	0xbdc695f9	-0.09696574
127	0x3c2669c3	0.0101570515
128	0xbd99ba1a	-0.07506199
129	0x3dde237f	0.10846614
130	0xbc806a78	-0.015675768
131	0x3d375a21	0.044763688
132	0xbc7364fc	-0.0148556195
133	0xbde84876	-0.11341946
134	0xbd473d4f	-0.048642453
135	0xbdb8f2b2	-0.090306655
136	0xbd85cd0b	-0.065332495
137	0xbdc43e11	-0.09582151
138	0xbd22a601	-0.039709095
139	0xbd75b463	-0.059986483
140	0xbda56a0d	-0.08076868
141	0xbcdfb830	-0.027309507
142	0xbce6c77b	-0.028171292
143	0x3d3b9fca	0.045806684
144	0xbd2dedba	-0.04246304
145	0x3d467ec5	0.04846074
146	0x3cecfdce	0.028929617
147	0xbdcfb185	-0.10141281
148	0xbd36861e	-0.044561498
149	0xbd2e4c9e	-0.042553537
150	0x3d817230	0.06320608
151	0x3ce83960	0.028347671
152	0xbc732b4f	-0.014841869
153	0xbd716847	-0.058937337
154	0xbd88d3be	-0.066810116
155	0x3d3ee762	0.046607383
156	0x3d42b479	0.047535393
157	0xbd382aff	-0.04496288
158	0xbc64759e	-0.013944058
159	0xbd9384d9	-0.07203073
160	0x3daf18f2	0.0854968
161	0xbd86d0f6	-0.06582825
162	0x3cbd472a	0.023105223
163	0x3c5d4c3e	0.013506947
164	0xbdf69f8c	-0.1204215
165	0xbd92010c	-0.07129106
166	0xbde99c88	-0.11406809
167	0x3d1ef0b2	0.038803764
168	0xbc9840f6	-0.018585663
169	0x3c730875	0.014833559
170	0x3d78227e	0.06057977
171	0x3b174cb3	0.0023086488
172	0x3da2faa0	0.07957959
173	0x3dff4099	0.12463493
174	0x3bc422c0	0.005985588
175	0xbba63447	-0.00507215
176	0xbc8391d9	-0.016060757
177	0x3df915af	0.12162339
178	0x3d9cf1b8	0.07663292
179	0x3d0bf907	0.034173038
180	0x3d8e3612	0.06943907
181	0xbd183d82	-0.037168033
182	0x3d505d8a	0.050870456
183	0x3be86cdb	0.0070930547
184	0xbd4e25ba	-0.050328948
185	0x3d084b56	0.03327497
186	0x3d889ab7	0.066701345
187	0xbda64cba	-0.08120103
188	0xbd185bac	-0.0371968
189	0xbdf6d1c6	-0.1205173
190	0xbd8db709	-0.06919677
191	0x3d44a17d	0.04800557
192	0x3ca3082f	0.019901363
193	0xbd19253d	-0.03738903
194	0xbc4fc770	-0.012681827
195	0xbd91e4ab	-0.07123693
196	0xbba406f8	-0.0050057136
197	0xbdc95f45	-0.09832624
198	0xbe03e93d	-0.12881942
199	0x3d076e89	0.0330644
200	0xbd55947a	-0.05214355
201	0x3cdea142	0.027176503
202	0x3dc99afe	0.098440155
203	0x3d2f552a	0.04280583
204	0xbd663fd5	-0.05621322
205	0x3d9ec6eb	0.07752784
206	0xbdd2b8b4	-0.102891356
207	0x3de7b480	0.113137245
208	0xbb8a83a7	-0.00422712
209	0xbd17aec1	-0.037031893
210	0x3da9b695	0.08286778
211	0xbd9a4e32	-0.07534446
212	0x3cd64590	0.026156217
213	0xbd3440e0	-0.044007182
214	0x3d26371b	0.040579896
215	0xbd831358	-0.06400174
216	0x3b07a1b8	0.0020695757
217	0xbb4e0149	-0.0031433871
218	0x3cb8fe91	0.022582324
219	0xbdb0028e	-0.08594237
220	0x3cb34741	0.021884562
221	0x3d09e1cd	0.033662606
222	0x3d97ebc0	0.074180126
223	0xbc2e611c	-0.01064327
224	0xbca18d43	-0.01972068
225	0xbc2363d1	-0.009972529
226	0xbd46e542	-0.04855848
227	0xbd6d7de9	-0.057981405
228	0x3d9f1f3e	0.07769631
229	0x3cd7b574	0.02633164
230	0x3d1cb5fe	0.0382595
231	0x3c1650de	0.009174554
232	0x3dcf5907	0.101244025
233	0xbe025c61	-0.12730552
234	0x3d855aea	0.06511481
235	0xbe05e11b	-0.13074152
236	0x3a2af413	0.0006521355
237	0xbd881e37	-0.06646388
238	0x3db432f2	0.087987795
239	0x3d8c6af6	0.06856339
240	0x3cd4d1b4	0.0259789
241	0x3deaea27	0.11470442
242	0x3d6b4310	0.057437003
243	0xbdc2832d	-0.09497676
244	0xbc54536e	-0.012959344
245	0x3d1cc60d	0.038274813
246	0x3dc68e3d	0.096950985
247	0xbd82431f	-0.063604586
248	0xbc567b3a	-0.013090903
249	0x3dbcbef9	0.09216113
250	0xbda246aa	-0.07923634
251	0xbd38567b	-0.04500435
252	0x3d1d8b93	0.038463186
253	0x3d652bf3	0.055950116
254	0x3d06cbe8	0.032909304
255	0x3c8e74e3	0.01738972

encoder_rnn.weight_hh_l0 f4 [384, 128]
0	0xbd5fc16d	-0.054627825
1	0xbdf729d8	-0.12068528
2	0xbb47e420	-0.0030500963
3	0xbd41b14d	-0.047288228
4	0x3d790844	0.0607989
5	0x3d6b1861	0.057396296
6	0xbda73211	-0.08163846
7	0x3ce4f010	0.027946502
8	0xbc984af9	-0.018590437
9	0x3d96be04	0.07360461
10	0x3d338465	0.043827433
11	0x3dd5150e	0.104044065
12	0xbd11e0bb	-0.03561471
13	0x3dc54c91	0.096337445
14	0xbd0712ed	-0.032977033
15	0x3d156fc5	0.036483545
16	0x3d0b0282	0.03393794
17	0xbd6ca8f7	-0.057778325
18	0xbdcb9b88	-0.099417746
19	0x39de3919	0.0004238568
20	0xbd319281	-0.043352608
21	0x3be427f4	0.0069627706
22	0x3d8cc57b	0.06873604
23	0xbdd3fb38	-0.103506505
24	0xbd14b7e3	-0.03630818
25	0xbd3f9d99	-0.046781156
26	0xbcabe29a	-0.020982075
27	0xbd90a4c3	-0.07062676
28	0xbcd4eb15	-0.025991002
29	0x3d74239d	0.059604276
30	0x3ce4389a	0.027859021
31	0x3da96ed9	0.08273096
32	0x3e0431d9	0.1290964
33	0xbd095c21	-0.033535127
34	0xbda5fd24	-0.08104923
35	0xbc9cc86f	-0.019138543
36	0x3cff2f74	0.031150557
37	0x3d96e8b7	0.073686056
38	0xbdc5300a	-0.09628303
39	0xbe0907b7	-0.13381849
40	0x3c8b36b8	0.016993865
41	0xbe0cbe14	-0.13744384
42	0xbdf8ad27	-0.12142401
43	0x3dc1cec1	0.09463263
44	0x3d8820c5	0.06646875
45	0x3ce088ec	0.02740904
46	0x3d67e3d7	0.05661377
47	0xbd2263e4	-0.039646044
48	0x3d4176f1	0.047232572
49	0x3da88690	0.08228791
50	0x3d1d823c	0.03845428
51	0xbc48dcf8	-0.012259714
52	0x3dee4afd	0.11635397
53	0x3db04be3	0.08608224
54	0xbd507d7c	-0.05090092
55	0xbdb3b041	-0.08773852
56	0xbd440268	-0.047853857
57	0xbd0ebc21	-0.034847382
58	0xbd00c2fd	-0.031435955
59	0x3d951657	0.072796516
60	0x3d1469c3	0.036233675
61	0xbda81717	-0.08207529
62	0xbc745fa0	-0.014915377
63	0x3ddff96f	0.109362476
64	0xbcf357e6	-0.029705
65	0x3b840350	0.004028715
66	0x3d8c9735	0.06864778
67	0xbd8123b0	-0.06305635
68	0x3db5ba25	0.08873395
69	0x3e013bc2	0.12620452
70	0x3dae72e3	0.08518007
71	0xbd2685d6	-0.04065498
72	0x3e08a443	0.13343911
73	0x3ba0ea3e	0.0049107363
74	0x3def8fd0	0.11697352
75	0xbc0c146d	-0.008549792
76	0xbcba6629	-0.022753792
77	0x3d5ef3c3	0.054431688
78	0x3d0e4f11	0.034743372
79	0x3c67c7c3	0.014146748
80	0xbd098343	-0.033572447
81	0x3dc00af8	0.09377092
82	0xbd5181a9	-0.051149044
83	0x3d89dfe9	0.067321606
84	0x3d0f6baa	0.035014786
85	0xbde4355b	-0.11142989
86	0x3dfc9df4	0.12334815
87	0x3d4a6a97	0.04941806
88	0x3c557aea	0.013029793
89	0x3d8e6081	0.069520004
90	0xbcc0a245	-0.023514876
91	0x3dd8bb2c	0.10582575
92	0x3b9ebdee	0.0048444187
93	0x3d4c2065	0.04983558
94	0xbd8fc9b9	-0.070208974
95	0x3dfaf8d2	0.1225449
96	0x3db9a37a	0.09064384
97	0xbdcb49fd	-0.099262215
98	0xbd063d23	-0.03277315
99	0x3dbc35db	0.091899596
100	0xbd940bdd	-0.07228825
101	0xbda772be	-0.08176182
102	0xba83bb6d	-0.0010050364
103	0xbd87a277	-0.066227846
104	0xbd8aadfb	-0.067714654
105	0x3df6ab8e	0.1204444
106	0xbd8fcbff	-0.07021331
107	0x3bc137c5	0.005896541
108	0xbd1d6d02	-0.038434036
109	0xbe0dc0bd	-0.13843055
110	0xbe145539	-0.14485635
111	0x3d9f8e1f	0.07790779
112	0x3d683438	0.056690425
113	0x3d39e5f2	0.04538531
114	0xbd398181	-0.04528952
115	0x3cce86ce	0.025210764
116	0xbe1b66bc	-0.15175909
117	0x3d18d566	0.037312888
118	0xbd2c00f5	-0.0419931
119	0xbc82f9ea	-0.015988309
120	0x3da4c562	0.0804546
121	0x3cb760a6	0.022384953
122	0xbd49e51e	-0.04929077
123	0x3cd4c114	0.025970973
124	0xbd3ba40b	-0.04581074
125	0xbd0a7f1c	-0.033812627
126	0xbdbe7728	-0.09300071
127	0xbd66f110	-0.05638224
128	0xbc84af60	-0.016196907
129	0xbd766063	-0.060150515
130	0xbd8fdc74	-0.0702447
131	0x3cb46b39	0.022023784
132	0x3d2bc66f	0.041937288
133	0x3db493bf	0.08817243
134	0xbd981a04	-0.07426837
135	0xbce29ab0	-0.027661651
136	0x3c93ef13	0.018058335
137	0x3d60b33f	0.054858442
138	0xbcbbef53	-0.022941267
139	0x3bbf6bb0	0.005841695
140	0xbc2801eb	-0.0102543635
141	0xbd871f36	-0.0659775
142	0x3dab07fb	0.083511315
143	0xbd17af74	-0.03703256
144	0xbc202d92	-0.00977649
145	0xbdc5d55b	-0.09659835
146	0xbdb458e2	-0.088060156
147	0x3e46315d	0.19354768
148	0xbd8ac6cd	-0.067761995
149	0xbded3995	-0.115832485
150	0xbd22a1ec	-0.039705202
151	0xbd0ad27c	-0.03389214
152	0x3d9e82bc	0.07739779
153	0xbd08ab32	-0.03336639
154	0xbe076861	-0.13223411
155	0xbd14ca8e	-0.036325984
156	0xbd778380	-0.060428143
157	0xbd87899b	-0.06618043
158	0x3dd7030e	0.104986295
159	0x3b41eb9b	0.0029589895
160	0x3dbd4f80	0.09243679
161	0xbd89eebd	-0.06734989
162	0xbd179143	-0.037003767
163	0x3d411504	0.047139183
164	0x3cb3045e	0.021852668
165	0xbc0701a3	-0.008240136
166	0x3d98cbe2	0.074607626
167	0x3d4f9180	0.05067587
168	0x3d61d7d5	0.055137474
169	0xbd5e9e6a	-0.054350294
170	0xbc8f7ce0	-0.0175156
171	0xbd7b168b	-0.061300796
172	0xbc29fb2d	-0.010374826
173	0xbd954a02	-0.072895065
174	0xbb12a1b6	-0.002237422
175	0x3d8dfe36	0.069332525
176	0x3d5e2894	0.054237917
177	0xbcbfe4c5	-0.023424516
178	0x3b7bb3ee	0.0038406807
179	0xbc59fb3a	-0.013304526
180	0xbe29208f	-0.16516326
181	0x3e0f49a0	0.1399293
182	0x3d697054	0.05699189
183	0xbd88b285	-0.06674675
184	0x3d692e61	0.056928996
185	0xbd419d06	-0.04726889
186	0xbd6e85bb	-0.058233004
187	0xbd7a2c3b	-0.061077338
188	0xbd2cf452	-0.04222519
189	0xbd42d797	-0.047568884
190	0xbd9dee3e	-0.07711457
191	0x3d72a0f2	0.05923552
192	0x3d18da90	0.037317812
193	0xbd8b796f	-0.06810271
194	0x3d44dd39	0.048062537
195	0xbe18a30c	-0.14905947
196	0x3de51348	0.11185318
197	0x3c43e1f0	0.011955723
198	0x3da13532	0.07871474
199	0xbc63d3fc	-0.0139055215
200	0x3dfedde5	0.12444667
201	0xbd25333c	-0.040332064
202	0x3dbefbfb	0.09325405
203	0xbd83fdde	-0.06444906
204	0x3caea259	0.021317648
205	0x3dc1c650	0.09461653
206	0x3c231f5f	0.00995621
207	0x3da6d27f	0.08145618
208	0xbd4e0f4b	-0.050307553
209	0xbd3faf40	-0.04679799
210	0x3d7a92a6	0.06117501
211	0x3da9f337	0.08298343
212	0x3da6a453	0.08136811
213	0xbcd925b0	-0.026507229
214	0x3d3b3218	0.04570207
215	0xbc95d44e	-0.018289711
216	0xbd005615	-0.031332094
217	0x3c59c91d	0.013292578
218	0xbdc056e3	-0.09391572
219	0xbd9a242f	-0.07526433
220	0xbd9f0daf	-0.07766282
221	0xbdce5684	-0.10075095
222	0x3d5f3536	0.054494105
223	0xbd4f6c27	-0.05064025
224	0x3d298756	0.041388832
225	0xbdfd0fc0	-0.1235652
226	0xbbb4f680	-0.005522549
227	0xbd418916	-0.047249876
228	0x3d218707	0.039435413
229	0x3bd14e64	0.0063875187
230	0xbd8e871d	-0.069593646
231	0xbd1d0514	-0.03833492
232	0x3e04b3c5	0.12959202
233	0x3c31c008	0.0108490065
234	0xbd8ae927	-0.067827515
235	0x3cc857a2	0.02445585
236	0x3d9e150b	0.077188574
237	0x3dab4f0d	0.08364687
238	0x3cdbeecb	0.026847264
239	0x3db890a3	0.09011962
240	0x3dc42e7a	0.09579177
241	0x3d189c1f	0.037258264
242	0x3d32b29a	0.04362736
243	0x3ce3eabb	0.02782189
244	0xbd635aec	-0.05550663
245	0xbda617f7	-0.0811004
246	0xbd6461dd	-0.055757392
247	0xbdd36661	-0.103222616
248	0x3aa0c2ac	0.0012265048
249	0x3d8a74bb	0.06760546
250	0x3ccf7270	0.025323123
251	0x3d941936	0.07231371
252	0xbdc90949	-0.09816224
253	0x3cb8e52e	0.022570219
254	0xbc8c2979	-0.01710962
255	0x3da5f5fa	0.08103557

encoder_rnn.bias_ih_l0 f4 [384]
0	0xbcad84a9	-0.021181421
1	0x3cd2dc4c	0.025739811
2	0x3dd284f5	0.10279266
3	0xbd66439b	-0.056216817
4	0xbd85fac2	-0.06541969
5	0x3c9b19e5	0.018933246
6	0xbdb9578a	-0.090499
7	0x3db73d9d	0.08947299
8	0xbd0dde32	-0.03463573
9	0xbc688fe8	-0.014194466
10	0x3dab281d	0.083572604
11	0x3d342aba	0.04398606
12	0xbdad080a	-0.08448799
13	0xbcce4286	-0.025178205
14	0x3be1d0e9	0.006891359
15	0x3cc0c45c	0.023531131
16	0x3cb02414	0.021501578
17	0xbb28325f	-0.002566479
18	0xbd831f60	-0.06402469
19	0x3d16a41c	0.0367776
20	0x3dc4429a	0.09583016
21	0xbd6860f0	-0.05673307
22	0xbdb7c338	-0.08972782
23	0xbd82ca44	-0.06386235
24	0x3d3800e9	0.044922743
25	0x3d998856	0.07496707
26	0x3d3e2f6e	0.04643195
27	0xbd975ca6	-0.07390718
28	0x3d9931db	0.07480212
29	0xbbc0c623	-0.0058829947
30	0xbd2fa7a0	-0.04288447
31	0xbd9c2263	-0.07623746
32	0x3dc4df44	0.09612897
33	0x3d17363a	0.03691695
34	0xbdcd1444	-0.10013631
35	0xbd5195c8	-0.051168233
36	0xbdbd398e	-0.09239493
37	0x3dc4c129	0.09607155
38	0xbd293a25	-0.041315217
39	0x3dc47e19	0.09594364
40	0x3de9f872	0.1142434
41	0x3cc3bad2	0.023892794
42	0x3dce5588	0.100749075
43	0xbd89e741	-0.06733561
44	0x3db8e73e	0.09028481
45	0x3e06bd09	0.13158049
46	0x3dbdf463	0.09275129
47	0xbc59b995	-0.013288875
48	0x3e07cefd	0.13262554
49	0x3ce5c82e	0.028049555
50	0xbcf7e129	-0.030258732
51	0x3e0bf9f0	0.13669562
52	0xbe06e57e	-0.13173482
53	0xbd4decbf	-0.050274607
54	0x3c64ef14	0.013973016
55	0xbd618f14	-0.05506809
56	0xbb4bd34a	-0.003110128
57	0x3e00e3b4	0.12586862
58	0x3b514d5b	0.0031936977
59	0xbd5f4c87	-0.05451634
60	0xbcbd1143	-0.02307952
61	0xbcf86f3f	-0.030326484
62	0x3dbb6210	0.09149563
63	0xbaddd515	-0.0016924465
64	0x3d957505	0.0729771
65	0xbd4b0632	-0.049566455
66	0xbc265edb	-0.010154451
67	0x3cd70e2e	0.026251879
68	0x3dc1691e	0.09443878
69	0xbd952b07	-0.072835974
70	0x3d4e64ee	0.050389223
71	0x3a5ca362	0.000841668
72	0xbdc0282f	-0.093826644
73	0x3ca3037f	0.019899128
74	0x3d000b10	0.03126055
75	0xbb912ae0	-0.00443016
76	0x3d6cf606	0.057851814
77	0x3d9b8472	0.07593621
78	0xbbf1340d	-0.0073609413
79	0xbd996150	-0.07489264
80	0x3dace4d0	0.0844208
81	0x3caf43ea	0.021394689
82	0x3dd2b322	0.10288073
83	0x3bb5e9fc	0.0055515748
84	0xbc962e27	-0.018332554
85	0x3c32b710	0.010907903
86	0x3d264c1d	0.04059993
87	0x3db6de3a	0.08929105
88	0xbd1b313d	-0.037888754
89	0xbd60853f	-0.054814573
90	0x3cbecad4	0.023290075
91	0x3dbd0709	0.092298575
92	0xbdaf178e	-0.085494146
93	0xbce4e411	-0.027940782
94	0x3b74c1a6	0.0037346869
95	0xbdb5f280	-0.08884144
96	0x3d837df4	0.06420508
97	0xbd50a0ca	-0.05093459
98	0xbb43f07b	-0.0029897976
99	0x3d615c0d	0.055019427
100	0x3da4bd75	0.080439486
101	0x3caa2734	0.020770647
102	0xbc703485	-0.014660959
103	0x3bfbc920	0.007683888
104	0xbd5d92a7	-0.054094937
105	0xbbdde475	-0.006771619
106	0x390b2341	0.00013269206
107	0xbda43b58	-0.080191314
108	0x3d0114e6	0.03151407
109	0x3e0dc0d5	0.13843091
110	0x3c6d3da7	0.014480031
111	0x3db7e794	0.08979717
112	0x3cb122a1	0.021622958
113	0xbda9a992	-0.08284296
114	0xbddeb830	-0.10874975
115	0xbd559cfe	-0.052151673
116	0x3d89afe8	0.067230046
117	0x3b3f8c47	0.00292279
118	0xbcfd0fb2	-0.030891273
119	0xbcd4bff7	-0.025970442
120	0xbc920fd0	-0.017829806
121	0x3ce49620	0.027903616
122	0xbdd1c7d5	-0.10243193
123	0x3ba291e9	0.0049612415
124	0x3b179302	0.0023128395
125	0x3d452e45	0.04813983
126	0xbc9b22eb	-0.018937549
127	0xbd2eaf1e	-0.042647474
128	0xbd1c3759	-0.03813872
129	0x3ca0a0e9	0.019607978
130	0xbc8613b7	-0.016366823
131	0x3da2cfe6	0.0794981
132	0x3cab5e3f	0.020918963
133	0x3cb42108	0.021988407
134	0x3c6ca27a	0.014443034
135	0xbc982a7d	-0.018574947
136	0x3d141c4c	0.0361598
137	0x3d1cc45a	0.038273193
138	0xbd5ed7e6	-0.054405116
139	0x3b4ee016	0.003156667
140	0x3d9192ad	0.07108054
141	0x3d3b4f2f	0.045729812
142	0x3d130a54	0.03589852
143	0xbde0122a	-0.109409645
144	0x3b92ca97	0.004479717
145	0x3db3c9b2	0.08778705
146	0xbcb46a6e	-0.022023406
147	0x3d965111	0.07339681
148	0x3dc28c0e	0.094993696
149	0xbd162aea	-0.03666202
150	0xb93e3156	-0.00018138191
151	0x3d337bd9	0.043819282
152	0x3d3c5266	0.04597702
153	0xbda0e160	-0.07855487
154	0xbc706847	-0.014673299
155	0x3d41da2d	0.04732721
156	0xbd13e048	-0.036102563
157	0xbc840cbb	-0.016119352
158	0xbc88ed4e	-0.016714718
159	0xbc4d9a6e	-0.012549026
160	0xbdbfb463	-0.09360578
161	0xbd1df6bb	-0.03856538
162	0x3ddb4f54	0.1070849
163	0x3da3e8c4	0.08003381
164	0xbd3375f0	-0.043813646
165	0xbd63429f	-0.055483457
166	0x3dcce598	0.10004729
167	0x3cc19999	0.023632811
168	0x3cfa1516	0.030527633
169	0xbd97f82b	-0.07420381
170	0x3e1a3955	0.15060933
171	0x3d14d392	0.03633458
172	0x3ca72de2	0.02040762
173	0x3d1f2260	0.038851142
174	0x3cf2e5cc	0.029650591
175	0xbce151c3	-0.027504807
176	0xbdc53a90	-0.096303105
177	0x3cf71d13	0.03016523
178	0x3c9fbf5c	0.019500427
179	0x3cfb88cd	0.03070488
180	0x39a23cba	0.00030944293
181	0x3daa6c7c	0.08321473
182	0xbcc13c28	-0.023588255
183	0xbd748dbd	-0.059705485
184	0x3d96626a	0.0734299
185	0x3d73b408	0.059497863
186	0x3dd7f0f8	0.10544008
187	0xbdfe3414	-0.12412277
188	0xbc8fc08b	-0.017547866
189	0xbde7c275	-0.113163866
190	0xbc2666d2	-0.01015635
191	0x3ddad183	0.106844924
192	0xbd459a4d	-0.048242856
193	0xbcf9cb0f	-0.030492334
194	0x3cdd0157	0.026978178
195	0x3d434f21	0.047682885
196	0xbda3d0af	-0.079987876
197	0x3c13ec73	0.009028542
198	0xbc40d497	-0.011769435
199	0xbd49c082	-0.049255855
200	0xbc59ab42	-0.01328546
201	0x3d1d79f3	0.038446378
202	0xbd37ba13	-0.04485519
203	0x3d9d951f	0.07694458
204	0x3d945a0d	0.07243738
205	0x3dbb8970	0.091570735
206	0xbd7b6c99	-0.061382864
207	0xbc0023ff	-0.007821082
208	0x3ccd4dfb	0.025061598
209	0xbd7df497	-0.062000837
210	0x3b97fc7d	0.0046382532
211	0xbde456bb	-0.11149355
212	0xbd115892	-0.035484858
213	0xbd9cca73	-0.076558016
214	0x3d12507b	0.035721283
215	0xbddd912f	-0.10818707
216	0x3d37525e	0.044756286
217	0xbd9154eb	-0.07096275
218	0xbc45f197	-0.012081525
219	0x3d8eeef2	0.06979169
220	0xbd4a780a	-0.049430884
221	0x3dc1d2aa	0.09464009
222	0xbd86be3d	-0.06579254
223	0x3d7884db	0.060673576
224	0xbd5d5034	-0.054031566
225	0x3d545979	0.05184314
226	0xbd8cb753	-0.06870904
227	0x3cbd422d	0.023102844
228	0xbcedca70	-0.029027194
229	0x3cc54a45	0.024083266
230	0xbdc4d24f	-0.09610426
231	0xbb0ca75f	-0.0021462066
232	0xbcd26cc7	-0.025686635
233	0xbd997832	-0.074936286
234	0xbc1c22a5	-0.009529744
235	0xbd4f33dd	-0.05058657
236	0xbca6e77d	-0.020374054
237	0x3db74408	0.08948523
238	0x3d439dc1	0.047757868
239	0x3db19524	0.086710244
240	0x3c5a40c7	0.013321108
241	0x3c89b78a	0.016811151
242	0x3ce6ea30	0.028187841
243	0x3d992e8f	0.074795835
244	0xbcd663cb	-0.026170632
245	0x3d9ea2b4	0.07745877
246	0xbd95c9b5	-0.07313863
247	0x3c97a544	0.018511422
248	0xbd127140	-0.035752535
249	0x3da5ec0c	0.08101663
250	0x3d3b26b8	0.045691222
251	0xbd9ce36e	-0.07660566
252	0x3d442631	0.047887985
253	0xbd0a9dd8	-0.033841938
254	0xbd499a84	-0.049219623
255	0x3be9d63f	0.007136136

encoder_rnn.bias_hh_l0 f4 [384]
0	0xbbb0a95b	-0.0053912825
1	0xbd97ff15	-0.074217
2	0xbd4e52a4	-0.05037178
3	0xbd817d1f	-0.06322693
4	0x3cf484e2	0.02984852
5	0xbcc4a558	-0.024004623
6	0x3d1be3da	0.038059093
7	0xbced47a8	-0.028964832
8	0x3d915f86	0.07098298
9	0x3db5db86	0.088797614
10	0xbceac00b	-0.028656026
11	0x3d2158dd	0.039391387
12	0x3d108226	0.03528037
13	0xbd7387f7	-0.059455838
14	0x3ca30f01	0.019904615
15	0x3d0d0d3a	0.034436442
16	0xbcb5a764	-0.022174545
17	0xbd84fa7d	-0.06493089
18	0xbca3a46a	-0.01997586
19	0x3dd1d15b	0.102450095
20	0xbcdd81e1	-0.02703947
21	0x3d6661d8	0.056245655
22	0x3b8faef0	0.004384868
23	0x3be01267	0.006838131
24	0x3b9caa95	0.004781077
25	0x3d669d29	0.056302223
26	0x3d7e80c8	0.062134534
27	0xbd87dc9c	-0.06633875
28	0xbb1987d2	-0.0023426902
29	0x3dcaa394	0.09894481
30	0x3d410779	0.047126267
31	0xbddf2df5	-0.108974375
32	0x3d86dc85	0.065850295
33	0x3d4989a4	0.04920353
34	0xbdb9322e	-0.09042774
35	0xbdc890e7	-0.09793263
36	0xbd5ddd87	-0.054166343
37	0xbc982471	-0.018572064
38	0xbbf7cea1	-0.007562474
39	0x3d8c5a36	0.06853144
40	0x3cf1151c	0.029429011
41	0x3c77eaf2	0.015131699
42	0x3d6d40ce	0.05792313
43	0x3c5a1d7f	0.0133126965
44	0x3c4f94fc	0.012669798
45	0xbc2eb5e9	-0.010663488
46	0xbd1af69a	-0.037832834
47	0xbd15d49d	-0.036579717
48	0x3de01011	0.109405644
49	0x3db655cb	0.089030825
50	0xbdb3c378	-0.08777517
51	0x3db6c5dc	0.089244574
52	0xbcf144aa	-0.029451687
53	0xbd9e3052	-0.0772406
54	0x3d39e435	0.04538365
55	0xbc7f0a8c	-0.015566479
56	0x3da6f7af	0.08152711
57	0x3c9cd08a	0.019142408
58	0xbd07a65c	-0.033117637
59	0x3dbe92e7	0.09305363
60	0x3ddd2822	0.1079867
61	0xbdce6e5a	-0.10079642
62	0xbd49b1e6	-0.049241923
63	0xbda05eea	-0.078306034
64	0x3d2b80ca	0.04187087
65	0x3d1ab86a	0.037773527
66	0xbcd4431d	-0.025910908
67	0x3d6d2bdd	0.05790316
68	0x3db4d574	0.088297755
69	0xbe1ef59e	-0.15523383
70	0x3d419e67	0.047270205
71	0xbd7a81dd	-0.061159004
72	0xbc69928e	-0.014256133
73	0x3d4a28ef	0.049355444
74	0x3d7b4883	0.06134845
75	0x3dc0b907	0.09410291
76	0x3d2663df	0.04062259
77	0x3dd27dba	0.10277887
78	0x3d538c7f	0.05164766
79	0xbdc4fe89	-0.09618861
80	0x3c77cd36	0.01512461
81	0x3d9a6d43	0.07540371
82	0x3d0a6ea1	0.03379691
83	0x3d970c75	0.07375423
84	0xbc83b744	-0.016078599
85	0x3dda5ae3	0.106618665
86	0x3c12467f	0.00892794
87	0x3abdfff7	0.0014495839
88	0x3cfa58a3	0.030559843
89	0xbdab9f6c	-0.08380017
90	0x3c05fb09	0.008177527
91	0x3d1a4b76	0.03766962
92	0xbdd0e8de	-0.10200666
93	0xbdc5830f	-0.09644138
94	0xbd91c2dc	-0.071172446
95	0xbdb04c7e	-0.0860834
96	0x3db27153	0.08713021
97	0xb94c44a2	-0.00019480524
98	0x3d880ab9	0.0664267
99	0x3d88540b	0.06656655
100	0x3c507316	0.012722751
101	0xbd1519cb	-0.03640155
102	0xbd322071	-0.04348797
103	0xbd792305	-0.060824413
104	0xbe0ac1ae	-0.13550445
105	0xbde03147	-0.10946899
106	0xbe20eb1e	-0.1571469
107	0xba868d49	-0.0010265495
108	0xbd8a3430	-0.06748235
109	0x3d950e37	0.07278102
110	0xbcfa2e98	-0.030539796
111	0xbc78c988	-0.015184768
112	0x3da91298	0.082554996
113	0x3d37765a	0.044790603
114	0x3ce250aa	0.027626354
115	0xba7eab24	-0.0009714833
116	0xbd9e329f	-0.07724499
117	0x3d729536	0.05922433
118	0xbdc12e84	-0.094327
119	0xbc82ecce	-0.015982058
120	0xbc4b3181	-0.012401939
121	0xbd057546	-0.032582544
122	0x3c7a3ef9	0.015273803
123	0xbd9cc4e6	-0.07654743
124	0x3c4f60e9	0.0126573825
125	0x3ce50896	0.027958196
126	0x3c711735	0.014715006
127	0xbd06b675	-0.03288885
128	0xbb8c9d96	-0.0042912466
129	0xbd9ebe99	-0.07751197
130	0x3d6288ee	0.055306368
131	0xbc322582	-0.0108732
132	0xbcf6b26b	-0.030114373
133	0xbd6ee470	-0.058323324
134	0xbd8c219c	-0.06842348
135	0xbd6588c6	-0.05603864
136	0xbc99c7f3	-0.018772101
137	0x3d947660	0.07249141
138	0x3cee3a31	0.029080482
139	0xbb0a2dab	-0.002108435
140	0x3c4245f1	0.011857496
141	0x3c8b66f4	0.017016865
142	0x3d053bb0	0.032527626
143	0x3b08816c	0.0020829095
144	0xbce2d11c	-0.027687602
145	0x3bd7d0fa	0.0065861912
146	0x3e0bb5ab	0.1364352
147	0xbc183f01	-0.009292365
148	0xbd16b307	-0.036791828
149	0xbb6824f0	-0.0035422407
150	0xbd568036	-0.052368365
151	0xbd54d12f	-0.051957306
152	0x3d4a2dea	0.049360193
153	0xbd457ec0	-0.04821658
154	0x3d1ecd7b	0.03877018
155	0xbd601609	-0.054708514
156	0x3c0a8832	0.008455323
157	0xbce14b7d	-0.027501816
158	0xbc65d58a	-0.014027962
159	0x3c9891d2	0.01862422
160	0xbd75aa03	-0.05997659
161	0x3cdbb96c	0.026821814
162	0x3c8c735d	0.017144853
163	0xbcb7c236	-0.022431474
164	0x3cbd2696	0.023089688
165	0xbc01e94d	-0.007929158
166	0xbca03497	-0.019556327
167	0x3d415d59	0.047208164
168	0xbdbcc309	-0.092168875
169	0x3c860006	0.016357433
170	0x3cb6dc5f	0.022321878
171	0xbd9dcb36	-0.07704775
172	0x3d470148	0.048585206
173	0xbdba246a	-0.09088977
174	0x3cb2f267	0.021844102
175	0x3d81e93e	0.063433155
176	0xbc8bdac4	-0.017072089
177	0xbd3d61fd	-0.046236027
178	0x3d86e808	0.06587225
179	0xbb5c9273	-0.0033656626
180	0x3db818c7	0.08989101
181	0xbd9c9e99	-0.076474376
182	0xbd7db757	-0.061942425
183	0xbbfb4e0e	-0.007669217
184	0x3b25a701	0.0025276544
185	0xbd2a83ac	-0.04162948
186	0x3d391b7a	0.04519222
187	0xbc09c3fd	-0.008408544
188	0x3ca2c6a5	0.019870112
189	0xbdc8baa9	-0.098012276
190	0x3b810ea7	0.0039385143
191	0xbd1dbfe7	-0.03851309
192	0xbe1c287f	-0.15249823
193	0x3d6b97c9	0.0575178
194	0x3dbd46ea	0.092420414
195	0x3d6cb446	0.05778911
196	0x3d23d51d	0.039998163
197	0xbd7f0085	-0.062256355
198	0xbcaad058	-0.0208513
199	0xbd970b3d	-0.073751904
200	0xbc76b11d	-0.015056876
201	0x3d91090b	0.07081803
202	0x3d1ad94d	0.03780489
203	0xbd066b96	-0.032817446
204	0x3d93588f	0.071946256
205	0xbcaea617	-0.021319432
206	0x3d1d2f2d	0.03837507
207	0x3daf2b50	0.08553183
208	0x3b50cfda	0.003186217
209	0x3d3596eb	0.04433338
210	0xbd26ec11	-0.040752474
211	0xbc967911	-0.018368276
212	0x3db25ea4	0.087094575
213	0xbd9ddf1d	-0.07708571
214	0x3d25b195	0.04045256
215	0xbdbce3de	-0.0922315
216	0x3de4f242	0.111790195
217	0xbda7ff37	-0.08202975
218	0x3d043f9e	0.032287233
219	0x3dcac997	0.099017315
220	0x3cea4bee	0.02860066
221	0x3d8155f2	0.06315221
222	0xbdd60eee	-0.10452066
223	0xbca5c461	-0.020235242
224	0xbdfe4541	-0.12415553
225	0xbdd6f858	-0.104965866
226	0xbd83a394	-0.064276844
227	0x3d692c80	0.056927204
228	0xbd447461	-0.04796255
229	0xbbf6738f	-0.0075211
230	0xbd6d4df0	-0.057935655
231	0x3cea3574	0.028589942
232	0xbcd9d730	-0.026591867
233	0x3d4e0ca7	0.050305035
234	0xbd263433	-0.040577125
235	0xbd20ca20	-0.03925526
236	0x3d430a34	0.047617152
237	0x3e0103f4	0.12599164
238	0x3d5df393	0.05418737
239	0xbcd0c9cc	-0.02548685
240	0x3e26e51b	0.16298334
241	0x3ca376f3	0.01995418
242	0x3d0c6647	0.034277227
243	0x3d47bc4a	0.04876355
244	0x3dade4c9	0.08490903
245	0xbd50db8b	-0.050990622
246	0x3d18656d	0.037206102
247	0x3d263700	0.040579796
248	0x3d17a586	0.03702309
249	0x3d5cbb95	0.05388983
250	0xbd3853e4	-0.04500188
251	0x3cabe635	0.020983795
252	0xbdb7f91e	-0.08983062
253	0xbd42d39c	-0.047565088
254	0x3c8acb7a	0.016942728
255	0xbdb47834	-0.088119894

decoder_rnn.weight_ih_l0 f4 [384, 128]
0	0x3cc9f532	0.024653051
1	0x3cd4d8fc	0.025982372
2	0xbcf92908	-0.030415073
3	0x3da5042d	0.08057437
4	0x3b5967d8	0.0033173468
5	0xbda8148d	-0.08207045
6	0xbd890eb1	-0.06692255
7	0x3dab42d7	0.08362358
8	0xbd5a91db	-0.053361755
9	0x3da3a538	0.07990497
10	0x3da29670	0.0793885
11	0xbc3514dc	-0.011052337
12	0xbd5e3025	-0.054245133
13	0xbd24b302	-0.040209778
14	0x3d446fcf	0.04795819
15	0x3d69574c	0.05696802
16	0xbd7719cb	-0.060327332
17	0xbc6f2ea1	-0.01459852
18	0xbd08134e	-0.033221535
19	0x3d0e8234	0.03479214
20	0xbd14c2e7	-0.036318686
21	0xbd086b95	-0.033305723
22	0xbd8065b3	-0.062693976
23	0x3d238d49	0.039929662
24	0xbd8293ec	-0.0637587
25	0xbda3d390	-0.07999337
26	0x3db365f6	0.08759682
27	0xbda8b3b3	-0.082374
28	0xbd9dca42	-0.07704593
29	0xbd93aa6e	-0.07210241
30	0x3d82b974	0.063830286
31	0xbb8d6bb1	-0.0043158163
32	0xbd8965a0	-0.067088366
33	0x3cc3e305	0.023911962
34	0x3d487dc1	0.048948053
35	0x3c92ce65	0.017920682
36	0xbc9f6903	-0.019459253
37	0xbc51c7be	-0.01280397
38	0x3cd043fc	0.025423042
39	0xbd95f720	-0.07322526
40	0xbd547b67	-0.0518755
41	0xbd667908	-0.05626777
42	0x3da218f8	0.07914919
43	0xbd475769	-0.048667345
44	0x3c41a85c	0.011819925
45	0x3cb303ae	0.02185234
46	0x39ce646f	0.0003936621
47	0xbc8d71d0	-0.017266184
48	0xbcfce104	-0.030869015
49	0x3d5412b5	0.051775653
50	0x3d8b1162	0.06790425
51	0x3da667d3	0.08125272
52	0x3d3de95e	0.046365134
53	0xbcb1b214	-0.02169136
54	0x3c3c131f	0.011479168
55	0xbca9058b	-0.020632526
56	0x3c9098ff	0.01765108
57	0x3da2cd30	0.07949293
58	0xbd8f2cae	-0.06990944
59	0xbda3fea0	-0.0800755
60	0xbda17c83	-0.07885077
61	0xbd3dbf68	-0.046325117
62	0x3d2432de	0.040087573
63	0x3c290ba4	0.010317717
64	0xb94731b6	-0.00018996638
65	0x3cf569f3	0.029957747
66	0x3c9f30cb	0.019432446
67	0xbdae583e	-0.085129246
68	0xbc97af69	-0.01851626
69	0x3d30266e	0.0430054
70	0xbd424c8b	-0.04743628
71	0x3d372235	0.044710357
72	0xbc5bc43e	-0.013413487
73	0x3d3d21d8	0.046174854
74	0xbd42fe94	-0.047606066
75	0xbd7254ad	-0.059162784
76	0x3b98ea0d	0.004666573
77	0x3d5aacb1	0.053387348
78	0xbda60537	-0.081064634
79	0xbb97d35c	-0.0046333503
80	0xbda49ab5	-0.080373205
81	0x3d793146	0.060838006
82	0xbd91db61	-0.07121921
83	0x3d672bf4	0.0564384
84	0x3c3db2f2	0.011578308
85	0xbd17c7dc	-0.037055835
86	0x3db4d1a1	0.08829046
87	0xbd756492	-0.059910364
88	0xbd8e6eca	-0.06954725
89	0x3d01ad01	0.03165913
90	0x3cb7fc62	0.022459213
91	0x3c8416ff	0.016124247
92	0x3d0d9f00	0.034575462
93	0xbd3b4aa5	-0.045725483
94	0x3cb50247	0.022095812
95	0xbc555838	-0.013021521
96	0x3d8eaf6c	0.06967053
97	0x3daf0a73	0.08546915
98	0xbbffb124	-0.007803099
99	0x3da7045c	0.08155128
100	0xbcce5195	-0.025185386
101	0x3db17fc5	0.08666948
102	0xbac61849	-0.0015113439
103	0xbdb03880	-0.086045265
104	0x3d0e4ef0	0.03474325
105	0x3d416417	0.047214594
106	0xbd8ed8d8	-0.069749534
107	0xbd180021	-0.037109498
108	0x3d8a60a5	0.06756715
109	0xbcd057b7	-0.02543245
110	0xbd9d4aa4	-0.07680252
111	0xbd133f22	-0.03594888
112	0x3b251c5e	0.002519391
113	0xbd15e90f	-0.036599215
114	0xbda54d91	-0.08071435
115	0x3cea08c2	0.02856863
116	0xbd946a87	-0.07246881
117	0xbc7b206d	-0.015327555
118	0xbdb4a8f3	-0.08821287
119	0x3d6e3921	0.05815995
120	0xbd25d648	-0.040487558
121	0xbc73401c	-0.014846828
122	0xbd339cd5	-0.04385074
123	0x3dacc59e	0.0843613
124	0x3c17bbf0	0.009261116
125	0xbbc2d098	-0.0059452765
126	0xbc5f05f7	-0.013612262
127	0xbd7b12fa	-0.061297394
128	0x3c39798e	0.011320485
129	0xbd27d769	-0.040976916
130	0x3d724823	0.059150826
131	0xbc1e324e	-0.009655548
132	0xbd4ba0ac	-0.049713776
133	0x3d07f7b5	0.033195216
134	0x3d573897	0.052544203
135	0xbce38895	-0.027775088
136	0x3b928dd9	0.004472476
137	0x3bdc41d8	0.0067217164
138	0xbd8962df	-0.06708311
139	0x3c7c4deb	0.0153994365
140	0xbd7aaaab	-0.061197918
141	0xbda2ac7f	-0.07943057
142	0x3ceaef9b	0.028678706
143	0xbd9b0168	-0.075686276
144	0xbd1551c6	-0.03645494
145	0x3ca6ed2e	0.020376768
146	0x3b6fdb35	0.0036599163
147	0x3db2bbab	0.08727201
148	0xbd85a10f	-0.0652486
149	0xbd4f7c86	-0.050655864
150	0xbc451bfb	-0.012030597
151	0x3d8ce80f	0.06880199
152	0x3cd5be00	0.026091576
153	0xbb3c41bf	-0.002872571
154	0xbc1ea256	-0.009682259
155	0xbd0aa3bc	-0.033847556
156	0x39e92b20	0.00044473354
157	0xbc671039	-0.014102989
158	0x3c0f56a5	0.008748685
159	0xbd815405	-0.063148536
160	0xbdb400a7	-0.08789187
161	0xbb43dcc4	-0.0029886225
162	0xbcbcd341	-0.023049952
163	0x3da7f443	0.08200886
164	0xbd5cbd3e	-0.053891413
165	0xbc4d4591	-0.012528793
166	0x3d2eb390	0.042651713
167	0xbca89a10	-0.020581275
168	0xbd900499	-0.07032127
169	0x3d8fd375	0.07022754
170	0xbad251f0	-0.0016046148
171	0x3dad6353	0.0846621
172	0x3d265461	0.040607814
173	0xbd120bdd	-0.035655845
174	0xbc7bc293	-0.015366214
175	0x3cc6f070	0.024284571
176	0xbce28376	-0.027650576
177	0xbd66b00e	-0.056320243
178	0xbd1cd7a2	-0.03829158
179	0x3d7e793d	0.06212734
180	0xbd56dc85	-0.052456398
181	0x3d9f0594	0.07764736
182	0xbd5c3a9b	-0.053766828
183	0xbcbcd210	-0.023049384
184	0xbd859bea	-0.06523879
185	0xbd410fd9	-0.047134254
186	0xbd9049d5	-0.07045332
187	0x3da07f2a	0.078367546
188	0xbd394a23	-0.045236718
189	0x3cf50f33	0.029914474
190	0x3d0870a5	0.03331055
191	0xbd57d22f	-0.05269068
192	0xbd69cd46	-0.05708053
193	0x3d9d10cf	0.076692216
194	0x3cc69b79	0.024244057
195	0xbc2de0fd	-0.010612723
196	0x3d86a4cb	0.065744005
197	0x3d803c33	0.06261482
198	0x3d8c341e	0.06845878
199	0xbc93ad99	-0.018027114
200	0x3d997b84	0.07494262
201	0x3b04050d	0.0020144612
202	0xbc73ad50	-0.014872864
203	0xbd2787c8	-0.040900975
204	0xbd0e7ac4	-0.034785047
205	0x3d03d295	0.03218325
206	0x3d540dde	0.051771037
207	0x3d94ef89	0.0727225
208	0xbd0c50b7	-0.034256663
209	0x3cc6a5c5	0.024248967
210	0x3c3132ab	0.010815303
211	0x3d2a79db	0.041620117
212	0x399765f0	0.00028876914
213	0x3da44a0f	0.08021938
214	0xba2cb818	-0.00065887114
215	0xbc82fbcc	-0.015989207
216	0x3ce81c3d	0.028333778
217	0x3ba399ef	0.0049927155
218	0xbd8cab67	-0.0686863
219	0xbd545c83	-0.05184604
220	0xbd9b8859	-0.075943656
221	0xbd5cff67	-0.05395451
222	0x3ce09fef	0.027420012
223	0x3b65c7dc	0.0035061752
224	0xbd82fa3c	-0.06395385
225	0xbd440b39	-0.047862265
226	0xbacd6366	-0.0015669882
227	0x3cb3278b	0.021869441
228	0x3cdabe15	0.026701966
229	0xbcd25b65	-0.025678346
230	0x3d922bef	0.07137286
231	0x3d888a21	0.06666971
232	0xbda96fc8	-0.08273274
233	0x3d0191a6	0.03163304
234	0xbc18cb83	-0.009325865
235	0xbdaddce8	-0.084894
236	0x3d91d1b1	0.071200736
237	0xbd2bc8fb	-0.041939717
238	0xbd7fe988	-0.062478572
239	0xbc7451a0	-0.014912039
240	0xbcfbfefc	-0.030761234
241	0xbc72f752	-0.014829474
242	0x3d512b49	0.05106667
243	0x3d3b01c2	0.045655973
244	0xbd93c0ee	-0.07214533
245	0xbc0c0c42	-0.008547844
246	0x3d8a2c04	0.067466766
247	0xbd843e0a	-0.064571455
248	0x3d48cdcd	0.049024392
249	0xbd5a7773	-0.053336572
250	0x3da8c885	0.08241371
251	0x3d748d77	0.059705224
252	0xbbc30940	-0.0059520304
253	0x3d80e2f7	0.0629329
254	0xbd9dc95d	-0.077044226
255	0xbdb05efe	-0.08611868

decoder_rnn.weight_hh_l0 f4 [384, 128]
0	0x3e119d07	0.14220057
1	0x3b8c4c24	0.0042815376
2	0x3dac5550	0.084147096
3	0x3e022124	0.12707955
4	0x3db17737	0.086653166
5	0x3dd22415	0.10260788
6	0xbdb19222	-0.08670451
7	0x3d8d4b17	0.06899088
8	0x3cd3bb22	0.025846068
9	0x3c2fc185	0.010727291
10	0xbe062b45	-0.13102444
11	0xbbb76856	-0.0055971546
12	0x3d5f47ec	0.05451195
13	0xbcfbdfdc	-0.030746393
14	0xbd9f88fa	-0.07789798
15	0xbd2f8c32	-0.04285831
16	0x3d0e7572	0.034779973
17	0xbd3aa71b	-0.04556952
18	0x3d94ed6e	0.072718486
19	0xbd10c1fb	-0.035341244
20	0x3dd9f3a1	0.10642172
21	0x3d960ce8	0.073266804
22	0xbdf02855	-0.11726443
23	0xbce303d2	-0.027711783
24	0xbdbe7c03	-0.09300997
25	0x3cc29e45	0.02375711
26	0x3d063be5	0.032771964
27	0x3da48ada	0.08034296
28	0xbda89818	-0.082321346
29	0x3d028b21	0.031870965
30	0x3a7155b6	0.00092061923
31	0x3cef2bab	0.029195627
32	0xbdffb18d	-0.12485037
33	0x3e1cf3f0	0.1532743
34	0xbdbd5280	-0.09244251
35	0xbc9f0d74	-0.019415595
36	0x3d39dc54	0.045376137
37	0x3b79bb9d	0.003810621
38	0x3d1cf915	0.03832348
39	0x3d73665d	0.059423793
40	0xbd82df42	-0.06390239
41	0x3e2361f6	0.15955338
42	0x3dd178b5	0.10228101
43	0x3c585ee5	0.013206218
44	0x3d8f948d	0.07010756
45	0x3d941389	0.072302885
46	0x3d0e8af7	0.034800496
47	0x3a1c757b	0.00059684337
48	0x3da23b49	0.07921464
49	0xbda2b734	-0.079450995
50	0xbdee21e4	-0.11627558
51	0x3da651b0	0.081210494
52	0xbc800bf0	-0.015630692
53	0xbd88cf64	-0.066801816
54	0xbd6df218	-0.058092207
55	0x3bf20617	0.00738598
56	0xbc912ef2	-0.01772258
57	0xbd6ad10c	-0.05732827
58	0xbd6f0984	-0.058358684
59	0xbd3df955	-0.04638036
60	0xbe13a9f7	-0.14420305
61	0xbcf4d85d	-0.029888326
62	0x3dbb7b16	0.09154336
63	0xbd8692c3	-0.06570961
64	0x3dacf8d4	0.08445898
65	0xbe059a9e	-0.13047263
66	0xbcec56e2	-0.028850023
67	0xbd962858	-0.07331914
68	0x3d0f0dd7	0.034925308
69	0xbbc2e5fa	-0.0059478255
70	0xbd535050	-0.051590264
71	0x3d6d1d8b	0.057889502
72	0x3db436e2	0.087995306
73	0xbd887cae	-0.06664406
74	0x3d12106d	0.035660196
75	0xbd7f4cdd	-0.062329162
76	0x3c88739f	0.016656695
77	0x3bedf936	0.0072623743
78	0x3d1a26ba	0.03763459
79	0x3dad7e47	0.08471351
80	0xbd31141b	-0.043232065
81	0xbcfa0bd1	-0.030523213
82	0xbe21c321	-0.15797092
83	0x3c043233	0.008068609
84	0x3d081f8f	0.03323322
85	0x3d760023	0.060058724
86	0x3d89f4f2	0.06736173
87	0xbde54a40	-0.11195803
88	0xbd9729c6	-0.073810145
89	0x3da8f103	0.08249094
90	0x3ccdcb5a	0.02512138
91	0x3c6facd5	0.014628609
92	0xbd90231f	-0.07037949
93	0x3db93a0b	0.09044274
94	0x3e0517ae	0.12997314
95	0x3b14ccc7	0.0022705065
96	0xbd3b20c3	-0.04568554
97	0x3d116b08	0.035502464
98	0x3d1f5891	0.038902823
99	0x3d24d74a	0.04024438
100	0x3d7e7e45	0.06213214
101	0x3d5f8f5f	0.05458009
102	0xbdf9cef8	-0.12197679
103	0xbbf0275e	-0.0073289117
104	0xbc8a6520	-0.016893923
105	0x3da9c541	0.08289576
106	0xbc9ebd35	-0.01937733
107	0x3d1969ce	0.03745442
108	0xbcd61780	-0.026134253
109	0x3e0c0c0a	0.13676468
110	0x3d146a2b	0.036234062
111	0xbdb37829	-0.08763153
112	0xbb8fbf34	-0.004386807
113	0xbd9a2863	-0.075272344
114	0x3c598c77	0.013278118
115	0x3c9414c9	0.018076317
116	0xbd7a4e4a	-0.06110982
117	0xbd3eb539	-0.046559546
118	0xbd12ecdd	-0.03587042
119	0xbc65de8a	-0.014030108
120	0xbd2a5ea5	-0.041594166
121	0x3c2f5c30	0.010703132
122	0x3c761338	0.015019231
123	0x3dc5a90b	0.09651383
124	0x3d04123c	0.032243952
125	0xbd6fc614	-0.05853851
126	0x3bbf0a11	0.0058300574
127	0xbda4dd73	-0.080500506
128	0xbc06561f	-0.008199244
129	0x3d4b138a	0.04957918
130	0x3d524bd3	0.051341843
131	0x3a77f8a9	0.00094593555
132	0xbd5b79ac	-0.053582832
133	0x3d71a3f7	0.05899426
134	0x3d0ebbaa	0.03484694
135	0xbd564bd7	-0.05231842
136	0xbd2f7560	-0.042836547
137	0x3d9adabe	0.07561253
138	0x3cc5b6d7	0.024135036
139	0x3d1e4fe0	0.038650393
140	0x3c928ba1	0.017888846
141	0xbae04f1c	-0.001711342
142	0xbdb91749	-0.090376444
143	0x3c4301a4	0.011902247
144	0xbda1e0bc	-0.07904193
145	0x3db95a04	0.09050372
146	0xbd1ecc04	-0.038768783
147	0x3d8846e4	0.06654146
148	0x3a69c89e	0.0008918139
149	0x3de5a16f	0.11212432
150	0xbd42d61e	-0.04756748
151	0xbd0eaff8	-0.034835786
152	0xbc88f608	-0.01671888
153	0xbd3124fd	-0.043248165
154	0xbd39b41f	-0.045337792
155	0x3d9ccc01	0.07656098
156	0xbcc2752e	-0.023737516
157	0x3dff5480	0.12467289
158	0xbc9b7f63	-0.018981641
159	0x3d7e8b57	0.062144604
160	0xbdf3577c	-0.11881921
161	0x3cef118d	0.029183174
162	0x3cccbfdf	0.024993835
163	0x3d3eaa7c	0.046549305
164	0xbd32ca4a	-0.04364995
165	0xbd3b00ec	-0.045655176
166	0xbc9fb1e3	-0.019494003
167	0xbcb1948b	-0.021677276
168	0x3c52a3a8	0.0128564015
169	0x3d91539d	0.07096026
170	0x3dd98965	0.10621909
171	0xbd950068	-0.07275468
172	0xbc436b69	-0.011927464
173	0x3d8d71c5	0.069064654
174	0xbda85f03	-0.08221247
175	0x3d9e66e7	0.07734471
176	0x3cce2769	0.025165277
177	0xbd56b93e	-0.052422754
178	0x3d3df5a1	0.046376828
179	0x3d2b27cc	0.041786
180	0x3d71ff77	0.05908152
181	0x3d0cc85b	0.03437076
182	0x3d44ccf4	0.04804702
183	0x3d9ffa88	0.07811457
184	0xbd268fcc	-0.04066448
185	0xbd3f6183	-0.046723854
186	0xbb78b879	-0.003795175
187	0xbd047a63	-0.03234328
188	0xbc50f86d	-0.012754542
189	0xbd86cbf2	-0.06581868
190	0xbd647235	-0.05577298
191	0xbd79e2b9	-0.061007235
192	0x3c2c8547	0.010529823
193	0xbc838707	-0.016055597
194	0xbdd37119	-0.10324306
195	0x3d3e28d3	0.04642565
196	0xbaf5016f	-0.0018692444
197	0xbc4e53a3	-0.012593183
198	0x3d7837f0	0.06060022
199	0x3cfb1efa	0.03065442
200	0x3ceb6e13	0.02873901
201	0xbd22bcd1	-0.03973085
202	0x3b896918	0.0041934364
203	0x3cb2e6a1	0.021838488
204	0x3cea6d83	0.028616672
205	0x3e06f1f5	0.13178237
206	0xbcf2f05c	-0.029655628
207	0xbcf65ab2	-0.030072544
208	0x3b677fbb	0.0035323936
209	0x3d2f446e	0.04278987
210	0x3c051aef	0.008124097
211	0x3d090b2d	0.033457924
212	0xbc450690	-0.01202549
213	0x3cd9f891	0.026607784
214	0xbd7b7ca2	-0.061398156
215	0xbd4e35da	-0.050344326
216	0xbdba9de6	-0.09112148
217	0x3d872315	0.06598488
218	0x3b8f06b2	0.004364812
219	0x3ca38d87	0.019964946
220	0xbe08dd9a	-0.13365784
221	0xbd6c89bb	-0.057748538
222	0x3d6e7054	0.058212593
223	0xbd878e49	-0.066189356
224	0xbda58b23	-0.08083179
225	0x3d67cfe9	0.056594763
226	0x3df3c367	0.119025044
227	0x3c625969	0.013815262
228	0xbcaeccad	-0.021337831
229	0xbd179474	-0.03700681
230	0xbca5e8e5	-0.020252654
231	0x3d0f2ad0	0.03495294
232	0x3cd1d8d3	0.025616085
233	0xbd743d7e	-0.059628956
234	0x3dddef0f	0.108366124
235	0x3d72de17	0.059293833
236	0x3d7407f6	0.059577905
237	0x3d92bfa5	0.071654595
238	0xbd61238c	-0.05496554
239	0xbd31f6a4	-0.043448105
240	0x3d680f48	0.0566552
241	0x3d8ee8a6	0.06977968
242	0xbd3bcc52	-0.045849152
243	0x3d9944f4	0.07483855
244	0xbd3c7f44	-0.046019807
245	0x3d43d8a6	0.047814034
246	0xbda954a2	-0.082680956
247	0xbdb58472	-0.088631526
248	0xbdc3b867	-0.09556656
249	0xbcb8a383	-0.022538906
250	0x3e0e3ce6	0.13890418
251	0xbc0e35e7	-0.0086798435
252	0x3cffc552	0.03122202
253	0x3d416747	0.047217634
254	0x3d702db7	0.058637347
255	0xbc66665d	-0.014062491

decoder_rnn.bias_ih_l0 f4 [384]
0	0x3d1e724d	0.038683224
1	0x3d79f824	0.06102766
2	0xbcec3ba0	-0.028837025
3	0xbc94ea21	-0.018178048
4	0x3c3c4bb1	0.011492656
5	0x3c76f84b	0.015073846
6	0x3cd20398	0.02563648
7	0x3dcba919	0.09944362
8	0x3d55648e	0.05209785
9	0x3bc417d8	0.0059842877
10	0x3dd273e5	0.102760114
11	0x3de54e9a	0.11196633
12	0xbc0d821e	-0.008636979
13	0xbd48c22b	-0.049013298
14	0xbd2bc963	-0.041940104
15	0xbd9b1638	-0.07572597
16	0x3cc70689	0.024295108
17	0xbbb3c1c0	-0.0054857433
18	0x3d959d76	0.07305424
19	0x3dab28a3	0.0835736
20	0x3d6360ab	0.05551211
21	0x3ca4a88e	0.020099904
22	0x3cd6cfe9	0.026222186
23	0xbd8efb11	-0.06981481
24	0xbca05b5e	-0.019574817
25	0xbd521f41	-0.051299337
26	0x3ddd3929	0.10801918
27	0xbd76b49d	-0.06023084
28	0x3e0a6cd7	0.13518082
29	0xbda093cd	-0.07840691
30	0xbd189b9b	-0.037257772
31	0x3d4371da	0.047716
32	0x3ca1511a	0.019691993
33	0x3d89a092	0.067200795
34	0xbd0640f1	-0.032776777
35	0x3d62687e	0.055275433
36	0x3d33882f	0.043831047
37	0xbcfaf7d0	-0.030635744
38	0x3c61b20b	0.013775359
39	0xbcb7bff7	-0.022430403
40	0x3c8bd940	0.017071366
41	0x3dc477f7	0.09593194
42	0x3dbbbf39	0.09167332
43	0xbd293000	-0.041305542
44	0x3cce2bc4	0.025167353
45	0x3d27dbb8	0.040981025
46	0xbd11ca7e	-0.035593502
47	0x3d763090	0.060104907
48	0x3b43f936	0.002990318
49	0x3dc7f6fe	0.09763907
50	0x3d9ac020	0.07556176
51	0x3de82fbb	0.11337229
52	0xbc855966	-0.01627798
53	0x3ddc0972	0.10743989
54	0x3c7a290b	0.0152685745
55	0x3ce00fbe	0.027351256
56	0x3dc3352e	0.095316276
57	0x3d8b2e73	0.06795969
58	0x3d5dfa8e	0.054194026
59	0x3d6bb443	0.057544958
60	0xbb9ce651	-0.004788198
61	0x3dd5801a	0.10424824
62	0x3d6e8737	0.05823442
63	0x3d4bc782	0.049750812
64	0x3d451fc2	0.04812599
65	0x3de10c3c	0.10988662
66	0x3bd8bbc1	0.006614179
67	0x3df6220f	0.12018215
68	0xbb146728	-0.0022644494
69	0xbd1009ab	-0.03516547
70	0x3daad1c6	0.08340792
71	0x3daa6676	0.08320324
72	0x3de187a5	0.110122
73	0xbbf0045e	-0.0073247394
74	0x3d3c2445	0.045933027
75	0x3d3bf326	0.04588618
76	0x3de5e7df	0.112258665
77	0x3c933553	0.017969763
78	0x3d0a6672	0.033789106
79	0x3d7e057e	0.062016957
80	0x3d6d9ff7	0.058013882
81	0xbc1f5fa6	-0.009727394
82	0x3dceff75	0.10107318
83	0xbb22f6cd	-0.0024866343
84	0xbd69bd51	-0.05706531
85	0xbd34772b	-0.04405896
86	0xbd5a6d28	-0.053326756
87	0xbd171398	-0.03688392
88	0x3d019be0	0.031642795
89	0xbb614fd5	-0.003437986
90	0x3dd6aa5a	0.10481711
91	0x3dc14114	0.09436241
92	0x3c876bd3	0.016530907
93	0xbd5196ac	-0.051169083
94	0x3d437a84	0.047724262
95	0x3dcd4dfc	0.1002464
96	0xbb2d9a93	-0.0026489838
97	0x3d18686b	0.037208956
98	0xbcdc7da5	-0.02691538
99	0x3d1f3642	0.038870104
100	0x3cffd144	0.031227715
101	0x3d5ea880	0.054359913
102	0x3daba2bb	0.08380648
103	0x3cd67788	0.026180044
104	0xbc1a3710	-0.009412542
105	0xbc9d1d39	-0.019178974
106	0x3de9fb07	0.11424833
107	0xbd160be7	-0.036632445
108	0x3d9fb791	0.077986844
109	0xbd262dad	-0.040570904
110	0x3da82e28	0.082119286
111	0x3d26d5bd	0.04073118
112	0xbcac7911	-0.021053823
113	0x3cf99b2b	0.030469498
114	0x3d9e8e8d	0.07742033
115	0xbd0e837d	-0.034793366
116	0x3d8ff1d4	0.07028547
117	0x3e024c6d	0.12724467
118	0xbceba196	-0.028763574
119	0x3da78e38	0.08181423
120	0x3c52aeaf	0.012859031
121	0x3d94d8ad	0.0726789
122	0x3d647025	0.05577101
123	0x3a9cc9a4	0.0011961949
124	0xbc36ba21	-0.011152775
125	0x3d8449ac	0.06459364
126	0xbc7b21a3	-0.015327844
127	0x3dd25c67	0.102715306
128	0x3dd0f468	0.10202867
129	0x3daf6486	0.08564095
130	0x3d10cd56	0.035352074
131	0x3ded5fb0	0.115905166
132	0x3d2e03be	0.042484038
133	0xbdc5873f	-0.09644937
134	0x3bc80b77	0.0061048823
135	0x3d39f377	0.0453982
136	0xbdf8de66	-0.12151794
137	0x3da83bd2	0.08214535
138	0xbc012f8b	-0.00788487
139	0xbd4bd788	-0.049766093
140	0x3c962a9f	0.01833087
141	0x3dedb5c8	0.11606938
142	0x3d9a1dc1	0.07525206
143	0x3dc7b909	0.097520895
144	0x3d0a2bd3	0.0337332
145	0xbbb728f4	-0.005589599
146	0x3e3d0e32	0.18462446
147	0x3d7aece8	0.061261088
148	0x3dae3116	0.08505456
149	0x3c93f4e6	0.018061113
150	0x3e2c1e25	0.16808374
151	0x3d2ada77	0.04171225
152	0x3b234772	0.002491441
153	0x3deae66f	0.11469733
154	0x3e0e5de3	0.13903002
155	0x3dca5c8f	0.098809354
156	0x3d64d2a4	0.055864945
157	0x3dbe4a20	0.09291482
158	0x3d6fe840	0.0585711
159	0xbe265bb8	-0.16245925
160	0x3d19f8e1	0.037590865
161	0x3d82e555	0.06391398
162	0xbc8515e3	-0.016245788
163	0xbdf1a4a9	-0.117989846
164	0xbc79124c	-0.015202116
165	0x3d22c33a	0.039736964
166	0xbbbca8d3	-0.00575743
167	0x3ddfde4e	0.10931073
168	0xbbc3872b	-0.005967041
169	0x3e12a089	0.14319052
170	0x3d8d5745	0.06901411
171	0x3cc3eaf3	0.023915743
172	0xbc1114f9	-0.008855098
173	0x3d63e13a	0.055634715
174	0x3b33c0fa	0.0027428255
175	0x3e3f3a6c	0.1867463
176	0x3bd652ff	0.0065406556
177	0x3e114372	0.14185885
178	0x3da12548	0.07868439
179	0x3da5fc4e	0.08104764
180	0xbd060a19	-0.032724474
181	0x3cb789bc	0.022404544
182	0x3c86a75a	0.016437221
183	0x3dbef6cf	0.09324419
184	0x3d0e77ae	0.034782104
185	0x3e0b3e7d	0.13598056
186	0x3c3a966e	0.011388404
187	0x3d3125ca	0.04324893
188	0x3e4c20d4	0.19934398
189	0xbb28ce7d	-0.0025757842
190	0xbd5be1f0	-0.053682268
191	0x3e090ab4	0.13382989
192	0x3c6923ef	0.014229759
193	0x3d543752	0.05181057
194	0x3e060f5d	0.13091798
195	0x3d35318b	0.0442367
196	0xbcb81f9e	-0.022476014
197	0x3d863cf0	0.06554592
198	0xbd8d83fe	-0.06909941
199	0xbc454226	-0.012039697
200	0x3de7f071	0.113251574
201	0xbda23b34	-0.07921448
202	0x3d2ab262	0.041674025
203	0x3da0e0bf	0.07855367
204	0x3e1e554e	0.15462229
205	0xbcd7526e	-0.026284423
206	0x3d2941c9	0.041322503
207	0x3e03c776	0.12869057
208	0xbcbae27a	-0.02281307
209	0x3c31bf56	0.010848841
210	0xbc67c435	-0.0141459005
211	0x3a84dbe3	0.0010136332
212	0x3ce3bd6f	0.02780029
213	0x3c826c9c	0.01592093
214	0x3d18d58b	0.037313025
215	0x3d2ec2e6	0.04266634
216	0x3da812d5	0.08206717
217	0xbd265c2a	-0.04061524
218	0x3dd979d5	0.10618941
219	0x3d2ac121	0.04168809
220	0x3dbc79a1	0.092028864
221	0xbdc93937	-0.09825366
222	0x3e27c3bc	0.1638326
223	0x3d965ad7	0.07341545
224	0xbd985c99	-0.074395366
225	0xbcc800d7	-0.024414463
226	0x3e0e52c0	0.13898754
227	0x3dfe5c1a	0.12419911
228	0x3e03e287	0.12879382
229	0x3d95a7a9	0.07307369
230	0x3d6c1888	0.057640582
231	0x3dd1d85b	0.10246345
232	0x3d243b5e	0.04009568
233	0xbc445795	-0.011983772
234	0xbd58205b	-0.05276523
235	0xbda1a98a	-0.07893665
236	0x3b8eeb6a	0.0043615596
237	0x3e3bc292	0.18335941
238	0x3d1a4397	0.037662115
239	0xbb8ad9d2	-0.004237392
240	0x3d8dfbfd	0.069328286
241	0xbd233756	-0.039847694
242	0x3d56ea90	0.05246979
243	0xbb9a3efe	-0.0047072163
244	0x3d8fdcae	0.07024513
245	0x3ca1cf92	0.019752298
246	0x3deef0fd	0.116670586
247	0xbd70cb7c	-0.058787808
248	0x3d1c1202	0.03810311
249	0xbd03e173	-0.032197427
250	0x3ddcba65	0.107777394
251	0x3c00e9ea	0.007868269
252	0x3c3376d5	0.010953625
253	0xbde57008	-0.11203009
254	0x3dadb50b	0.08481797
255	0x3e1b7451	0.1518109
