Rudi/checkpoints/autoencoder_model_epoch_8.pth (torch, 682100 bytes, 10 tensors)

encoder_rnn.weight_ih_l0 f4 [384, 40]
0	0xbd03591b	-0.0320674
1	0xbd0910dd	-0.033463348
2	0x3d5df1a7	0.054185536
3	0xbd0a0d47	-0.03370407
4	0xbd73dc87	-0.059536483
5	0x3d536dc4	0.051618353
6	0x3e1c442f	0.15260385
7	0x3dab8f61	0.08376957
8	0x3dfe881b	0.12428304
9	0x3d7cb403	0.06169511
10	0x3d9b46a9	0.07581837
11	0x3d904d3f	0.070459835
12	0x3df189a0	0.11793828
13	0xbcf24c5e	-0.02957743
14	0x3d80ed45	0.062952556
15	0x3d1ffb7c	0.039058194
16	0xbba1e926	-0.0049411235
17	0xbdb0a1bc	-0.086245984
18	0x3d58fd54	0.052975968
19	0xbcb5acd9	-0.022177147
20	0x3debd4c4	0.11515191
21	0x3cc30c19	0.02380948
22	0x3d03f3bf	0.032214876
23	0x3de80fbe	0.113311276
24	0x3d8c89a0	0.068621874
25	0xbca7010f	-0.020386247
26	0x3d8d335c	0.06894562
27	0xbc9406a1	-0.018069567
28	0x3bea63db	0.007153017
29	0x3dcc35b0	0.099711776
30	0xba56cf80	-0.0008194372
31	0xbcec3c3e	-0.02883732
32	0x3da4988e	0.0803691
33	0xbdc1225a	-0.0943038
34	0x3db5d0ae	0.08877693
35	0x3d1c72de	0.038195483
36	0xbd0c096e	-0.03418868
37	0x3dca69c2	0.09883453
38	0xbd9d0a7f	-0.076680176
39	0x3dc89977	0.09794896
40	0xbdb58a0d	-0.08864222
41	0x3d22462d	0.039617706
42	0x3de97590	0.113993764
43	0xbd5a2d08	-0.0532656
44	0x3d2be00c	0.041961715
45	0x3de5ce80	0.112210274
46	0xbe1bed2a	-0.1522719
47	0x3d2d4320	0.042300344
48	0xbbe01947	-0.006838951
49	0x3d3f2b20	0.046671987
50	0xbcd17bf6	-0.025571804
51	0x3c8a488e	0.0168803
52	0x3db71df0	0.08941257
53	0x3d26d005	0.040725727
54	0x3bf358f3	0.007426375
55	0xbd314c16	-0.04328545
56	0x3cd0c6b6	0.025485378
57	0x3d296987	0.041360404
58	0x3cc8c661	0.024508657
59	0xbccbead4	-0.024892248
60	0x3d0fe680	0.03513193
61	0xbd9cb515	-0.07651726
62	0xbd894ebf	-0.06704473
63	0xbd5d7f9c	-0.054076776
64	0x3ddb386c	0.10704121
65	0x3cb493b0	0.02204308
66	0xbd85ba81	-0.065297134
67	0xbd7cd1ad	-0.0617234
68	0xbd5e1e42	-0.054228075
69	0x3d03d60f	0.032186564
70	0xbba74b42	-0.005105407
71	0x3d328468	0.043583304
72	0x3daad12d	0.08340678
73	0xbd51058e	-0.051030688
74	0xbd8533c8	-0.06504017
75	0x3de6d6c6	0.112714335
76	0x3d281a71	0.04104084
77	0xbd0bcd45	-0.034131307
78	0xbd8b0dd7	-0.06789749
79	0x3d9d130b	0.07669648
80	0x3a9d3450	0.001199374
81	0x3e2c705a	0.16839734
82	0x3c68f281	0.014217974
83	0x3c197750	0.009366825
84	0x3db5372e	0.08848415
85	0xbb396b21	-0.0028292614
86	0xbcd81332	-0.02637634
87	0xbd30af80	-0.04313612
88	0xbd0de51d	-0.034642328
89	0xbc2f468a	-0.01069797
90	0xbd76e0a7	-0.06027284
91	0x3db3fff5	0.08789054
92	0xbcf72c83	-0.030172592
93	0xbd21ec67	-0.03953209
94	0x3d138b9e	0.03602182
95	0x3c10b1c7	0.008831448
96	0x3cb39871	0.021923276
97	0x3d71e59c	0.059056863
98	0x3ceaed97	0.028677745
99	0xbcb8addb	-0.022543838
100	0xbdac6672	-0.084179774
101	0xbc2cbc7b	-0.010542984
102	0xbd0e1b64	-0.03469409
103	0x3c1f2798	0.00971403
104	0xbe1a6fb1	-0.1508167
105	0x3d546a10	0.05185896
106	0xbd9dceb2	-0.077054396
107	0x3dd5d3ff	0.10440826
108	0xbdddd50c	-0.10831651
109	0xbd1cf9ef	-0.038324293
110	0x3c898a42	0.01678956
111	0xbdac9378	-0.08426565
112	0xbc6e28c4	-0.0145360865
113	0x3d4afb53	0.049556088
114	0x3dbff7af	0.09373414
115	0x3dadda7a	0.08488937
116	0xbda86583	-0.08222487
117	0x3c1b8b7f	0.009493708
118	0xbdda20c9	-0.106507845
119	0xbd39f039	-0.04539511
120	0x3dbab2ab	0.091161095
121	0x3d7d3546	0.061818384
122	0xbc611c14	-0.0137396045
123	0xbd50ff8a	-0.05102495
124	0x3d82b34a	0.06381853
125	0xbc2668ea	-0.010156849
126	0xbdc4ea71	-0.09615029
127	0x3bf9a748	0.0076188184
128	0xbd9bb02c	-0.076019615
129	0x3dd0d573	0.10196962
130	0xbc692498	-0.014229916
131	0x3d2bf30d	0.04197984
132	0xbc66d7a1	-0.014089496
133	0xbde9273f	-0.11384439
134	0xbd381d14	-0.044949606
135	0xbdbb60c0	-0.09149313
136	0xbd821949	-0.06352479
137	0xbdcaa696	-0.09895055
138	0xbd32d60c	-0.043661162
139	0xbd7c7980	-0.06163931
140	0xbd99db3b	-0.07512518
141	0xbcd7e2f1	-0.026353331
142	0xbce56dbf	-0.028006433
143	0x3d27ec56	0.040996872
144	0xbd2e6ea2	-0.042585976
145	0x3d3953ea	0.045246042
146	0x3cfc85a8	0.030825451
147	0xbdcb2a1a	-0.099201396
148	0xbd3986b6	-0.045294486
149	0xbd30a2d8	-0.04312405
150	0x3d80911e	0.06277679
151	0x3cde83c8	0.027162448
152	0xbc6dce2b	-0.014514486
153	0xbd831c04	-0.06401828
154	0xbd8497a4	-0.06474236
155	0x3d4a118b	0.049333137
156	0x3d4ec59e	0.05048143
157	0xbd3c786e	-0.04601329
158	0xbc6c0337	-0.014405063
159	0xbd9970a5	-0.07492188
160	0x3da4fb11	0.080556996
161	0xbd8c371c	-0.06846449
162	0x3ce3e35b	0.027818372
163	0x3c487248	0.012234278
164	0xbdf67dca	-0.12035711
165	0xbd9c2225	-0.076237
166	0xbde43513	-0.111429356
167	0x3d2de4cb	0.042454522
168	0xbcbc7ea3	-0.023009604
169	0x3c885cc5	0.016645798
170	0x3d7e6417	0.062107172
171	0x3c33bef1	0.010970817
172	0x3daf7c5a	0.0856864
173	0x3deeb667	0.11655884
174	0x3c093647	0.008374757
175	0xba421590	-0.0007403726
176	0xbc7328d2	-0.014841275
177	0x3df784de	0.12085889
178	0x3daf2fa7	0.08554011
179	0x3d0da006	0.03457644
180	0x3d9ac881	0.07557774
181	0xbd1415b2	-0.036153503
182	0x3d4b4639	0.049627516
183	0x3b338c4b	0.0027396854
184	0xbd3a3b12	-0.04546649
185	0x3d1edd7e	0.03878545
186	0x3d857fc1	0.06518508
187	0xbd9d9438	-0.07694286
188	0xbd046928	-0.032326847
189	0xbded9952	-0.11601509
190	0xbd869f77	-0.06573384
191	0x3d3433f4	0.04399486
192	0x3c97fd9a	0.018553544
193	0xbd00f4cb	-0.031483453
194	0xbc0ab8f7	-0.008466951
195	0xbd944ea5	-0.07241563
196	0xbbb3d1f8	-0.0054876767
197	0xbdd2f42f	-0.103004806
198	0xbe00dffb	-0.12585442
199	0x3d0ebf4b	0.0348504
200	0xbd41a83c	-0.04727958
201	0x3cc5c08d	0.024139667
202	0x3dcfb186	0.10141282
203	0x3d11effc	0.035629258
204	0xbd62f602	-0.055410393
205	0x3da8c9eb	0.08241638
206	0xbdcdb450	-0.100441575
207	0x3de766df	0.11298918
208	0xbbee6ce9	-0.0072761667
209	0xbd1e972c	-0.038718387
210	0x3dabcfec	0.08389267
211	0xbd9661ac	-0.07342848
212	0x3cf9cb04	0.030492313
213	0xbd269d62	-0.040677436
214	0x3d2d59ec	0.042322084
215	0xbd79b197	-0.06096038
216	0x3bf5db41	0.0075029437
217	0xbbae483e	-0.0053186705
218	0x3cca0b7c	0.02466368
219	0xbdae6285	-0.08514885
220	0x3ced4e23	0.028967923
221	0x3d16665f	0.036718722
222	0x3d9569f1	0.07295597
223	0xbbf06f1d	-0.0073374645
224	0xbc9eb1a4	-0.019371815
225	0xbbb7060d	-0.005585438
226	0xbd4245e9	-0.047429953
227	0xbd6b97cd	-0.057517815
228	0x3da1a27f	0.07892322
229	0x3cb8fd62	0.02258176
230	0x3d28eea8	0.041243225
231	0x3c2a220a	0.010384092
232	0x3dd5738b	0.10422429
233	0xbdfa9cd0	-0.12236941
234	0x3d8a42c3	0.06751015
235	0xbe036972	-0.12833193
236	0x3b9084f1	0.004410379
237	0xbd874f45	-0.06606916
238	0x3db63a99	0.08897895
239	0x3d846e87	0.06466394
240	0x3caadc7b	0.020857086
241	0x3df2194b	0.118212305
242	0x3d5ceb12	0.053935118
243	0xbdbe78ab	-0.09300359
244	0xbbfc0082	-0.00769049
245	0x3d24e2dd	0.040255416
246	0x3dcbc1ba	0.0994906
247	0xbd88551a	-0.06656857
248	0xbc70ecce	-0.014704896
249	0x3dbd202b	0.09234651
250	0xbda741a4	-0.08166817
251	0xbd061d18	-0.03274259
252	0x3d30f241	0.04319978
253	0x3d6b761f	0.057485696
254	0x3d1a6f44	0.037703767
255	0x3c9104f4	0.017702557

encoder_rnn.weight_hh_l0 f4 [384, 128]
0	0xbd24af6c	-0.040206358
1	0xbdd65914	-0.10466209
2	0x3c80dcac	0.015730225
3	0xbcff87c0	-0.03119266
4	0x3d31eaa1	0.04343665
5	0x3d3d07b4	0.046149924
6	0xbdd139f0	-0.10216129
7	0x3d2c79da	0.042108394
8	0xbd0bd815	-0.03414162
9	0x3d933e3a	0.07189603
10	0x3d8e5553	0.06949868
11	0x3db50dfd	0.08840559
12	0xbc891e0b	-0.016737958
13	0x3de4e404	0.11176303
14	0xbc88c7d3	-0.016696846
15	0x3d4735b4	0.0486352
16	0x3c4b137c	0.012394782
17	0xbd2bffbf	-0.041991945
18	0xbd9e6d4f	-0.07735693
19	0xbc304d57	-0.010760627
20	0xbcd324eb	-0.02577444
21	0x3cc0172f	0.023448555
22	0x3d523250	0.051317513
23	0xbdb75f6f	-0.089537494
24	0xbd5fad64	-0.054608718
25	0xbcfa4ba1	-0.03055364
26	0xbbe1a8b6	-0.006886567
27	0xbd5e22c3	-0.05423237
28	0xbd4a9955	-0.049462635
29	0x3d970be4	0.07375315
30	0x3c14a598	0.009072684
31	0x3d6d21b1	0.05789346
32	0x3de384c2	0.11109306
33	0xbc8f4d28	-0.017492846
34	0xbd7b8370	-0.061404645
35	0xbd154c8f	-0.036449965
36	0x3c6ea7ea	0.014566401
37	0x3db19334	0.08670655
38	0xbda2bdfe	-0.079463944
39	0xbde43c11	-0.11144269
40	0x3b274834	0.0025525214
41	0xbdf76bf9	-0.12081141
42	0xbdc90c4c	-0.098167986
43	0x3d880c1e	0.06642936
44	0x3d501c09	0.050807986
45	0x3d31489e	0.043282144
46	0x3d0cea6b	0.034403246
47	0xbc871f41	-0.016494395
48	0x3d84b21b	0.064792834
49	0x3dc1b554	0.09458414
50	0x3d43de88	0.047819644
51	0x3b5e8c0e	0.003395799
52	0x3db6d319	0.089269824
53	0x3d8fa159	0.070131965
54	0xbd04a5d7	-0.03238472
55	0xbd82b4e1	-0.06382156
56	0xbcd9b588	-0.026575819
57	0xbd60e1b3	-0.054902744
58	0xbc720691	-0.014772073
59	0x3d76618f	0.060151633
60	0x3c9ceb64	0.019155212
61	0xbdc805e8	-0.097667515
62	0xb9f2b290	-0.00046290876
63	0x3dbdb9ab	0.09263929
64	0xbc48af73	-0.012248862
65	0xbbcd5f51	-0.006267466
66	0x3d5c50f4	0.05378814
67	0xbd45f761	-0.048331622
68	0x3d8ed108	0.06973463
69	0x3dde4728	0.10853416
70	0x3d82a967	0.06379967
71	0xbd733e3e	-0.05938553
72	0x3e147e1b	0.1450123
73	0xbbdf62ac	-0.0068171825
74	0x3dc35b20	0.09538865
75	0xbcb830ac	-0.022484146
76	0xbd090f02	-0.03346158
77	0x3d84b6ed	0.06480203
78	0x3d526916	0.05136975
79	0xbb1bca44	-0.0023771683
80	0xbd49286b	-0.04911081
81	0x3da6918f	0.08133232
82	0xbd72cba6	-0.059276246
83	0x3d50b656	0.05095514
84	0x3c993201	0.018700602
85	0xbe02d87e	-0.12777898
86	0x3dee162d	0.116253234
87	0x3d88e0dc	0.066835135
88	0x37f17630	2.8784474e-05
89	0x3da41628	0.080120385
90	0xbc4138b4	-0.011793304
91	0x3db58f94	0.08865276
92	0xbc4aa78a	-0.012369046
93	0x3d8876d2	0.06663288
94	0xbd52f05f	-0.051498767
95	0x3e0b83c4	0.13624483
96	0x3d96d0b4	0.07364026
97	0xbdad572f	-0.084638946
98	0xbd41717d	-0.04722737
99	0x3da462ac	0.08026633
100	0xbd6336f2	-0.05547232
101	0xbd8473af	-0.064673774
102	0xbca97810	-0.020687133
103	0xbd5a4c2a	-0.053295292
104	0xbdb7e4db	-0.089791976
105	0x3e0784c0	0.13234234
106	0xbd517989	-0.051141296
107	0x3c89b827	0.016811443
108	0xbc1b9f39	-0.009498411
109	0xbdec84d3	-0.11548772
110	0xbdfa9385	-0.12235168
111	0x3d82b7e2	0.06382729
112	0x3d093b8a	0.033504046
113	0x3d83f9a9	0.06444103
114	0xbd7d1375	-0.061786134
115	0x3bc7900e	0.0060901707
116	0xbe049b53	-0.12949876
117	0x3cc6ccb4	0.024267532
118	0xbccc6b5b	-0.024953535
119	0xbbaa1609	-0.005190615
120	0x3d95c27f	0.07312488
121	0x3bf7fb9f	0.0075678374
122	0xbd11831f	-0.035525437
123	0x3d2da996	0.042398058
124	0xbd7c4970	-0.061593473
125	0xbd52a17f	-0.051423546
126	0xbd997909	-0.07493789
127	0xbd24b8f7	-0.04021546
128	0xbc663e02	-0.01405287
129	0xbd6ad5c0	-0.057332754
130	0xbd8483d4	-0.06470457
131	0x3cca4f82	0.024696115
132	0x3d1bf225	0.038072724
133	0x3db53101	0.088472374
134	0xbd9288a0	-0.071549654
135	0xbcce6aed	-0.02519747
136	0x3c775a6f	0.015097245
137	0x3d610eff	0.054945942
138	0xbcdb5c15	-0.026777307
139	0x3b5a8a96	0.0033346764
140	0xbbfe4aed	-0.0077603967
141	0xbd8a0d16	-0.06740777
142	0x3db46954	0.08809152
143	0xbd097d84	-0.033566967
144	0xbc4589c3	-0.012056771
145	0xbdc0e64a	-0.09418924
146	0xbdae7aaf	-0.08519494
147	0x3e441063	0.19146876
148	0xbd838d59	-0.06423444
149	0xbde8c41f	-0.11365532
150	0xbd2b586b	-0.04183237
151	0xbcf47fdc	-0.029846124
152	0x3da011ad	0.078158714
153	0xbcf9eec2	-0.030509356
154	0xbe05605d	-0.13025041
155	0xbd09fd3a	-0.03368876
156	0xbd72be16	-0.05926331
157	0xbd80dc21	-0.06291986
158	0x3dd46cc2	0.103723064
159	0x3bbcd31c	0.005762471
160	0x3db6ced5	0.08926169
161	0xbd84d810	-0.06486523
162	0xbd210462	-0.03931082
163	0x3d33a28e	0.043856196
164	0x3caf3a9e	0.021390256
165	0xbbf535fd	-0.0074832425
166	0x3d99423f	0.074833386
167	0x3d5b185b	0.053490024
168	0x3d53adec	0.051679537
169	0xbd522f2e	-0.051314525
170	0xbc70f849	-0.014707633
171	0xbd85004d	-0.06494198
172	0xbc68d508	-0.014210947
173	0xbd9066c2	-0.070508495
174	0xbbb382c7	-0.0054782364
175	0x3d9391fc	0.07205579
176	0x3d6a5d78	0.057218045
177	0xbca5f95e	-0.02026051
178	0x3ba6747c	0.005079804
179	0xbc3a6748	-0.011377163
180	0xbe286d8f	-0.16448043
181	0x3e0d562f	0.13802408
182	0x3d71833a	0.058963038
183	0xbd82edc7	-0.06393009
184	0x3d7273dc	0.059192523
185	0xbd4c21b1	-0.049836818
186	0xbd73e213	-0.059541773
187	0xbd80ef53	-0.062956475
188	0xbd34531f	-0.044024583
189	0xbd4dba03	-0.050226223
190	0xbd9890c1	-0.074494846
191	0x3d698eaf	0.05702084
192	0x3d20b57f	0.03923559
193	0xbd9312b3	-0.07181301
194	0x3d39df55	0.045379
195	0xbe179c54	-0.14805728
196	0x3ddbe74d	0.107374765
197	0x3c0da1c8	0.008644529
198	0x3d9aba9d	0.07555125
199	0xbc3c7c76	-0.011504283
200	0x3dfb1260	0.12259364
201	0xbd2ad41e	-0.041706197
202	0x3db6fe30	0.08935201
203	0xbd8a3e0d	-0.067501165
204	0x3cad0a56	0.021123093
205	0x3dba0f33	0.0908493
206	0x3c590bea	0.013247469
207	0x3da14539	0.07874531
208	0xbd567ca2	-0.052364953
209	0xbd3fafd3	-0.04679854
210	0x3d6f6c56	0.058452927
211	0x3da4e9e7	0.08052426
212	0x3da139eb	0.07872375
213	0xbcfa7335	-0.030572513
214	0x3d304197	0.0430313
215	0xbc980177	-0.018555386
216	0xbd054814	-0.032539442
217	0x3c835392	0.01603106
218	0xbdbf4527	-0.09339362
219	0xbd99115f	-0.074740164
220	0xbda2b6c9	-0.0794502
221	0xbdcd946f	-0.10038077
222	0x3d6b8388	0.057498485
223	0xbd4ee7ee	-0.050514154
224	0x3d19b5a6	0.03752675
225	0xbdfbd1b7	-0.12295859
226	0xbb3ef864	-0.0029139752
227	0xbd4b11c8	-0.049577504
228	0x3d247c65	0.040157694
229	0x3c1a5816	0.009420415
230	0xbd856333	-0.065130614
231	0xbd201e94	-0.03909166
232	0x3e086ab2	0.13321951
233	0x3c410b99	0.01178255
234	0xbd839e08	-0.064266264
235	0x3ce7cfcc	0.028297327
236	0x3d994790	0.074843526
237	0x3db01708	0.08598143
238	0x3cf5b025	0.029991219
239	0x3db7edbe	0.089808926
240	0x3dbe61cd	0.09295998
241	0x3d16268f	0.036657866
242	0x3d3fea41	0.04685426
243	0x3cbddddb	0.023177078
244	0xbd558557	-0.052129116
245	0xbdaa1aec	-0.08305916
246	0xbd4b2b19	-0.049601648
247	0xbdcbb988	-0.09947497
248	0xbae4dfd3	-0.0017461724
249	0x3d87741e	0.066139445
250	0x3ceb675d	0.02873581
251	0x3d9cc72c	0.076551765
252	0xbdc99b1b	-0.09844037
253	0x3cc3be2a	0.023894388
254	0xbc5dcc1d	-0.013537434
255	0x3dae8813	0.08522048

encoder_rnn.bias_ih_l0 f4 [384]
0	0xbbac3b24	-0.0052560735
1	0x3cea8539	0.028627979
2	0x3dd8384a	0.10557611
3	0xbd72d58a	-0.059285678
4	0xbd8ec553	-0.0697123
5	0x3c7d113a	0.015446002
6	0xbdb332b5	-0.08749906
7	0x3dc523a6	0.0962594
8	0xbcf7bd43	-0.030241614
9	0xbc4bdb16	-0.012442371
10	0x3dadda2e	0.0848888
11	0x3d4a9896	0.049461924
12	0xbda36ca3	-0.07979705
13	0xbd01c773	-0.03168435
14	0x3bbf751d	0.0058428184
15	0x3c997a34	0.018735029
16	0x3cace9c4	0.021107562
17	0xba3afae9	-0.00071327254
18	0xbd6c653a	-0.057713725
19	0x3c539133	0.012913036
20	0x3ddf9c41	0.10918475
21	0xbd75ae48	-0.05998066
22	0xbdbac2ab	-0.09119161
23	0xbd935013	-0.07193007
24	0x3d29b496	0.041431986
25	0x3d91444b	0.07093104
26	0x3d20b325	0.039233346
27	0xbd8e7e82	-0.06957723
28	0x3dadc188	0.08484179
29	0xbb817ba5	-0.003951507
30	0xbcc92bce	-0.02455702
31	0xbd94ff0f	-0.07275211
32	0x3dc78b22	0.09743334
33	0x3d0d5e07	0.0345135
34	0xbdd06655	-0.10175768
35	0xbd53f260	-0.05174482
36	0xbdbcfce5	-0.09227923
37	0x3dc1c62a	0.09461625
38	0xbd33a68b	-0.04386
39	0x3dc0ac65	0.09407882
40	0x3de82f0a	0.11337097
41	0x3c6ad034	0.014331866
42	0x3dc67ab7	0.09691375
43	0xbd857e69	-0.065182514
44	0x3db87590	0.09006798
45	0x3e066deb	0.13127868
46	0x3db48bb0	0.08815706
47	0xbc442dd4	-0.011973817
48	0x3e08399b	0.13303225
49	0x3cddb1cb	0.027062317
50	0xbd2a7e2f	-0.041624244
51	0x3e09fed8	0.13476121
52	0xbe19d4ad	-0.15022536
53	0xbd43426d	-0.04767077
54	0x3c816fa7	0.01580031
55	0xbd615b30	-0.055018604
56	0xbb2f3cfb	-0.0026739228
57	0x3dfd4afa	0.12367816
58	0x3b3ed475	0.0029118333
59	0xbd6b8e1d	-0.057508577
60	0xbcbf10d4	-0.023323454
61	0xbd18fa07	-0.03734782
62	0x3dbd22a1	0.092351206
63	0xbb4eb54f	-0.0031541174
64	0x3d9fe28f	0.078068845
65	0xbd5f9f7b	-0.05459545
66	0xbc3662f5	-0.011131992
67	0x3cf32b70	0.029683799
68	0x3dbf770b	0.093488775
69	0xbd93a072	-0.07208337
70	0x3d447223	0.04796041
71	0x3b0a8f5c	0.0021142578
72	0xbdb309f0	-0.0874213
73	0x3ca41133	0.020027732
74	0x3d028798	0.031867594
75	0xbba6a02d	-0.0050850124
76	0x3d5ef6ec	0.0544347
77	0x3d9c89dd	0.07643483
78	0xbb937075	-0.00449949
79	0xbd9fda98	-0.07805365
80	0x3daea245	0.08527044
81	0x3ca31011	0.019905122
82	0x3dd08a43	0.10182621
83	0xbb147e33	-0.0022658228
84	0xbc4c7f90	-0.012481585
85	0x3bdf1ed0	0.006809093
86	0x3d135811	0.03597266
87	0x3dbab24d	0.091160394
88	0xbd19ff64	-0.037597075
89	0xbd4db159	-0.05021796
90	0x3cab9914	0.020947017
91	0x3dc11206	0.09427266
92	0xbdb03ca2	-0.08605315
93	0xbca6af16	-0.02034716
94	0x3b959b65	0.0045656436
95	0xbdaf29f2	-0.08552922
96	0x3d82d9c2	0.0638919
97	0xbd610d64	-0.05494441
98	0xbb78ec04	-0.0037982473
99	0x3d53e507	0.05173209
100	0x3dbe1355	0.09281031
101	0x3ca9d7b9	0.020732747
102	0xbc7e9925	-0.015539442
103	0x3c1d671c	0.009607103
104	0xbd587938	-0.05284998
105	0xbbf39613	-0.0074336617
106	0x3ac36073	0.0014906063
107	0xbd9883c2	-0.07447006
108	0x3ceb8eb7	0.028754575
109	0x3e0c2f9b	0.13690035
110	0x3c3c59a5	0.011495982
111	0x3db6baed	0.08922372
112	0x3ca76921	0.020435872
113	0xbda68e43	-0.08132603
114	0xbde5083d	-0.11183212
115	0xbd565587	-0.05232766
116	0x3d83c509	0.06434066
117	0x3b3b86aa	0.0028614202
118	0xbcdc9c87	-0.026930107
119	0xbccb5991	-0.024822982
120	0xbc5678e6	-0.013090348
121	0x3cc4c628	0.02402027
122	0xbdd10527	-0.10206061
123	0x3c025d28	0.0079567805
124	0x3a9e7326	0.001208876
125	0x3d1bdace	0.038050465
126	0xbc594ea1	-0.0132633755
127	0xbd6d2455	-0.057895977
128	0xbd258e48	-0.040418893
129	0x3ca71d64	0.020399757
130	0xbcc47c01	-0.02398491
131	0x3d9f8ca4	0.07790497
132	0x3cdd623b	0.027024379
133	0x3d332b3e	0.04374241
134	0x3b624aa6	0.0034529357
135	0xbc864cbd	-0.016394014
136	0x3d218c9f	0.039440747
137	0x3d279623	0.040914666
138	0xbd589c16	-0.05288323
139	0x3bc77a7d	0.0060876
140	0x3d911c77	0.07085507
141	0x3d4a5216	0.04939469
142	0x3d157200	0.036485672
143	0xbdd1cc99	-0.10244102
144	0x3c26bedf	0.010177343
145	0x3dbdb058	0.092621505
146	0xbc84a226	-0.0161906
147	0x3d9e34ab	0.07724889
148	0x3dcbeaa6	0.09956865
149	0xbce02b84	-0.0273645
150	0x3b15fcd7	0.00228863
151	0x3d25480f	0.040351924
152	0x3d4ba360	0.049716353
153	0xbd954db9	-0.07290215
154	0xbc07158c	-0.008244883
155	0x3d332c99	0.043743704
156	0xbd26dbdf	-0.04073703
157	0xbc854260	-0.016267002
158	0xbc3c2f90	-0.011485949
159	0xbc8360dc	-0.016037397
160	0xbdbe6a49	-0.09297616
161	0xbd296832	-0.041359134
162	0x3dd6c4cd	0.104867555
163	0x3da2d907	0.07951551
164	0xbd34aa7d	-0.044107903
165	0xbd695546	-0.05696609
166	0x3dc7bc26	0.09752683
167	0x3cc78359	0.024354624
168	0x3cf79ce7	0.030226184
169	0xbd93035e	-0.071783766
170	0x3e1d04b1	0.15333821
171	0x3d253e95	0.040342886
172	0x3ca74d14	0.020422496
173	0x3d28ff11	0.041258875
174	0x3d059e04	0.0326214
175	0xbcdbc031	-0.026825042
176	0xbdc7391a	-0.09727688
177	0x3cf6beeb	0.030120334
178	0x3c8a99fa	0.016919125
179	0x3d12796b	0.035760324
180	0xbb881bbd	-0.0041536973
181	0x3db77553	0.08957925
182	0xbcd429bc	-0.025898807
183	0xbd7e7978	-0.06212756
184	0x3d9459cd	0.07243691
185	0x3d8d1b2d	0.06889949
186	0x3dd3fec0	0.10351324
187	0xbdf8cc8c	-0.12148389
188	0xbc9512c5	-0.018197427
189	0xbde08356	-0.1096255
190	0x3bae49c7	0.0053188535
191	0x3dc9a358	0.098456085
192	0xbd443fe7	-0.047912505
193	0xbcd8d06a	-0.026466567
194	0x3d043242	0.032274492
195	0x3d35e4f1	0.04440779
196	0xbd9c3c5a	-0.07628699
197	0x3b86daca	0.004115437
198	0xbb83dc08	-0.0040240325
199	0xbd38a73e	-0.04508137
200	0xbc239db7	-0.009986333
201	0x3d3322ad	0.04373424
202	0xbd41b315	-0.047289927
203	0x3d96aad6	0.07356803
204	0x3d936f22	0.07198931
205	0x3dbee8ad	0.09321723
206	0xbd7e9366	-0.06215229
207	0xbb9d37c9	-0.00479791
208	0x3cd11293	0.025521552
209	0xbd790a53	-0.06080086
210	0x3b66d907	0.0035224573
211	0xbdded06b	-0.10879596
212	0xbd11b47e	-0.03557252
213	0xbd9ac993	-0.075579785
214	0x3d13c9cd	0.036081124
215	0xbdd6dd94	-0.104914814
216	0x3cf9b5f3	0.030482268
217	0xbd97954c	-0.07401523
218	0xbc200a41	-0.00976807
219	0x3d902f76	0.070403025
220	0xbd4e25ee	-0.05032914
221	0x3dca4962	0.09877278
222	0xbd84a3df	-0.064765684
223	0x3d7e6494	0.062107638
224	0xbd6f636f	-0.058444437
225	0x3d4b2ef9	0.049605343
226	0xbda3c5d0	-0.07996714
227	0x3cdef03d	0.027214164
228	0xbcc8e18a	-0.024521608
229	0x3d0c8b76	0.034312688
230	0xbdbfb0b3	-0.093598746
231	0xbc0e6164	-0.008690212
232	0xbcf90e96	-0.030402463
233	0xbd9d2349	-0.07672746
234	0xbc75c410	-0.015000358
235	0xbd5e69f4	-0.054300264
236	0xbcee10cc	-0.029060744
237	0x3db7acdd	0.08968518
238	0x3d26dab0	0.0407359
239	0x3da2c795	0.079482235
240	0x3c5ac60c	0.013352882
241	0x3c92a504	0.017900951
242	0x3cfb610e	0.030685928
243	0x3d9dc6c4	0.07703927
244	0xbcbc07b4	-0.022952892
245	0x3da35e6a	0.079769924
246	0xbd9a00cf	-0.075196855
247	0x3c8c99b6	0.017163139
248	0xbd04343b	-0.032276373
249	0x3d971aba	0.073781446
250	0x3d36ae83	0.04460002
251	0xbd92a44c	-0.071602434
252	0x3d562fd1	0.052291695
253	0xbd0f4707	-0.034979846
254	0xbd298bb7	-0.041393008
255	0x3c617166	0.013759946

encoder_rnn.bias_hh_l0 f4 [384]
0	0x3c2c9715	0.010534068
1	0xbd9214da	-0.07132883
2	0xbd42ebf6	-0.04758831
3	0xbd87c616	-0.06629579
4	0x3cd15a9f	0.025555907
5	0xbce1369f	-0.027491866
6	0x3d282d88	0.041059047
7	0xbcb5af80	-0.022178411
8	0x3d9a5f4d	0.075377084
9	0x3db97221	0.090549715
10	0xbcdff7c5	-0.027339825
11	0x3d37c6b8	0.044867247
12	0x3d23b8f4	0.039971307
13	0xbd871713	-0.06596198
14	0x3c9a780f	0.018856077
15	0x3cf2d04a	0.029640336
16	0xbcb8e1b4	-0.022568561
17	0xbd812ee0	-0.06307769
18	0xbc5fe2c1	-0.013664902
19	0x3da0f174	0.078585535
20	0xbc60366c	-0.01368485
21	0x3d591480	0.052998066
22	0x3b3f6f8d	0.0029210777
23	0xbaa12925	-0.0012295587
24	0x3aa9201f	0.001290325
25	0x3d561514	0.052266195
26	0x3d61047f	0.05493593
27	0xbd7dfcf0	-0.062008798
28	0x3bfc371a	0.0076969983
29	0x3dce983b	0.100876294
30	0x3d860c99	0.065453716
31	0xbdd80aa2	-0.10548903
32	0x3d898863	0.06715467
33	0x3d3fb171	0.04680008
34	0xbdbc8441	-0.09204913
35	0xbdc9bf34	-0.09850922
36	0xbd5d643a	-0.05405066
37	0xbca4106c	-0.020027362
38	0xbc2598e6	-0.010107255
39	0x3d888882	0.06666662
40	0x3ce9ef7b	0.028556576
41	0x3bb68af4	0.0055707637
42	0x3d5d8b2d	0.054087806
43	0x3c7d6438	0.015465789
44	0x3c4c078b	0.01245297
45	0xbc33a7d0	-0.010965303
46	0xbd2dc800	-0.042427063
47	0xbd1071b2	-0.03526468
48	0x3de0e546	0.109812304
49	0x3db45033	0.08804359
50	0xbdcb0a43	-0.09914067
51	0x3db2cfab	0.08731016
52	0xbd445f11	-0.047942225
53	0xbd98db28	-0.07463676
54	0x3d416040	0.04721093
55	0xbc7e3b06	-0.015517002
56	0x3da7dc63	0.08196332
57	0x3c8adecc	0.016951941
58	0xbd08cdea	-0.0333995
59	0x3db8721d	0.090061404
60	0x3ddca840	0.10774279
61	0xbddccf8d	-0.10781775
62	0xbd4630c5	-0.048386354
63	0xbda35d40	-0.079767704
64	0x3d405bd8	0.04696259
65	0x3d061f20	0.032744527
66	0xbcdc452c	-0.026888452
67	0x3d7b3a7d	0.061335076
68	0x3db2e361	0.08734775
69	0xbe1e3053	-0.15448122
70	0x3d37ab9b	0.04484139
71	0xbd754b73	-0.059886407
72	0xbc00a08f	-0.00785078
73	0x3d4aafc9	0.049484048
74	0x3d7dc50c	0.061955497
75	0x3dbf61b1	0.09344805
76	0x3d1864c6	0.03720548
77	0x3dd38325	0.10327748
78	0x3d5f44f1	0.054509107
79	0xbdcb77d1	-0.099349625
80	0x3c82dc6c	0.015974246
81	0x3d97604e	0.073914155
82	0x3d061ce6	0.032742403
83	0x3d8709e6	0.06593685
84	0xbc2791c7	-0.010227627
85	0x3dd1f5ef	0.10251986
86	0x3b8cecba	0.004300681
87	0x3b598278	0.0033189338
88	0x3cfcbc58	0.030851528
89	0xbda2357a	-0.07920356
90	0x3bbf2f12	0.0058344686
91	0x3d226175	0.039643724
92	0xbdd20df2	-0.10256566
93	0xbdb5f5d3	-0.08884778
94	0xbd900f37	-0.07034152
95	0xbda983f0	-0.08277118
96	0x3db1cd20	0.086817026
97	0xbb89c702	-0.004204632
98	0x3d8662dc	0.06561825
99	0x3d81988b	0.063279234
100	0x3ccd9108	0.02509357
101	0xbd154187	-0.036439445
102	0xbd35b99a	-0.044366457
103	0xbd714260	-0.05890119
104	0xbe097b51	-0.13425948
105	0xbde18c61	-0.11013103
106	0xbe1f8728	-0.15578902
107	0x3b99d5f3	0.004694694
108	0xbd8fdaf5	-0.070241846
109	0x3d91ebc5	0.071250476
110	0xbd09504c	-0.033523843
111	0xbc81175b	-0.015758207
112	0x3da6a437	0.0813679
113	0x3d3dacf4	0.04630752
114	0x3cc91077	0.024543984
115	0xba9666f3	-0.0011474773
116	0xbda41d7e	-0.08013438
117	0x3d7254dd	0.059162963
118	0xbdb911bc	-0.09036586
119	0xbc730cd2	-0.0148346
120	0xbbfb1584	-0.007662477
121	0xbd155d42	-0.03646589
122	0x3c802a46	0.015645158
123	0xbd96a262	-0.07355191
124	0x3c3d4a8d	0.011553419
125	0x3c9261a3	0.017868822
126	0x3ca70736	0.02038918
127	0xbd452bad	-0.048137356
128	0xbbd75505	-0.0065714144
129	0xbd9d1f7b	-0.0767202
130	0x3d4354c7	0.04768827
131	0xbc4c3f91	-0.012466327
132	0xbcc4ae6e	-0.024008956
133	0xbd15c9b6	-0.03656932
134	0xbda2a398	-0.07941359
135	0xbd5c99e9	-0.053857718
136	0xbc7dce99	-0.015491151
137	0x3d99df46	0.07513289
138	0x3cfab1d1	0.030602368
139	0x3a579ce6	0.0008224979
140	0x3c3e9444	0.011632029
141	0x3ca96cc6	0.02068175
142	0x3d07a35c	0.033114776
143	0x3c144cec	0.009051543
144	0xbcb42451	-0.021989973
145	0x3c3b1dbc	0.011420663
146	0x3e11aeb2	0.14226797
147	0xbbb24463	-0.0054402812
148	0xbd03f5d8	-0.032216877
149	0x3bbc96ba	0.0057552727
150	0xbd4c6235	-0.049898345
151	0xbd6304fa	-0.055424668
152	0x3d597ee4	0.053099528
153	0xbd2e5779	-0.04256389
154	0x3d392229	0.045198593
155	0xbd6ec39d	-0.05829202
156	0x3b7a673e	0.003820851
157	0xbce28121	-0.027649464
158	0xbc102a7e	-0.008799193
159	0x3c77fc55	0.015135844
160	0xbd7315c7	-0.05934694
161	0x3cc4d682	0.024028067
162	0x3c749285	0.014927511
163	0xbcbc012b	-0.022949776
164	0x3cbabd7e	0.022795435
165	0xbc1a33e6	-0.009411788
166	0xbcb4da59	-0.022076773
167	0x3d44523b	0.047929984
168	0xbdbd6114	-0.09247032
169	0x3c99d335	0.01877747
170	0x3ccd372a	0.025050718
171	0xbd9595b5	-0.07303945
172	0x3d4710e4	0.048600093
173	0xbdb53610	-0.08848202
174	0x3ccb48a1	0.024814906
175	0x3d834da2	0.06411292
176	0xbc93d4ed	-0.018045867
177	0xbd3d9112	-0.046280928
178	0x3d819eb2	0.06329097
179	0x3add7b94	0.0016897791
180	0x3daef4cb	0.08542784
181	0xbd8f95c2	-0.07010986
182	0xbd839711	-0.06425298
183	0xbc2555f0	-0.01009129
184	0x3ac92650	0.0015346501
185	0xbd04015b	-0.032227855
186	0x3d31370b	0.043265384
187	0xbbbd0f5c	-0.0057696532
188	0x3c9d746a	0.01922055
189	0xbdc17b8a	-0.09447391
190	0x3c9f0984	0.019413717
191	0xbd401c39	-0.046901915
192	0xbe1bd1e7	-0.1521679
193	0x3d7c151c	0.06154357
194	0x3dc81fb3	0.09771671
195	0x3d5f4a15	0.05451401
196	0x3d32fdca	0.043699063
197	0xbd899024	-0.06716946
198	0xbc56ba23	-0.013105902
199	0xbd8e7e99	-0.0695774
200	0xbc40a395	-0.011757751
201	0x3d9bdd67	0.076105885
202	0x3d10e04b	0.035370152
203	0xbd144027	-0.036193993
204	0x3d926da4	0.071498185
205	0xbca1292c	-0.019672953
206	0x3d1a0860	0.037605643
207	0x3db55c52	0.08855499
208	0x3b6ef48a	0.0036461675
209	0x3d3a812f	0.045533355
210	0xbd2b7e11	-0.041868273
211	0xbc805fd7	-0.0156707
212	0x3db230ad	0.087006904
213	0xbd9bde3d	-0.07610748
214	0x3d272ae6	0.040812396
215	0xbdb63041	-0.088959225
216	0x3dc7b68f	0.09751617
217	0xbdae3f99	-0.08508224
218	0x3d0db973	0.034600686
219	0x3dcc0a1a	0.09962864
220	0x3ce2f022	0.027702395
221	0x3d89ccaa	0.0672849
222	0xbdd3f490	-0.10349381
223	0xbc9a04f9	-0.0188012
224	0xbe03a773	-0.12856846
225	0xbddb8d98	-0.10720366
226	0xbd9ab211	-0.07553495
227	0x3d7a0385	0.061038513
228	0xbd31ffec	-0.043456957
229	0x3b317e39	0.0027083291
230	0xbd630abb	-0.055430155
231	0x3cb499ae	0.022045936
232	0xbd003c7d	-0.031307686
233	0x3d46b67a	0.048513867
234	0xbd3c9c8c	-0.046047732
235	0xbd300037	-0.042968955
236	0x3d1f758e	0.03893047
237	0x3e01385d	0.12619157
238	0x3d413083	0.047165405
239	0xbd060005	-0.032714862
240	0x3e26ed71	0.16301514
241	0x3cac646c	0.021043979
242	0x3d16a1b5	0.03677531
243	0x3d50ecb2	0.05100698
244	0x3db47bcb	0.08812674
245	0xbd47641d	-0.04867946
246	0x3d0ff731	0.03514785
247	0x3d20b135	0.039231498
248	0x3d25e28a	0.040499248
249	0x3d3f18f1	0.046654645
250	0xbd3ccc19	-0.04609308
251	0x3cd4e2b6	0.02598701
252	0xbdaef44c	-0.0854269
253	0xbd477cca	-0.048702992
254	0x3ccae910	0.024769336
255	0xbda6e76b	-0.08149608

decoder_rnn.weight_ih_l0 f4 [384, 128]
0	0x3cc9f532	0.024653051
1	0x3cd4d8fc	0.025982372
2	0xbcf92908	-0.030415073
3	0x3da5042d	0.08057437
4	0x3b5967d8	0.0033173468
5	0xbda8148d	-0.08207045
6	0xbd890eb1	-0.06692255
7	0x3dab42d7	0.08362358
8	0xbd5a91db	-0.053361755
9	0x3da3a538	0.07990497
10	0x3da29670	0.0793885
11	0xbc3514dc	-0.011052337
12	0xbd5e3025	-0.054245133
13	0xbd24b302	-0.040209778
14	0x3d446fcf	0.04795819
15	0x3d69574c	0.05696802
16	0xbd7719cb	-0.060327332
17	0xbc6f2ea1	-0.01459852
18	0xbd08134e	-0.033221535
19	0x3d0e8234	0.03479214
20	0xbd14c2e7	-0.036318686
21	0xbd086b95	-0.033305723
22	0xbd8065b3	-0.062693976
23	0x3d238d49	0.039929662
24	0xbd8293ec	-0.0637587
25	0xbda3d390	-0.07999337
26	0x3db365f6	0.08759682
27	0xbda8b3b3	-0.082374
28	0xbd9dca42	-0.07704593
29	0xbd93aa6e	-0.07210241
30	0x3d82b974	0.063830286
31	0xbb8d6bb1	-0.0043158163
32	0xbd8965a0	-0.067088366
33	0x3cc3e305	0.023911962
34	0x3d487dc1	0.048948053
35	0x3c92ce65	0.017920682
36	0xbc9f6903	-0.019459253
37	0xbc51c7be	-0.01280397
38	0x3cd043fc	0.025423042
39	0xbd95f720	-0.07322526
40	0xbd547b67	-0.0518755
41	0xbd667908	-0.05626777
42	0x3da218f8	0.07914919
43	0xbd475769	-0.048667345
44	0x3c41a85c	0.011819925
45	0x3cb303ae	0.02185234
46	0x39ce646f	0.0003936621
47	0xbc8d71d0	-0.017266184
48	0xbcfce104	-0.030869015
49	0x3d5412b5	0.051775653
50	0x3d8b1162	0.06790425
51	0x3da667d3	0.08125272
52	0x3d3de95e	0.046365134
53	0xbcb1b214	-0.02169136
54	0x3c3c131f	0.011479168
55	0xbca9058b	-0.020632526
56	0x3c9098ff	0.01765108
57	0x3da2cd30	0.07949293
58	0xbd8f2cae	-0.06990944
59	0xbda3fea0	-0.0800755
60	0xbda17c83	-0.07885077
61	0xbd3dbf68	-0.046325117
62	0x3d2432de	0.040087573
63	0x3c290ba4	0.010317717
64	0xb94731b6	-0.00018996638
65	0x3cf569f3	0.029957747
66	0x3c9f30cb	0.019432446
67	0xbdae583e	-0.085129246
68	0xbc97af69	-0.01851626
69	0x3d30266e	0.0430054
70	0xbd424c8b	-0.04743628
71	0x3d372235	0.044710357
72	0xbc5bc43e	-0.013413487
73	0x3d3d21d8	0.046174854
74	0xbd42fe94	-0.047606066
75	0xbd7254ad	-0.059162784
76	0x3b98ea0d	0.004666573
77	0x3d5aacb1	0.053387348
78	0xbda60537	-0.081064634
79	0xbb97d35c	-0.0046333503
80	0xbda49ab5	-0.080373205
81	0x3d793146	0.060838006
82	0xbd91db61	-0.07121921
83	0x3d672bf4	0.0564384
84	0x3c3db2f2	0.011578308
85	0xbd17c7dc	-0.037055835
86	0x3db4d1a1	0.08829046
87	0xbd756492	-0.059910364
88	0xbd8e6eca	-0.06954725
89	0x3d01ad01	0.03165913
90	0x3cb7fc62	0.022459213
91	0x3c8416ff	0.016124247
92	0x3d0d9f00	0.034575462
93	0xbd3b4aa5	-0.045725483
94	0x3cb50247	0.022095812
95	0xbc555838	-0.013021521
96	0x3d8eaf6c	0.06967053
97	0x3daf0a73	0.08546915
98	0xbbffb124	-0.007803099
99	0x3da7045c	0.08155128
100	0xbcce5195	-0.025185386
101	0x3db17fc5	0.08666948
102	0xbac61849	-0.0015113439
103	0xbdb03880	-0.086045265
104	0x3d0e4ef0	0.03474325
105	0x3d416417	0.047214594
106	0xbd8ed8d8	-0.069749534
107	0xbd180021	-0.037109498
108	0x3d8a60a5	0.06756715
109	0xbcd057b7	-0.02543245
110	0xbd9d4aa4	-0.07680252
111	0xbd133f22	-0.03594888
112	0x3b251c5e	0.002519391
113	0xbd15e90f	-0.036599215
114	0xbda54d91	-0.08071435
115	0x3cea08c2	0.02856863
116	0xbd946a87	-0.07246881
117	0xbc7b206d	-0.015327555
118	0xbdb4a8f3	-0.08821287
119	0x3d6e3921	0.05815995
120	0xbd25d648	-0.040487558
121	0xbc73401c	-0.014846828
122	0xbd339cd5	-0.04385074
123	0x3dacc59e	0.0843613
124	0x3c17bbf0	0.009261116
125	0xbbc2d098	-0.0059452765
126	0xbc5f05f7	-0.013612262
127	0xbd7b12fa	-0.061297394
128	0x3c39798e	0.011320485
129	0xbd27d769	-0.040976916
130	0x3d724823	0.059150826
131	0xbc1e324e	-0.009655548
132	0xbd4ba0ac	-0.049713776
133	0x3d07f7b5	0.033195216
134	0x3d573897	0.052544203
135	0xbce38895	-0.027775088
136	0x3b928dd9	0.004472476
137	0x3bdc41d8	0.0067217164
138	0xbd8962df	-0.06708311
139	0x3c7c4deb	0.0153994365
140	0xbd7aaaab	-0.061197918
141	0xbda2ac7f	-0.07943057
142	0x3ceaef9b	0.028678706
143	0xbd9b0168	-0.075686276
144	0xbd1551c6	-0.03645494
145	0x3ca6ed2e	0.020376768
146	0x3b6fdb35	0.0036599163
147	0x3db2bbab	0.08727201
148	0xbd85a10f	-0.0652486
149	0xbd4f7c86	-0.050655864
150	0xbc451bfb	-0.012030597
151	0x3d8ce80f	0.06880199
152	0x3cd5be00	0.026091576
153	0xbb3c41bf	-0.002872571
154	0xbc1ea256	-0.009682259
155	0xbd0aa3bc	-0.033847556
156	0x39e92b20	0.00044473354
157	0xbc671039	-0.014102989
158	0x3c0f56a5	0.008748685
159	0xbd815405	-0.063148536
160	0xbdb400a7	-0.08789187
161	0xbb43dcc4	-0.0029886225
162	0xbcbcd341	-0.023049952
163	0x3da7f443	0.08200886
164	0xbd5cbd3e	-0.053891413
165	0xbc4d4591	-0.012528793
166	0x3d2eb390	0.042651713
167	0xbca89a10	-0.020581275
168	0xbd900499	-0.07032127
169	0x3d8fd375	0.07022754
170	0xbad251f0	-0.0016046148
171	0x3dad6353	0.0846621
172	0x3d265461	0.040607814
173	0xbd120bdd	-0.035655845
174	0xbc7bc293	-0.015366214
175	0x3cc6f070	0.024284571
176	0xbce28376	-0.027650576
177	0xbd66b00e	-0.056320243
178	0xbd1cd7a2	-0.03829158
179	0x3d7e793d	0.06212734
180	0xbd56dc85	-0.052456398
181	0x3d9f0594	0.07764736
182	0xbd5c3a9b	-0.053766828
183	0xbcbcd210	-0.023049384
184	0xbd859bea	-0.06523879
185	0xbd410fd9	-0.047134254
186	0xbd9049d5	-0.07045332
187	0x3da07f2a	0.078367546
188	0xbd394a23	-0.045236718
189	0x3cf50f33	0.029914474
190	0x3d0870a5	0.03331055
191	0xbd57d22f	-0.05269068
192	0xbd69cd46	-0.05708053
193	0x3d9d10cf	0.076692216
194	0x3cc69b79	0.024244057
195	0xbc2de0fd	-0.010612723
196	0x3d86a4cb	0.065744005
197	0x3d803c33	0.06261482
198	0x3d8c341e	0.06845878
199	0xbc93ad99	-0.018027114
200	0x3d997b84	0.07494262
201	0x3b04050d	0.0020144612
202	0xbc73ad50	-0.014872864
203	0xbd2787c8	-0.040900975
204	0xbd0e7ac4	-0.034785047
205	0x3d03d295	0.03218325
206	0x3d540dde	0.051771037
207	0x3d94ef89	0.0727225
208	0xbd0c50b7	-0.034256663
209	0x3cc6a5c5	0.024248967
210	0x3c3132ab	0.010815303
211	0x3d2a79db	0.041620117
212	0x399765f0	0.00028876914
213	0x3da44a0f	0.08021938
214	0xba2cb818	-0.00065887114
215	0xbc82fbcc	-0.015989207
216	0x3ce81c3d	0.028333778
217	0x3ba399ef	0.0049927155
218	0xbd8cab67	-0.0686863
219	0xbd545c83	-0.05184604
220	0xbd9b8859	-0.075943656
221	0xbd5cff67	-0.05395451
222	0x3ce09fef	0.027420012
223	0x3b65c7dc	0.0035061752
224	0xbd82fa3c	-0.06395385
225	0xbd440b39	-0.047862265
226	0xbacd6366	-0.0015669882
227	0x3cb3278b	0.021869441
228	0x3cdabe15	0.026701966
229	0xbcd25b65	-0.025678346
230	0x3d922bef	0.07137286
231	0x3d888a21	0.06666971
232	0xbda96fc8	-0.08273274
233	0x3d0191a6	0.03163304
234	0xbc18cb83	-0.009325865
235	0xbdaddce8	-0.084894
236	0x3d91d1b1	0.071200736
237	0xbd2bc8fb	-0.041939717
238	0xbd7fe988	-0.062478572
239	0xbc7451a0	-0.014912039
240	0xbcfbfefc	-0.030761234
241	0xbc72f752	-0.014829474
242	0x3d512b49	0.05106667
243	0x3d3b01c2	0.045655973
244	0xbd93c0ee	-0.07214533
245	0xbc0c0c42	-0.008547844
246	0x3d8a2c04	0.067466766
247	0xbd843e0a	-0.064571455
248	0x3d48cdcd	0.049024392
249	0xbd5a7773	-0.053336572
250	0x3da8c885	0.08241371
251	0x3d748d77	0.059705224
252	0xbbc30940	-0.0059520304
253	0x3d80e2f7	0.0629329
254	0xbd9dc95d	-0.077044226
255	0xbdb05efe	-0.08611868

decoder_rnn.weight_hh_l0 f4 [384, 128]
0	0x3e11594d	0.14194222
1	0x3b8b2123	0.0042458936
2	0x3dabf2db	0.083959304
3	0x3e01eb02	0.12687305
4	0x3db18ee7	0.086698346
5	0x3dd228c2	0.1026168
6	0xbdb17b04	-0.086660415
7	0x3d8d31eb	0.06894287
8	0x3cd3f5b8	0.025874004
9	0x3c2dc949	0.010607072
10	0xbe05ce66	-0.13067016
11	0xbbb6ed9a	-0.0055825235
12	0x3d5f0e44	0.054456964
13	0xbcfc2a09	-0.030781763
14	0xbd9f9036	-0.07791178
15	0xbd2fc07e	-0.042908184
16	0x3d0ea1de	0.034822337
17	0xbd3ab751	-0.04558498
18	0x3d947676	0.07249157
19	0xbd109588	-0.035298854
20	0x3dd97a2f	0.10619008
21	0x3d9593a6	0.07303552
22	0xbdefbbae	-0.11705719
23	0xbce35b55	-0.027753511
24	0xbdbe63f1	-0.09296406
25	0x3cc232d0	0.02370587
26	0x3d061159	0.032731388
27	0x3da4743e	0.08029984
28	0xbda7dc65	-0.08196334
29	0x3d019b25	0.031642098
30	0x3a7e504a	0.0009701295
31	0x3cef5430	0.029214948
32	0xbdff474c	-0.12464771
33	0x3e1cc3cb	0.15309064
34	0xbdbd4b39	-0.09242863
35	0xbc9ef558	-0.019404098
36	0x3d39ea60	0.045389533
37	0x3b76c482	0.003765375
38	0x3d1cbce3	0.038266074
39	0x3d733465	0.05937614
40	0xbd82c9d8	-0.06386155
41	0x3e2331ef	0.15937017
42	0x3dd10e13	0.102077626
43	0x3c5c0ece	0.013431264
44	0x3d8fad05	0.07015423
45	0x3d93fdcf	0.072261445
46	0x3d0ec238	0.03485319
47	0x39d9476e	0.00041442685
48	0x3da22224	0.07916668
49	0xbda2c9a1	-0.07948614
50	0xbdee07a3	-0.1162255
51	0x3da63aae	0.08116661
52	0xbc80569c	-0.015666299
53	0xbd88c1c7	-0.06677585
54	0xbd6dfd3e	-0.05810284
55	0x3bf09bfc	0.0073428135
56	0xbc919212	-0.017769847
57	0xbd6abc2e	-0.05730837
58	0xbd6f327f	-0.058397766
59	0xbd3dc317	-0.04632863
60	0xbe1379f7	-0.14401995
61	0xbcf465e1	-0.029833736
62	0x3dbaf549	0.09128816
63	0xbd867956	-0.06566112
64	0x3dace3f4	0.08441916
65	0xbe056673	-0.13027363
66	0xbcea4bf6	-0.028600674
67	0xbd9645c1	-0.07337523
68	0x3d0f3205	0.03495981
69	0xbbbc0c8b	-0.0057388
70	0xbd5284ac	-0.051396057
71	0x3d6d6a8c	0.05796294
72	0x3db41fc2	0.0879512
73	0xbd87cb55	-0.066305794
74	0x3d1236cb	0.035696786
75	0xbd7f884c	-0.062385842
76	0x3c88d6c3	0.016703969
77	0x3be4fd91	0.0069882353
78	0x3d195cbf	0.037441965
79	0x3dad946a	0.08475573
80	0xbd311000	-0.04322815
81	0xbcf758d8	-0.030193731
82	0xbe21a57c	-0.15785784
83	0x3c08511a	0.008320117
84	0x3d0824ea	0.03323833
85	0x3d762c9d	0.06010114
86	0x3d8a0eb0	0.06741083
87	0xbde4a334	-0.11163941
88	0xbd96c627	-0.07362013
89	0x3da899ee	0.08232485
90	0x3ccd6aa2	0.02507526
91	0x3c70533e	0.014668284
92	0xbd8f8997	-0.07008665
93	0x3db8b06e	0.09018026
94	0x3e04e60d	0.12978382
95	0x3b128933	0.002235961
96	0xbd3ab9f2	-0.045587488
97	0x3d115bea	0.035488047
98	0x3d1e3097	0.038620558
99	0x3d24eb8f	0.04026371
100	0x3d7dc116	0.06195172
101	0x3d5eb315	0.054370005
102	0xbdf978ec	-0.12181267
103	0xbbf58fcb	-0.007493948
104	0xbc8ad22c	-0.01694592
105	0x3da9a94e	0.082842454
106	0xbc9ec0b9	-0.019379007
107	0x3d196b3e	0.03745579
108	0xbcd5f73f	-0.026118873
109	0x3e0bdd4e	0.1365864
110	0x3d1446d5	0.036200363
111	0xbdb38f30	-0.08767545
112	0xbb8de477	-0.0043302136
113	0xbd9a3833	-0.075302504
114	0x3c59b5ec	0.013288002
115	0x3c9430da	0.0180897
116	0xbd7a76c1	-0.06114841
117	0xbd3eafc8	-0.046554357
118	0xbd12ff7f	-0.03588819
119	0xbc657f25	-0.014007364
120	0xbd28bfe2	-0.04119862
121	0x3c2eb841	0.010664047
122	0x3c71a34a	0.014748404
123	0x3dc58e63	0.09646299
124	0x3d044467	0.032291796
125	0xbd6fcaad	-0.058542896
126	0x3bb83e05	0.0056226277
127	0xbda4f288	-0.08054072
128	0xbc120107	-0.008911378
129	0x3d484291	0.048891608
130	0x3d4fca34	0.050729945
131	0x39b61530	0.0003472953
132	0xbd5a3241	-0.053270582
133	0x3d6ccf3f	0.057814833
134	0x3d0d5362	0.03450335
135	0xbd57d0e4	-0.052689448
136	0xbd31fcab	-0.043453854
137	0x3d99bcd4	0.07506719
138	0x3ccb8ef2	0.024848435
139	0x3d1bed56	0.038068138
140	0x3c8d5291	0.017251285
141	0xbb1daec4	-0.0024060467
142	0xbdb9c683	-0.09071066
143	0x3c39129b	0.01129594
144	0xbda107c1	-0.07862807
145	0x3dba4d2c	0.090967506
146	0xbd21b2b5	-0.03947707
147	0x3d88bc6b	0.06676563
148	0x394faef2	0.0001980623
149	0x3de4720a	0.11154564
150	0xbd4035b1	-0.046926204
151	0xbd0f9a13	-0.035059046
152	0xbc83fc4a	-0.016111512
153	0xbd32f79f	-0.04369318
154	0xbd3b78cc	-0.045769498
155	0x3d9c3883	0.07627966
156	0xbcc00a16	-0.02344231
157	0x3dfdb9f4	0.12388983
158	0xbc969e70	-0.018386096
159	0x3d80bd41	0.06286097
160	0xbdf23562	-0.11826588
161	0x3cea3b6b	0.028592786
162	0x3cd13e00	0.02554226
163	0x3d3d4c59	0.04621539
164	0xbd2f85ff	-0.042852398
165	0xbd3c7e30	-0.04601878
166	0xbca46e07	-0.020071996
167	0xbcb6d0c0	-0.022316337
168	0x3c5b6b86	0.013392335
169	0x3d9012ce	0.07034837
170	0x3dd80d20	0.105493784
171	0xbd93a64b	-0.07209452
172	0xbc3ab463	-0.011395547
173	0x3d8c25d1	0.068431504
174	0xbda6fe69	-0.08153994
175	0x3d9d2439	0.076729245
176	0x3ccac8a4	0.024753876
177	0xbd590ad5	-0.052988846
178	0x3d3f5085	0.04670765
179	0x3d270cf3	0.040783834
180	0x3d6fd71e	0.05855476
181	0x3d0a58cd	0.033776093
182	0x3d43b6d8	0.047781795
183	0x3d9ea89e	0.07747005
184	0xbd28f085	-0.041245002
185	0xbd3d5af3	-0.046229314
186	0xbb6760d9	-0.0035305528
187	0xbd0270de	-0.03184592
188	0xbc46d6aa	-0.012136141
189	0xbd858310	-0.06519139
190	0xbd675c2f	-0.056484398
191	0xbd781987	-0.06057122
192	0x3c23fcf8	0.010009043
193	0xbc7c9473	-0.015416252
194	0xbdd1f0aa	-0.10250981
195	0x3d3ca462	0.046055205
196	0xbabb5ad7	-0.001429404
197	0xbc44d263	-0.012013051
198	0x3d7a7131	0.061143104
199	0x3cfc548e	0.030802038
200	0x3ce83ee0	0.028350294
201	0xbd1fde7d	-0.03903054
202	0x3b9ba44c	0.0047498103
203	0x3cb275f2	0.021784756
204	0x3cee67ca	0.029102225
205	0x3e062870	0.13101363
206	0xbcf7ec4e	-0.030264046
207	0xbcf2d862	-0.029644195
208	0x3b67965d	0.0035337426
209	0x3d3247e6	0.0435256
210	0x3c0f6f9d	0.008754638
211	0x3d0bc4a5	0.03412308
212	0xbc45eac0	-0.012079895
213	0x3ce2928a	0.027657766
214	0xbd7acaea	-0.06122867
215	0xbd4b5a60	-0.049646735
216	0xbdb96e8e	-0.0905429
217	0x3d864bd5	0.065574326
218	0x3b80f381	0.003935278
219	0x3ca4e94e	0.02013078
220	0xbe081dce	-0.1329262
221	0xbd6f8160	-0.05847299
222	0x3d6be530	0.057591617
223	0xbd878591	-0.06617273
224	0xbda67b03	-0.081289314
225	0x3d6731f2	0.056444116
226	0x3df26cb0	0.11837137
227	0x3c699742	0.014257254
228	0xbcb300ba	-0.021850932
229	0xbd19f7d1	-0.03758985
230	0xbca0a98c	-0.019612096
231	0x3d0ccbba	0.034373976
232	0x3ccacf54	0.024757065
233	0xbd7650a3	-0.060135495
234	0x3ddee9f5	0.108844675
235	0x3d750484	0.05981876
236	0x3d744344	0.059634462
237	0x3d91adf3	0.07113256
238	0xbd63c163	-0.05560435
239	0xbd32cb0c	-0.04365067
240	0x3d6b2f02	0.057417877
241	0x3d8ed25f	0.06973719
242	0xbd3a9f8f	-0.045562323
243	0x3d997dd1	0.07494701
244	0xbd3eeadf	-0.04661071
245	0x3d4124b8	0.04715416
246	0xbdaa07f2	-0.08302297
247	0xbdb66b50	-0.08907187
248	0xbdc211a0	-0.09476018
249	0xbcbae994	-0.022816457
250	0x3e0d8ba7	0.13822804
251	0xbc0461ce	-0.008079959
252	0x3d024e28	0.031812817
253	0x3d4371d5	0.04771598
254	0x3d6dada5	0.05802693
255	0xbc6e54b5	-0.014546563

decoder_rnn.bias_ih_l0 f4 [384]
0	0x3d1e1284	0.038591877
1	0x3d787dad	0.06066673
2	0xbcefb45f	-0.029260812
3	0xbc95bdb8	-0.018278942
4	0x3c35db27	0.011099613
5	0x3c734450	0.01484783
6	0x3ccc67eb	0.024951896
7	0x3dcb62c7	0.0993095
8	0x3d55c847	0.052192952
9	0x3bbdfe0e	0.005798108
10	0x3dd2ad89	0.102870055
11	0x3de4de2b	0.11175188
12	0xbc1920e1	-0.009346218
13	0xbd492a80	-0.049112797
14	0xbd2fd713	-0.04292972
15	0xbd9a8fa4	-0.075469285
16	0x3cc49640	0.023997426
17	0xbbb8a37c	-0.005634723
18	0x3d957d9b	0.07299348
19	0x3dac248d	0.08405409
20	0x3d603277	0.054735627
21	0x3c9f57e4	0.01945109
22	0x3cd31834	0.025768377
23	0xbd8ed026	-0.06973295
24	0xbca2aba0	-0.019857228
25	0xbd533a11	-0.05156905
26	0x3ddc4eb0	0.10757196
27	0xbd7adac2	-0.06124378
28	0x3e0a5ac2	0.13511184
29	0xbda0a983	-0.07844832
30	0xbd19a00e	-0.037506156
31	0x3d42bb06	0.04754164
32	0x3c9ac6dc	0.018893652
33	0x3d8986a2	0.06715132
34	0xbd068a13	-0.03284652
35	0x3d61682f	0.055030998
36	0x3d31e0f7	0.043427434
37	0xbcfcd6e3	-0.030864185
38	0x3c678352	0.01413043
39	0xbcb807ba	-0.022464622
40	0x3c853a77	0.01626323
41	0x3dc43e3e	0.09582184
42	0x3dbb9af6	0.09160416
43	0xbd2a3156	-0.041550957
44	0x3ccaf516	0.02477507
45	0x3d27680a	0.040870704
46	0xbd15918b	-0.036515754
47	0x3d760010	0.060058653
48	0x3b31aac8	0.002710985
49	0x3dc69a3b	0.09697386
50	0x3d9aba23	0.07555034
51	0x3de8be9d	0.113644816
52	0xbc860d12	-0.016363654
53	0x3ddbae26	0.107265756
54	0x3c6e3457	0.014538846
55	0x3cddec30	0.027090162
56	0x3dc2a007	0.09503179
57	0x3d8a1847	0.06742912
58	0x3d5accfa	0.053418137
59	0x3d68dd95	0.056851942
60	0xbb9dae49	-0.004812036
61	0x3dd4cfc8	0.10391194
62	0x3d69d8d7	0.05709156
63	0x3d48dde3	0.049039733
64	0x3d444afa	0.047923066
65	0x3de0fc49	0.109856196
66	0x3bcfbb4f	0.0063394676
67	0x3df5002e	0.11962925
68	0xbb3ad861	-0.002851032
69	0xbd106033	-0.035247993
70	0x3daa4485	0.0831385
71	0x3da7fde0	0.0820272
72	0x3de1b2a4	0.11020401
73	0xbbf3e2b1	-0.007442795
74	0x3d399901	0.04531193
75	0x3d3abd02	0.04559041
76	0x3de42cc2	0.111413494
77	0x3c8facb0	0.017538399
78	0x3d0a2e31	0.033735458
79	0x3d79d75f	0.06099641
80	0x3d6f6b14	0.058451727
81	0xbc303ee1	-0.010757179
82	0x3dce8b40	0.100851536
83	0xbb7dcc40	-0.0038726479
84	0xbd6b2cb9	-0.057415698
85	0xbd354352	-0.044253655
86	0xbd5a4c5e	-0.053295486
87	0xbd17c8ef	-0.03705686
88	0x3d017aba	0.03161118
89	0xbb8334ed	-0.004004112
90	0x3dd67448	0.10471398
91	0x3dc0a03e	0.09405564
92	0x3c878d94	0.016547002
93	0xbd530071	-0.051514093
94	0x3d4345a1	0.047673825
95	0x3dccb3c2	0.099952236
96	0xbb44de9a	-0.0030039907
97	0x3d17baa8	0.037043244
98	0xbce1c212	-0.02755836
99	0x3d1e08b1	0.038582508
100	0x3cfe03cf	0.031007675
101	0x3d5def9d	0.05418359
102	0x3dab4d55	0.08364359
103	0x3cd3dead	0.025863016
104	0xbc1b20c4	-0.009468261
105	0xbca0b772	-0.019618724
106	0x3dea1586	0.114298865
107	0xbd16c2ce	-0.036806874
108	0x3d9f4fc9	0.0777889
109	0xbd269d73	-0.0406775
110	0x3da6f6dd	0.08152554
111	0x3d24ec29	0.040264282
112	0xbcb61c1a	-0.022230197
113	0x3cf0343a	0.029321779
114	0x3d9dfab0	0.077138305
115	0xbd0ecfd7	-0.03486618
116	0x3d8fcb29	0.070211716
117	0x3e021da5	0.12706621
118	0xbce4b13f	-0.027916549
119	0x3da5e400	0.08100128
120	0x3c4b4478	0.012406461
121	0x3d938560	0.07203174
122	0x3d63c369	0.05560628
123	0x3a7339ec	0.00092783454
124	0xbc3e98ec	-0.011633139
125	0x3d84110c	0.06448564
126	0xbc7c2d3a	-0.015391642
127	0x3dd1125d	0.10208581
128	0x3dd07a67	0.101795964
129	0x3daf00ae	0.085450515
130	0x3d0f9ce4	0.035061732
131	0x3deca78d	0.11555395
132	0x3d3b21c7	0.04568651
133	0xbdc16bf1	-0.09444416
134	0x3afa9b8a	0.001911984
135	0x3d3cccb1	0.046093646
136	0xbdf275d0	-0.11838877
137	0x3da9d7c9	0.08293111
138	0xbc2cbc25	-0.010542904
139	0xbd40780f	-0.046989497
140	0x3c918d19	0.017767476
141	0x3dee8638	0.11646694
142	0x3d97e9a7	0.074176125
143	0x3dc5c5e1	0.09656883
144	0x3d085598	0.033284754
145	0xbb49846e	-0.00307491
146	0x3e3c646d	0.18397684
147	0x3d7a0892	0.06104333
148	0x3dad0069	0.08447344
149	0x3c91bb4b	0.017789504
150	0x3e2bdeff	0.16784285
151	0x3d2c4649	0.042059217
152	0x3af9297d	0.0019009557
153	0x3dee8d66	0.11648063
154	0x3e0e1a72	0.13877276
155	0x3dc9c6d1	0.09852374
156	0x3d5e24bc	0.05423425
157	0x3dbd069d	0.09229777
158	0x3d6d778f	0.057975348
159	0xbe23f3d7	-0.16010986
160	0x3d179578	0.03700778
161	0x3d825821	0.063644655
162	0xbc6b841d	-0.01437476
163	0xbdee79e6	-0.11644344
164	0xbc88d259	-0.016701864
165	0x3d217ec5	0.039427537
166	0xbbd689ac	-0.0065471735
167	0x3de0bf79	0.109740205
168	0xbbcecb76	-0.0063108755
169	0x3e1267a4	0.14297348
170	0x3d8c07b2	0.06837405
171	0x3cbf0180	0.023316145
172	0xbc1b8ac0	-0.00949353
173	0x3d63c4da	0.055607654
174	0x3b1246ca	0.0022320026
175	0x3e3eeebd	0.18645759
176	0x3bb31562	0.0054651955
177	0x3e106d36	0.1410416
178	0x3da2f70f	0.07957279
179	0x3da5e559	0.08100385
180	0xbcfdd8f4	-0.03098724
181	0x3ccb69b2	0.024830673
182	0x3c8e0be6	0.017339658
183	0x3dbf5780	0.09342861
184	0x3d11c44a	0.035587586
185	0x3e0ab119	0.1354412
186	0x3bcb636a	0.0062069194
187	0x3d3187fb	0.04334257
188	0x3e4bbad0	0.19895482
189	0xbb2cd64e	-0.0026372853
190	0xbd50e6cc	-0.051001355
191	0x3e097dbb	0.13426869
192	0x3c7b6754	0.01534446
193	0x3d5175eb	0.051137846
194	0x3e050ca6	0.12993106
195	0x3d34421b	0.044008356
196	0xbca9b187	-0.020714534
197	0x3d85fe29	0.06542618
198	0xbd900303	-0.070318244
199	0xbc1d8926	-0.009615218
200	0x3de866fe	0.11347769
201	0xbda0ecbf	-0.07857656
202	0x3d29b675	0.04143377
203	0x3d9e3865	0.077256
204	0x3e1e8e71	0.15484025
205	0xbcd565bf	-0.026049493
206	0x3d27bb7b	0.04095028
207	0x3e037757	0.12838493
208	0xbcbdb81b	-0.023159077
209	0x3c225bd2	0.009909587
210	0xbc56dd52	-0.01311429
211	0x39ebc344	0.00044968177
212	0x3d0087fe	0.031379692
213	0x3c5e00a2	0.013549956
214	0x3d1482ba	0.036257483
215	0x3d32121e	0.04347431
216	0x3da726b4	0.08161679
217	0xbd1e3ef1	-0.038634244
218	0x3ddb539f	0.10709309
219	0x3d2ef8e1	0.04271782
220	0x3db7fc58	0.089836776
221	0xbdc3dc72	-0.09563531
222	0x3e27644a	0.16346851
223	0x3d9c2219	0.07623691
224	0xbd9700f2	-0.07373227
225	0xbccd8edf	-0.02509254
226	0x3e0db0f9	0.13837041
227	0x3dfaa5a7	0.12238627
228	0x3e04be3d	0.12963195
229	0x3d95c8d0	0.073136926
230	0x3d767ae0	0.060175776
231	0x3dd63022	0.10458399
232	0x3d23fbd8	0.0400351
233	0xbc4ec5ba	-0.012620384
234	0xbd4fd933	-0.050744247
235	0xbd9d2126	-0.07672338
236	0x3bc2e9e0	0.00594829
237	0x3e3b3e62	0.18285516
238	0x3d1d4850	0.03839904
239	0xbbd29899	-0.0064268825
240	0x3d8c2a44	0.06843999
241	0xbd1e78ec	-0.03868954
242	0x3d636d57	0.055524196
243	0xbb9ba171	-0.00474947
244	0x3d9381a3	0.072024606
245	0x3cb1cff8	0.021705613
246	0x3deaeb97	0.114707164
247	0xbd779b07	-0.06045058
248	0x3d293d0d	0.04131799
249	0xbd056346	-0.032565378
250	0x3ddc2f04	0.10751155
251	0x3c039c1c	0.008032825
252	0x3c2dede8	0.010615803
253	0xbde10e92	-0.10989107
254	0x3dacaff0	0.08431995
255	0x3e1b32f7	0.1515616
