Rudi/checkpoints/autoencoder_model_epoch_6.pth (torch, 682100 bytes, 10 tensors)

encoder_rnn.weight_ih_l0 f4 [384, 40]
00000000: 4307 03bd ed14 dabc b0d1 7c3d 119c d2bc
00000010: dbca 6abd 2c16 803d f9e9 203e 1719 a33d
00000020: 602a e33d 5ebb 303d cea5 273d fe20 753d
00000030: d570 c93d 3691 65bc 7a04 533d 9bff 623d
00000040: 7114 843b f5ec 9cbd e0b2 963d c356 a3bc
00000050: c4ba ef3d cf24 b93c a37c 233d edc4 ad3d
00000060: 028d b33d ca18 38bd 2736 a43d 80c2 b7bc
00000070: 5f63 b8bb c1d9 b73d be5d 11bc 4332 12bd
00000080: e272 c43d 5838 8dbd 3dc1 bd3d f5e7 563d
00000090: a261 02bd 6d00 c83d 74bb 95bd a3d9 b13d
000000a0: 3918 acbd af61 493d bd69 e63d 6bea cabc
000000b0: 11bd 4c3d 78ac cd3d 2548 19be c3fa 403d
000000c0: f593 e0bc 44f4 253d 65e4 f7bc b920 a93c
000000d0: 75a2 a93d 69a8 7e3d 2098 fe3c 7761 8dbc
000000e0: 15da fd3c e020 903d 2f71 5b3c 30dd 1cbc
000000f0: 1b77 1c3d c2af 9bbd 1f84 91bd c930 83bd
00000100: 887e cc3d 8295 033d 0039 afbd e7cb 63bd
00000110: ee60 7bbd 3381 cb3c 4216 67bc 5ec5 153d
00000120: d5f3 933d 74cf 8cbd e151 9bbd 7de5 ca3d
00000130: 3e18 0f3d 5d5d 63bc 9f96 8cbd 8400 9b3d
00000140: dec1 6f3b d8fb 223e 278b 11bc 98f6 6dbb
00000150: 508f bc3d 0a49 d6bc 3d60 acbc 42c9 37bd
00000160: fcdb 53bd 73aa d9ba 1707 72bd 3fa3 ab3d
00000170: d54d 11bd d0f3 2ebd 27a8 983c ef1f 933c
00000180: 1135 de3c 07e3 413d 4c8b 9b3c d213 cbbc
00000190: 5fd4 afbd 4bde bdbc b3f7 3bbd 1d55 293c
000001a0: ddd1 1fbe 820f 5b3d 302e afbd 974e ba3d
000001b0: 6d07 05be c76a 56bd eb7a 223c 27a5 9fbd
000001c0: 2550 32bc 46a5 2d3d 8cbc a33d 2626 9c3d
000001d0: 40ba acbd e8dd 25bb f14e b2bd a0af 54bd
000001e0: 6788 bb3d 539a 853d 8f16 2fbc 344a 42bd
000001f0: a1e2 893d 7650 1bbc 81d8 bbbd 0cf0 013c
00000200: 8053 a0bd 7917 d83d 596e 8fbc d5eb 313d
00000210: 28c7 2ebc 1344 e9bd 4697 33bd 5349 bcbd
00000220: 828b 8bbd e0e9 c1bd b463 29bd dc3d 71bd
00000230: 90e3 9bbd a087 d5bc d5b2 febc b4dd 213d
00000240: ce73 22bd e1b9 463d 4c53 fb3c 01de c5bd
00000250: d332 3bbd 20b0 38bd 56ab 823d d5f0 f33c
00000260: a669 8dbc 937b 86bd 951c 83bd 4d67 3f3d
00000270: 7279 543d 3205 38bd 87f1 9fbc 5a19 9cbd
00000280: d3c4 963d c6dd 8dbd b787 f53c b4d9 a13b
00000290: bd3b f6bd 74cd a3bd e1a6 efbd 8947 243d
000002a0: d1ed d3bc 12b5 903c b06d 953d b619 3b3c
000002b0: 7e4a c03d 45a4 e73d 6377 333c 8208 e5ba
000002c0: ebe2 3abc 9ca8 e63d e74f bb3d 3bb7 223d
000002d0: 2d43 993d 0ed3 1abd 3fa0 413d ca34 373b
000002e0: cbdf 21bd eda9 173d 1445 953d 64e5 a0bd
000002f0: 386e 03bd e097 ecbd ce4b 80bd 8203 253d
00000300: 21e5 a63c 79b8 f0bc 795e d3bb 688a 7cbd
00000310: a376 40bb 9094 d0bd e3ef f6bd 4829 0c3d
00000320: ceaa 10bd ba55 0c3d e0d9 c03d fef2 b83c
00000330: 0b6b 38bd 3106 be3d 8c3d bdbd 8170 e13d
00000340: 736b d1bb b09d 5ebd 7e83 c13d fb83 93bd
00000350: 9e4b e53c 90b3 2fbd e6d5 113d 18e6 58bd
00000360: 50d4 2e3b 9bcc b4bc ccd9 3b3c a1cf c7bd
00000370: 5481 113d ce25 0d3d fbac 643d 1dd9 eabb
00000380: 940d 0fbd 5c84 343b d900 57bd 47f2 97bd
00000390: 9d42 963d d50e 613c 46a7 0b3d f2a7 c0b9
000003a0: 42e9 ba3d 3511 e9bd bfbf 823d 2fbe ecbd
000003b0: 3a18 2b3c 10f3 78bd 9cb7 b73d 2935 893d
000003c0: d1cc aabb 085a 133e 89cc 2e3d ddce 8cbd
000003d0: 3e16 bd3b b93d 633d 2dd0 9c3d a217 47bd
000003e0: da6d 8c3b ab6b bf3d 9840 cfbd 28c6 c9bc
000003f0: 9fb0 453d 996e 143d 1db3 9b3c e1ed df3c
-0.031989347 -0.026621306 0.06172341 -0.025709184 -0.057322364 0.06254229 0.15714253 0.0796377
0.11092067 0.043147437 0.040929608 0.059845917 0.09835974 -0.014011672 0.05151794 0.055419546
0.004030757 -0.076623835 0.073583364 -0.019938832 0.117055446 0.02260056 0.039913785 0.08484826
0.087671295 -0.044945516 0.08018141 -0.022431612 -0.0056270803 0.0897708 -0.008872448 -0.035692465
0.09592225 -0.06895512 0.09265373 0.052467305 -0.03183139 0.09765706 -0.073111445 0.08684089
-0.084030576 0.049165424 0.11250637 -0.024769982 0.049984995 0.100426614 -0.14968927 0.047114145
-0.027414301 0.040516153 -0.030260274 0.020645486 0.08282939 0.062172327 0.031078398 -0.017258389
0.030987779 0.070375204 0.013393684 -0.00957422 0.038199525 -0.076018825 -0.07105278 -0.064057894
0.099850714 0.032125004 -0.08555794 -0.05561438 -0.061371736 0.02484188 -0.014104428 0.036565177
0.07224242 -0.06875506 -0.075839765 0.09907053 0.03493523 -0.01387724 -0.06864666 0.07568458
0.003658406 0.15916383 -0.008883274 -0.0036310311 0.09207022 -0.026157875 -0.021041984 -0.04486967
-0.051723465 -0.0016606584 -0.059088793 0.08380746 -0.035474617 -0.042712986 0.018634869 0.017959563
0.027124913 0.04733565 0.01898732 -0.024789724 -0.085854284 -0.023177287 -0.04589052 0.010335234
-0.156074 0.053481586 -0.085537314 0.09097021 -0.12991114 -0.052347925 0.009917001 -0.07795172
-0.010883366 0.042393945 0.07994947 0.07624464 -0.08433962 -0.0025309268 -0.08706463 -0.0519253
0.09156876 0.06523576 -0.010686531 -0.047434047 0.06732679 -0.009479633 -0.09172154 0.007930767
-0.07828426 0.10551352 -0.017508673 0.043437798 -0.0106676 -0.11389937 -0.043845437 -0.09193673
-0.068137184 -0.09468436 -0.04135485 -0.058896884 -0.076117635 -0.026065648 -0.031091133 0.039518073
-0.03966122 0.04851711 0.030679367 -0.096614845 -0.045702767 -0.04508984 0.06380336 0.029777924
-0.017262291 -0.06566539 -0.06401936 0.046729375 0.05187363 -0.04492683 -0.019524349 -0.07622023
0.0736176 -0.069270656 0.02997194 0.0049392823 -0.12023113 -0.079981714 -0.117017515 0.040107284
-0.025870236 0.017664466 0.07296312 0.011419704 0.09389208 0.11310629 0.010953757 -0.0017473849
-0.0114066405 0.112626284 0.091460995 0.039725523 0.07483516 -0.037798934 0.047271963 0.0027955049
-0.039520066 0.03702729 0.07288566 -0.07856253 -0.032087535 -0.11552405 -0.062644586 0.04028655
0.020372929 -0.029384838 -0.006450471 -0.061655432 -0.0029367588 -0.10184586 -0.120574735 0.034219056
-0.035319142 0.034261443 0.09416556 0.022576805 -0.04502396 0.09278525 -0.09240255 0.110077865
-0.006390983 -0.0543496 0.09448908 -0.07202908 0.027990159 -0.042895854 0.03560438 -0.05295381
0.002667684 -0.02207022 0.011465501 -0.09756399 0.035523728 0.03445988 0.05582903 -0.007166995
-0.03492506 0.0027544713 -0.052491043 -0.074192576 0.07336924 0.013736446 0.03409507 -0.00036746223
0.09126522 -0.11380235 0.06384229 -0.11559712 0.010442788 -0.060778677 0.089705676 0.066995926
-0.0052124043 0.14389813 0.04267553 -0.068753935 0.0057704737 0.055478785 0.07656894 -0.048606522
0.0042855563 0.09346708 -0.10119742 -0.024630621 0.048264142 0.036238287 0.019006306 0.02733511

encoder_rnn.weight_hh_l0 f4 [384, 128]
00000000: 3bf3 52bd 8da8 d5bd dbee 5f3c b70a ebbc
00000010: 3b64 323d 37b3 763d 570f a1bd 2a1f 0c3d
00000020: deb9 09bd 4787 853d 99e0 7e3d 7c3d b13d
00000030: dad4 b3bc 1ed6 e13d ba75 f3bc bf51 5f3d
00000040: 4b7c e93c b380 5bbd 146c 9abd fc0f 95bc
00000050: d9d3 0dbd b62e d33c 91e1 223d ed86 90bd
00000060: d011 96bd 9c99 25bd c95e 86bc 79cc 42bd
00000070: a2b2 83bd 73cc 7b3d 092e 1e3c 4491 863d
00000080: d577 e13d 7836 8abc 47fa 54bd 1508 f7bc
00000090: 9137 913c a6de a03d 07ea a4bd c8a8 dfbd
000000a0: 044d 803c 5e0b efbd 013b c2bd 5851 903d
000000b0: 8025 6f3d ff5f 333d 6763 043d b425 41bc
000000c0: 0799 8e3d 6495 a93d 2d78 ec3c e14b 84ba
000000d0: 1a11 9e3d d984 8e3d 2498 2bbc f372 94bd
000000e0: 13e0 bcbc b882 51bd aa85 52bc 995f 6f3d
000000f0: 2652 243c 473c b4bd d125 3eba 9aa3 c73d
00000100: 9d79 dabc a9e2 f1bb f4c1 813d 5634 1fbd
00000110: 18e9 b03d 9748 d23d 5a31 543d 1823 9abd
00000120: 8859 d53d 676a 3cbc dcc8 b73d 832d 8e3a
00000130: 167d 76bc 49e7 4c3d c685 5e3d 7a04 e8bb
00000140: 60d2 47bd 02ad a43d 57ae d3bc 939d 3f3d
00000150: 18dc df3c 0a3d e8bd 3a82 e63d 16d5 6e3d
00000160: 8396 e9ba f260 a03d 457e 93bc ad6e b73d
00000170: 6c05 2cbb 97f5 403d 3a5d 74bd 8a89 0b3e
00000180: d7fd ad3d e0ec 92bd 3129 28bd 5e19 b43d
00000190: 79cc 81bd 6b66 7fbd 79ed 6fbc a940 82bc
000001a0: 5e91 c7bd 4e41 f13d 8c69 4fbd c2a2 b93c
000001b0: e934 aa3b 8492 ddbd 53fc 00be 2c76 863d
000001c0: 45db 023d 6c09 433d 63b5 38bd 98f1 1b3c
000001d0: 35d8 03be ce98 0c3d 1169 c1bc 006c 3ebb
000001e0: e75e 9a3d 655d af3b 9baf 06bd c40b 363d
000001f0: 75a0 6bbd 68ca 49bd 8f3b 90bd dc16 39bd
00000200: dee1 67b9 9f00 33bd c993 37bd ee30 223d
00000210: 48a7 af3c d91f a13d af0d b0bd 3ece fcbb
00000220: 73e6 35bb f611 113d 3498 b0bc 116f 51bc
00000230: c783 f73b aef8 5fbd b4d9 d73d cf02 abbc
00000240: a94d dcbc 8fa7 afbd 5122 91bd c9e2 363e
00000250: 5539 47bd 3762 c9bd 3891 51bd 4208 48bc
00000260: 17b3 853d 582c 32bc 429a e5bd b703 52bc
00000270: acf9 7ebd e523 25bd 9728 ad3d 602d 96bb
00000280: 58f9 903d 31ba 4dbd 3f3f 1bbd 0e4d ce3c
00000290: 5998 a73b 250c 34b8 f571 b23d 6524 8b3d
000002a0: 74e4 173d 61de 05bd d6d8 d038 c1ac a0bd
000002b0: d354 01bd aaa6 61bd 755c a8bc 32ab b33d
000002c0: ffc5 9c3d b90f 75bb 375a bb3c f641 c03b
000002d0: 6c3f 14be 03c0 fb3d 6fe8 593d 114a 50bd
000002e0: 153e 973d a5c1 82bd ae04 41bd ab72 a1bd
000002f0: 00c9 6bbd b337 74bd 7adc 75bd 5eca 1e3d
00000300: 7ed0 523d f920 b8bd 2bd2 0d3d c880 06be
00000310: 81f5 b53d b50d 9dbb cc89 983d 5152 693b
00000320: c1d3 123e cbe4 e3bc 0213 953d c424 a9bd
00000330: 33f7 a73b a58e 9e3d 7244 ff3c 7680 853d
00000340: 4156 8cbd b0c0 90bd 9af8 313d 7699 783d
00000350: ec3b 983d c4fa 50bd 6f34 093d ebc7 6abc
00000360: 24bf 45bd 61fe 283c 2a68 92bd 7862 9fbd
00000370: fe54 bdbd a47c a1bd 73f7 913d 4879 73bd
00000380: b1f0 f83c 2e97 08be 8082 153c 856a 91bd
00000390: 593d 6e3d 06d2 d53c 7f41 3cbd 373c e8bc
000003a0: 1fe8 1b3e 4e4f d43c f2b9 3dbd 1f48 383d
000003b0: f34e c13d 11b4 d23d 6f57 343d b3ac c63d
000003c0: 05b4 a03d 6c7b 833d d0c9 6b3c 2ca8 313c
000003d0: 051d 17bd 87dc c8bd 924e fbbc a75b aabd
000003e0: 79b2 81bc b201 9b3d 2ea0 5c3d 047a b93d
000003f0: 119f e0bd 8e00 2d3d 72e5 813b d952 d43d
-0.051501494 -0.10432539 0.013667787 -0.028691633 0.04355262 0.060229506 -0.07864254 0.034209408
-0.033624522 0.06519943 0.06222591 0.08654305 -0.021952081 0.11027168 -0.029719222 0.05452132
0.02850165 -0.053589534 -0.075401455 -0.018196099 -0.03462586 0.02577911 0.0397659 -0.07056985
-0.07327616 -0.040429696 -0.016402619 -0.04755828 -0.06430556 0.061474275 0.00965453 0.06570676
0.11009184 -0.016871676 -0.051996496 -0.030155221 0.017726691 0.07854967 -0.0805245 -0.10920864
0.015661724 -0.1167209 -0.0948391 0.07046765 0.058385372 0.04379272 0.03232136 -0.011788774
0.069627814 0.08280447 0.028865898 -0.0010093414 0.077181056 0.069589324 -0.010473285 -0.07248487
-0.023056066 -0.051150054 -0.012849251 0.05844078 0.010029351 -0.088005595 -0.000725356 0.097480014
-0.026669318 -0.0073817563 0.06335822 -0.03886827 0.08638209 0.10267752 0.051804878 -0.07526225
0.10417467 -0.011499978 0.08973858 0.0010847304 -0.015044471 0.05002526 0.054326795 -0.007080612
-0.048784614 0.08040811 -0.025839968 0.046781134 0.027326629 -0.11339767 0.112553075 0.058308683
-0.0017821345 0.07830991 -0.018004546 0.089566566 -0.002624835 0.047109213 -0.05965922 0.13626686
0.08495682 -0.071740866 -0.04105491 0.08793901 -0.06337828 -0.062353533 -0.01464402 -0.015899973
-0.097445235 0.11780034 -0.050637767 0.022660617 0.0051942957 -0.10818961 -0.12596254 0.06565508
0.031947393 0.047616407 -0.04509486 0.00951805 -0.12875445 0.034325413 -0.02360967 -0.0029056072
0.075376324 0.0053517097 -0.032882314 0.044444814 -0.05752607 -0.049265295 -0.0704261 -0.045187816
-0.00022114019 -0.043701764 -0.044818673 0.039597444 0.02144207 0.078674026 -0.0859636 -0.0077150157
-0.0027755767 0.03541752 -0.021556951 -0.012782828 0.007553551 -0.05468052 0.105395705 -0.020875363
-0.0268925 -0.08576881 -0.070866235 0.17859949 -0.04863866 -0.09833186 -0.051163882 -0.012209
0.06528299 -0.01087483 -0.11211063 -0.0128182685 -0.062249824 -0.040317435 0.084550075 -0.004583046
0.070788085 -0.050226394 -0.037902113 0.025183227 0.005114597 -4.2926655e-05 0.08713142 0.06794051
0.037083104 -0.03268278 9.958602e-05 -0.0784545 -0.031575035 -0.055090584 -0.0205519 0.08772887
0.07654952 -0.0037393405 0.022870166 0.005867238 -0.14477319 0.12292483 0.05320018 -0.050851885
0.07384888 -0.06384591 -0.047123604 -0.07883199 -0.057564735 -0.05962343 -0.060024716 0.03876721
0.051468365 -0.08990664 0.03462426 -0.13135064 0.08884717 -0.004792894 0.07448158 0.0035602043
0.1433859 -0.027819058 0.07279016 -0.082589656 0.005125904 0.07742051 0.031160567 0.065186426
-0.06852389 -0.07068002 0.043449976 0.060693227 0.07433304 -0.0510204 0.03349727 -0.014329891
-0.04827799 0.010314555 -0.07148774 -0.07782453 -0.092447266 -0.078851014 0.07127275 -0.059441835
0.030388208 -0.1333892 0.009125352 -0.07100395 0.058163974 0.026101124 -0.0459609 -0.028349025
0.15225266 0.025916722 -0.04631991 0.044990655 0.094388865 0.10288251 0.044028696 0.097009085
0.07846836 0.06420025 0.014391378 0.010843318 -0.03689291 -0.09807687 -0.030677114 -0.083182625
-0.015832173 0.07568683 0.053863697 0.09056476 -0.109678395 0.042236857 0.0039641196 0.103673644

encoder_rnn.bias_ih_l0 f4 [384]
00000000: 8a26 8cbb 03b5 2f3d f9b6 cb3d 588b 6cbd
00000010: 23b4 99bd d0b9 8e3c c1de 86bd 66ee c43d
00000020: 1e3d 21bd 168d 54bc b48d ac3d 5b0a 633d
00000030: 48b2 a8bd 7852 9cbc 9452 053b df33 ae3b
00000040: 3892 a33c 1504 3cbc cb7a 33bd d4af b3bb
00000050: 2e8b e73d 75d2 7cbd 2a49 9bbd 03a6 7cbd
00000060: 3810 553d 9d43 7e3d 159c 1a3d 1523 9bbd
00000070: c177 5b3d 58da 3a3b 3df7 f6bc 5165 90bd
00000080: 364e 9d3d 6117 0d3d 85c8 a2bd c2b5 54bd
00000090: 5888 c1bd 1d48 c03d e08b 3ebd 9d28 b43d
000000a0: 5980 d73d a6ef f4bb 2631 c93d dab0 6bbd
000000b0: b40b c53d 896f 003e 2373 b63d 8f02 26bc
000000c0: 3e9c 0c3e f746 ee3c e51a 81bd f8e0 fa3d
000000d0: aa76 06be 77fc 3cbd bd25 843c b239 70bd
000000e0: 1ead 2bba 6b36 ff3d 6402 04bc d475 4fbd
000000f0: 68f0 e2bc ea0a 16bd fa4b d23d 1790 38bc
00000100: 5fc8 9f3d bc03 68bd 0553 84bc 8925 153d
00000110: b65b b93d 7936 90bd f74a 303d f762 633b
00000120: d6f4 c3bd e017 8a3c 102b 0c3d 44e9 b43b
00000130: aefd db3c c75b 993d 92c9 1abc 4d52 8abd
00000140: aa66 a73d dba4 af3c d94e d13d 5e68 5abb
00000150: 8169 9bbc 9ca5 1f3c de6e 333d c658 b63d
00000160: 34a4 0fbd d523 4fbd b1f8 8f3c 104b d33d
00000170: 549a b0bd 65e0 bcbc f408 a9bb e28f b4bd
00000180: 6656 6c3d a629 50bd 6ee1 373c 0c7c 573d
00000190: beeb c13d 9cdc 0f3c 6c1f 2abc 81c8 493c
000001a0: 4c71 3fbd be37 ddbb 659c 843a 0517 a5bd
000001b0: 4fc2 f73c 9a8e 0b3e 474a 423c efe1 bd3d
000001c0: 42c4 c13c 0d66 9fbd 6025 cdbd 63a5 64bd
000001d0: 26bb 623d 38cc 653b bcf8 ecbc 8c5d afbc
000001e0: 2e97 fabb ba74 d83c 10b2 d4bd d9c4 313c
000001f0: 9623 4e3b 7151 323d 1dfc 85bc 601c 1abd
00000200: cbeb 15bd 2755 a43c 9ff5 b4bc 31a5 b63d
00000210: 81e0 9a3c f84e 283d ad53 323c a7b4 d8bc
00000220: 0b35 1f3d 23da 2c3d 1563 68bd 5561 9e3b
00000230: cf9d 943d c430 453d 87d3 fe3c 404c e2bd
00000240: 0dc3 163c c765 ae3d 34a4 03bd 12a3 a73d
00000250: 7519 d53d 3a21 35bd e42d 00ba 09ad d83c
00000260: 4e87 443d 0ede a2bd 0165 5fbc 9d0f 333d
00000270: 3110 2cbd a7f0 063c feab 5dbc f898 a5bb
00000280: 9af2 b2bd 52ff 4fbd 0358 d93d ca38 b23d
00000290: 5b8b 7abd 75a7 6cbd 15d3 d33d 190e b13c
000002a0: 1086 023d ca19 81bd ae55 1c3e 1cab 2d3d
000002b0: 5e36 9d3c dd4b 443d bd03 ae3c e081 e1bb
000002c0: de9b cbbd c49d 2e3d cc53 813c 8c4c 0f3d
000002d0: 7888 483c e288 c23d e6bd 8abc 5618 77bd
000002e0: 42c8 883d cebb 773d a1d9 d53d 0acc dfbd
000002f0: c416 93bc fba4 cbbd 7e88 3a3c 1151 d33d
00000300: 1632 27bd 615b 92bc 5850 093d c137 343d
00000310: 9c9d 9cbd 4fde 063c 333e 84bc 7909 62bd
00000320: 66db c0bb 9b2b 333d c0f6 53bd 8821 923d
00000330: 6c8a 943d 1672 c73d 0ed5 63bd 9279 1dbc
00000340: 8948 ec3c 57fd 5cbd abb6 943b 5a14 00be
00000350: 88aa e3bc 513a 97bd 50b4 183d f523 d2bd
00000360: ac5a bb3c a81b 8bbd 3c3a 9dbc 7328 883d
00000370: c6d5 5dbd 52c0 be3d 3296 8cbd 250d 853d
00000380: 352b 7fbd 6cb9 593d 546b a9bd dc1f c13c
00000390: 3d7d 95bc e25c 3e3d b83d bfbd be75 51bb
000003a0: 705d 0cbd db6c a1bd 2330 6bbc df81 5ebd
000003b0: f44f 00bd ada1 b83d 320b b13c 05af 943d
000003c0: c354 6a3b 625f 843c 6b6c bf3c d345 ac3d
000003d0: 3aa0 8ebc e1f4 903d 6a81 90bd 9c0a ac3b
000003e0: a9de f9bc 6c4e 9f3d 94e1 1e3d bd93 8dbd
000003f0: 270a 843d f04b 2dbd 89b0 42bd 7c24 3a3c
-0.004277055 0.042897236 0.09947009 -0.057750076 -0.075050615 0.017422587 -0.06585456 0.096157834
-0.039364927 -0.012973091 0.08425465 0.055429798 -0.082371294 -0.019082293 0.002034341 0.005316242
0.019967183 -0.011475583 -0.043818276 -0.005483607 0.11305843 -0.061724145 -0.07582314 -0.06168176
0.05201742 0.0620762 0.037746508 -0.07575051 0.053581003 0.002851149 -0.03014719 -0.070505746
0.07680933 0.034446124 -0.07948402 -0.05193115 -0.09449834 0.093887545 -0.046520114 0.08796809
0.10522527 -0.0074748574 0.098238274 -0.057541706 0.09621373 0.12542547 0.08908679 -0.010132446
0.13731477 0.029086573 -0.06303958 0.12249941 -0.13131204 -0.046139207 0.016131276 -0.058648773
-0.0006548929 0.12461551 -0.008057211 -0.05064948 -0.027702525 -0.036631502 0.10268398 -0.011264822
0.0780189 -0.056644186 -0.016152868 0.03641275 0.090506956 -0.0704164 0.043040242 0.0034696439
-0.09568183 0.016857088 0.034220755 0.0055209715 0.026854362 0.07488208 -0.009447472 -0.06753979
0.081738785 0.021440914 0.10220117 -0.0033326368 -0.018971207 0.009744074 0.043806903 0.08903651
-0.035068706 -0.05057128 0.01757464 0.103170514 -0.08623186 -0.023056218 -0.005158538 -0.08816506
0.057699583 -0.05082097 0.01122318 0.052608535 0.094687924 0.008780625 -0.010383468 0.01231587
-0.046738908 -0.0067510298 0.001011741 -0.08061031 0.03024402 0.13628617 0.011858529 0.09271609
0.023653153 -0.077831365 -0.10016894 -0.055821788 0.05535426 0.003506435 -0.0289272 -0.021406911
-0.0076474166 0.026422847 -0.10385525 0.010850155 0.0031454316 0.0435347 -0.016355569 -0.037624717
-0.036601823 0.020060135 -0.022089778 0.089182265 0.01890588 0.041090935 0.010884208 -0.02645333
0.038868945 0.04220022 -0.056735117 0.00483338 0.07256662 0.04814221 0.031106723 -0.110497
0.009201777 0.08515506 -0.03213902 0.081854 0.10405246 -0.04422114 -0.0004889651 0.026449697
0.0479806 -0.0795251 -0.013634921 0.04371606 -0.04200763 0.008236087 -0.013529776 -0.0050536357
-0.08737679 -0.0507806 0.1061249 0.08702238 -0.061168056 -0.057776887 0.10342995 0.021613168
0.031866133 -0.06303747 0.15267059 0.04239951 0.019190963 0.04792391 0.021242017 -0.0068819374
-0.09941839 0.042630926 0.015787028 0.03498511 0.012239568 0.094987646 -0.016936254 -0.060325943
0.06678821 0.06048184 0.104419 -0.10927589 -0.017955191 -0.09943577 0.011385081 0.103181966
-0.04081925 -0.017865838 0.033523887 0.043998484 -0.07647249 0.008231713 -0.01614294 -0.055184815
-0.0058855293 0.043742757 -0.05174899 0.07135302 0.072529644 0.09738557 -0.055623107 -0.009611504
0.028843181 -0.05395254 0.0045383773 -0.12507764 -0.027791277 -0.0738417 0.037281334 -0.102607645
0.022870384 -0.067923844 -0.019192807 0.0664834 -0.05415895 0.09314026 -0.06864585 0.06496648
-0.062297065 0.053155348 -0.08272424 0.023574762 -0.018248195 0.0464753 -0.09337944 -0.003196105
-0.034268796 -0.07882091 -0.014354738 -0.054323073 -0.03132625 0.09015212 0.021611784 0.07259945
0.0035756088 0.016158763 0.023367127 0.084117554 -0.017410386 0.07077957 -0.07055934 0.005250288
-0.03050168 0.0777863 0.038789347 -0.069129445 0.06447249 -0.042308748 -0.04753164 0.011361238

encoder_rnn.bias_hh_l0 f4 [384]
00000000: 60a1 3c3c 46b7 69bd 9eee 5bbd fda0 84bd
00000010: 619f a53c 6a05 d1bc b96a 803d 7584 b6bc
00000020: 0eb0 873d e15b b83d 9d29 e5bc 7d38 503d
00000030: aa2d 193d f88f 5abd 2c8a 763c 10e3 843c
00000040: 3f39 c2bc 6b39 97bd f8bf 7139 a188 763d
00000050: 0ebf 20bc 53f0 513d e9d3 953c 7dc3 133c
00000060: 9592 423c 1ad0 313d 6fed 5a3d 0aa3 8bbd
00000070: e208 c1bc ca86 dc3d 7a33 753d e470 d3bd
00000080: f196 3e3d cc6a 3f3d 72e6 8ebd e620 cabd
00000090: 247b 66bd ad08 aabc 452e 51bc 7609 783d
000000a0: bd34 a73c 4401 85bc 08f8 623d 184a bd3c
000000b0: 3d5c 983c 02c7 89bc 19f9 29bd e1e6 08bd
000000c0: 90aa e93d 7a75 b83d 12e6 f6bd f0b2 993d
000000d0: 12ce edbc 2db8 95bd 4cbb 423d 85da 9cbc
000000e0: effe ab3d 958c 923c cbbb 35bd 457e c63d
000000f0: 60b0 d33d fb57 dbbd 11de 1bbd 9af9 b3bd
00000100: 7b27 403d c175 fb3c 5bb3 02bd 2565 8b3d
00000110: 0cc8 ac3d 557b 1cbe 6f84 233d 3cbe 6fbd
00000120: d9fb 83bc 21b3 3d3d 40b4 833d 471a d53d
00000130: c7b2 1d3c 0f55 d03d 9a00 4b3d 86ef b5bd
00000140: fbdb 4b3c 7f85 9a3d 0ea6 073d 95da 843d
00000150: 9bf2 88bc b3f8 d73d 8dd1 463c efa2 9c3a
00000160: 5eb9 083d beee a2bd eb5a 213b 8ed3 463d
00000170: a36b d2bd 2782 bbbd 7df9 a3bd dfe9 aebd
00000180: 8e1e a53d 5047 aab8 6a26 a53d 0d64 833d
00000190: a4f2 dc3c 3936 46bd 279b 20bd 052a 66bd
000001a0: 5839 03be 7a26 e0bd ae04 20be 1b7a bdba
000001b0: 13ce 8cbd bda9 903d 23d4 07bd 9df6 48bc
000001c0: ff3a ad3d 63fd 4b3d f64d 143d aa18 98bb
000001d0: f184 b6bd 34f9 743d cc28 bdbd bb14 3bbc
000001e0: d275 11bb f885 0bbd 48ed 623c 6cb5 90bd
000001f0: 1105 5d3c ec4e bf3c 6ab2 8d3c 7347 e4bc
00000200: 5582 34bb 8ad1 9dbd f617 4b3d 80d9 9bba
00000210: 1498 03bd fda5 20bd 7a6b 93bd efe6 82bd
00000220: 7096 83bc 3f81 9c3d d723 db3c 4c58 e2b9
00000230: e79e 5a3c 1d2a 9f3c 3d36 e33c 0f7e 823a
00000240: 3a22 bcbc 4092 813b eb59 013e 02f1 5aba
00000250: 5c30 e3bc 85e2 35bc bac2 57bd 44fb 8dbd
00000260: d262 523d 2478 49bd 4b0e 233d 96e0 6ebd
00000270: e621 273b 7333 4ebb e8a6 31bc bff8 d53c
00000280: 6b26 5cbd 8c50 6f3c 2196 843c 5b04 7dbc
00000290: edee bb3b 9e7c 27bc a37e 84bc 9c17 393d
000002a0: 4305 babd 8d79 e13c 28bf c73c 6f5f 91bd
000002b0: 8605 423d a68f a7bd b420 5c3c 8c25 ac3d
000002c0: 0160 a5bc c652 0abd 479a 7e3d 48bf 6f3a
000002d0: 9687 d03d 3282 84bd 3878 62bd 5ed1 07bc
000002e0: 3ecf 86bb ee7b 26bd c4ec 343d 09f9 d23b
000002f0: 6d70 9f3c 2f9d acbd 59bb d03c c9c0 2cbd
00000300: 798e 14be cda7 8f3d bcae ca3d e59c 5d3d
00000310: 4e3b 323d 0522 81bd 47a4 cebc ba2f a3bd
00000320: 19e7 fabb dde1 9b3d 3f39 fd3c c152 1dbd
00000330: ee88 933d 0f07 7ebc b3c6 343d 9b80 ab3d
00000340: 1a52 e43b 2b8e 563d c954 27bd 7fe0 02bd
00000350: 4d20 c23d fb4e 98bd 6915 2c3d a276 b1bd
00000360: bb1f b83d f4c5 a1bd c63d ce3c 1703 c43d
00000370: 7690 c33c 3187 7c3d e2e6 dbbd 9599 82bc
00000380: 6299 07be 5648 d4bd 9357 a0bd 5a1b 6b3d
00000390: c34d 18bd 35a5 733c c824 62bd aa9b e13c
000003a0: a312 10bd 5923 3e3d 91f7 39bd 2218 30bd
000003b0: 022e 163d c9b2 013e dab6 e53c 2731 22bd
000003c0: 61ea 1c3e d11e 9e3c c54e f13c cdea 6d3d
000003d0: acd5 bf3d 3637 6cbd fcf5 223d 5ccb df3c
000003e0: 7327 2d3d 4f80 4f3d 0999 54bd f124 e93c
000003f0: 0802 96bd b381 65bd 6f9f 983c 08d1 abbd
0.011513084 -0.05705955 -0.05369436 -0.064760186 0.0202176 -0.025515277 0.06270356 -0.022279957
0.06625377 0.090018995 -0.027973944 0.05083512 0.037397064 -0.053359956 0.015047591 0.016221553
-0.023708938 -0.073839985 0.00023055065 0.060188893 -0.009811176 0.05125458 0.018289523 0.009018776
0.011875768 0.04341135 0.05344909 -0.068182066 -0.023563806 0.107678965 0.059863545 -0.103242666
0.046530668 0.04673271 -0.06977548 -0.09869556 -0.05626978 -0.02075609 -0.012767379 0.060555898
0.02041089 -0.016235955 0.055412322 0.02310662 0.01859867 -0.016818527 -0.041497324 -0.03342331
0.11409485 0.09006782 -0.12055601 0.07504833 -0.029028926 -0.07310519 0.0475419 -0.019147167
0.08398234 0.0178893 -0.044368546 0.09692053 0.10336375 -0.1071014 -0.038053576 -0.08787842
0.04691265 0.030695798 -0.031909328 0.06806401 0.084365934 -0.15281422 0.03992122 -0.05853103
-0.016111301 0.04631341 0.06430864 0.10405403 0.009625143 0.10172474 0.04956112 -0.08883576
0.012442584 0.075449936 0.033117346 0.06487004 -0.016717246 0.105454825 0.012134922 0.0011950413
0.033379905 -0.07955693 0.0024620842 0.048541598 -0.10274436 -0.09155684 -0.080065705 -0.08540701
0.080624685 -8.119515e-05 0.080639675 0.064155675 0.026971169 -0.048391555 -0.039210465 -0.056192417
-0.12814844 -0.10944839 -0.15626785 -0.0014455946 -0.06875243 0.07063625 -0.033161294 -0.012265828
0.08458518 0.049802195 0.03620716 -0.004641612 -0.08912075 0.05980797 -0.09236297 -0.011418517
-0.002219547 -0.03406331 0.013850518 -0.070658535 0.013489977 0.023353063 0.017296989 -0.0278661
-0.0027543504 -0.07705982 0.049583398 -0.0011890382 -0.032127455 -0.0392208 -0.07198234 -0.06391703
-0.016062945 0.07641839 0.026750488 -0.00043171865 0.013343549 0.01942926 0.027735824 0.0009955781
-0.02296554 0.003954202 0.12631957 -0.0008351953 -0.02773302 -0.01110137 -0.05267594 -0.06932691
0.051363774 -0.04918684 0.039808553 -0.05831965 0.0025502383 -0.0031463772 -0.010843016 0.026119588
-0.053747576 0.014606606 0.016184868 -0.015442933 0.0057352693 -0.010222582 -0.016173666 0.04518853
-0.09083035 0.02752378 0.024383143 -0.07098281 0.04736855 -0.08181696 0.013435531 0.08405599
-0.02018738 -0.033770345 0.06215885 0.00091456296 0.10182111 -0.06470145 -0.05529043 -0.008289663
-0.0041140607 -0.040645532 0.04417111 0.0064383787 0.019462788 -0.08428418 0.02547996 -0.04217604
-0.14507474 0.07014427 0.09896609 0.054104704 0.04351359 -0.06305317 -0.025224818 -0.079680875
-0.0076569435 0.076114394 0.030911086 -0.038409 0.07203852 -0.015504613 0.044134807 0.08374139
0.006967795 0.052381676 -0.04085234 -0.031952377 0.09478817 -0.07436939 0.042012606 -0.086652055
0.08990427 -0.07899085 0.02517594 0.09570902 0.023872595 0.061652366 -0.10737397 -0.015942374
-0.13242105 -0.103653595 -0.078292035 0.05739913 -0.037183534 0.014870931 -0.05521086 0.027540047
-0.035174023 0.04642043 -0.045402113 -0.042991765 0.03666497 0.12665857 0.028041292 -0.039597657
0.15323783 0.019301804 0.029456506 0.05808525 0.093669266 -0.05766984 0.03978537 0.027318649
0.04227395 0.050659474 -0.05190376 0.028459998 -0.07324606 -0.056031894 0.018630711 -0.08389479

decoder_rnn.weight_ih_l0 f4 [384, 128]
00000000: 32f5 c93c fcd8 d43c 0829 f9bc 2d04 a53d
00000010: d867 593b 8d14 a8bd b10e 89bd d742 ab3d
00000020: db91 5abd 38a5 a33d 7096 a23d dc14 35bc
00000030: 2530 5ebd 02b3 24bd cf6f 443d 4c57 693d
00000040: cb19 77bd a12e 6fbc 4e13 08bd 3482 0e3d
00000050: e7c2 14bd 956b 08bd b365 80bd 498d 233d
00000060: ec93 82bd 90d3 a3bd f665 b33d b3b3 a8bd
00000070: 42ca 9dbd 6eaa 93bd 74b9 823d b16b 8dbb
00000080: a065 89bd 05e3 c33c c17d 483d 65ce 923c
00000090: 0369 9fbc bec7 51bc fc43 d03c 20f7 95bd
000000a0: 677b 54bd 0879 66bd f818 a23d 6957 47bd
000000b0: 5ca8 413c ae03 b33c 6f64 ce39 d071 8dbc
000000c0: 04e1 fcbc b512 543d 6211 8b3d d367 a63d
000000d0: 5ee9 3d3d 14b2 b1bc 1f13 3c3c 8b05 a9bc
000000e0: ff98 903c 30cd a23d ae2c 8fbd a0fe a3bd
000000f0: 837c a1bd 68bf 3dbd de32 243d a40b 293c
00000100: b631 47b9 f369 f53c cb30 9f3c 3e58 aebd
00000110: 69af 97bc 6e26 303d 8b4c 42bd 3522 373d
00000120: 3ec4 5bbc d821 3d3d 94fe 42bd ad54 72bd
00000130: 0dea 983b b1ac 5a3d 3705 a6bd 5cd3 97bb
00000140: b59a a4bd 4631 793d 61db 91bd f42b 673d
00000150: f2b2 3d3c dcc7 17bd a1d1 b43d 9264 75bd
00000160: ca6e 8ebd 01ad 013d 62fc b73c ff16 843c
00000170: 009f 0d3d a54a 3bbd 4702 b53c 3858 55bc
00000180: 6caf 8e3d 730a af3d 24b1 ffbb 5c04 a73d
00000190: 9551 cebc c57f b13d 4918 c6ba 8038 b0bd
000001a0: f04e 0e3d 1764 413d d8d8 8ebd 2100 18bd
000001b0: a560 8a3d b757 d0bc a44a 9dbd 223f 13bd
000001c0: 5e1c 253b 0fe9 15bd 914d a5bd c208 ea3c
000001d0: 876a 94bd 6d20 7bbc f3a8 b4bd 2139 6e3d
000001e0: 48d6 25bd 1c40 73bc d59c 33bd 9ec5 ac3d
000001f0: f0bb 173c 98d0 c2bb f705 5fbc fa12 7bbd
00000200: 8e79 393c 69d7 27bd 2348 723d 4e32 1ebc
00000210: aca0 4bbd b5f7 073d 9738 573d 9588 e3bc
00000220: d98d 923b d841 dc3b df62 89bd eb4d 7c3c
00000230: abaa 7abd 7fac a2bd 9bef ea3c 6801 9bbd
00000240: c651 15bd 2eed a63c 35db 6f3b abbb b23d
00000250: 0fa1 85bd 867c 4fbd fb1b 45bc 0fe8 8c3d
00000260: 00be d53c bf41 3cbb 56a2 1ebc bca3 0abd
00000270: 202b e939 3910 67bc a556 0f3c 0554 81bd
00000280: a700 b4bd c4dc 43bb 41d3 bcbc 43f4 a73d
00000290: 3ebd 5cbd 9145 4dbc 90b3 2e3d 109a a8bc
000002a0: 9904 90bd 75d3 8f3d f051 d2ba 5363 ad3d
000002b0: 6154 263d dd0b 12bd 93c2 7bbc 70f0 c63c
000002c0: 7683 e2bc 0eb0 66bd a2d7 1cbd 3d79 7e3d
000002d0: 85dc 56bd 9405 9f3d 9b3a 5cbd 10d2 bcbc
000002e0: ea9b 85bd d90f 41bd d549 90bd 2a7f a03d
000002f0: 234a 39bd 330f f53c a570 083d 2fd2 57bd
00000300: 46cd 69bd cf10 9d3d 799b c63c fde0 2dbc
00000310: cba4 863d 333c 803d 1e34 8c3d 99ad 93bc
00000320: 847b 993d 0d05 043b 50ad 73bc c887 27bd
00000330: c47a 0ebd 95d2 033d de0d 543d 89ef 943d
00000340: b750 0cbd c5a5 c63c ab32 313c db79 2a3d
00000350: f065 9739 0f4a a43d 18b8 2cba ccfb 82bc
00000360: 3d1c e83c ef99 a33b 67ab 8cbd 835c 54bd
00000370: 5988 9bbd 67ff 5cbd ef9f e03c dcc7 653b
00000380: 3cfa 82bd 390b 44bd 6663 cdba 8b27 b33c
00000390: 15be da3c 655b d2bc ef2b 923d 218a 883d
000003a0: c86f a9bd a691 013d 83cb 18bc e8dc adbd
000003b0: b1d1 913d fbc8 2bbd 88e9 7fbd a051 74bc
000003c0: fcfe fbbc 52f7 72bc 492b 513d c201 3b3d
000003d0: eec0 93bd 420c 0cbc 042c 8a3d 0a3e 84bd
000003e0: cdcd 483d 7377 5abd 85c8 a83d 778d 743d
000003f0: 4009 c3bb f7e2 803d 5dc9 9dbd fe5e b0bd
0.024653051 0.025982372 -0.030415073 0.08057437 0.0033173468 -0.08207045 -0.06692255 0.08362358
-0.053361755 0.07990497 0.0793885 -0.011052337 -0.054245133 -0.040209778 0.04795819 0.05696802
-0.060327332 -0.01459852 -0.033221535 0.03479214 -0.036318686 -0.033305723 -0.062693976 0.039929662
-0.0637587 -0.07999337 0.08759682 -0.082374 -0.07704593 -0.07210241 0.063830286 -0.0043158163
-0.067088366 0.023911962 0.048948053 0.017920682 -0.019459253 -0.01280397 0.025423042 -0.07322526
-0.0518755 -0.05626777 0.07914919 -0.048667345 0.011819925 0.02185234 0.0003936621 -0.017266184
-0.030869015 0.051775653 0.06790425 0.08125272 0.046365134 -0.02169136 0.011479168 -0.020632526
0.01765108 0.07949293 -0.06990944 -0.0800755 -0.07885077 -0.046325117 0.040087573 0.010317717
-0.00018996638 0.029957747 0.019432446 -0.085129246 -0.01851626 0.0430054 -0.04743628 0.044710357
-0.013413487 0.046174854 -0.047606066 -0.059162784 0.004666573 0.053387348 -0.081064634 -0.0046333503
-0.080373205 0.060838006 -0.07121921 0.0564384 0.011578308 -0.037055835 0.08829046 -0.059910364
-0.06954725 0.03165913 0.022459213 0.016124247 0.034575462 -0.045725483 0.022095812 -0.013021521
0.06967053 0.08546915 -0.007803099 0.08155128 -0.025185386 0.08666948 -0.0015113439 -0.086045265
0.03474325 0.047214594 -0.069749534 -0.037109498 0.06756715 -0.02543245 -0.07680252 -0.03594888
0.002519391 -0.036599215 -0.08071435 0.02856863 -0.07246881 -0.015327555 -0.08821287 0.05815995
-0.040487558 -0.014846828 -0.04385074 0.0843613 0.009261116 -0.0059452765 -0.013612262 -0.061297394
0.011320485 -0.040976916 0.059150826 -0.009655548 -0.049713776 0.033195216 0.052544203 -0.027775088
0.004472476 0.0067217164 -0.06708311 0.0153994365 -0.061197918 -0.07943057 0.028678706 -0.075686276
-0.03645494 0.020376768 0.0036599163 0.08727201 -0.0652486 -0.050655864 -0.012030597 0.06880199
0.026091576 -0.002872571 -0.009682259 -0.033847556 0.00044473354 -0.014102989 0.008748685 -0.063148536
-0.08789187 -0.0029886225 -0.023049952 0.08200886 -0.053891413 -0.012528793 0.042651713 -0.020581275
-0.07032127 0.07022754 -0.0016046148 0.0846621 0.040607814 -0.035655845 -0.015366214 0.024284571
-0.027650576 -0.056320243 -0.03829158 0.06212734 -0.052456398 0.07764736 -0.053766828 -0.023049384
-0.06523879 -0.047134254 -0.07045332 0.078367546 -0.045236718 0.029914474 0.03331055 -0.05269068
-0.05708053 0.076692216 0.024244057 -0.010612723 0.065744005 0.06261482 0.06845878 -0.018027114
0.07494262 0.0020144612 -0.014872864 -0.040900975 -0.034785047 0.03218325 0.051771037 0.0727225
-0.034256663 0.024248967 0.010815303 0.041620117 0.00028876914 0.08021938 -0.00065887114 -0.015989207
0.028333778 0.0049927155 -0.0686863 -0.05184604 -0.075943656 -0.05395451 0.027420012 0.0035061752
-0.06395385 -0.047862265 -0.0015669882 0.021869441 0.026701966 -0.025678346 0.07137286 0.06666971
-0.08273274 0.03163304 -0.009325865 -0.084894 0.071200736 -0.041939717 -0.062478572 -0.014912039
-0.030761234 -0.014829474 0.05106667 0.045655973 -0.07214533 -0.008547844 0.067466766 -0.064571455
0.049024392 -0.053336572 0.08241371 0.059705224 -0.0059520304 0.0629329 -0.077044226 -0.08611868

decoder_rnn.weight_hh_l0 f4 [384, 128]
00000000: 6c7b 103e 22b0 873b 8baf aa3d b139 013e
00000010: f2cb b13d fa29 d23d f780 b1bd 01ee 8c3d
00000020: 4e1c d43c 2aba 273c e025 05be 8956 b6bb
00000030: 9dee 5e3d f93a fdbc 8e9c 9fbd 3c4a 30bd
00000040: d316 0f3d b3cb 3abd 1209 933d 4936 10bd
00000050: a43b d83d 0810 943d f757 eebd 21ef e3bc
00000060: f616 bebd 23f3 c03c ff9b 053d 9938 a43d
00000070: 9842 a6bd 3e2d fd3c 5d25 8f3a 7fb2 ef3c
00000080: b6ec fdbd 2c26 1c3e d430 bdbd b7ce 9ebc
00000090: 985e 3a3d 9129 6f3b 4f19 1c3d 88a3 723d
000000a0: e088 82bd 8d94 223e 57c7 cf3d 7760 663c
000000b0: acf3 8f3d 4fbd 933d f0ec 0e3d ffa8 36b9
000000c0: c5e2 a13d 8b02 a3bd 84e4 edbd b6df a53d
000000d0: d700 81bc 03b1 88bd 5a1c 6ebd 1fcd ee3b
000000e0: 319f 92bc fb85 6abd 303f 70bd 0f3b 3dbd
000000f0: b7dc 12be c755 f3bc 1083 b93d 7837 86bd
00000100: f9a5 ac3d c2bf 04be fbd4 e3bc e391 96bd
00000110: c88c 0f3d 3194 a5bb 5337 50bd a8c1 6e3d
00000120: 4ee7 b33d 2087 85bd 13a0 123d db0f 80bd
00000130: b7e2 893c e967 ca3b f2c7 163d 55ce ad3d
00000140: 5606 31bd aa95 eebc 8d4a 21be 4973 153c
00000150: 6937 073d 57bc 763d b349 8a3d cd7d e2bd
00000160: 237f 95bd fbc5 a73d 7361 cc3c 2926 723c
00000170: a1a8 8ebd b214 b73d f843 043e 106d 0c3b
00000180: 78e4 39bd af0f 103d 2da4 1a3d e216 253d
00000190: 5f52 7b3d e8de 5b3d 2783 f8bd 81ab 01bc
000001a0: 350f 8cbc d25b a93d 31b5 9ebc e273 193d
000001b0: 065a d5bc 5a3b 0b3e f6cf 133d 91ce b3bd
000001c0: 1d6b 89bb 896c 9abd 9c20 5a3c 7d58 943c
000001d0: 2aee 7abd 36a9 3ebd 60f1 12bd 3e9f 66bc
000001e0: 4dd1 23bd f87a 2d3c 6122 633c d06f c53d
000001f0: 58c8 043d 24ce 6fbd 4ef9 a13b 962d a5bd
00000200: 730e 2fbc 56f4 413d c55d 493d b455 99ba
00000210: ecbd 55bd 8292 633d 1d1a 093d 650a 5cbd
00000220: 9841 37bd 1553 973d 2799 ce3c f3a6 183d
00000230: ebb5 863c 36cb 7fbb 450b babd 658d 253c
00000240: 4562 9fbd 459e bb3d 5c65 28bd b729 8a3d
00000250: 154b 78ba 2a7c e13d 34a4 39bd b5e7 12bd
00000260: 9580 70bc adb1 37bd 66f0 3ebd 21aa 9a3d
00000270: 5fd2 bfbc 85ed f93d 352e 8ebc 09c3 823d
00000280: 085a efbd fc1d de3c e49e d83c a81d 3b3d
00000290: 994c 2bbd cd27 40bd d14b adbc 4106 c3bc
000002a0: 9484 6d3c 27f1 8c3d 0fc9 d43d 1435 91bd
000002b0: 4d4d 28bc 3455 893d d559 a5bd 1820 9a3d
000002c0: 4454 c23c 9b20 5dbd c399 3e3d 1fa6 1d3d
000002d0: cfd9 6c3d 59db 063d 2913 413d 93be 9c3d
000002e0: d156 2dbd 5292 3abd 7060 7ebb bf81 fbbc
000002f0: 0196 2dbc 8675 83bd f5fd 6cbd 9f6f 74bd
00000300: 74f7 153c 010b 65bc 0f85 cdbd 1be0 383d
00000310: a6b2 44ba 160c 2dbc 6769 7f3d 0038 fd3c
00000320: 1532 e23c 34aa 18bd 9aa3 c13b 6739 af3c
00000330: e0bd f63c e355 033e f24d 02bd da51 ebbc
00000340: fea6 813b 13d0 393d 6090 263c 3bf9 123d
00000350: 47b4 4abc 7c42 ee3c e68b 79bd db44 44bd
00000360: 1b6d b6bd f615 863d 37bc 403b 0e11 a93c
00000370: 38c3 07be 78fb 75bd fb91 653d f627 88bd
00000380: b76e a8bd 9783 633d 8fcc f03d b784 6f3c
00000390: 9e91 bdbc 3ec7 1fbd 54c0 94bc dd65 093d
000003a0: 2215 bb3c fc98 79bd 01f8 e03d 332e 793d
000003b0: fca5 753d 5ed1 8e3d 8730 69bd d217 34bd
000003c0: 78a3 703d 81df 8d3d cae2 38bd 0b0a 9b3d
000003d0: 0078 44bd 2fed 3c3d da54 aabd 4588 b8bd
000003e0: d189 bebd 64dd bebc e3d1 0b3e 79ab e1bb
000003f0: 0181 083d 4041 463d 157d 673d 0128 7dbc
0.14109582 0.0041408697 0.083342634 0.12619664 0.086814776 0.10261913 -0.08667176 0.06881333
0.025892403 0.010237256 -0.1300273 -0.005564515 0.054426778 -0.03091191 -0.07793532 -0.043039545
0.034933876 -0.04560442 0.071794644 -0.03520802 0.105582505 0.0722962 -0.11637872 -0.027823986
-0.09281723 0.023553437 0.032619473 0.08018608 -0.081181705 0.030905362 0.0010921169 0.029259918
-0.12398665 0.15248936 -0.09237829 -0.019385679 0.045500368 0.0036493281 0.038110074 0.059237987
-0.06373763 0.1587698 0.10145443 0.014061085 0.070288986 0.07213842 0.03489393 -0.00017419829
0.07904581 -0.079594694 -0.116158515 0.0809931 -0.01574747 -0.06674387 -0.058132507 0.007287636
-0.017898174 -0.05725668 -0.05865401 -0.0461989 -0.14342009 -0.029703988 0.09058201 -0.065535486
0.08430094 -0.12963775 -0.027811518 -0.073520444 0.03504637 -0.005053066 -0.05083401 0.058290154
0.08784352 -0.06519914 0.03579719 -0.06253024 0.016831739 0.006176938 0.036811776 0.0848662
-0.043218933 -0.0291241 -0.15751095 0.009121724 0.033011828 0.06023821 0.06752338 -0.11059151
-0.0729964 0.08192059 0.024948811 0.014779606 -0.06965757 0.08939494 0.12916553 0.002142731
-0.0453839 0.035171207 0.037754226 0.040305026 0.061357852 0.053679377 -0.1213439 -0.007914425
-0.017097095 0.082694665 -0.019373508 0.03746403 -0.026043903 0.1359686 0.036087 -0.08779634
-0.004193677 -0.07540233 0.013313439 0.0181086 -0.061262287 -0.04654809 -0.035874724 -0.014076052
-0.039994527 0.0105884 0.013863177 0.09640467 0.032417625 -0.0585462 0.0049430495 -0.080653355
-0.010684597 0.047352158 0.04916169 -0.0011698515 -0.052183077 0.055559643 0.03347217 -0.05372085
-0.04474029 0.073888935 0.025219513 0.03726859 0.016444167 -0.0039031035 -0.09084181 0.010104512
-0.07782415 0.09161047 -0.04111229 0.06746238 -0.00094716373 0.110100105 -0.045322612 -0.035865504
-0.014679094 -0.04484718 -0.04661598 0.07551981 -0.023415742 0.122035064 -0.017356018 0.06384856
-0.11687094 0.027113907 0.026442952 0.04568258 -0.041821096 -0.046912957 -0.021154316 -0.023806693
0.014496941 0.06881934 0.103899114 -0.07090202 -0.010272336 0.06705704 -0.08073775 0.07525653
0.023721822 -0.053986173 0.046533357 0.038488504 0.057824906 0.03292403 0.047137413 0.07653537
-0.042319123 -0.0455497 -0.0038814805 -0.030701516 -0.010594846 -0.064189 -0.05785938 -0.059676763
0.009153236 -0.013979674 -0.100351445 0.0451356 -0.00075034273 -0.010561964 0.06235638 0.030910492
0.027611772 -0.037271693 0.0059093954 0.021389676 0.030119836 0.12825732 -0.031812616 -0.028725553
0.0039566746 0.04536445 0.010166258 0.035882216 -0.012372083 0.029084437 -0.060924433 -0.04791723
-0.08907529 0.065471575 0.002940906 0.020638015 -0.13258064 -0.060054272 0.05604742 -0.06648247
-0.08224242 0.055545416 0.117577665 0.014619044 -0.023140725 -0.03900837 -0.018158115 0.03354441
0.022837225 -0.060936913 0.10984803 0.060835075 0.05997275 0.06973527 -0.056931045 -0.04396803
0.058749646 0.069273956 -0.045138158 0.07570275 -0.047966003 0.046124633 -0.083169654 -0.09010366
-0.0930363 -0.023298927 0.13654284 -0.006886896 0.033326153 0.04840207 0.056515772 -0.015451432

decoder_rnn.bias_ih_l0 f4 [384]
00000000: 6dd8 1c3d 01cf 743d 5abc f7bc 84ab 98bc
00000010: 5f4f 2a3c f3ee 693c 660f c73c 352f ca3d
00000020: c1b6 543d 89d7 bd3b e9b6 d23d 56fb e33d
00000030: 39cf 33bc 48d8 4bbd 9b70 31bd dbf6 9cbd
00000040: 6813 bd3c d380 c4bb 612c 953d 6a22 aa3d
00000050: 9e4f 583d 8432 9d3c 8ef0 ca3c aff8 90bd
00000060: efcd a7bc 9586 56bd 8e9b d83d 300f 7fbd
00000070: 62c3 093e bbcf a0bd 3a0c 1ebd 1607 403d
00000080: a193 9b3c c93e 893d a738 08bd bd56 5e3d
00000090: 85f4 2c3d 6047 02bd 6d5f 5b3c 7866 bbbc
000000a0: 6fd4 623c d299 c33d 8261 bb3d b7f8 2bbd
000000b0: 7d02 c53c c417 243d 3945 1ebd df8a 753d
000000c0: 259e 013b a7a2 c33d 5562 9b3d efcd e73d
000000d0: 6458 88bc 571c db3d a07b 453c d81f d53c
000000e0: 7c7f c13d d197 873d e9d8 513d f3ce 613d
000000f0: 4863 9fbb 44f1 d23d 4a46 603d 13b3 423d
00000100: 8f54 423d e7d7 e03d 51bf c03b caf4 f13d
00000110: 283f 73bb 6d0c 11bd 3a9f a93d e54e a23d
00000120: 5c4c e23d ca35 febb 2b63 343d d41b 2e3d
00000130: e17c e13d 5449 883c e981 093d f715 6c3d
00000140: 69eb 713d 710f 44bc 2adc cd3d eff9 57bb
00000150: dad4 6dbd a64c 3cbd 7e0b 5fbd b77d 19bd
00000160: 0145 013d bcb6 8cbb a181 d53d dbeb be3d
00000170: f153 873c 33ee 55bd 61c0 423d 0775 cb3d
00000180: 7339 61bb eeda 173d e973 f7bc 37b0 133d
00000190: 5ba9 fa3c 2014 5c3d e11d ab3d 1899 d73c
000001a0: ba50 27bc 133a aebc 40b8 e93d 19b4 18bd
000001b0: c601 9e3d b796 27bd 71b2 a33d 6a9f 1f3d
000001c0: caf3 c2bc e9fb dc3c 114f 9c3d 3188 12bd
000001d0: 8ee6 8e3d 03ae 013e d197 e9bc 6363 a33d
000001e0: 9b39 423c d5e9 8f3d fcd1 613d e1ae a239
000001f0: 4dc7 54bc be6f 833d 72fb 7dbc 6306 cd3d
00000200: f245 cf3d ec3b b83d f387 0a3d bb73 eb3d
00000210: 3f8e 4e3d eded bcbd 0b42 2bb9 5d35 4c3d
00000220: bc40 e8bd bf4d ab3d 64b2 27bc 7e89 34bd
00000230: fb99 9b3c 8b7a f03d 4797 983d 4352 c53d
00000240: acbd 063d 60f1 fbbb 65c3 3a3e 612e 7d3d
00000250: 668b ac3d aafd 833c 4bdc 2a3e f698 323d
00000260: 6971 c83a 493e f43d 00e4 0e3e 24dc c73d
00000270: 4ea5 643d 8018 ba3d bb02 703d b20f 23be
00000280: 50d0 113d d607 813d 48de 36bc 39e8 efbd
00000290: 0bb3 03bd bdbf 223d 5e70 f2bb dfb6 e73d
000002a0: f17e b8bb accd 113e 5f64 883d 3896 b93c
000002b0: 4048 1ebc e17b 6c3d dd7c 843b 4b6f 3e3e
000002c0: 4184 973c 44cd 0f3e f3e8 9f3d 2f81 ac3d
000002d0: f40a e9bc d733 e03c 42f0 9b3c f788 c73d
000002e0: 4766 1a3d c525 0b3e e065 263c 86cb 383d
000002f0: 7bad 4a3e 22e4 abba b39f 49bd dd6c 0c3e
00000300: 18e6 a43c d2cb 473d 293b 043e afe9 383d
00000310: ef04 d0bb 61a3 853d 40e1 9bbd 779c f4bb
00000320: c2dc e93d 9e66 9ebd 9793 303d cdbc a33d
00000330: fc5b 1f3e 4aee d0bc 6145 243d c6ec 043e
00000340: a8ce bebc 7202 f33b 4307 60bc dc75 b2ba
00000350: 4ee5 083d 15db 9a3c f755 133d 8a9b 3b3d
00000360: f434 a43d e93c 2bbd 9bfc e13d 9565 343d
00000370: 2b5c b63d 1c1e c2bd 7e62 263e 3a21 a03d
00000380: c0ed 8cbd 754e b2bc 0254 0e3e de28 fd3d
00000390: 3de4 063e 4e87 943d f71d 803d 67f9 d83d
000003a0: 6f12 2b3d 25ff 4abc d9f3 3fbd 89d8 96bd
000003b0: b2e5 d23b 67fc 383e 30b6 243d b95d 05bc
000003c0: 91ed 8a3d 4100 1bbd 37cc 683d b908 a1bb
000003d0: 0f0d a23d 4b79 bd3c e7ae ed3d 3e4a 84bd
000003e0: 0949 323d faa4 04bd 035f da3d e512 a73b
000003f0: 2b36 173c ae91 debd b7cd a93d d56f 1b3e
0.038292337 0.059767727 -0.03024118 -0.018636473 0.0103949 0.014278161 0.024299335 0.09872285
0.0519321 0.005793516 0.102887936 0.11131923 -0.010974699 -0.04976681 -0.04332028 -0.076642714
0.023080543 -0.0059968024 0.07283855 0.08307345 0.052810304 0.019189127 0.024772909 -0.07078683
-0.020483939 -0.05237444 0.10576545 -0.062270343 0.13453439 -0.078521214 -0.03858588 0.046881758
0.018991293 0.067014284 -0.033257153 0.05428194 0.04222538 -0.03180635 0.0133894505 -0.02287601
0.013844593 0.09550823 0.091494575 -0.04198524 0.024049038 0.040061727 -0.038640235 0.05994689
0.00197781 0.09552508 0.07587115 0.113185756 -0.01664371 0.10698765 0.0120534 0.02601616
0.09448144 0.066207536 0.051232252 0.055129003 -0.00486413 0.10299924 0.054754533 0.04753406
0.047443923 0.1097868 0.0058821817 0.11814268 -0.0037116501 -0.03541224 0.08282323 0.07925204
0.11049721 -0.007757877 0.044039886 0.042507008 0.11010147 0.016636528 0.033571158 0.057638135
0.059062395 -0.011966572 0.100517586 -0.0032955369 -0.05806432 -0.045971535 -0.05445432 -0.037473407
0.031559948 -0.0042942446 0.104251154 0.093223296 0.016519519 -0.052229118 0.047546748 0.099344306
-0.0034366518 0.037074022 -0.030206637 0.036056723 0.030598333 0.05373013 0.08355308 0.026318118
-0.010212118 -0.021267926 0.11412096 -0.03728113 0.07715182 -0.040915217 0.07993019 0.03897039
-0.023797888 0.026975589 0.07632268 -0.035774413 0.069775686 0.12664036 -0.028514775 0.07977941
0.0118545545 0.07027022 0.055131897 0.00031029343 -0.01298697 0.064177975 -0.015501844 0.10010984
0.10120763 0.08995804 0.033821058 0.11496683 0.050428625 -0.09225068 -0.00016332434 0.04985558
-0.11340472 0.08364438 -0.010235403 -0.044076435 0.018994322 0.11742123 0.07450729 0.09634831
0.03289573 -0.0076886863 0.182386 0.06181181 0.08425026 0.016112167 0.16685598 0.043602906
0.0015292588 0.119259425 0.13954163 0.09758785 0.05582171 0.09086704 0.058596354 -0.15923956
0.035599053 0.06300323 -0.011161394 -0.11714215 -0.03215317 0.039733637 -0.007398649 0.11314177
-0.005630367 0.14238614 0.06659769 0.022654638 -0.00966078 0.057735328 0.004043205 0.18597142
0.01849568 0.14043146 0.078081034 0.08423077 -0.028447606 0.02736847 0.019035462 0.09742921
0.037695196 0.13588627 0.010156125 0.04511597 0.1979274 -0.0013114254 -0.049224567 0.13713403
0.020129248 0.048778363 0.12913193 0.045144733 -0.0063482444 0.06525303 -0.076113224 -0.007464941
0.11419059 -0.077344164 0.043109503 0.07994995 0.15562433 -0.02550425 0.040105227 0.12980947
-0.0232919 0.007416063 -0.013673606 -0.0013615447 0.033421807 0.018903295 0.035970654 0.04580263
0.080179125 -0.041806135 0.11034509 0.04404219 0.089042984 -0.09478399 0.1624851 0.078188375
-0.06881285 -0.021765927 0.13899234 0.123613104 0.13173003 0.0725237 0.06255715 0.10594445
0.041765627 -0.012389933 -0.04686341 -0.073655196 0.006436073 0.18065034 0.04021281 -0.008140021
0.067835934 -0.03784204 0.05683538 -0.00491437 0.07912647 0.023129126 0.116056256 -0.06459473
0.043526683 -0.032383896 0.10662653 0.005098688 0.009229223 -0.1086763 0.0829119 0.1517938
