Rudi/checkpoints/autoencoder_model_epoch_7.pth (torch, 682100 bytes, 10 tensors)

encoder_rnn.weight_ih_l0 f4 [384, 40]
00000000: a354 f7bc 98d6 00bd 9de1 663d 053b f0bc
00000010: 21f0 64bd 9018 873d bae7 203e 0914 9b3d
00000020: 88a5 e73d 3551 313d e344 3d3d 3106 6e3d
00000030: d389 d03d 8364 aebc 4e7c 5b3d 1f65 503d
00000040: 95f1 64bb 2c19 9ebd ef8d 913d ab01 cfbc
00000050: 2dc1 ed3d bea5 823c 4668 183d 5b8a b13d
00000060: 3d60 ad3d 4e09 23bd 4f5f 9f3d 3dec a7bc
00000070: b87c a1ba 1f06 c43d 7088 1cbb 3d85 01bd
00000080: 3814 c73d 71c6 98bd 28a0 c43d ec16 533d
00000090: b691 0fbd 53fa ca3d bed1 a2bd be90 b33d
000000a0: efad b2bd c32a 263d bb1b eb3d 0243 1ebd
000000b0: 7634 3c3d 79d1 dc3d 13a1 18be 30da 3e3d
000000c0: 9d75 60bc e83b 293d a27c 0abd d55a 923c
000000d0: 77a2 b53d aa5f 393d 871c 593c d32e 03bd
000000e0: 067e d83c f2ea 663d 6079 b73c 7bc1 a4bc
000000f0: 9915 eb3c 58e3 a7bd d88d 9abd a868 4dbd
00000100: cf5a d83d c2df be3c 9f87 96bd 3aff 7abd
00000110: 3a93 82bd e0fb ce3c c81e 3abc ee6e 273d
00000120: e13e a33d aea0 6fbd 68e0 92bd e915 e63d
00000130: e5f4 133d f564 e4bc 89b2 93bd eb2a a03d
00000140: 8ebc 3f3b 123e 233e b871 e93a e09a 973b
00000150: 808c cb3d 494f a4bc 4ca5 93bc 3742 3fbd
00000160: d4ce 43bd 9616 083a d5f0 84bd 544d b83d
00000170: cd55 13bd 9881 3ebd 74c9 c83c 844e 3c3c
00000180: 1625 ba3c c985 4c3d e243 9a3c bc9b a2bc
00000190: f998 adbd e4e7 59bc d86d 27bd 7d1a 2d3c
000001a0: cb3d 21be 1003 453d 7fa7 aabd a05e d13d
000001b0: 8f9e f1bd 7b7f 2cbd dc01 363c 6068 99bd
000001c0: 0ec7 70bc 727d 2f3d 6e6d b63d cc4f 9f3d
000001d0: 0642 b9bd c283 673a 94a8 bbbd f703 47bd
000001e0: ae3e bb3d 4cd5 833d 3ba6 46bc 3e38 40bd
000001f0: 9a75 893d a453 14bc d382 bcbd bd06 163c
00000200: 4847 9ebd 70e1 d73d 0c0c 94bc 8a33 323d
00000210: 8cad 38bc 6b49 e9bd a584 38bd b818 bbbd
00000220: 128c 8bbd 7d9c c6bd 2cd2 2fbd b86a 72bd
00000230: 7ba6 a1bd 9e73 e2bc 8ca7 f3bc 320f 283d
00000240: 7da1 23bd 9b7b 463d 8e1a f13c d7e2 c5bd
00000250: 5834 3ebd a597 34bd 218f 7f3d 795d f33c
00000260: d568 89bc 798f 83bd a787 84bd ebc7 403d
00000270: e71c 4f3d 488c 39bd d7d4 98bc 3dbf 9dbd
00000280: 0acb 9b3d 08ca 8abd a75b e93c 5904 f73b
00000290: 12fd febd 60d8 a0bd 35ee ebbd c2b2 283d
000002a0: 93e9 eabc e696 8e3c 78e3 8b3d a91c 1e3c
000002b0: 108e ba3d 78fc ed3d 1163 433c fe90 c5ba
000002c0: 3984 53bc 3846 e83d 2403 b73d 9090 1a3d
000002d0: d470 923d 2e1d 15bd db48 3d3d 36e1 92b9
000002e0: f7a9 26bd e69a 253d a93e 8c3d 4a93 a1bd
000002f0: a88c 06bd d9b8 eebd b9b9 81bd 439e 2a3d
00000300: af2d 8f3c 8d51 ebbc 8c5c 0fbc ed24 89bd
00000310: 7401 a7bb 798d d3bd a850 fcbd 9f00 fc3c
00000320: 29d9 25bd 054d e63c 7020 c33d c719 f03c
00000330: 98db 47bd 34f0 ab3d 391d c1bd e524 f43d
00000340: 75dc 32bb ab5f 2ebd 22fe be3d 0fa9 88bd
00000350: 729b 013d baf9 31bd d8ab 1a3d d875 51bd
00000360: c0e8 f73b 1bea 80bc 42b1 b53c 5627 c4bd
00000370: 06a3 023d e3be 233d 46a9 873d ba61 033a
00000380: 240e c8bc a7bb d3ba 14ca 4fbd c3ab 90bd
00000390: 8dfc 9a3d 6802 563c d182 003d c66e b039
000003a0: 1319 c63d 826a e5bd d5cf 893d 5af1 f3bd
000003b0: 46fe 5f3c 65cc 79bd 8f58 b93d 35c9 833d
000003c0: 7248 013b 5c8e 133e 6a6f 303d 8e14 90bd
000003d0: 951c 603b c4df 653d e9d0 973d 95f2 4abd
000003e0: 7951 473b e111 c33d 5535 d4bd 1992 d5bc
000003f0: 9e58 3e3d 848c 163d a602 bb3c 9712 cb3c
-0.030191725 -0.031454653 0.056367505 -0.029325018 -0.055893067 0.06596482 0.15713397 0.07572181
0.113108695 0.043290336 0.046208274 0.058111373 0.10182538 -0.021288162 0.053585343 0.050877687
-0.0034934033 -0.07719645 0.0710715 -0.02526935 0.11609111 0.015948173 0.037208818 0.08668967
0.084656216 -0.039803796 0.077818505 -0.02049839 -0.0012320494 0.0957148 -0.0023885034 -0.031621207
0.09720653 -0.07459725 0.0960086 0.051535532 -0.03505107 0.09911027 -0.079501614 0.08767842
-0.087245815 0.040568125 0.114798985 -0.038638122 0.04594847 0.10782141 -0.14905195 0.0465948
-0.013699916 0.041316897 -0.033810265 0.017865578 0.08868878 0.045257248 0.01325143 -0.032027077
0.02642728 0.056376405 0.022396743 -0.02011179 0.028696822 -0.08197659 -0.07546586 -0.050148636
0.10564195 0.023300055 -0.073500864 -0.06127856 -0.063757375 0.025266588 -0.011359878 0.040877275
0.079709776 -0.058502845 -0.07171708 0.11234648 0.03612222 -0.027880171 -0.07211787 0.07820686
0.0029256674 0.15941647 0.001781038 0.004626617 0.099389076 -0.020057337 -0.018023156 -0.046694007
-0.04780467 0.0005191354 -0.064912476 0.08999124 -0.035970498 -0.04651031 0.024510123 0.011493329
0.022722762 0.049932275 0.018831197 -0.01984965 -0.08476443 -0.013299916 -0.04087624 0.010565397
-0.15746228 0.048098624 -0.083327286 0.102231264 -0.11797821 -0.042113762 0.011108842 -0.07490611
-0.014695896 0.042844243 0.08907591 0.07778892 -0.09045796 0.0008831584 -0.09163013 -0.048587766
0.091428146 0.064371675 -0.012124593 -0.046928637 0.06711884 -0.009053145 -0.0920464 0.00915688
-0.077284396 0.10541046 -0.01807215 0.043506183 -0.011271846 -0.113909565 -0.045048375 -0.09135574
-0.06813826 -0.096978165 -0.042925045 -0.059183806 -0.07893082 -0.027643021 -0.029742979 0.041030116
-0.03994893 0.048457723 0.029431608 -0.09662407 -0.046436638 -0.044089932 0.062392358 0.029707657
-0.01677362 -0.064238496 -0.06471186 0.047065657 0.050564673 -0.0452998 -0.018656177 -0.077024914
0.07607086 -0.06776816 0.028486086 0.00753836 -0.12450613 -0.0785377 -0.11520044 0.0411861
-0.02867583 0.017405938 0.068304956 0.009650388 0.091091275 0.1162042 0.011925475 -0.0015073118
-0.012909942 0.11341518 0.08936146 0.03773552 0.071504265 -0.03640478 0.04621206 -0.00028015085
-0.040689435 0.040430926 0.06847889 -0.07889421 -0.032848984 -0.11656351 -0.06334252 0.041654836
0.017477838 -0.02872541 -0.008750092 -0.06696496 -0.005096609 -0.10329718 -0.123200715 0.030762015
-0.040490303 0.028112898 0.09527671 0.029309167 -0.048793405 0.083954245 -0.09429402 0.119210996
-0.0027292047 -0.042571705 0.09325816 -0.0667287 0.031642385 -0.04345105 0.03776154 -0.051137775
0.0075655878 -0.01573663 0.02217925 -0.09577815 0.031893753 0.039976966 0.06624083 0.0005011816
-0.024420805 -0.0016153947 -0.050729826 -0.07064011 0.075677015 0.013062097 0.031374756 0.0003365187
0.09672751 -0.112019554 0.06729094 -0.119112685 0.013671463 -0.06098594 0.09050094 0.064348616
0.0019727019 0.14409775 0.043075003 -0.070351705 0.0034196724 0.056121603 0.07412893 -0.04954775
0.0030413552 0.095248945 -0.10361735 -0.026070641 0.04647123 0.0367551 0.022828411 0.024789138

encoder_rnn.weight_hh_l0 f4 [384, 128]
00000000: a1e6 5bbd e446 dbbd f139 243c 6222 08bd
00000010: fdc1 3d3d 5b53 6b3d 4bbc b7bd ed40 0a3d
00000020: 39b3 f9bc 7c6c 8a3d f2c1 843d d4d0 b83d
00000030: ea7d c3bc 487a da3d 2da6 f3bc 8e64 3c3d
00000040: c8a6 dc3c 907e 56bd c79b a2bd b8b7 3fbc
00000050: 0d91 17bd d594 b23c d719 433d e7e6 a5bd
00000060: 1669 83bd 38d8 2ebd 5618 8cbc 3c78 5cbd
00000070: 9b9d 7dbd 64a7 733d f125 1a3c 0b72 803d
00000080: bc19 e33d 3b06 a1bc 4fa8 59bd 007b f1bc
00000090: fc3f a53c 1fe1 993d 80f5 aabd 8558 e8bd
000000a0: 9a98 443c 11e0 f7bd 2c96 ccbd ac19 933d
000000b0: c4b3 733d 4385 283d ddd7 153d a7e7 89bc
000000c0: b429 893d f6a3 a43d ec54 d13c 832e 3dbb
000000d0: 980d a23d 00a9 903d 289a 5bbc 03b2 95bd
000000e0: d9cb e8bc ce0b 43bd 1c8d 7cbc b0ba 7d3d
000000f0: 83d3 8b3c aa00 b6bd 16b1 fab9 645e ca3d
00000100: 3294 ddbc 1b9a 9bba 877d 873d e1a4 3abd
00000110: bc21 b33d 0c2d db3d 6e18 663d 4a1f 9bbd
00000120: 5c32 df3d 51cd 47bc 0eee c43d 4bda 863a
00000130: 8fe3 95bc dd66 473d 3846 4f3d 92fe 1cbb
00000140: b6e6 3abd bdfd ae3d 2255 cebc 8901 523d
00000150: 80b9 d73c e40e f2bd 9a6f e93d d3a0 873d
00000160: d881 0f3b 6761 993d f3d1 abbc 3b13 b13d
00000170: 5bb0 e4ba c4e9 4b3d bf0c 76bd dbcb 0a3e
00000180: 159f a93d 08f2 9abd 302e 3ebd 3a8d b73d
00000190: a4d5 83bd cb7d 87bd c713 adbc 12fa 9dbc
000001a0: 3965 cebd c124 f03d e59d 53bd 7bf8 8d3c
000001b0: ed15 c53b ca64 ebbd 2f67 02be f59b 823d
000001c0: cb3f 103d 6016 543d 9927 33bd 1523 423c
000001d0: a6e6 06be 4c84 153d 41af ecbc 346f 21bc
000001e0: b8f5 9c3d 486e db3b 88da 1abd 7c0e 283d
000001f0: 82e7 72bd 06b9 54bd ccc3 98bd f5e1 3fbd
00000200: f433 09bc ddf8 52bd 00a4 60bd 1dab fc3c
00000210: c881 f13c 40ce b23d a1a6 99bd 08d0 93bc
00000220: 7b7b ff3b 821a 443d 797d e4bc 383b 93bb
00000230: a954 12ba f4b6 84bd 7ef0 c43d 7756 f2bc
00000240: 14ca 8ebc 01c5 bbbd 13b9 a0bd ede7 3f3e
00000250: 0316 68bd 38e5 debd 70a4 29bd 2cc8 c0bc
00000260: 9255 943d 8716 bdbc ccdd fdbd 18aa d3bc
00000270: 603f 75bd cca6 57bd 5cd5 c83d 9d43 e13b
00000280: fd39 a73d 712b 77bd 0ff3 31bd 3759 113d
00000290: bf64 603c 747e 1bbc 0a13 9f3d aa4b 753d
000002a0: b856 473d b83a 30bd 8fec 05bc fa28 90bd
000002b0: 88b4 bfbc 8512 80bd c37a 4bbc e2e3 a13d
000002c0: a903 853d 1de1 74bc cfde 353c ce8b a2bb
000002d0: 9748 25be 5ac4 053e d2c5 733d 6e20 6abd
000002e0: b455 853d 5aa6 5abd 7a5e 65bd bacf 89bd
000002f0: db87 42bd 02b6 51bd 3c77 8cbd 1937 4c3d
00000300: 682c 2d3d d64d a4bd 33a9 2b3d 84e5 10be
00000310: 726b ca3d cf8f 983a b8c4 913d 662c 01bc
00000320: 6803 fe3d 7b7b 2abd 61fc a73d 8d2e 92bd
00000330: 4348 8e3c 9451 ae3d c4b2 a63c 3a0a 993d
00000340: 6234 69bd 5696 65bd c4c9 523d 7dbe 973d
00000350: 404b 9b3d ef59 19bd 0838 2e3d 66f6 93bc
00000360: 2652 1ebd 6844 903c 2650 afbd 6c88 94bd
00000370: 5fe1 b0bd 1a96 babd 0698 823d c170 54bd
00000380: 0afb 1c3d c566 ffbd 23e9 ff3a 9452 6fbd
00000390: bd6e 3a3d 33ca 893c b2e0 6bbd 4167 0ebd
000003a0: db4a 103e 5d83 803c 4bef 61bd 47c8 163d
000003b0: cbee a13d 0557 bc3d 3bc7 143d 60d2 b53d
000003c0: 4211 b13d 32d2 393d f526 073d 260c 903c
000003d0: c6f5 36bd 5dd4 b3bd e528 1bbd 1579 bbbd
000003e0: 3b49 fdbb 4c80 833d 65cb 223d e445 ac3d
000003f0: a5ff cdbd 53c6 043d 68b3 97bb 42b2 b63d
-0.05368674 -0.10706881 0.01002358 -0.033235915 0.04632758 0.05745254 -0.08971461 0.033753324
-0.030480968 0.06758973 0.06482305 0.09024206 -0.023863751 0.106678545 -0.029742325 0.045994334
0.026934996 -0.052366793 -0.079398684 -0.011701517 -0.037003566 0.021799484 0.047632065 -0.08100682
-0.06416528 -0.04268667 -0.017101448 -0.053825602 -0.061917882 0.059485808 0.00940846 0.06271752
0.11088893 -0.019656291 -0.053139027 -0.029477596 0.020172112 0.075136416 -0.08347607 -0.11345009
0.011999274 -0.12103284 -0.099895805 0.07182631 0.05949761 0.041142713 0.036582816 -0.016834093
0.06697407 0.080390856 0.02555319 -0.0028866834 0.07912749 0.07063484 -0.013403453 -0.07309344
-0.028417515 -0.04761868 -0.0154145025 0.061945617 0.01706863 -0.088868454 -0.00047815655 0.09881285
-0.027048204 -0.0011871489 0.06615739 -0.045567397 0.08746669 0.107019514 0.05617564 -0.07574327
0.10898277 -0.012194947 0.09615718 0.0010288445 -0.018296985 0.048682082 0.050604075 -0.0023955447
-0.04563018 0.085444905 -0.025187079 0.051270995 0.02633357 -0.118192464 0.113982394 0.06622472
0.0021897461 0.07489281 -0.020974135 0.08646246 -0.0017447578 0.049783483 -0.06007075 0.13554327
0.082822956 -0.07565695 -0.046430767 0.08962484 -0.06437233 -0.0661579 -0.021127595 -0.019284282
-0.100779004 0.1172576 -0.05166425 0.017330399 0.0060145766 -0.11493833 -0.12734674 0.06377403
0.035217088 0.05177915 -0.043738935 0.0118491845 -0.13173923 0.03650312 -0.028892161 -0.009853173
0.07664055 0.006696496 -0.037806064 0.04102944 -0.059302814 -0.051934265 -0.0745922 -0.04684635
-0.008374203 -0.051506866 -0.054843903 0.030843312 0.02948083 0.08730745 -0.07502485 -0.018043533
0.0077967024 0.047876842 -0.027891861 -0.0044931434 -0.00055820734 -0.06480208 0.09616183 -0.029582245
-0.017430343 -0.09168435 -0.078478 0.18740816 -0.056661617 -0.10883564 -0.041416585 -0.02353295
0.07242884 -0.023082031 -0.1239582 -0.025837943 -0.059874892 -0.052649304 0.0980632 0.006874515
0.08165357 -0.060344163 -0.04344469 0.035485473 0.013695895 -0.009490598 0.07767303 0.059886612
0.048666686 -0.04302475 -0.008174076 -0.07039066 -0.023401514 -0.06253532 -0.012419405 0.07904793
0.06494839 -0.014946249 0.011100485 -0.0049605137 -0.16140972 0.13063183 0.059514828 -0.057159834
0.06510487 -0.0533813 -0.055998303 -0.06729074 -0.047492843 -0.051198967 -0.0685868 0.049857233
0.042278677 -0.080226585 0.041909408 -0.14150053 0.09883775 0.0011639538 0.07117599 -0.007884121
0.124029934 -0.041621666 0.08202434 -0.07137785 0.017368441 0.085116535 0.020348914 0.07472654
-0.05693472 -0.056051575 0.05146195 0.0740938 0.07582712 -0.037439283 0.042533904 -0.018061828
-0.03865256 0.017610744 -0.08560209 -0.07252583 -0.08636736 -0.09110661 0.063766524 -0.051865343
0.038325347 -0.124707736 0.0019524436 -0.058428362 0.045515765 0.016820049 -0.057587333 -0.03476644
0.14091055 0.015687639 -0.05515985 0.036812093 0.07906874 0.09196285 0.036322813 0.088780165
0.0864587 0.045366473 0.032996137 0.017583918 -0.04466798 -0.087807395 -0.037880797 -0.09153954
-0.007729677 0.06420955 0.039744753 0.08411768 -0.10058526 0.0324157 -0.004629541 0.08920719

encoder_rnn.bias_ih_l0 f4 [384]
00000000: cc2d e5bb 6c6c 133d f2eb d23d aa11 67bd
00000010: 4ae6 92bd e6e3 833c 4ff5 84bd bb6c d03d
00000020: 573e dcbc 5824 63bc eee3 ac3d 31ea 633d
00000030: c1e0 aabd 3526 04bd 50e3 793b d7b4 693c
00000040: 7392 a13c 8af2 c5bb 0b8c 57bd 7cad 9d3a
00000050: 7ac6 e23d 16a6 7bbd d466 b3bd aa73 8abd
00000060: 83e1 3d3d 51ce 8a3d ff5a 153d 1b1f 92bd
00000070: 366d a13d c960 dcbb b5e4 c7bc ec74 8ebd
00000080: 3a83 b43d cf0d 0d3d 088a b6bd 9d4c 58bd
00000090: 2373 bebd 6549 c73d afbd 31bd 9d00 bb3d
000000a0: 6599 e03d 683b 4e39 a73c c83d 77b3 81bd
000000b0: 6037 cb3d 86d1 033e 92dc be3d a1e1 38bc
000000c0: 83f7 093e a940 e43c 42fd 53bd fa93 f73d
000000d0: ad35 16be 4773 44bd 305e 883c c1fb 61bd
000000e0: f1e3 13ba 32ec fb3d 0609 68ba d740 62bd
000000f0: 03d0 cbbc f09c 17bd b5d0 c13d 9378 05bc
00000100: 98b6 ad3d 16a3 74bd 01e7 5bbc 86a5 073d
00000110: 6899 bb3d b831 91bd befb 283d 6460 1c3c
00000120: 6644 b4bd 590e b83c 263c 013d cbec 62bb
00000130: 692b 283d 529d 963d 5a97 48bb f62f 9fbd
00000140: d184 a83d b2a0 af3c 620d d03d fc7a 8a3b
00000150: 8eeb 85bc d2d9 213c b98b 363d 4a3f b33d
00000160: be13 0fbd a0b3 5cbd 5cfe a83c a3df cf3d
00000170: 3981 b1bd 9447 b4bc afed 653b 2b18 b2bd
00000180: d630 7b3d e09b 63bd c990 673b 1fe8 5a3d
00000190: 25b7 c33d f687 883c 4c0e 37bc 0a28 2d3c
000001a0: 530e 46bd 6f86 edbb d317 ba3a 03ce a1bd
000001b0: 3d32 eb3c 66ef 073e 2786 403c db50 c03d
000001c0: 3b96 b33c a12b a8bd 4a3d dcbd 3889 65bd
000001d0: 66a8 693d d3a4 8a3b bab2 00bd 0c09 e1bc
000001e0: 23a3 95bb a7e5 f43c 2683 cebd 37e7 a63a
000001f0: 2f15 643b cbbb 193d c472 82bc c707 32bd
00000200: d1f4 11bd bea8 9e3c 1f2d d6bc ce8a a43d
00000210: d9ba a73c 9e55 193d 4e64 f23b 5194 b0bc
00000220: 1329 243d 8f2a 263d 0247 58bd 9c41 063c
00000230: 58b3 943d a5ca 3f3d 873a 143d daae d7bd
00000240: efbe 2a3c 890d bd3d fe16 8abc ab8c a23d
00000250: 6aaa d13d 0613 1dbd 683d 70bb 37b3 323d
00000260: ea0b 493d 5897 9bbd 3066 4cbc f185 2f3d
00000270: 4f0c 17bd e186 79bc 62b0 33bc e35f 4cbc
00000280: ec33 babd 1d16 3abd 224b dc3d 76ef a73d
00000290: 0a24 4bbd 69b6 83bd aa67 c73d 50cb be3c
000002a0: 5c13 fd3c 9a96 93bd 46e8 183e b443 4a3d
000002b0: cdc7 773c 23ca 413d a174 e03c d01c 6bbc
000002c0: b62f c4bd 6b28 1a3d f438 b23c a7e9 233d
000002d0: 4844 2d3b 0d74 b63d 3e9a d4bc 7376 7fbd
000002e0: 4497 8e3d 19fb 733d f26a d53d e8da f7bd
000002f0: d949 94bc e906 d0bd fcc4 583c 23c0 ca3d
00000300: 82f5 3abd df15 9ebc 84e8 e53c 2dad 293d
00000310: 7404 95bd a6b7 f939 16f4 92bc 46bb 65bd
00000320: 8db4 a3bb 3eaf 1c3d 1f60 50bd d1c3 9a3d
00000330: fc03 8e3d 2893 c53d 2ba3 8dbd f8e8 2fbc
00000340: 3fcd 0a3d a57d 5bbd 5265 723b eefc e4bd
00000350: 345c fbbc a567 99bd a9bb 113d b624 d6bd
00000360: 9627 cd3c e4c9 95bd bb77 4abc 9e75 8c3d
00000370: 613a 54bd 00e0 c53d 61a9 84bd 9060 733d
00000380: 4404 74bd 470d 553d 5d1a b3bd 833a c33c
00000390: b922 8cbc aa76 143d 9e7f babd 9823 5bbb
000003a0: e5cd 2dbd 0483 a0bd 79ca 14bc 5c49 61bd
000003b0: fcc6 02bd a6ae be3d 9a33 ea3c d03a 9a3d
000003c0: 9785 f13b 0d51 8f3c a6b8 903c 0ee9 a03d
000003d0: f8df a9bc 89a4 983d 7ec8 97bd 2d97 7c3c
000003e0: bff9 08bd 7617 9c3d cc73 2f3d 8939 97bd
000003f0: 1c2d 793d 262e 2abd d0eb 2ebd 8cfc 733c
-0.006993985 0.03599207 0.10298909 -0.05641333 -0.071728304 0.016099881 -0.064921014 0.10176989
-0.026885195 -0.0138636455 0.08441912 0.055643264 -0.0834365 -0.032263 0.0038129874 0.014264307
0.019723153 -0.006040876 -0.05262379 0.0012029852 0.11073013 -0.06143769 -0.08759847 -0.067603424
0.046357643 0.06777633 0.036463734 -0.07134839 0.078821585 -0.006725405 -0.024401048 -0.06955895
0.08814092 0.034436997 -0.08913046 -0.05280744 -0.09299304 0.09730796 -0.043393787 0.09130976
0.10966758 0.00019667821 0.097771935 -0.06333058 0.09922671 0.12872896 0.09319414 -0.011284263
0.13473324 0.027862864 -0.051755197 0.12088771 -0.14668913 -0.0479615 0.016646475 -0.05517173
-0.0005641571 0.1230091 -0.0008851442 -0.055237617 -0.024879461 -0.0370149 0.09463636 -0.008146423
0.084820926 -0.059725843 -0.013421775 0.03311684 0.09160119 -0.07089561 0.041255705 0.009544466
-0.088021085 0.022467779 0.031551503 -0.0034626003 0.041057024 0.07354225 -0.003060779 -0.0777282
0.08228458 0.02143893 0.101588026 0.0042260867 -0.016347673 0.009878593 0.044566844 0.08752306
-0.034930937 -0.05388224 0.0206291 0.10150077 -0.086672254 -0.022006787 0.0035084297 -0.08696016
0.06132587 -0.055568576 0.0035334101 0.053444024 0.095564164 0.016666394 -0.011172842 0.010568628
-0.048353504 -0.0072486917 0.0014197774 -0.07900622 0.028710479 0.13274917 0.011750734 0.09390422
0.021922221 -0.082114466 -0.107538775 -0.056039065 0.057045363 0.0042310744 -0.031420447 -0.027470134
-0.0045665666 0.029894663 -0.10083608 0.0012733702 0.0034802665 0.03753261 -0.015923865 -0.04346445
-0.035633866 0.019367572 -0.026144562 0.080342874 0.020474838 0.037435167 0.007397211 -0.021555098
0.040078234 0.04056793 -0.052802093 0.008194353 0.072607696 0.046824116 0.03618863 -0.10531397
0.010421499 0.09231097 -0.016856667 0.079369865 0.10237582 -0.03834822 -0.0036657695 0.043627944
0.049083628 -0.07597226 -0.012475535 0.042852346 -0.036876973 -0.015229912 -0.010967346 -0.012474033
-0.090919346 -0.045431245 0.10756518 0.081999704 -0.049594916 -0.06431276 0.09736569 0.023290306
0.03089302 -0.07206459 0.14932355 0.049380973 0.01512332 0.047311913 0.027399363 -0.014350131
-0.09579413 0.0376362 0.021755673 0.04001775 0.0026438404 0.08908854 -0.025952455 -0.06236882
0.069624454 0.059565637 0.10420789 -0.121023 -0.01810162 -0.10157568 0.0132305585 0.098999284
-0.04564429 -0.019297538 0.028064974 0.04142492 -0.0727624 0.0004762981 -0.017938655 -0.0560868
-0.0049958886 0.03825306 -0.05087292 0.0755688 0.06934354 0.096472085 -0.069158874 -0.010736696
0.033887144 -0.05358662 0.003698666 -0.11181055 -0.030683614 -0.07490472 0.035579357 -0.10456221
0.02504329 -0.07313898 -0.0123576475 0.06858371 -0.051813487 0.09661865 -0.06477619 0.05941826
-0.05957438 0.052014615 -0.08745263 0.023831611 -0.0171064 0.03624598 -0.09106372 -0.0033437964
-0.042432684 -0.07837489 -0.009081476 -0.0550016 -0.031928048 0.09310655 0.028589059 0.07530749
0.0073706615 0.017494703 0.017666172 0.07856952 -0.02073668 0.074532576 -0.07411288 0.0154169025
-0.0334413 0.07621662 0.042835042 -0.07384021 0.060834035 -0.041547917 -0.042705357 0.014891755

encoder_rnn.bias_hh_l0 f4 [384]
00000000: bf1d 103c efff 82bd aa84 4dbd 25e4 81bd
00000010: c1d6 c03c 54db dbbc 2d54 823d 258b 88bc
00000020: 0a3f a13d f888 b63d bbd0 e3bc 5318 513d
00000030: b8d0 143d 7946 88bd 2fd7 893c 8230 ce3c
00000040: 0439 c4bc 1318 8cbd 087e 0cbc 03f6 883d
00000050: a2e4 46bc b11c 533d 1475 d53b c8f8 4a3b
00000060: 71af cb3b 2229 493d 59ac 553d 129f 82bd
00000070: 43c7 db3a e9e9 c83d 5e5e 863d 7f80 d1bd
00000080: f800 6d3d 3961 3f3d f4a7 a2bd 52ec cbbd
00000090: bc50 60bd 8c03 8ebc 7bf5 1dbc badc 823d
000000a0: ec98 cb3c ca51 0cbc 0b0f 613d e4dd 8d3c
000000b0: f50a b13c 2d6e 5dbc 3b26 19bd a59e 0dbd
000000c0: 1a61 e43d e7f3 b53d cdc9 dfbd f265 963d
000000d0: 17e3 35bd 9773 99bd 86d7 443d a35e 80bc
000000e0: 822e ac3d af63 853c 575b 18bd c418 bd3d
000000f0: 7578 d93d 0221 dcbd 9cd4 3cbd a896 adbd
00000100: ec03 5c3d 0b37 e23c 3307 efbc 25a5 843d
00000110: be05 af3d f6f8 1cbe 3635 1c3d 51dc 56bd
00000120: 3e74 0abc 5bae 543d 9879 7c3d 4db4 c23d
00000130: 8632 c33c 9a96 cd3d 8829 653d 2fcd cabd
00000140: 40cd 543c 7584 9a3d 2423 053d 8755 943d
00000150: 54e9 66bc 3c3f d83d 0345 533c 3aef a6b9
00000160: d449 093d a0b6 a9bd 2fc4 b43b b0fc 3f3d
00000170: 8852 d3bd f45b b9bd 8039 92bd 2972 acbd
00000180: c88b ac3d d93a 9ebb c266 953d 171a 853d
00000190: 4320 e43c 67e9 25bd e1d6 23bd 2552 6dbd
000001a0: 99e0 04be 672b e1bd b899 1fbe 323a 2639
000001b0: 15f2 8fbd 596b 893d 2b45 08bd 457f 35bc
000001c0: 7faf a93d 3772 3a3d 423c ec3c 4037 9fbb
000001d0: 530e b3bd 0df1 773d f943 c2bd de35 8fbc
000001e0: efc8 613a 059b fabc 4c32 8a3c 6b52 a4bd
000001f0: 7581 623c 9d23 8e3c c43b 913c 200f 0abd
00000200: 6f25 eaba a43c 9fbd 387c 3a3d 454e 24bc
00000210: d055 fabc 579f 2fbd a98f 9abd b5bd 71bd
00000220: bb5c 73bc 7829 993d f85b fb3c adf8 3f3b
00000230: 4a4b 5b3c e15d 943c e36b 063d e475 ca3b
00000240: 4b24 b2bc 3c07 363c 1900 113e e588 59bb
00000250: 91ec f0bc 6653 abbb d9c5 64bd d699 55bd
00000260: 6ee7 563d bdea 3abd ffcd 273d 446a 72bd
00000270: 0cb0 fb3b 3102 dabc 4eab 07bc 102f 993c
00000280: 0da9 6abd ae7a a33c 8c62 903c 76a7 a7bc
00000290: 5fca 8d3c 1049 89bc 482c b6bc 3bf6 3f3d
000002a0: 7603 bcbd 3e86 973c de53 ac3c 2313 83bd
000002b0: 4b5c 313d 84d0 a8bd 3b81 a03c 11da 9c3d
000002c0: 5daf 87bc 1ec8 1ebd 6f86 8b3d b7e0 c23b
000002d0: a9e0 bc3d 0897 90bd 32b3 83bd db49 29bc
000002e0: df7b a7ba a33c 2abd 6b0f 343d e3f4 adbb
000002f0: 593d 9e3c 1dff b0bd 93d9 df3c a6e2 3dbd
00000300: 547f 19be 2fb9 8c3d b280 bf3d 5112 533d
00000310: 9a6d 413d 1704 91bd 285a ddbc 9e08 a5bd
00000320: 44c0 ddbb b0a3 903d 4133 023d 310e 0cbd
00000330: 7e02 8d3d 447f 86bc d1aa fa3c af32 a93d
00000340: f6cc 443c dd0d 583d 4bc5 2abd e611 99bc
00000350: df33 bc3d 4f7c 9abd c21c 253d 6377 b5bd
00000360: f692 bc3d 3174 acbd 121e 033d 4250 c83d
00000370: 3cc7 d63c 4863 853d 11fa d3bd 050d b0bc
00000380: a7cf 04be 6e9e d6bd 9e06 aabd a928 6c3d
00000390: 80a0 13bd b618 983b 91a8 58bd ee65 e03c
000003a0: 1883 31bd 07f7 3f3d 245e 24bd 9fdf 32bd
000003b0: fab6 133d 46b9 043e a06f 0f3d 8f19 17bd
000003c0: 3dcd 203e 7b10 a93c fe9a c23c 4431 573d
000003d0: ba05 b93d e0d7 5cbd d367 143d 248a 193d
000003e0: 071d 213d 6712 493d d006 44bd c38d c23c
000003f0: a375 9dbd e963 62bd e128 c03c 0796 a4bd
0.0087961545 -0.06396472 -0.050175346 -0.06342343 0.023539903 -0.026837982 0.063637115 -0.016667912
0.07873352 0.089128435 -0.027809491 0.051048588 0.036331862 -0.066540666 0.01682624 0.025169615
-0.023952968 -0.06840529 -0.00857497 0.06687548 -0.012139471 0.051541034 0.006514201 0.003097104
0.0062159826 0.049111493 0.052166317 -0.063779965 0.0016767759 0.0981024 0.06560968 -0.10229587
0.057862252 0.046723578 -0.07942191 -0.09957184 -0.054764494 -0.017335676 -0.009641047 0.063897565
0.024853192 -0.008564422 0.054945987 0.01731772 0.02161167 -0.0135150375 -0.037389975 -0.034575123
0.11151333 0.08884411 -0.10927162 0.07343663 -0.044406023 -0.0749275 0.0480571 -0.015670126
0.08407308 0.016282884 -0.037196483 0.09233239 0.106186785 -0.10748483 -0.046101198 -0.08476001
0.053714678 0.027614137 -0.029178238 0.06476811 0.08546017 -0.15329346 0.038136683 -0.052456204
-0.008450566 0.05192409 0.0616394 0.09507046 0.023827802 0.100384906 0.05594781 -0.09902417
0.012988389 0.075447954 0.032504216 0.072428755 -0.014093716 0.10558936 0.012894872 -0.00031840225
0.033517674 -0.08286786 0.005516551 0.04687184 -0.10318476 -0.09050742 -0.071398735 -0.08420212
0.08425099 -0.0048287925 0.0729499 0.06499117 0.027847415 -0.040505793 -0.039999846 -0.057939667
-0.12976302 -0.109946065 -0.15585983 0.00015852673 -0.07028595 0.06709928 -0.03326909 -0.011077707
0.08285426 0.04551908 0.028837327 -0.0048588812 -0.087429665 0.06053262 -0.09485621 -0.01748174
0.000861301 -0.030591497 0.016869687 -0.080235325 0.01382481 0.017350966 0.017728694 -0.03370583
-0.0017863939 -0.07775238 0.04552862 -0.010028427 -0.030558497 -0.042876568 -0.07546932 -0.05901881
-0.014853652 0.07478613 0.030683503 0.002929251 0.0133846495 0.018111171 0.032817733 0.0061786044
-0.021745821 0.011110123 0.14160194 -0.0033193168 -0.029409679 -0.0052284477 -0.055852745 -0.052148663
0.052466802 -0.04563402 0.040967938 -0.059183374 0.0076808985 -0.026612373 -0.008280588 0.018699199
-0.057290126 0.01995596 0.017625116 -0.020465594 0.017308412 -0.016758472 -0.022237912 0.046865683
-0.091803476 0.018496629 0.021036085 -0.064001344 0.043300908 -0.08242896 0.019592872 0.0765878
-0.016563112 -0.038765065 0.068127505 0.0059471983 0.09222538 -0.07060057 -0.06430663 -0.01033255
-0.0012778005 -0.041561734 0.043960016 -0.005308734 0.019316362 -0.08642409 0.027325427 -0.046358727
-0.14989978 0.068712585 0.093507186 0.05153114 0.047223665 -0.07080858 -0.027020529 -0.08058284
-0.0067673046 0.07062471 0.03178716 -0.03419322 0.06885241 -0.016418107 0.03059903 0.0826162
0.012011757 0.052747596 -0.04169206 -0.018685292 0.09189581 -0.07543241 0.04031063 -0.08860662
0.09207718 -0.08420599 0.0320111 0.09780933 0.02621805 0.06513077 -0.10350431 -0.021490583
-0.12969838 -0.10479437 -0.083020434 0.057655964 -0.036041737 0.0046416176 -0.052895132 0.027392354
-0.04333791 0.046866443 -0.040128842 -0.043670293 0.036063172 0.12961301 0.035018563 -0.03688961
0.15703292 0.020637741 0.023755547 0.052537218 0.090342954 -0.053916812 0.036231827 0.037485257
0.039334323 0.049089815 -0.04785806 0.023749238 -0.07688453 -0.055271063 0.023456993 -0.08036428

decoder_rnn.weight_ih_l0 f4 [384, 128]
00000000: 32f5 c93c fcd8 d43c 0829 f9bc 2d04 a53d
00000010: d867 593b 8d14 a8bd b10e 89bd d742 ab3d
00000020: db91 5abd 38a5 a33d 7096 a23d dc14 35bc
00000030: 2530 5ebd 02b3 24bd cf6f 443d 4c57 693d
00000040: cb19 77bd a12e 6fbc 4e13 08bd 3482 0e3d
00000050: e7c2 14bd 956b 08bd b365 80bd 498d 233d
00000060: ec93 82bd 90d3 a3bd f665 b33d b3b3 a8bd
00000070: 42ca 9dbd 6eaa 93bd 74b9 823d b16b 8dbb
00000080: a065 89bd 05e3 c33c c17d 483d 65ce 923c
00000090: 0369 9fbc bec7 51bc fc43 d03c 20f7 95bd
000000a0: 677b 54bd 0879 66bd f818 a23d 6957 47bd
000000b0: 5ca8 413c ae03 b33c 6f64 ce39 d071 8dbc
000000c0: 04e1 fcbc b512 543d 6211 8b3d d367 a63d
000000d0: 5ee9 3d3d 14b2 b1bc 1f13 3c3c 8b05 a9bc
000000e0: ff98 903c 30cd a23d ae2c 8fbd a0fe a3bd
000000f0: 837c a1bd 68bf 3dbd de32 243d a40b 293c
00000100: b631 47b9 f369 f53c cb30 9f3c 3e58 aebd
00000110: 69af 97bc 6e26 303d 8b4c 42bd 3522 373d
00000120: 3ec4 5bbc d821 3d3d 94fe 42bd ad54 72bd
00000130: 0dea 983b b1ac 5a3d 3705 a6bd 5cd3 97bb
00000140: b59a a4bd 4631 793d 61db 91bd f42b 673d
00000150: f2b2 3d3c dcc7 17bd a1d1 b43d 9264 75bd
00000160: ca6e 8ebd 01ad 013d 62fc b73c ff16 843c
00000170: 009f 0d3d a54a 3bbd 4702 b53c 3858 55bc
00000180: 6caf 8e3d 730a af3d 24b1 ffbb 5c04 a73d
00000190: 9551 cebc c57f b13d 4918 c6ba 8038 b0bd
000001a0: f04e 0e3d 1764 413d d8d8 8ebd 2100 18bd
000001b0: a560 8a3d b757 d0bc a44a 9dbd 223f 13bd
000001c0: 5e1c 253b 0fe9 15bd 914d a5bd c208 ea3c
000001d0: 876a 94bd 6d20 7bbc f3a8 b4bd 2139 6e3d
000001e0: 48d6 25bd 1c40 73bc d59c 33bd 9ec5 ac3d
000001f0: f0bb 173c 98d0 c2bb f705 5fbc fa12 7bbd
00000200: 8e79 393c 69d7 27bd 2348 723d 4e32 1ebc
00000210: aca0 4bbd b5f7 073d 9738 573d 9588 e3bc
00000220: d98d 923b d841 dc3b df62 89bd eb4d 7c3c
00000230: abaa 7abd 7fac a2bd 9bef ea3c 6801 9bbd
00000240: c651 15bd 2eed a63c 35db 6f3b abbb b23d
00000250: 0fa1 85bd 867c 4fbd fb1b 45bc 0fe8 8c3d
00000260: 00be d53c bf41 3cbb 56a2 1ebc bca3 0abd
00000270: 202b e939 3910 67bc a556 0f3c 0554 81bd
00000280: a700 b4bd c4dc 43bb 41d3 bcbc 43f4 a73d
00000290: 3ebd 5cbd 9145 4dbc 90b3 2e3d 109a a8bc
000002a0: 9904 90bd 75d3 8f3d f051 d2ba 5363 ad3d
000002b0: 6154 263d dd0b 12bd 93c2 7bbc 70f0 c63c
000002c0: 7683 e2bc 0eb0 66bd a2d7 1cbd 3d79 7e3d
000002d0: 85dc 56bd 9405 9f3d 9b3a 5cbd 10d2 bcbc
000002e0: ea9b 85bd d90f 41bd d549 90bd 2a7f a03d
000002f0: 234a 39bd 330f f53c a570 083d 2fd2 57bd
00000300: 46cd 69bd cf10 9d3d 799b c63c fde0 2dbc
00000310: cba4 863d 333c 803d 1e34 8c3d 99ad 93bc
00000320: 847b 993d 0d05 043b 50ad 73bc c887 27bd
00000330: c47a 0ebd 95d2 033d de0d 543d 89ef 943d
00000340: b750 0cbd c5a5 c63c ab32 313c db79 2a3d
00000350: f065 9739 0f4a a43d 18b8 2cba ccfb 82bc
00000360: 3d1c e83c ef99 a33b 67ab 8cbd 835c 54bd
00000370: 5988 9bbd 67ff 5cbd ef9f e03c dcc7 653b
00000380: 3cfa 82bd 390b 44bd 6663 cdba 8b27 b33c
00000390: 15be da3c 655b d2bc ef2b 923d 218a 883d
000003a0: c86f a9bd a691 013d 83cb 18bc e8dc adbd
000003b0: b1d1 913d fbc8 2bbd 88e9 7fbd a051 74bc
000003c0: fcfe fbbc 52f7 72bc 492b 513d c201 3b3d
000003d0: eec0 93bd 420c 0cbc 042c 8a3d 0a3e 84bd
000003e0: cdcd 483d 7377 5abd 85c8 a83d 778d 743d
000003f0: 4009 c3bb f7e2 803d 5dc9 9dbd fe5e b0bd
0.024653051 0.025982372 -0.030415073 0.08057437 0.0033173468 -0.08207045 -0.06692255 0.08362358
-0.053361755 0.07990497 0.0793885 -0.011052337 -0.054245133 -0.040209778 0.04795819 0.05696802
-0.060327332 -0.01459852 -0.033221535 0.03479214 -0.036318686 -0.033305723 -0.062693976 0.039929662
-0.0637587 -0.07999337 0.08759682 -0.082374 -0.07704593 -0.07210241 0.063830286 -0.0043158163
-0.067088366 0.023911962 0.048948053 0.017920682 -0.019459253 -0.01280397 0.025423042 -0.07322526
-0.0518755 -0.05626777 0.07914919 -0.048667345 0.011819925 0.02185234 0.0003936621 -0.017266184
-0.030869015 0.051775653 0.06790425 0.08125272 0.046365134 -0.02169136 0.011479168 -0.020632526
0.01765108 0.07949293 -0.06990944 -0.0800755 -0.07885077 -0.046325117 0.040087573 0.010317717
-0.00018996638 0.029957747 0.019432446 -0.085129246 -0.01851626 0.0430054 -0.04743628 0.044710357
-0.013413487 0.046174854 -0.047606066 -0.059162784 0.004666573 0.053387348 -0.081064634 -0.0046333503
-0.080373205 0.060838006 -0.07121921 0.0564384 0.011578308 -0.037055835 0.08829046 -0.059910364
-0.06954725 0.03165913 0.022459213 0.016124247 0.034575462 -0.045725483 0.022095812 -0.013021521
0.06967053 0.08546915 -0.007803099 0.08155128 -0.025185386 0.08666948 -0.0015113439 -0.086045265
0.03474325 0.047214594 -0.069749534 -0.037109498 0.06756715 -0.02543245 -0.07680252 -0.03594888
0.002519391 -0.036599215 -0.08071435 0.02856863 -0.07246881 -0.015327555 -0.08821287 0.05815995
-0.040487558 -0.014846828 -0.04385074 0.0843613 0.009261116 -0.0059452765 -0.013612262 -0.061297394
0.011320485 -0.040976916 0.059150826 -0.009655548 -0.049713776 0.033195216 0.052544203 -0.027775088
0.004472476 0.0067217164 -0.06708311 0.0153994365 -0.061197918 -0.07943057 0.028678706 -0.075686276
-0.03645494 0.020376768 0.0036599163 0.08727201 -0.0652486 -0.050655864 -0.012030597 0.06880199
0.026091576 -0.002872571 -0.009682259 -0.033847556 0.00044473354 -0.014102989 0.008748685 -0.063148536
-0.08789187 -0.0029886225 -0.023049952 0.08200886 -0.053891413 -0.012528793 0.042651713 -0.020581275
-0.07032127 0.07022754 -0.0016046148 0.0846621 0.040607814 -0.035655845 -0.015366214 0.024284571
-0.027650576 -0.056320243 -0.03829158 0.06212734 -0.052456398 0.07764736 -0.053766828 -0.023049384
-0.06523879 -0.047134254 -0.07045332 0.078367546 -0.045236718 0.029914474 0.03331055 -0.05269068
-0.05708053 0.076692216 0.024244057 -0.010612723 0.065744005 0.06261482 0.06845878 -0.018027114
0.07494262 0.0020144612 -0.014872864 -0.040900975 -0.034785047 0.03218325 0.051771037 0.0727225
-0.034256663 0.024248967 0.010815303 0.041620117 0.00028876914 0.08021938 -0.00065887114 -0.015989207
0.028333778 0.0049927155 -0.0686863 -0.05184604 -0.075943656 -0.05395451 0.027420012 0.0035061752
-0.06395385 -0.047862265 -0.0015669882 0.021869441 0.026701966 -0.025678346 0.07137286 0.06666971
-0.08273274 0.03163304 -0.009325865 -0.084894 0.071200736 -0.041939717 -0.062478572 -0.014912039
-0.030761234 -0.014829474 0.05106667 0.045655973 -0.07214533 -0.008547844 0.067466766 -0.064571455
0.049024392 -0.053336572 0.08241371 0.059705224 -0.0059520304 0.0629329 -0.077044226 -0.08611868

decoder_rnn.weight_hh_l0 f4 [384, 128]
00000000: e504 113e 49c7 883b e277 ab3d a6a7 013e
00000010: 5ab8 b13d 1b0f d23d 9a87 b1bd b603 8d3d
00000020: 4eb1 d33c 00fb 2b3c 058d 05be 6a27 b8bb
00000030: bdcd 5e3d 47dd fcbc f2ab 9fbd 1725 30bd
00000040: 6afb 0e3d ae84 3abd bbec 933d 053b 10bd
00000050: 51ff d83d 86ff 943d 5e34 efbd 9b27 e4bc
00000060: a432 bebd 7558 c13c debc 053d 2547 a43d
00000070: 124e a7bd fc70 003d 9fec 8a3a a9d0 ef3c
00000080: 68c3 febd d687 1c3e ee29 bdbd 2b4d 9fbc
00000090: e140 3a3d 0b2a 713b f742 1c3d dcd4 723d
000000a0: be9c 82bd 16f6 223e 6993 d03d 9314 603c
000000b0: 3edf 8f3d fcd1 933d 04f8 0e3d 9bee 4d39
000000c0: 9df5 a13d bef2 a2bd 1312 eebd 6ffe a53d
000000d0: 9a01 81bc cace 88bd d946 6ebd 005e ee3b
000000e0: 564f 92bc ce6d 6abd cb79 6fbd e964 3dbd
000000f0: 283e 13be 4c9b f3bc 0d57 ba3d b44a 86bd
00000100: 24b7 ac3d d525 05be cdcf e7bc 777e 96bd
00000110: ca7e 0f3d d981 b3bb 22b1 51bd 6cc8 6d3d
00000120: 94f2 b33d 39f2 86bd db84 123d 7289 7fbd
00000130: 0b95 893c cf9e da3b 7061 183d 55bd ad3d
00000140: 0bde 30bd 3a03 f4bc c887 21be cf5a 0d3c
00000150: 8606 083d 0f93 763d 4941 8a3d 99cb e3bd
00000160: d049 96bd 365d a83d 43bc cc3c 5ba8 713c
00000170: 980c 8fbd 530f b83d 52a8 043e 0ec4 0b3b
00000180: b78a 3abd d823 113d 5cc6 1c3d 0317 253d
00000190: 97d4 7c3d fa9f 5d3d c21f f9bd fcda f8bb
000001a0: 7baa 8bbc 2170 a93d 6a79 9ebc d397 193d
000001b0: 8348 d5bc 069e 0b3e 2cf1 133d c0bf b3bd
000001c0: 65bc 8abb 8060 9abd 398e 5a3c a5c4 943c
000001d0: 9bc7 7abd e2db 3ebd 4a14 13bd c779 66bc
000001e0: d4e6 26bd ba89 2d3c 171e 6c3c 0b93 c53d
000001f0: 1f94 043d e296 6fbd 9dc6 af3b 831c a5bd
00000200: 90d2 20bc 2526 453d cf82 4c3d 5d18 e3b9
00000210: c539 58bd e90c 683d a47b 0b3d 4dc7 59bd
00000220: 4692 34bd 9662 983d 0831 cd3c 9934 1a3d
00000230: 39f4 893c 5a65 4dbb 79cc b9bd 3a9e 2f3c
00000240: ad49 a0bd 6de0 ba3d e70d 25bd 952b 893d
00000250: 0bb0 c2b9 0cf2 e23d 61df 3cbd 74d9 10bd
00000260: 1116 7dbc b850 35bd c332 3dbd bc84 9b3d
00000270: 603c c0bc 92b2 fb3d 3dfc 91bc 2ccb 813d
00000280: d7c0 f0bd 900d e43c 7311 d53c b97f 3c3d
00000290: 4ea1 2dbd 343d 3ebd 0bc8 a8bc bec7 bcbc
000002a0: 842e 643c 127b 8e3d 3e6e d63d ca42 92bd
000002b0: fef4 31bc 8cbe 8a3d e22d a6bd a1b1 9b3d
000002c0: 3aa7 c63c e205 5bbd df0e 3f3d f165 223d
000002d0: a446 6e3d 2a74 083d 84f6 413d 30a4 9d3d
000002e0: 7015 2bbd 997a 3bbd e549 7bbb 5e39 00bd
000002f0: 41f9 39bc cd57 84bd c8bb 6abd 9a5c 76bd
00000300: 68d9 1c3c a578 71bc cfb8 cfbd c0f6 3a3d
00000310: 78d2 92ba 879f 38bc ae13 7d3d 4e85 fd3c
00000320: f0bc e53c 9831 1cbd a2e9 ac3b 8a34 b13c
00000330: 573e f23c 6ad8 043e 186a febc 2358 efbc
00000340: 4bf5 723b 4d15 363d c9b1 1c3c 505f 0f3d
00000350: ad00 47bc b772 e93c f101 7abd 2abc 47bd
00000360: 2fe8 b7bd 8a1d 863d d9c1 633b 5d63 a63c
00000370: 24a0 07be dafb 72bd 2baa 683d f7bc 87bd
00000380: 1477 a7bd d435 663d 5f4d f13d d0dc 693c
00000390: 2872 b8bc dcf5 1cbd de61 9abc b92b 0b3d
000003a0: 7b28 c33c 96ef 77bd e4ed df3d 4c1d 773d
000003b0: c379 743d e83b 903d dca4 66bd af2f 33bd
000003c0: 6fd7 6d3d 7a95 8e3d 2cef 39bd 5f22 9a3d
000003d0: eda3 41bd 4eea 3e3d 8074 a9bd 506c b7bd
000003e0: 1532 c0bd 9c9b bbbc 8daa 0c3e d5b1 f4bb
000003f0: 0961 053d bec8 443d 2682 6a3d 57dc 74bc
0.14162023 0.0041741473 0.08372475 0.12661609 0.086777404 0.102567874 -0.08668442 0.068854734
0.025841381 0.010496855 -0.13042076 -0.005619933 0.054395426 -0.030867232 -0.07796468 -0.04300412
0.034907736 -0.04553669 0.07222887 -0.035212535 0.10595573 0.072753 -0.1167991 -0.027850917
-0.09287003 0.02360175 0.03265082 0.08021382 -0.081691876 0.03135775 0.0010599083 0.029274302
-0.124396145 0.15286192 -0.09236513 -0.019445976 0.04547203 0.0036798741 0.0381498 0.05928503
-0.063775524 0.15914187 0.10184366 0.01367678 0.07025002 0.07217786 0.034904495 0.00019639211
0.07908175 -0.07956456 -0.11624541 0.0810517 -0.015747834 -0.06680067 -0.058173034 0.0072743893
-0.017860096 -0.057233624 -0.05846576 -0.046238814 -0.1437918 -0.029737137 0.09098635 -0.06557217
0.08433369 -0.13002713 -0.02829733 -0.0734834 0.035033025 -0.0054781255 -0.051194318 0.058052465
0.087865025 -0.06589169 0.035771232 -0.062386937 0.016794702 0.0066717635 0.0372023 0.08483378
-0.043180507 -0.029786695 -0.15774453 0.0086276075 0.033209346 0.06019884 0.067507334 -0.111228175
-0.07338297 0.082209036 0.024992114 0.014749612 -0.06984824 0.08987298 0.12954834 0.0021326574
-0.045542445 0.035434574 0.038275108 0.04030515 0.06172618 0.054107644 -0.121642604 -0.0075944643
-0.017049065 0.0827334 -0.019345004 0.037498306 -0.026035553 0.136345 0.03611867 -0.08776808
-0.004233884 -0.07537937 0.013339573 0.018160174 -0.061225515 -0.046596415 -0.03590802 -0.01406712
-0.04074748 0.010591919 0.014411471 0.09647187 0.03236782 -0.058493502 0.0053642527 -0.08062079
-0.009815827 0.04813208 0.049929436 -0.00043314966 -0.05278947 0.056652937 0.03405346 -0.053168584
-0.04408481 0.07440679 0.025047794 0.037647817 0.016840087 -0.0031340928 -0.09072203 0.0107188765
-0.078265525 0.09124837 -0.04029646 0.06697766 -0.00037133726 0.11081323 -0.04611147 -0.03536363
-0.015447156 -0.044266433 -0.04619099 0.075936764 -0.023466289 0.12289919 -0.017820472 0.0633758
-0.11755531 0.027838498 0.026009297 0.046020243 -0.04239016 -0.046445087 -0.0206032 -0.023044463
0.013927106 0.069570675 0.10470246 -0.07141645 -0.010861633 0.06774625 -0.0811422 0.076022394
0.024249662 -0.053472407 0.04664504 0.039648 0.058172837 0.033313908 0.047354236 0.07697332
-0.04176849 -0.045771215 -0.0038343605 -0.03130471 -0.011350931 -0.06462059 -0.05730799 -0.060146905
0.009573318 -0.014738237 -0.10142671 0.045645475 -0.0011201641 -0.011268503 0.061786346 0.030947354
0.028044194 -0.038133234 0.0052768746 0.021631498 0.029570742 0.1297318 -0.031056449 -0.029216832
0.0037072476 0.044453908 0.009563872 0.035003006 -0.012146157 0.028497083 -0.061037008 -0.04876343
-0.089798324 0.06548603 0.0034752993 0.020311052 -0.13244683 -0.059322216 0.05680291 -0.06627839
-0.08177009 0.05620368 0.117823355 0.014273837 -0.022515371 -0.038320407 -0.018845495 0.033977244
0.023823014 -0.06053122 0.10934046 0.060330674 0.059686434 0.07042676 -0.056309566 -0.043746646
0.05806678 0.06962104 -0.045394108 0.07526087 -0.047275472 0.04661017 -0.08274174 -0.08956206
-0.093845524 -0.022901349 0.13736935 -0.0074674883 0.032563243 0.048043005 0.057253025 -0.014945111

decoder_rnn.bias_ih_l0 f4 [384]
00000000: 1a9b 1d3d 3e9d 763d 6dd1 f3bc a507 97bc
00000010: 0257 2f3c 61a6 6e3c ac6f c83c 84b2 ca3d
00000020: e23e 553d ce0d c03b 4b39 d33d 2e63 e43d
00000030: 73f7 28bc 6b7d 4abd 9776 30bd f1f4 9bbd
00000040: dc71 be3c 90bf bebb bd58 953d fed8 ab3d
00000050: 45bd 5b3d 391b 9f3c 88ae ce3c efba 8fbd
00000060: fe9d a5bc dd21 55bd 714f da3d 41d1 7cbd
00000070: e1fc 093e c1bc a0bd 4215 1cbd dc6a 413d
00000080: b301 9c3c 2364 893d 3a64 07bd 60ce 5f3d
00000090: 2535 2f3d 7e06 00bd 0c4f 603c d9a3 b9bc
000000a0: 2cc8 753c 9cef c33d b380 bb3d 8110 2bbd
000000b0: 0fc4 c73c 41b7 253d ca70 1abd bbc9 753d
000000c0: d48c 103b 89d2 c43d 9ab8 9b3d 815c e83d
000000d0: cc28 87bc 4964 db3d 1592 583c 8a40 d93c
000000e0: cadd c13d 927b 883d 9e1c 563d 58a7 643d
000000f0: 696e 9ebb a3ce d33d 7732 663d 6319 453d
00000100: c057 433d e7eb e03d 9745 c73b ae59 f33d
00000110: 0840 5cbb 8eb5 10bd aa12 aa3d 6fdf a43d
00000120: d0f5 e23d 46cb f7bb 047e 363d c5ec 323d
00000130: 6d95 e23d 9d8c 8a3c e6df 093d d941 733d
00000140: 8fbd 713d 709f 3cbc 0091 ce3d 7980 56bb
00000150: e5fa 6bbd d0b4 38bd 2be5 5cbd 9378 18bd
00000160: d960 013d 2c50 84bb 3824 d63d bec3 bf3d
00000170: 72da 853c 3d24 54bd 9a10 433d c0e1 cb3d
00000180: 0bd6 54bb d238 183d bab4 ecbc e83f 193d
00000190: 9c61 fc3c 5ef0 5c3d 2a5b ab3d 1f80 da3c
000001a0: df0a 22bc 6b29 a7bc 82d7 e93d 2abf 17bd
000001b0: b7ab 9e3d 00e6 26bd 1b66 a53d da5e 223d
000001c0: 6585 bebc 556d e53c 1921 9d3d f41f 0fbd
000001d0: cb56 8f3d 36e5 013e 1616 e6bc b843 a43d
000001e0: b3d9 473c c760 913d 09df 623d 84ac 303a
000001f0: a1da 49bc 0ebb 833d 3307 7dbc a3fe ce3d
00000200: 20eb cf3d d237 b33d d141 0d3d 4b48 ec3d
00000210: a737 473d 77e7 bebd 0892 393a 6cb8 443d
00000220: 915a ecbd 6275 ab3d e420 22bc ac6f 38bd
00000230: d744 933c 167a ef3d 12c3 973d 5416 c53d
00000240: bf52 073d 564e b8bb 40a2 3b3e 8546 7c3d
00000250: 4ab4 ac3d 2ee6 883c fd64 2b3e 5328 2e3d
00000260: 676f e83a 2e8e f13d 402e 0e3e df34 c83d
00000270: 00d2 623d 4a79 bb3d 3c47 6d3d 5180 23be
00000280: 8749 143d 2c9f 813d 5774 4fbc 8b84 efbd
00000290: 6992 dcbc c64b 213d c76b e9bb a242 e43d
000002a0: df41 c9bb f818 123e 8a55 8a3d 2808 bb3c
000002b0: 487c 21bc 90b9 673d afe2 493b 09c7 3e3e
000002c0: bbcf 003c 30b7 0f3e fefd 9f3d c633 a93d
000002d0: 30dd f2bc 11ba d83c 314e 913c 0476 c33d
000002e0: 4c1e 163d ff50 0a3e 7ae5 053c 6612 353d
000002f0: d236 4b3e 2838 1dbb cda5 4dbd e6e5 0a3e
00000300: fdbc 923c 9b78 4d3d 3a8e 043e 0919 363d
00000310: ccc0 55bc 0fbd 853d f234 9abd e0e4 16bc
00000320: 55b6 e83d 1daf 9fbd 8799 2d3d 585e 9c3d
00000330: 4bcb 1e3e 616c d4bc 48ff 253d 43e8 033e
00000340: b8e9 c1bc 9760 0c3c 2099 56bc 9867 c4b9
00000350: 39f1 053d fbd5 6f3c 6246 113d 4cc8 343d
00000360: 4ec8 a53d fb3a 2dbd 661e df3d b211 333d
00000370: 5236 b83d b332 c1bd 9bea 263e 874e 9f3d
00000380: 8728 91bd 97d9 d3bc 46a9 0d3e 5f47 fd3d
00000390: f7be 053e be1d 953d 0ea6 7a3d b234 d53d
000003a0: 62a6 273d 65f8 4ebc 094d 47bd 83b8 99bd
000003b0: 04f8 bc3b c401 3a3e 19b9 1d3d f431 08bc
000003c0: ee42 8b3d 3264 1bbd 61b8 6a3d d72b a2bb
000003d0: e5b3 9a3d 7dc6 b83c 7ce6 ed3d 29bb 74bd
000003e0: 2da7 2d3d 82f0 02bd bc5c db3d 86a1 da3b
000003f0: 715c 233c b583 dfbd ae27 ab3d b785 1b3e
0.038477995 0.06020855 -0.029762948 -0.018436262 0.010701897 0.014566035 0.024467312 0.098973304
0.052061923 0.0058610206 0.10313662 0.111517295 -0.010312903 -0.049436014 -0.043081846 -0.07615078
0.023247652 -0.005821176 0.07292316 0.08390997 0.0536473 0.01942216 0.025229707 -0.07018077
-0.020216938 -0.052034248 0.106596835 -0.061722998 0.13475372 -0.07848502 -0.03810621 0.04722105
0.019043779 0.06708553 -0.033054568 0.054640174 0.042775292 -0.03125619 0.013690721 -0.022661136
0.015001338 0.09567186 0.09155407 -0.041763786 0.02438548 0.040457968 -0.03770522 0.06000684
0.0022056596 0.09610469 0.07603569 0.11345769 -0.016498946 0.10712487 0.013218422 0.026520032
0.09466131 0.06664194 0.052273385 0.055823654 -0.0048349393 0.10342147 0.05620047 0.048119914
0.047691107 0.10982495 0.006081294 0.118823394 -0.0033607502 -0.035329394 0.08304341 0.08050429
0.11082041 -0.007562074 0.04455377 0.043682832 0.11063657 0.016912753 0.03366079 0.05938897
0.059018668 -0.011512622 0.1008625 -0.0032730384 -0.05761232 -0.04509431 -0.05392949 -0.037224364
0.0315865 -0.0040378775 0.10456127 0.09363507 0.016339514 -0.051792372 0.047623254 0.09955168
-0.0032476212 0.037163563 -0.02889477 0.03741446 0.030808263 0.05394017 0.083669975 0.026672421
-0.009890287 -0.020405492 0.11418058 -0.037047543 0.07747596 -0.04074669 0.08076116 0.03964124
-0.023256967 0.028006235 0.076723285 -0.034942582 0.06998976 0.12685093 -0.028086703 0.08020729
0.0121979 0.07098537 0.055388484 0.0006739574 -0.012320192 0.06432162 -0.015443611 0.10107162
0.101522684 0.08750881 0.034486596 0.11537226 0.04863706 -0.09321492 0.00070789503 0.04802744
-0.11540712 0.08371998 -0.009895537 -0.045028374 0.017977161 0.11693208 0.074102536 0.096233994
0.033037897 -0.0056245727 0.18323612 0.06159069 0.08432825 0.01671132 0.16737743 0.042518925
0.0017733396 0.11794697 0.1388483 0.09775709 0.055376053 0.091539934 0.057929263 -0.15966918
0.036202934 0.06329188 -0.012662015 -0.116952024 -0.026925283 0.039378904 -0.0071234438 0.11145522
-0.0061418856 0.14267337 0.067545965 0.022831038 -0.009856291 0.05657345 0.003080528 0.18630613
0.007862027 0.14034724 0.07812117 0.08261828 -0.029646486 0.02645591 0.01773748 0.09543994
0.036649987 0.1350746 0.008172387 0.044207 0.19845131 -0.002398977 -0.050206948 0.13564262
0.017912382 0.050163846 0.1294488 0.04445747 -0.013046455 0.06530201 -0.0752963 -0.0092098415
0.11362902 -0.07797072 0.042382743 0.07635182 0.15507238 -0.025930585 0.04052666 0.1288157
-0.023671016 0.008567951 -0.013098031 -0.00037461217 0.03270075 0.014638419 0.035467513 0.04413633
0.08094846 -0.042292576 0.1089447 0.043718047 0.08994736 -0.09433498 0.16300432 0.0777865
-0.07087808 -0.02586059 0.13834104 0.123671286 0.13061129 0.072810635 0.06119352 0.104104415
0.04093016 -0.012632464 -0.04865745 -0.07505896 0.0057668705 0.18164736 0.0385066 -0.008312691
0.06799875 -0.03793735 0.057304744 -0.004949074 0.075538434 0.022555584 0.11616227 -0.059748802
0.04239576 -0.031967647 0.10711047 0.006672087 0.00997077 -0.10913793 0.08357178 0.15187727
