Rudi/Webapp_ONNX_Cluster/rnn_autoencoder.onnx (onnx, 651958 bytes, 8 tensors)

output_layer.bias f4 [40]
0.05196433 -0.13971004 -0.05527543 0.07706574 -0.27625903 -0.13409069 0.05478296 0.21830711
0.14798883 -0.12770492 0.050647244 -0.1293226 -0.07323309 0.08612011 -0.04326184 -0.021493448
0.12272506 -0.05446982 0.028434426 0.04931876 -0.11295533 0.028455473 0.021778492 0.08295831
0.03279001 0.024787262 0.036278725 -0.060214013 -0.027372353 -0.107954696 0.052241538 -0.011497477
0.0408506 0.025559664 0.11750984 -0.041678686 -0.10056223 -0.034967467 -0.068207294 0.058055896
00000000: 8dd8 543d 2610 0fbe 7d68 62bd a5d4 9d3d
00000010: d371 8dbe 124f 09be 1964 603d e68b 5f3e
00000020: 628a 173e 14c5 02be 7c73 4f3d 256d 04be
00000030: 3bfb 95bd bd5f b03d 5433 31bd 0713 b0bc
00000040: 4757 fb3d bf1b 5fbd 50ef e83c 7802 4a3d
00000050: 2055 e7bd 741b e93c cf68 b23c 0ce6 a93d
00000060: d14e 063d a80e cb3c 0099 143d f8a2 76bd
00000070: fc3b e0bc 5a17 ddbd 39fb 553d ea5f 3cbc
00000080: f552 273d 8062 d13c 00a9 f03d 45b7 2abd
00000090: 92f3 cdbd 0c3a 0fbd 44b0 8bbd 05cc 6d3d

onnx::GRU_164 f4 [1, 360, 40]
-0.010334065 -0.06614755 0.13964687 0.019836644 0.073615946 0.18427773 0.0630421 0.16081548
0.005070509 0.07063719 -0.079302646 0.02293847 0.013627833 0.03391483 -0.112657726 -0.05901919
-0.08709792 0.014372856 0.0905568 0.13526647 0.07347898 0.1329483 -0.048640084 -0.035550483
0.023451237 0.05211447 0.05604232 -0.037158124 -0.02371579 -0.045818184 0.06143162 0.11592732
0.07128918 0.091261394 -0.046158567 0.0574584 -0.0569837 0.053032596 0.018240746 0.08561438
-0.044149 -0.043554824 -0.09262537 0.053270616 0.07110187 0.018916966 0.0005197629 0.11904614
0.17170876 -0.0014548332 0.070712134 0.009444606 0.114134 -0.04191933 -0.04724664 0.02049633
-0.018516665 -0.14075485 -0.057168845 -0.069443695 -0.010621737 0.015652748 0.004687229 -0.072726294
0.09059828 0.06549638 0.13166481 0.076008424 -0.055590753 0.13833462 0.10651 0.0028486324
0.1027864 0.09022021 0.022790417 -0.13899975 -0.03174187 0.09675685 0.0511221 -0.04477453
0.11917181 0.06430012 0.071649425 0.011340441 -0.14203204 -0.11426458 -0.022515528 0.10460005
-0.028374244 -0.10049626 -0.08043603 -0.21212773 0.01709504 0.09236131 0.120703064 -0.0916907
0.102212474 -0.017817564 -0.1241078 0.10673783 -0.06332111 -0.1227547 0.13212919 0.080058955
-0.05256073 -0.012485105 0.044949476 0.0149422 0.13954616 0.07833416 -0.048377685 0.011427502
-0.03713568 0.025970351 -0.0133886095 0.0061589614 0.06046666 -0.102820374 -0.074961156 -0.030264126
0.012337545 0.030660227 0.08104522 0.081138395 0.10022847 0.072881855 0.16049817 -0.07492164
-0.15069121 -0.09734811 -0.06076741 -0.11169037 -0.06283815 -0.09241045 -0.13089623 0.0032950074
0.0072009144 0.14211008 0.051185425 0.0695439 0.025896516 -0.0426795 -0.14817172 0.053066045
0.07482042 0.021706453 0.033390272 0.074943185 0.013782505 0.10040223 0.09214237 -0.086644255
-0.12417625 0.016753701 -0.010613541 -0.018963536 -0.044913393 0.039187808 -0.16619904 -0.08889248
-0.052659 -0.06554023 -0.10187071 0.016085763 0.18167555 0.110596724 0.028938439 -0.05530524
0.016301109 -0.04903529 0.08202207 -0.14983112 -0.07089081 -0.21282424 -0.058435827 0.104093105
0.018307105 0.18237686 0.17229141 -0.11689383 -0.040856954 0.0046942993 -0.07629973 -0.0784548
-0.062137507 -0.03252395 0.095453694 0.011036139 0.11594818 -0.14975524 -0.15744348 0.026713358
-0.009550368 -0.1041705 -0.05215625 0.023836637 0.039877694 -0.042984083 0.14059594 -0.052029286
0.25016934 0.008216311 -0.08709893 -0.10985411 -0.22127533 -0.09918253 0.072729655 0.09058999
0.004118763 -0.12792788 0.16217785 -0.091392785 -0.0334567 0.2174335 0.086874105 0.10946774
0.010959103 -0.011768042 0.19478635 -0.14028202 0.021392986 0.21732777 0.11493632 0.224834
0.09470242 0.05944098 -0.16091064 -0.0122116245 -0.025546093 -0.024019545 0.04032614 0.15460491
0.030390555 0.064860396 0.041138403 0.06430335 -0.025775382 0.13588111 0.2519473 -0.17395113
0.011647544 0.152368 0.09478095 -0.0124741 -0.13088773 0.21245033 0.060958654 -0.056762617
0.021054253 0.07504878 0.0652111 -0.05954721 0.04883846 0.12404781 -0.07773666 -0.19128047
00000000: 3650 29bc 5e78 87bd 97ff 0e3e 7580 a23c
00000010: f5c3 963d 4db3 3c3e 371c 813d d0ac 243e
00000020: 8326 a63b 3baa 903d 6d69 a2bd 75e9 bb3c
00000030: 4647 5f3c 47ea 0a3d 18b9 e6bd 1bbe 71bd
00000040: 6560 b2bd 217c 6b3c d875 b93d 4b83 0a3e
00000050: 267c 963d 9923 083e d33a 47bd 629d 11bd
00000060: cf1c c03c fc75 553d a28c 653d 1e33 18bd
00000070: 9e47 c2bc d9ab 3bbd b99f 7b3d 4e6b ed3d
00000080: 1000 923d 41e7 ba3d c410 3dbd 8059 6b3d
00000090: bd67 69bd b538 593d 9e6d 953c 9856 af3d
000000a0: 95d5 34bd 8b66 32bd 5fb2 bdbd 4a32 5a3d
000000b0: db9d 913d c1f7 9a3c b340 083a 76ce f33d
000000c0: 6cd4 2f3e 1ab0 beba 86d1 903d 8cbd 1a3c
000000d0: 16bf e93d 9ab3 2bbd b185 41bd ebe7 a73c
000000e0: 43b0 97bc 0a22 10be e129 6abd 7f38 8ebd
000000f0: cb06 2ebc 313a 803c 5497 993b 86f1 94bd
00000100: 978b b93d f722 863d 24d3 063e 4eaa 9b3d
00000110: 21b3 63bd 97a7 0d3e ea21 da3d 1fb0 3a3b
00000120: ad81 d23d 60c5 b83d f8b2 ba3c f355 0ebe
00000130: c303 02bd 7528 c63d 6865 513d 7f65 37bd
00000140: 5a10 f43d c8af 833d efbc 923d 42cd 393c
00000150: d970 11be 8c03 eabd 7c72 b8bc 8d38 d63d
00000160: 1a71 e8bc fcd0 cdbd a5bb a4bd 0338 59be
00000170: e60a 8c3c ed27 bd3d 2b33 f73d 55c8 bbbd
00000180: c654 d13d 24f6 91bc 3b2c febd 5d99 da3d
00000190: 80ae 81bd d166 fbbd e04c 073e f3f5 a33d
000001a0: ec49 57bd 538e 4cbc f11c 383d 21d0 743c
000001b0: 30e5 0e3e a96d a03d ae27 46bd 6b3a 3b3c
000001c0: 951b 18bd c6bf d43c e65b 5bbc 1dd1 c93b
000001d0: e3ab 773d 7d93 d2bd 3c85 99bd 79ec f7bc
000001e0: 6a23 4a3c 282b fb3c 09fb a53d e32b a63d
000001f0: 9644 cd3d 1543 953d a259 243e 8470 99bd
00000200: cc4e 1abe 725e c7bd 3fe7 78bd ecbd e4bd
00000210: 4ab1 80bd b141 bdbd a909 06be 0df1 573b
00000220: a6f5 eb3b 4e85 113e cfa7 513d 086d 8e3d
00000230: ee24 d43c b3d0 2ebd 54ba 17be c85b 593d
00000240: 733b 993d bbd1 b13c 3dc4 083d d07b 993d
00000250: 04d0 613c af9f cd3d 24b5 bc3d 8b72 b1bd
00000260: 1e50 febd 0f3f 893c 6be4 2dbc 6b59 9bbc
00000270: 1bf7 37bd 6583 203d 1530 2abe 430d b6bd
00000280: f7b0 57bd f539 86bd 97a1 d0bd 4ac6 833c
00000290: 2809 3a3e 8980 e23d 4e10 ed3c bf87 62bd
000002a0: e789 853c 3ad9 48bd 30fb a73d 546d 19be
000002b0: 332f 91bd 99ee 59be 685a 6fbd c42e d53d
000002c0: c8f8 953c 00c1 3a3e 296d 303e 0866 efbd
000002d0: 9f59 27bd a3d2 993b 0843 9cbd e9ac a0bd
000002e0: e683 7ebd d537 05bd 3a7d c33d ecd0 343c
000002f0: 3d76 ed3d 7059 19be dd38 21be f9d5 da3c
00000300: 2679 1cbc 5857 d5bd cba1 55bd 0d45 c33c
00000310: cb56 233d 1410 30bd 62f8 0f3e a91c 55bd
00000320: 3216 803e b59d 063c ec60 b2bd 31fb e0bd
00000330: 0096 62be 3620 cbbd 49f3 943d 3f87 b93d
00000340: b0f6 863b 87ff 02be f311 263e 242c bbbd
00000350: e509 09bd e3a6 5e3e 0deb b13d 9f30 e03d
00000360: cf8d 333c bfce 40bc 1376 473e 17a6 0fbe
00000370: 5840 af3c 2c8b 5e3e bc63 eb3d e23a 663e
00000380: 58f3 c13d 6378 733d c2c5 24be 4413 48bc
00000390: 0a46 d1bc a3c4 c4bc 062d 253d c050 1e3e
000003a0: 9df5 f83c 87d5 843d be80 283d 7ab1 833d
000003b0: e526 d3bc 6b24 0b3e 3dff 803e 3f20 32be
000003c0: 57d5 3e3c 5b06 1c3e 841c c23d 2b60 4cbc
000003d0: 6f07 06be 948c 593e c8af 793d eb7f 68bd
000003e0: f879 ac3c 2db3 993d 668d 853d c6e7 73bd
000003f0: d60a 483d c70c fe3d 6634 9fbd 07df 43be

onnx::GRU_165 f4 [1, 360, 120]
0.06744772 -0.052229434 -0.043104805 -0.04032544 0.07711082 -0.0573933 0.036410403 -0.012653995
-0.072506174 -0.02716277 0.0746116 -0.011186567 0.07132842 -0.074547805 0.107361086 -0.064292826
-0.070879206 0.05083054 0.043483276 -0.08033011 0.0094546685 -0.015372434 -0.0816185 0.10506066
0.060563613 -0.00210436 0.023294173 -0.013487405 0.08601829 -0.059860017 -0.083026096 -0.0052494626
0.09042895 -0.031125126 0.014600022 0.03742055 0.043400764 -0.120687895 0.017409438 -0.021218374
0.01264195 0.007055429 -0.005878149 0.06572665 -0.021447029 -0.049050827 -0.07395953 -0.086617365
-0.056649413 -0.028396297 0.07093619 0.040830757 0.035423633 0.017536977 0.0805083 0.07534168
-0.015672786 -0.0853512 0.07397679 0.06984778 -0.11095484 0.060232826 -0.057099022 -0.013079306
-0.07044087 -0.007804565 0.01236275 -0.060370147 -0.076727636 0.08188817 -0.028352391 0.06391063
-0.0003533325 -0.0923135 0.007428392 -0.043147262 -0.040954717 0.0047016996 -0.09503639 -0.024565425
-0.05940655 -0.0036349583 0.029860428 0.054445654 -0.015669318 -0.054545928 0.059520833 -0.07365505
-0.030338613 0.009624553 0.040305465 0.032209583 -0.1195978 0.05720589 -0.06010408 0.018402234
-0.060621284 0.053886533 -0.01247458 -0.02858456 0.02148549 0.021441361 -0.03052442 -0.039715875
0.039789654 -0.069800325 0.008878133 0.068441905 0.11218634 0.033978965 0.016498463 -0.018694373
0.055670924 -0.043388575 -0.0022599255 -0.08189757 -0.103158906 0.03378388 0.06849462 -0.070340864
0.09270624 0.11283106 -0.10111426 0.14696805 0.23426211 0.016444337 0.06256841 0.07009973
-0.016002037 -0.10803834 -0.01013988 0.17976803 -0.09051146 -0.20992304 0.2650958 -0.18730684
-0.047402576 0.029010486 0.09904409 -0.118343174 0.024398275 0.032407653 -0.067333415 0.16763829
-0.060832463 0.024650035 0.14596532 0.046471454 0.164462 -0.100981444 -0.17310752 0.26728362
0.19631705 0.0059198253 0.19941479 0.1764983 -0.0018749705 -0.17182063 0.020121738 0.106550686
-0.044660963 -0.16899034 -0.079860225 0.15185632 0.028417187 -0.17376147 -0.10586447 -0.017348133
0.05445396 0.14398676 0.1022508 0.033134334 0.091632284 -0.028605342 -0.06474884 0.105565354
0.05599763 -0.18334039 0.10915403 0.08080301 -0.3005395 0.067371115 -0.19374603 0.14440277
-0.023715843 -0.02913339 0.08638016 -0.211534 -0.057288826 0.25864375 0.042547 0.03703289
0.004016068 -0.108194016 0.1607839 0.035998058 0.048218083 0.06374817 -0.23391613 -0.07465322
-0.12825942 -0.13822173 0.15086232 -0.05521814 0.013270839 -0.09210171 0.03412972 -0.18242477
-0.033263844 -0.15993339 0.08937734 0.06339831 -0.21603937 -0.15569161 -0.21701434 0.06778143
-0.1535454 -0.18012895 0.118966185 -0.043821387 0.18027776 0.23912507 -0.19924034 -0.09926705
0.046184838 -0.047329575 0.059869975 0.038512204 0.062974475 0.30031535 0.030458797 -0.013032463
-0.13366936 0.049639888 0.115513265 -0.14264251 -0.14959304 -0.10080528 0.16654597 0.03217542
0.07576663 0.015078733 -0.05792423 0.06808337 0.18001118 -0.12162562 0.06521575 0.040207896
-0.024938313 0.021187326 0.020448258 -0.024168782 0.017588772 -0.063227236 0.12402058 -0.07449357
00000000: 0822 8a3d 88ee 55bd aa8e 30bd 4a2c 25bd
00000010: 47ec 9d3d 3d15 6bbd 1323 153d b452 4fbc
00000020: 1e7e 94bd 7584 debc f7cd 983d dd47 37bc
00000030: a214 923d 85ac 98bd 21e0 db3d f5ab 83bd
00000040: 1e29 91bd af33 503d 851b 323d 1d84 a4bd
00000050: c1e7 1a3c a9dc 7bbc 9a27 a7bd 0b2a d73d
00000060: 8d11 783d 4de9 09bb 6cd3 be3c 47fa 5cbc
00000070: 5b2a b03d c72f 75bd 9609 aabd af03 acbb
00000080: d032 b93d 1ffa febc ee34 6f3c 4a46 193d
00000090: 00c5 313d 372b f7bd 3d9e 8e3c 28d2 adbc
000000a0: 2e20 4f3c 3a31 e73b 7d9d c0bb b29b 863d
000000b0: aeb1 afbc 85e9 48bd 1878 97bd 7264 b1bd
000000c0: 3709 68bd 5a9f e8bc fe46 913d 273e 273d
000000d0: 5f18 113d b5a9 8f3c 89e1 a43d bd4c 9a3d
000000e0: 3764 80bc 9ccc aebd 2581 973d 5a0c 8f3d
000000f0: 4b3c e3bd b2b6 763d aae0 69bd 964a 56bc
00000100: 4e43 90bd 70bd ffbb 228d 4a3c b046 77bd
00000110: 6123 9dbd fcb4 a73d 4643 e8bc 94e3 823d
00000120: 7c3f b9b9 dc0e bdbd de69 f33b 2fbb 30bd
00000130: 22c0 27bd b710 9a3b 70a2 c2bd 6e3d c9bc
00000140: 4854 73bd 7b38 6ebb db9d f43c 6802 5f3d
00000150: f15c 80bc 8d6b 5fbd 1ecc 733d 75d8 96bd
00000160: af88 f8bc 4db0 1d3c 5817 253d 32ee 033d
00000170: b1ef f4bd b950 6a3d b22f 76bd 48c0 963c
00000180: 064e 78bd 20b8 5c3d 2e62 4cbc 2b2a eabc
00000190: 5702 b03c cba5 af3c 590e fabc 1dad 22bd
000001a0: 7afa 223d 79f3 8ebd 9775 113c 452b 8c3d
000001b0: f4c1 e53d 872d 0b3d c927 873c f124 99bc
000001c0: 3207 643d 38b8 31bd 421b 14bb eab9 a7bd
000001d0: fa44 d3bd f760 0a3d e846 8c3d df0e 90bd
000001e0: c5dc bd3d f913 e73d fe14 cfbd cb7e 163e
000001f0: 68e2 6f3e 46b6 863c de23 803d 7290 8f3d
00000200: b416 83bc 3543 ddbd bd21 26bc 1c15 383e
00000210: 135e b9bd 11f6 56be a3ba 873e 5dcd 3fbe
00000220: 3429 42bd 66a7 ed3c a1d7 ca3d e85d f2bd
00000230: e4de c73c e3bd 043d 1ae6 89bd 5fa9 2b3e
00000240: 762b 79bd dfee c93c ef77 153e da58 3e3d
00000250: ba68 283e 5ccf cebd 1943 31be 66d9 883e
00000260: 5607 493e 18fb c13b 6433 4c3e f8bb 343e
00000270: 92c1 f5ba bff1 2fbe 58d6 a43c 3f37 da3d
00000280: 6aee 36bd ce0b 2dbe c28d a3bd 3980 1b3e
00000290: 29cb e83c 87ee 31be 79cf d8bd ac1d 8ebc
000002a0: 1e0b 5f3d 4471 133e de68 d13d deb7 073d
000002b0: b5a9 bb3d c055 eabc 0a9b 84bd a632 d83d
000002c0: c55d 653d 95bd 3bbe 268c df3d 0c7c a53d
000002d0: 50e0 99be def9 893d 5c65 46be 52de 133e
000002e0: ba47 c2bc 26a9 eebc 15e8 b03d 5e9c 58be
000002f0: b0a7 6abd f46c 843e c345 2e3d cdaf 173d
00000300: 3899 833b d394 ddbd 89a4 243e b372 133d
00000310: 5380 453d 678e 823d b687 6fbe cae3 98bd
00000320: 7056 03be ff89 0dbe a77b 1a3e 6b2c 62bd
00000330: ef6d 593c d29f bcbd 9bcb 0b3d 8fcd 3abe
00000340: ab3f 08bd 94c5 23be 780b b73d f9d6 813d
00000350: 6d39 5dbe 9f6d 1fbe 0239 5ebe fed0 8a3d
00000360: 013b 1dbe b973 38be 8ba4 f33d 0e7e 33bd
00000370: bc9a 383e 34dd 743e a905 4cbe 864c cbbd
00000380: 502c 3d3d a8dc 41bd 383a 753d f9be 1d3d
00000390: c3f8 803d efc2 993e ba84 f93c 1d86 55bc
000003a0: 9fe0 08be 3253 4b3d 3892 ec3d e110 12be
000003b0: eb2e 19be 0073 cebd 078b 2a3e 60ca 033d
000003c0: 892b 9b3d ca0c 773c f541 6dbd 4b6f 8b3d
000003d0: da54 383e da16 f9bd d68f 853d 09b1 243d
000003e0: 6f4b ccbc 0b91 ad3c 1b83 a73c 9cfd c5bc
000003f0: 5416 903c 487d 81bd 80fe fd3d 1690 98bd

onnx::GRU_166 f4 [1, 720]
0.09988654 0.41362077 0.11532497 0.08394202 0.07287958 0.26054972 0.17943142 0.21467471
0.2317864 0.20848612 0.19242428 0.2854389 0.27774927 0.15319726 0.20393218 0.18673684
0.23212631 0.04650649 0.10360399 0.29454327 0.20882265 0.11469385 0.22418323 0.24330173
0.23989798 0.22094536 0.06463217 0.10096838 0.35184693 0.30526948 0.18229172 0.20754115
0.21703444 0.31726232 0.006688613 0.23688842 0.3765359 0.043116238 0.1408319 0.15882726
0.13344291 0.11709394 0.20125963 0.07569122 0.21875001 0.15167844 0.19408561 0.096958764
0.13240081 0.23950133 0.2816161 0.20411563 0.014627031 0.18291533 0.26834312 0.06597107
0.29194734 0.18752763 0.12282844 0.06337723 0.28031403 0.21442738 0.14730698 0.16250288
0.11616517 0.1100153 0.29270667 0.043027684 0.2824913 0.09921597 0.20686021 0.06847631
0.15128052 0.04099448 0.35596147 0.25094032 0.15549442 0.2450227 0.10699906 0.29461122
0.17100513 0.22072537 0.17008741 0.09475474 0.20209078 0.15704064 0.395934 0.21345614
0.33085102 0.17167476 0.13393314 0.04591726 0.048851762 0.33696753 0.24646215 0.18628435
0.18242007 0.11711646 0.09631228 0.19682011 0.100961156 0.19957022 0.09966943 0.15976915
0.1966512 0.11068345 0.21007724 0.12775713 0.32300156 0.27363402 0.18007232 0.24535272
0.34878463 0.26339832 0.1362407 0.08626269 0.23728766 0.2533556 0.14662075 0.22655013
-0.054556634 -0.05875463 -0.011382286 -0.06105361 0.03384922 -0.012452777 0.056141254 0.13764152
0.0020975582 0.02969256 -0.027516361 -0.022028726 0.023158252 0.004441022 0.01641349 -0.03464753
0.05032256 -0.04991208 0.056057397 -0.050448246 -0.017902544 -0.004574797 0.050477233 0.021156238
-0.004452877 -0.07946028 -0.020977115 -0.081576906 0.009226976 -0.05205394 -0.035241645 0.042553395
-0.02587654 0.094646424 0.05430724 -0.045731872 -0.059032068 0.07579056 -0.04246812 -0.10805421
0.038696673 0.082614675 -0.0280866 -0.07808031 0.07518217 -0.024612406 -0.017747352 -0.038584433
-0.037688658 0.007607045 -0.05620639 0.04429746 0.0090546 0.025322458 -0.038684964 -0.032499325
0.013456218 -0.0143313855 0.017588498 0.0136642475 -0.044651844 -0.043472115 0.039690346 -0.035962347
-0.049359057 -0.01068199 -0.017313415 0.076124094 -0.083173 0.021451278 -0.019688327 -0.009617247
0.0018442117 0.026156588 -0.051118433 -0.025915204 -0.061030835 -0.10665498 0.043513093 -0.02199821
0.072790846 0.0675074 0.020633899 -0.080831 0.05833334 -0.046584293 -0.015073118 -0.08999478
0.0010808378 0.081162006 -0.006903447 0.04968484 -0.013010583 0.05039275 0.13095526 -0.022704907
0.10658878 0.04079012 0.020021822 0.03310555 -0.047337677 0.020549644 -0.06089083 -0.083564326
-0.037868015 0.06561825 -0.04662806 -0.06664696 0.061208103 0.06898268 0.028668152 -0.06540553
0.025142604 0.009098782 0.0047327955 0.005355447 0.029160505 0.06867587 0.060884953 -0.011150044
0.06283705 0.03364977 0.0132613825 0.07597691 0.16598812 -0.0372608 0.0035707464 0.0450494
-0.06619419 0.0262012 0.02739434 -0.06462043 -0.02149529 -0.16089667 0.11946648 -0.13717422
00000000: 5091 cc3d 1ac6 d33e 7f2f ec3d cbe9 ab3d
00000010: e441 953d c666 853e dfbc 373e b0d3 5b3e
00000020: 6a59 6d3e 637d 553e df0a 453e 0c25 923e
00000030: 2735 8e3e bedf 1c3e 99d3 503e f137 3f3e
00000040: 85b2 6d3e 977d 3e3d 542e d43d 60ce 963e
00000050: 9bd5 553e 9ce4 ea3d 4a90 653e 1724 793e
00000060: d1a7 753e 803f 623e df5d 843d 83c8 ce3d
00000070: 4825 b43e 484c 9c3e aeaa 3a3e ab85 543e
00000080: 473e 5e3e 3570 a23e 272c db3b e192 723e
00000090: 50c9 c03e a79a 303d 3d36 103e 9da3 223e
000000a0: 42a5 083e f3ce ef3d 0117 4e3e 0004 9b3d
000000b0: 0100 603e 9851 1b3e 61be 463e 5192 c63d
000000c0: 1494 073e d63f 753e fc2f 903e b003 513e
000000d0: 37a6 6f3c 284e 3b3e 4564 893e d71b 873d
000000e0: 1f7a 953e 3e07 403e 7a8d fb3d eccb 813d
000000f0: 5285 8f3e da92 5b3e a4d7 163e 2867 263e
00000100: 01e8 ed3d b44f e13d a6dd 953e cc3d 303d
00000110: b3a2 903e be31 cb3d 2ad3 533e 4f3d 8c3d
00000120: 48e9 1a3e d4e9 273d 9540 b63e 407b 803e
00000130: ee39 1f3e 3be7 7a3e 5322 db3d 48d7 963e
00000140: f81b 2f3e d505 623e 652b 2e3e c60e c23d
00000150: e3f0 4e3e 43cf 203e dcb7 ca3e 3f94 5a3e
00000160: 4e65 a93e 82cb 2f3e c525 093e bd13 3c3d
00000170: c918 483d 0287 ac3e 9360 7c3e 53c1 3e3e
00000180: 54cc 3a3e c1da ef3d 5f3f c53d 368b 493e
00000190: b9c4 ce3d 235c 4c3e 7c1f cc3d 869a 233e
000001a0: ef5e 493e 01ae e23d 7d1e 573e c4d2 023e
000001b0: 7660 a53e c219 8c3e e164 383e be3d 7b3e
000001c0: e693 b23e 25dc 863e af82 0b3e 7eaa b03d
000001d0: 89fb 723e d3b7 813e c023 163e c2fc 673e
000001e0: c776 5fbd b2a8 70bd c57c 3abc 5a13 7abd
000001f0: 7ba5 0a3d bb06 4cbc 5ff4 653d e6f1 0c3e
00000200: 3077 093b d03d f33c fe69 e1bc 9675 b4bc
00000210: 60b6 bd3c fe85 913b 9575 863c 92ea 0dbd
00000220: 071f 4e3d 9c70 4cbd 719c 653d d2a2 4ebd
00000230: 5ba8 92bc 2ee8 95bb 37c1 4e3d d94f ad3c
00000240: 71e9 91bb 12bc a2bd 33d8 abbc cb11 a7bd
00000250: be2c 173c 8336 55bd 8b59 10bd 784c 2e3d
00000260: 0afb d3bc fcd5 c13d 4571 5e3d 5851 3bbd
00000270: 9ccb 71bd 1538 9b3d 0df3 2dbd 874b ddbd
00000280: 6780 1e3d e231 a93d df15 e6bc 92e8 9fbd
00000290: 1cf9 993d f59f c9bc e562 91bc b60a 1ebd
000002a0: 6c5f 1abd 8544 f93b ac38 66bd 4171 353d
000002b0: bf59 143c 0b71 cf3c 2074 1ebd 031e 05bd
000002c0: 7877 5c3c 30ce 6abc c115 903c 02e0 5f3c
000002d0: dae4 36bd d10f 32bd 5892 223d 414d 13bd
000002e0: b92c 4abd 8303 2fbc ddd4 8dbc f3e6 9b3d
000002f0: 9b56 aabd 97ba af3c 6a49 a1bc a891 1dbc
00000300: 7ab9 f13a 5746 d63c 9061 51bd 1f4c d4bc
00000310: 78fb 79bd ed6d dabd c93a 323d 9735 b4bc
00000320: 5e13 953d 5241 8a3d 6c08 a93c b98a a5bd
00000330: f1ee 6e3d 2ccf 3ebd 3df5 76bc 2f4f b8bd
00000340: e6aa 8d3a 4438 a63d 5036 e2bb 5582 4b3d
00000350: 572a 55bc a168 4e3d 2319 063e a4ff b9bc
00000360: 384b da3d 8a13 273d ce04 a43c af99 073d
00000370: 27e5 41bd ba57 a83c aa68 79bd c623 abbd
00000380: 7e1b 1bbd dc62 863d 11fd 3ebd 347e 88bd
00000390: 59b5 7a3d cb46 8d3d 79d9 ea3c 56f3 85bd
000003a0: ddf7 cd3c 0f13 153c 9115 9b3b bf7c af3b
000003b0: 03e2 ee3c efa5 8c3d 8062 793d adae 36bc
000003c0: b6b0 803d 57d4 093d 4546 593c c899 9b3d
000003d0: caf8 293e c89e 18bd 2f03 6a3b b885 383d
000003e0: d290 87bd e6a3 d63c 186a e03c b757 84bd
000003f0: e416 b0bc 19c2 24be d8aa f43d 6677 0cbe

onnx::GRU_186 f4 [1, 360, 120]
2.1918015e-38 2.8840796e-38 -2.3869057e-38 3.8494877e-38 -1.5773929e-38 3.6502654e-38 4.601875e-39 -1.9972651e-38
4.599632e-38 1.5532485e-38 4.1591233e-38 4.9174506e-38 6.912289e-38 1.9339012e-38 4.964531e-39 4.3025642e-38
2.6073691e-38 -6.009194e-38 -3.51678e-39 -6.4015893e-38 -6.055173e-38 -4.9141295e-38 -5.1949374e-38 6.7144606e-38
3.714604e-38 -1.7188792e-38 -2.991192e-38 2.4932597e-38 5.969474e-38 -4.1801473e-38 5.8339435e-38 -3.9834683e-38
6.50847e-40 3.505015e-38 1.6879716e-38 5.481586e-38 4.0092186e-38 2.544231e-39 -3.1702405e-38 -4.5553396e-38
-3.89891e-38 -3.9559648e-38 6.43633e-40 -5.263423e-39 3.54125e-40 -6.344621e-38 -3.378527e-38 3.044451e-38
-3.974778e-38 -5.669556e-38 4.563596e-38 4.4543893e-38 -3.2477614e-38 1.170933e-38 -1.9317606e-38 -1.678936e-38
8.146129e-39 -4.08383e-40 2.800746e-38 -4.4252204e-38 4.1246e-41 -1.8309454e-38 5.2733417e-38 1.906508e-38
-6.867584e-38 -3.996427e-38 4.8969356e-38 -2.997579e-38 4.251907e-38 5.360111e-38 2.9195123e-38 3.212461e-38
1.4305267e-38 4.0172063e-38 -1.3164866e-38 -5.352635e-38 -2.6647787e-38 -2.1488015e-38 1.0679737e-38 1.384919e-38
1.7779305e-38 1.964116e-38 -2.921382e-39 4.118427e-39 6.34661e-39 -2.1745421e-38 -3.116692e-39 3.0474e-38
2.064704e-38 -2.849703e-39 4.007568e-38 -4.513162e-38 -4.691567e-38 -4.0657296e-38 -7.77729e-39 3.432486e-38
-4.5131886e-38 -6.763263e-39 -3.6482167e-38 3.678071e-38 -1.4716365e-38 6.715157e-39 6.91385e-39 6.182356e-38
5.350402e-38 5.556918e-38 -5.4762755e-38 5.176995e-38 -2.816318e-39 -3.5453843e-38 -8.597534e-39 -4.4623229e-38
-2.7813266e-38 -3.743716e-38 2.002601e-39 6.9121177e-38 5.1172404e-38 -3.955443e-38 -2.925058e-38 -6.804043e-38
-5.3333605e-38 5.48576e-38 5.268155e-38 -2.032314e-39 1.5170348e-38 3.981471e-38 -2.283788e-38 -2.27447e-38
-4.2112587e-38 3.4640594e-38 -3.2504637e-38 -4.1290246e-38 -5.167471e-38 1.6946533e-38 -5.7936657e-38 3.111471e-38
-2.710478e-38 4.2409087e-38 1.2207456e-38 -3.5752233e-38 3.7552212e-38 1.2535573e-38 -4.2798228e-38 -3.9718163e-38
-6.6061565e-38 4.9406045e-38 -2.5447143e-38 -4.0908978e-38 3.0726832e-38 3.0115227e-38 -6.739408e-38 -1.464947e-39
-5.963215e-38 -9.590935e-39 5.848595e-38 -3.1685527e-38 -8.589797e-39 1.15634e-39 2.521607e-38 1.9704711e-38
2.3125249e-38 -2.5814325e-38 2.9466392e-38 -2.7877667e-38 -5.029634e-38 -2.7963555e-38 -5.381997e-38 -4.0845048e-38
-4.453178e-38 6.0590744e-38 -6.784602e-38 -5.073527e-39 -9.132753e-39 -1.5449805e-38 2.1022526e-38 4.5011848e-38
2.8302653e-38 4.237527e-39 -3.82494e-38 3.6523118e-38 -2.0760071e-38 -1.6059329e-38 1.0759814e-38 6.208268e-38
-5.6692623e-38 -1.2021873e-38 -3.8821595e-38 3.2756473e-38 -3.5448972e-38 1.7049348e-38 4.375204e-39 6.784679e-38
4.825995e-38 3.0375756e-38 6.7745976e-38 2.0812564e-38 -2.5111339e-38 -6.5610946e-38 4.607993e-39 -6.939694e-39
3.3880314e-38 -4.0352558e-38 -1.3690313e-38 5.9758855e-38 2.567232e-38 -2.4518816e-38 2.0083679e-38 -6.1724025e-38
-6.313709e-39 -3.2060218e-38 -4.7584587e-38 -9.123512e-39 2.241616e-38 5.672073e-38 -2.3641273e-38 2.032593e-38
-5.4318375e-38 -4.1502828e-38 -1.8190412e-38 -5.454877e-39 -5.4783904e-38 -4.668321e-39 6.526617e-38 5.568331e-38
-1.7737552e-38 6.69525e-38 1.1628333e-38 4.1848702e-38 -3.6770262e-38 3.812486e-38 -5.166809e-39 4.041709e-39
2.843131e-39 -5.0300135e-38 1.3250507e-38 -4.4166018e-38 -5.490825e-39 -3.631937e-38 -4.5206104e-38 2.571256e-38
-6.9283296e-38 -2.740979e-38 -1.8516635e-38 -4.377471e-39 5.473013e-38 3.824054e-39 6.5033107e-38 -4.5360945e-38
1.2808473e-38 -3.4178855e-38 5.020738e-38 5.9997076e-38 -6.625969e-38 -3.26357e-38 -2.2942028e-38 -8.10455e-39
00000000: 82aa ee00 3406 1d01 9cf4 0181 0796 5101
00000010: 4cc3 ab80 46bd 4601 281c 3200 a07b d980
00000020: 836d 7a01 4022 a900 b871 6201 a1dd 8501
00000030: a02b bc01 4c95 d200 180f 3600 fe40 6a01
00000040: 6cf5 0d01 f895 a381 5a4b 2680 9144 ae81
00000050: 66d6 a481 7cc6 8581 6e6b 8d81 f6c8 b601
00000060: 063e 4a01 5c2b bb80 22db 2281 f8be 0701
00000070: 2981 a201 c096 6381 a7d0 9e01 72e1 5881
00000080: 4c16 0700 c7d4 3e01 c8cd b700 1439 9501
00000090: 5a48 5a01 48b4 1b00 b49a 2c81 2b04 7881
000000a0: e046 5481 1a62 5781 3002 0700 4850 3980
000000b0: 28db 0300 8eb7 ac81 cbf1 3781 74c1 2501
000000c0: 5268 5881 0a57 9a81 3f77 7801 2085 7201
000000d0: 30d3 3081 d980 7f00 a059 d280 e8d1 b680
000000e0: 18b4 5800 6872 0480 b47c 1801 92ee 7081
000000f0: fa72 0000 4f5f c780 d48d 8f01 b099 cf00
00000100: 13f4 ba81 1096 5981 a94e 8501 2734 2381
00000110: ef7e 6701 86ea 9101 10f4 1e01 2ce7 2e01
00000120: 44c5 9b00 afb7 5a01 4a5a 8f80 6cb6 9181
00000130: 9815 1181 d8fb e980 c34a 7400 e8cd 9600
00000140: 7899 c100 90df d500 a0cf 1f80 80d8 2c00
00000150: c41b 4500 63c9 ec80 12f0 2180 8fea 2501
00000160: 8cd3 e000 d007 1f80 5831 5a01 4cb8 7581
00000170: e66e 7f81 005c 5d81 ecaf 5480 dfe1 3a01
00000180: abb8 7581 3aa5 4980 b8a0 4681 d440 4801
00000190: 3d3f a080 201f 4900 0049 4b00 bc4c a801
000001a0: dca6 9101 1146 9701 1214 9581 64ee 8c01
000001b0: c0aa 1e80 7207 4181 6d9e 5d80 b4f3 7281
000001c0: 096e 1781 c9d3 4b81 70ce 1500 6e2a bc01
000001d0: f64d 8b01 d45a 5781 5c41 1f81 4239 b981
000001e0: 1930 9181 2b56 9501 af69 8f01 4421 1680
000001f0: c230 a500 9bc5 5801 b8ae f880 f8aa f780
00000200: 6148 6581 f199 3c01 daf8 3081 34ce 6081
00000210: 04ac 8c81 0a88 b800 f5b7 9d81 9467 2901
00000220: 8d92 1381 a4e5 6601 6ced 8400 57a7 4281
00000230: 2574 4c01 1480 8800 0604 6981 0a3f 5881
00000240: 31d6 b381 fd7e 8601 248c 0a81 cbba 5e81
00000250: f44a 2701 80f6 2301 d276 b781 adf3 0f80
00000260: 8b55 a281 a06f 6880 c236 9f01 2e83 2c81
00000270: dc88 5d80 6897 0c00 124a 0901 b890 d600
00000280: c9cf fb00 eb8b 0c81 286e 2001 ccc7 1781
00000290: 6feb 8881 823f 1881 0c83 9281 b061 5e81
000002a0: 3e74 7281 96f1 a401 c6b1 b881 ee3e 3780
000002b0: 6672 6380 c53b a880 40ea e400 5c11 7501
000002c0: 2418 1a01 8024 2e00 e23f 5081 ccd9 4601
000002d0: a20e e280 e0de ae80 fc29 7500 5001 a901
000002e0: fe54 9a81 17e8 8280 685d 5381 dc57 3201
000002f0: a800 4181 a5a6 b900 4aa4 2f00 50b2 b801
00000300: 4760 8301 a061 2501 0e6c b801 f6a0 e200
00000310: 19b8 0881 289c b281 362d 3200 0b91 4b80
00000320: 4476 3801 42b3 5b81 0613 9580 d8ad a201
00000330: fec5 0b01 3e7e 0581 20b1 da00 5e07 a881
00000340: 0dc0 4480 6c8d 2e81 9e89 8181 a458 6380
00000350: 2217 f400 9468 9a01 20b7 0081 6c54 dd00
00000360: 62de 9381 80f6 6181 7813 c680 fa65 3b80
00000370: cf22 9581 61d5 3280 e2ab b101 9a95 9701
00000380: 1425 c180 1543 b601 109f 7e00 94d8 6301
00000390: 4432 4881 4d92 4f01 f642 3880 a402 2c00
000003a0: 7ef5 1e00 14ee 8881 0649 9000 7276 7081
000003b0: 30ca 3b80 d0bd 4581 1d20 7681 14fe 0b01
000003c0: 699b bc81 ac3b 1581 d8a0 c980 9caa 2f80
000003d0: 55fd 9401 e8a3 2900 7609 b101 eef7 7681
000003e0: d078 8b00 5f16 3a81 70ad 8801 dc53 a301
000003f0: 4460 b481 87af 3181 0ad1 f980 3040 5880

onnx::GRU_187 f4 [1, 360, 120]
0.04739916 -0.07930948 0.022325605 0.07549364 -0.051989134 0.09002421 -0.06596324 0.04294063
-0.022022063 -0.019670647 -0.08844472 0.1839708 -0.08611799 -0.011660121 -0.019671883 0.037937146
-0.06680337 -0.1493856 -0.0917776 -0.034182843 -0.073642336 0.101430126 0.08239329 0.022275766
0.10265817 0.040641297 -0.011624723 0.03864228 -0.006933659 0.07347498 -0.033170808 0.035154723
-0.030719982 0.02151991 0.0360827 -0.054187134 -0.086374566 0.0026130283 0.016355095 0.0017025184
-0.041631382 0.04132836 0.02787377 0.07217416 -0.077445924 -0.11589711 -0.002581797 0.03683822
0.15286306 -0.056409962 0.023632372 -0.0088478625 0.0013859173 0.032634865 0.09010398 0.016793756
0.030784952 -0.026218696 0.07994716 0.0781883 -0.06522078 -0.004762643 -0.022036618 -0.030055964
0.12581772 -0.07796595 0.022715835 -0.07035114 -0.0023791762 0.028383736 -0.16318259 -0.08030801
-0.045260146 0.09696745 0.043570798 0.021101413 0.12425238 -0.051841557 0.04703805 0.11012663
-0.029424882 -0.026805226 -0.0068610697 0.053445462 0.02067707 -0.055639017 0.016364794 0.011910974
0.02663663 -0.032202113 -0.093237266 0.027240863 -0.056594208 0.03967044 0.020016368 0.012238716
-0.018356422 -0.046964746 0.041662507 -0.04598882 -0.04546409 -0.036560833 0.16844921 -0.09522801
-0.004199246 -0.059078664 -0.012804972 -0.12081657 -0.048692495 -0.024094278 -0.08020126 0.12076832
-0.25286198 -0.00040514563 -0.019508246 0.055844598 -0.048694115 0.06444985 -0.11748985 0.102695644
-0.27280453 0.09043339 -0.13970429 0.033736408 -0.12566197 -0.028362855 -0.08781162 -0.009385558
-0.015619767 -0.09967719 -0.024246043 0.02009233 -0.24563955 0.041341867 0.20684722 0.005269783
0.012314845 -0.08170512 0.06659327 0.029756976 -0.11284744 0.10297505 0.13564998 0.07873358
0.03169769 0.07090187 0.09615423 -0.012887354 0.101454005 0.15512964 -0.07296265 0.14251424
-0.15093249 -0.07829094 0.093427986 0.0507265 -0.090517245 -0.16314302 -0.031381443 0.10035835
-0.12111694 0.00895203 -0.058923677 0.048802786 -0.06454854 -0.059826687 -0.121981345 0.090248935
0.08891576 0.055694006 0.013322979 -0.091549724 0.089494444 -0.22553773 -0.13734137 -0.20105354
-0.0011894966 -0.045526374 0.012154115 -0.05140339 -0.034251582 0.033682555 -0.22253361 0.046713877
0.10701128 -0.08720548 0.1724993 -0.14933294 -0.06656276 0.28816468 -0.058756597 -0.083433494
0.061695095 0.07094718 0.11806065 -0.014157826 0.1049728 0.08673834 -0.059408452 0.036848903
-0.039829474 -0.18215136 0.13553314 -0.120504305 -0.033684757 -0.18942635 0.06326593 -0.01032146
-0.22317098 -0.031620737 -0.07623772 0.119125135 -0.073329054 -0.09570581 -0.05744202 0.096398555
-0.04628163 -0.1497959 -0.089062236 0.02771268 0.030304877 -0.042548854 0.041557536 -0.20518145
-0.03440661 -0.19029865 0.017622463 -0.09774897 0.014167853 -0.013909183 -0.0958023 0.16708776
-0.060715016 0.04110319 0.044714835 -0.07871263 -0.005690982 -0.037263315 0.06618585 -0.036613315
-0.3069251 0.059911955 -0.23310207 0.047054946 -0.12933277 0.09260534 0.026061635 0.12532964
-0.086195245 -0.056283288 -0.086494006 0.077800006 -0.27480713 0.12999174 -0.01184382 0.065932274
00000000: 9f25 423d 026d a2bd 30e4 b63c 699c 9a3d
00000010: 8ff2 54bd 9d5e b83d bc17 87bd 84e2 2f3d
00000020: 9d67 b4bc 5624 a1bc 8122 b5bd d762 3c3e
00000030: a15e b0bd 180a 3fbc ee26 a1bc fb63 1b3d
00000040: 35d0 88bd 8af8 18be e5f5 bbbd 4f03 0cbd
00000050: cbd1 96bd 99ba cf3d d0bd a83d ab7b b63c
00000060: 723e d23d 7d77 263d 9f75 3ebc 5e47 1e3d
00000070: bf33 e3bb 0d7a 963d 1dde 07bd 66fe 0f3d
00000080: 79a8 fbbc 864a b03c 74cb 133d 54f3 5dbd
00000090: 26e5 b0bd 573f 2b3b 1ffb 853c 0a27 df3a
000000a0: ab85 2abd ed47 293d 8857 e43c 0cd0 933d
000000b0: f89b 9ebd 775b edbd 5e33 29bb ace3 163d
000000c0: 2288 1c3e 220e 67bd ad98 c13c a0f6 10bc
000000d0: aba7 b53a 23ac 053d 6f88 b83d 0f93 893c
000000e0: b930 fc3c 97c8 d6bc 56bb a33d 3021 a03d
000000f0: 7992 85bd f20f 9cbb 2386 b4bc ed37 f6bc
00000100: 5cd6 003e 9dac 9fbd 8f16 ba3c 4214 90bd
00000110: f4eb 1bbb 0285 e83c 5619 27be 8778 a4bd
00000120: b462 39bd df96 c63d 4b77 323d dfdc ac3c
00000130: 0878 fe3d d057 54bd f8aa 403d 128a e13d
00000140: 730c f1bc a296 dbbc d3d2 e0bb a1e9 5a3d
00000150: f562 a93c bde5 63bd 760f 863c 3f26 433c
00000160: 1035 da3c 5de6 03bd 2ef3 bebd 3b28 df3c
00000170: 54cf 67bd 797d 223d 5ef9 a33c e584 483c
00000180: 3560 96bc 1b5e 40bd 4ea6 2a3d c65e 3cbd
00000190: 8e38 3abd d0c0 15bd f37d 2c3e e706 c3bd
000001a0: d499 89bb 78fc 71bd f2cb 51bc ae6e f7bd
000001b0: c871 47bd 5d61 c5bc 8f40 a4bd 6255 f73d
000001c0: 2077 81be ba69 d4b9 c2cf 9fbc 4ebd 643d
000001d0: 7b73 47bd 48fe 833d 859e f0bd 1852 d23d
000001e0: 09ad 8bbe 2435 b93d a40e 0fbe 302f 0a3d
000001f0: 88ad 00be 3859 e8bc 94d6 b3bd e2c5 19bc
00000200: 0dea 7fbc 8e23 ccbd a39f c6bc ac98 a43c
00000210: ef88 7bbe 1756 293d c2cf 533e 25ae ac3b
00000220: 34c4 493c 0455 a7bd 0d62 883d e7c4 f33c
00000230: 8f1c e7bd 95e4 d23d d4e7 0a3e 123f a13d
00000240: 70d5 013d 0035 913d 82ec c43d 7b25 53bc
00000250: 1ec7 cf3d 4eda 1e3e 716d 95bd 41ef 113e
00000260: 0c8e 1abe 0057 a0bd 2c57 bf3d 97c6 4f3d
00000270: 1b61 b9bd f70e 27be d489 00bd ae88 cd3d
00000280: 290c f8bd 89ab 123c f459 71bd 6ee5 473d
00000290: 0632 84bd d40c 75bd 5bd1 f9bd 6fd4 b83d
000002a0: 7719 b63d 661f 643d a048 5a3c 6c7e bbbd
000002b0: dd48 b73d 5df3 66be 37a3 0cbe fbe0 4dbe
000002c0: e2e8 9bba dd79 3abd 0e22 473c 5c8c 52bd
000002d0: 634b 0cbd b8f6 093d dadf 63be 0d57 3f3d
000002e0: bb28 db3d c998 b2bd a8a3 303e bcea 18be
000002f0: 0e52 88bd 528a 933e c2aa 70bd 2edf aabd
00000300: ffb3 7c3d c14c 913d c8c9 f13d 3af6 67bc
00000310: fbfb d63d dfa3 b13d 4756 73bd e0ee 163d
00000320: 3b24 23bd e385 3abe 33c9 0a3e f6ca f6bd
00000330: 07f9 09bd fbf8 41be 9191 813d 571b 29bc
00000340: ef86 64be bf84 01bd 8622 9cbd e1f7 f33d
00000350: 8b2d 96bd 6801 c4bd 5348 6bbd 9b6c c53d
00000360: ce91 3dbd 1964 19be 4366 b6bd b405 e33c
00000370: ef41 f83c b547 2ebd 3c38 2a3d 161b 52be
00000380: f2ed 0cbd a6dd 42be fc5c 903c 9d30 c8bd
00000390: 4820 683c 58e3 63bc ff33 c4bd 0e19 2b3e
000003a0: 4fb0 78bd d25b 283d e726 373d 1634 a1bd
000003b0: 6b7b babb 6ba1 18bd 728c 873d d8f7 15bd
000003c0: 4925 9dbe 3d66 753d 4fb2 6ebe b0bc 403d
000003d0: cf6f 04be dea7 bd3d 367f d53c 6a56 003e
000003e0: 2287 b0bd 4e89 66bd c523 b1bd 9c55 9f3d
000003f0: 85b3 8cbe 8e1c 053e 950c 42bc 8007 873d

onnx::GRU_188 f4 [1, 720]
0.07939511 0.34343538 0.4940944 0.23669651 0.18783972 0.5037001 0.23024331 0.20012781
0.24744664 0.38034812 0.41014203 0.5200882 0.25513262 0.15393053 0.20783153 0.12335041
0.22835967 0.3497571 0.30723932 0.58838 0.37955818 0.29858115 0.26612538 0.25195614
0.4011035 0.3307021 0.40862036 0.10073902 0.23335737 0.3794699 0.31663418 0.33573464
0.24007313 0.26252854 0.35711217 0.24343024 0.38482028 0.32007736 0.3170215 0.3487315
0.35270965 0.33735672 0.41725308 0.3792177 0.2777153 0.5198891 0.33077255 0.22646771
0.40320477 0.40731782 0.34964085 0.262702 0.17908521 0.34445342 0.22147696 0.32105806
0.40741262 0.28091112 0.24382317 0.31387365 0.3265528 0.30009615 0.28891087 0.36330652
0.31472075 0.31788513 0.36999527 0.27394524 0.35708275 0.25566253 0.47664878 0.26404724
0.48412365 0.26652095 0.28687027 0.16131142 0.44451454 0.33935753 0.27623323 0.28047466
0.3941141 0.22078115 0.24773853 0.32252887 0.30524468 0.4917067 0.2897068 0.2931375
0.73024684 0.48685178 0.27231362 0.22898859 0.33924755 0.29456508 0.22559805 0.23173466
0.22629517 0.29035205 0.29643777 0.27711517 0.34754264 0.23586915 0.5230903 0.47547543
0.31134465 0.24684717 0.37854347 0.27786326 0.48523414 0.28378296 0.32057157 0.2847431
0.39944512 0.4578537 0.33689272 0.3839235 0.19491939 0.2780128 0.13036425 0.21135542
0.0039946525 -0.07220538 0.13755046 -0.11434335 -0.045044385 0.045542777 0.031406254 0.003573657
0.09704866 -0.04400439 -0.04118569 0.09302744 -0.0033861678 -0.10482188 -0.044676807 -0.11324724
0.0022203731 -0.051304474 0.060324624 0.07907087 0.11449506 -0.09417207 0.024221461 0.03595786
0.025683766 -0.0013362122 0.09036689 -0.035457917 0.088099524 0.07681183 0.04204532 0.06898742
-0.018948594 0.025300385 -0.04286907 -0.03868114 -0.005019216 -0.056868855 0.0022572284 0.021474594
0.078485705 -0.013470689 0.05008835 -0.052519564 -0.01915972 0.13087744 -0.03258644 -0.07620149
-0.06795467 -0.022646371 0.10751202 0.00428457 0.06865327 0.05401934 0.022344686 0.047788665
-0.0671347 0.049354423 0.007318299 0.040230926 0.06431661 0.048063565 0.09613534 0.022102317
0.11097811 -0.0737155 -0.0404119 -0.03224517 -0.12514944 0.08751474 -0.032243572 -0.04164705
0.003716079 -0.06748231 0.073749155 0.020485004 0.020645812 0.32108986 0.022375485 0.013690753
0.04865323 -0.016740218 0.06236636 -0.0052930033 0.03277528 -0.038203813 -0.0052721757 -0.0008092685
0.11002988 0.06710082 -0.056852084 0.048061818 0.026173761 0.06551347 -0.16549908 -0.058286857
0.022977961 0.017020063 0.049180515 0.020230968 -0.1187375 -0.015494518 -0.056103345 0.1395623
-0.07032106 -0.06450328 0.015284312 -0.015866246 0.08789371 -0.09169079 -0.024311956 -0.018490693
-0.102060325 -0.03859157 0.04297849 -0.05571723 0.095687024 -0.084985584 -0.23203622 0.08996281
-0.13676254 -0.01775913 -0.094318666 -0.0023052406 -0.043088116 -0.08967188 -0.049940683 -0.009075678
-0.120399244 -0.09050705 -0.036296513 -0.022944124 -0.067367755 -0.051556323 0.07359208 -0.042911325
00000000: e799 a23d c3d6 af3e f1f9 fc3e 9260 723e
00000010: 0e59 403e 7df2 003f e7c4 6b3e 4eee 4c3e
00000020: a762 7d3e fdbc c23e 23fe d13e 8024 053f
00000030: bea0 823e f79f 1d3e cad1 543e 249f fc3d
00000040: 1ed7 693e 5d13 b33e 794e 9d3e 12a0 163f
00000050: 7355 c23e a1df 983e 9641 883e 6500 813e
00000060: 705d cd3e c951 a93e b036 d13e 4250 ce3d
00000070: 3cf5 6e3e e149 c23e e01d a23e 69e5 ab3e
00000080: bbd5 753e 246a 863e 68d7 b63e c745 793e
00000090: 2a07 c53e 2ee1 a33e a450 a23e ef8c b23e
000000a0: 5c96 b43e 05ba ac3e 32a2 d53e d328 c23e
000000b0: b330 8e3e 7417 053f 055b a93e 27e7 673e
000000c0: db70 ce3e f68b d03e 2004 b33e e080 863e
000000d0: 1d62 373e 335c b03e dbca 623e b961 a43e
000000e0: 6398 d03e 95d3 8f3e c8ac 793e 0cb4 a03e
000000f0: ee31 a73e 34a6 993e 20ec 933e 5003 ba3e
00000100: 1423 a13e d7c1 a23e 0570 bd3e 8d42 8c3e
00000110: 8dd3 b63e 33e6 823e 4f0b f43e 3331 873e
00000120: 0edf f73e 6f75 883e a9e0 923e d22e 253e
00000130: 6997 e33e 45c0 ad3e 716e 8d3e 609a 8f3e
00000140: 53c9 c93e 7414 623e 2baf 7d3e 8122 a53e
00000150: 0849 9c3e fbc0 fb3e 7354 943e 1e16 963e
00000160: 75f1 3a3f a344 f93e b16c 8b3e fc7b 6a3e
00000170: dbb1 ad3e 3cd1 963e 2d03 673e da4b 6d3e
00000180: ecb9 673e 06a9 943e b1c6 973e 0ae2 8d3e
00000190: 1cf1 b13e af87 713e 3fe9 053f 8471 f33e
000001a0: 9168 9f3e 81c5 7c3e 73d0 c13e 1844 8e3e
000001b0: 9c70 f83e 004c 913e f521 a43e d9c9 913e
000001c0: 1284 cc3e cd6b ea3e 347d ac3e 9f91 c43e
000001d0: f398 473e b257 8e3e 357e 053e 8e6d 583e
000001e0: 93e5 823b 6ae0 93bd 07da 0c3e d92c eabd
000001f0: 7680 38bd 108b 3a3d d8a3 003d 0434 6a3b
00000200: 73c1 c63d f23d 34bd 53b2 28bd 2c85 be3d
00000210: 78ea 5dbb dbac d6bd 07ff 36bd 2bee e7bd
00000220: ae83 113b a424 52bd f416 773d e9ef a13d
00000230: 637c ea3d 49dd c0bd 166c c63c 8d48 133d
00000240: c366 d23c d723 afba 4712 b93d 523c 11bd
00000250: 866d b43d 854f 9d3d b737 2c3d 4749 8d3d
00000260: 153a 9bbc c142 cf3c 7a97 2fbd 1d70 1ebd
00000270: 3c78 a4bb 51ef 68bd 02ee 133b 7deb af3c
00000280: 1dbd a03d 2ab4 5cbc 7129 4d3d c11e 57bd
00000290: d8f4 9cbc bc04 063e 5c79 05bd 870f 9cbd
000002a0: d12b 8bbd e284 b9bc 432f dc3d 9465 8c3b
000002b0: 169a 8c3d 6243 5d3d 340c b73c 0cbe 433d
000002c0: eb7d 89bd dd27 4a3d 57ce ef3b 2fc9 243d
000002d0: 6db8 833d 4dde 443d 9be2 c43d eb0f b53c
000002e0: 7e48 e33d 27f8 96bd f386 25bd 8313 04bd
000002f0: 2d27 00be ee3a b33d d611 04bd 1996 2abd
00000300: 7689 733b 2a34 8abd cc09 973d 2bd0 a73c
00000310: 6821 a93c e465 a43e cb4c b73c 2e4f 603c
00000320: 9c48 473d c822 89bc de73 7f3d ee70 adbb
00000330: 5f3f 063d 9a7b 1cbd 37c2 acbb 1725 54ba
00000340: 5957 e13d 286c 893d bbdd 68bd 78dc 443d
00000350: 5b6a d63c ed2b 863d 9778 29be 33be 6ebd
00000360: 473c bc3c a96d 8b3c 8271 493d 6abb a53c
00000370: a52c f3bd b8dc 7dbc 9fcc 65bd 6be9 0e3e
00000380: 7d04 90bd 4c1a 84bd 0d6b 7a3c eef9 81bc
00000390: 9e01 b43d 62c8 bbbd de29 c7bc cb79 97bc
000003a0: 0105 d1bd 3212 1ebd 370a 303d c037 64bd
000003b0: 8ff7 c33d ec0c aebd e79a 6dbe 6c3e b83d
000003c0: 7b0b 0cbe 987b 91bc 252a c1bd 8513 17bb
000003d0: 2a7d 30bd e4a5 b7bd 9a8e 4cbd 27b2 14bc
000003e0: e193 f6bd c35b b9bd a7ab 14bd 51f5 bbbc
000003f0: 1bf8 89bd b92c 53bd 72b7 963d c9c3 2fbd

onnx::MatMul_189 f4 [120, 40]
0.020697815 0.005824988 0.00047279443 -0.013438351 -0.04344328 -0.03450929 -0.006743491 -0.008841472
-0.019897202 0.007075443 -0.018989524 -0.00093590934 0.012821575 0.0019259587 -0.06301253 -0.074687265
-0.04842878 -0.012031629 -0.0045741326 0.0007915839 -0.015381586 -0.011131976 -0.008316457 0.030760152
0.014834904 0.0020107527 -0.004754249 0.023764577 -0.002188953 0.011792351 -2.714363e-05 -0.018053519
-0.05416731 0.03395748 0.042400926 -0.0120127555 -0.0074061328 0.032688014 -0.012170419 -0.04326292
-0.023533072 -0.0011331608 -0.008465698 0.009893894 -0.030901447 -0.013327721 -0.05431485 0.0015563337
-0.02319072 -0.03644128 -0.06495077 -0.011400972 -0.0076619294 -0.056090727 -0.06721309 -0.034427676
-0.009574758 -0.013125853 -0.023557827 -0.062080786 -0.09727991 -0.115191616 -0.07243659 -0.08600762
-0.06784224 -0.07103327 -0.008191774 -0.050586317 -0.024738893 -0.02723916 -0.055306192 -0.041664634
-0.024157856 0.00478776 0.014648442 -0.013859674 0.03672125 -0.039048232 0.047988545 -0.0116950385
0.018301763 -0.008994443 -0.046202682 -0.049800254 -0.045243073 -0.018904705 0.0011578245 0.008513561
-0.0070761386 -0.034446616 -0.02496654 -0.039066594 -0.030871985 -0.018174307 -0.027871195 -0.036227524
-0.03614316 -0.010578052 -0.013031121 -0.0013872364 -0.026227606 -0.004072532 -0.0069154436 0.02472496
-0.012693212 -0.009250188 -0.00014846664 -0.0062684515 0.0018503115 0.008802268 -0.018214019 -0.00041948687
-0.021841068 -0.0110554015 -0.011079207 -0.006180323 -0.03808093 -0.011610347 -0.019320894 -0.007864961
0.00981872 -0.008858638 0.039994758 -0.0408529 -0.04932316 -0.12937549 -0.046969745 -0.0028337436
-0.03710066 -0.05566288 -0.010948784 0.0060538044 -0.0043596323 0.16232511 0.16928892 0.10053218
0.037798963 -0.036977213 -0.049128167 -0.020081282 0.07923173 0.06658582 -0.025700996 0.003291215
-0.061439145 -0.03209886 -0.021998106 -0.04591225 0.032126945 0.030766342 -0.032219425 0.008296289
0.024262741 -0.015443378 0.031664945 0.021115258 0.025526788 0.01836941 -0.020774554 -0.004658333
-0.07001158 0.09300637 -0.058290068 -0.0043422882 0.027662002 -0.011969844 0.009352057 -0.07369681
-0.025227536 -0.0796516 0.03480903 -0.039252102 -0.021401402 0.0030092397 0.00833671 0.002225419
-8.812957e-05 -0.01932308 -0.010304919 -0.004121643 0.040645797 0.021623133 0.042327162 0.054044805
0.04941122 0.06570717 0.016567947 0.011779913 0.06343262 0.072009414 0.06673512 0.07250777
0.086750135 0.042991556 0.018439151 0.05429963 0.013054628 0.029974759 0.019796645 0.072076686
-0.019391967 -0.03940089 -0.07515336 -0.026499163 -0.039594162 0.016444264 0.024999037 -0.0092034405
-0.008182909 -0.011811766 -0.0144800525 -0.04127158 0.0073307483 -0.0019725256 0.0027302108 -0.040386576
-0.04637114 -0.011421594 -0.024292342 0.0041514346 -0.010593719 0.01607302 -0.008865394 0.0076426486
-0.00073585566 -0.007689161 0.0028438692 -0.017993672 -0.0006863272 0.018191712 -0.0131691545 0.015010774
-0.0074957563 -0.00053796126 -0.0134045975 0.006804917 -0.00691938 0.005056197 -0.009830154 0.0022166492
-0.021332758 -0.107966594 0.013685551 0.03439007 0.08294426 0.03359837 0.013537407 -0.03659471
0.061438072 -0.036135945 -0.02590373 -0.032537036 -0.016002499 -0.042184982 -0.020460738 0.011514195
00000000: 778e a93c 8adf be3b 65e1 f739 882c 5cbc
00000010: 95f1 31bd 9d59 0dbd 81f8 dcbb d2db 10bc
00000020: 75ff a2bc 1ed9 e73b eb8f 9bbc d057 75ba
00000030: 9511 523c 7370 fc3a b70c 81bd a3f5 98bd
00000040: 425d 46bd 4f20 45bc 9be2 95bb 4c82 4f3a
00000050: 0c03 7cbc e462 36bc c041 08bc b7fc fb3c
00000060: 190e 733c d5c6 033b 88c9 9bbb eead c23c
00000070: 8a74 0fbb b434 413c 80b2 e3b7 f9e4 93bc
00000080: 8bde 5dbd 0017 0b3d 98ac 2d3d 26d1 44bc
00000090: 25af f2bb dee3 053d 7066 47bc 7634 31bd
000000a0: 6ec8 c0bc 9186 94ba b6b3 0abc 001a 223c
000000b0: 0825 fdbc 835c 5abc 4079 5ebd e5fd cb3a
000000c0: 77fa bdbc 7443 15bd e904 85bd 24cb 3abc
000000d0: ec10 fbbb 64bf 65bd 04a7 89bd 0904 0dbd
000000e0: 72df 1cbc d10d 57bc 58fc c0bc 6c48 7ebd
000000f0: b13a c7bd 95e9 ebbd a359 94bd c324 b0bd
00000100: dff0 8abd e479 91bd ca36 06bc 9933 4fbd
00000110: 38a9 cabc a924 dfbc bf88 62bd 89a8 2abd
00000120: b2e6 c5bc a4e2 9c3b 0500 703c b013 63bc
00000130: 0569 163d 0af1 1fbd a38f 443d 8c9c 3fbc
00000140: 94ed 953c 6e5d 13bc 063f 3dbd 5afb 4bbd
00000150: cd50 39bd 0ade 9abc 25c2 973a 777c 0b3c
00000160: f4de e7bb e517 0dbd a186 ccbc 4b04 20bd
00000170: 3fe7 fcbc 49e2 94bc 2252 e4bc 5063 14bd
00000180: da0a 14bd 914f 2dbc 7c80 55bc eed3 b5ba
00000190: 47db d6bc e072 85bb f29a e2bb 008c ca3c
000001a0: 31f7 4fbc 1a8e 17bc b6ad 1bb9 9567 cdbb
000001b0: 2786 f23a 6337 103c 9135 95bc 93ee dbb9
000001c0: 0aec b2bc b721 35bc 9085 35bc 4f84 cabb
000001d0: c0fa 1bbd 5339 3ebc da46 9ebc 0adc 00bc
000001e0: b2de 203c d223 11bc 8bd1 233d 5f55 27bd
000001f0: 1507 4abd 027b 04be 5963 40bd 54b6 39bb
00000200: ddf6 17bd c3fe 63bd 8762 33bc fe5e c63b
00000210: 3fdb 8ebb 8e38 263e 135a 2d3e d1e3 cd3d
00000220: 16d3 1a3d 6b75 17bd 9e3a 49bd 8081 a4bc
00000230: 3f44 a23d 255e 883d e58a d2bc 6db1 573b
00000240: 9da7 7bbd 187a 03bd 5f35 b4bc 7c0e 3cbd
00000250: 8b97 033d b209 fc3c 84f8 03bd 28ed 073c
00000260: a8c2 c63c 3906 7dbc 1ab3 013d e8f9 ac3c
00000270: 8e1d d13c 727b 963c 662f aabc eea4 98bb
00000280: 3b62 8fbd 207a be3d 91c1 6ebd c149 8ebb
00000290: 6c9b e23c 2a1d 44bc 5f39 193c 5aee 96bd
000002a0: faa9 cebc 6120 a3bd ea93 0e3d d0c6 20bd
000002b0: fe51 afbc aa36 453b b296 083c 56d8 113b
000002c0: 34d2 b8b8 704b 9ebc f7d5 28bc d90e 87bb
000002d0: 357c 263d ff22 b13c 3f5f 2d3d 165e 5d3d
000002e0: 6b63 4a3d 7b91 863d 81b9 873c 8900 413c
000002f0: f6e8 813d ac79 933d 6cac 883d f47e 943d
00000300: 0eaa b13d ea17 303d b40d 973c 4a69 5e3d
00000310: 14e3 553c a08d f53c 932c a23c f19c 933d
00000320: e7db 9ebc d462 21bd 01ea 99bd c614 d9bc
00000330: 7d2d 22bd 1fb6 863c c8ca cc3c 07ca 16bc
00000340: 9c11 06bc 2386 41bc be3d 6dbc 630c 29bd
00000350: c636 f03b 7d45 01bb 56ed 323b 656c 25bd
00000360: aaef 3dbd a321 3bbc bc00 c7bc c208 883b
00000370: 4791 2dbc 91ab 833c 2840 11bc 2f6f fa3b
00000380: 70e6 40ba 5cf5 fbbb 3560 3a3b 7767 93bc
00000390: a4ea 33ba c906 953c 70c3 57bc c0ef 753c
000003a0: f69e f5bb f805 0dba f59e 5bbc c8fb de3b
000003b0: f7bb e2bb 74ae a53b a70e 21bc 3445 113b
000003c0: 09c2 aebc 971d ddbd 5c39 603c 9adc 0c3d
000003d0: aede a93d 729e 093d 00cc 5d3c 56e4 15bd
000003e0: 7da6 7b3d 4903 14bd 0f34 d4bc 8e45 05bd
000003f0: ac17 83bc 29ca 2cbd 479d a7bc 09a6 3c3c
