Rudi/checkpoints_05/best_tempo_model.pth (torch, 249570 bytes, 5 tensors)

fc1.weight f4 [128, 416]
000000 36 46 13 3d 5c f4 f1 3d 8a b2 a4 bc e1 ce 20 bd
       0.03595563 0.11814186 -0.020104665 -0.039259795
000010 2a de 57 3b a6 62 04 3b 8b f7 c3 bd be da 0f be
       0.0032938817 0.00202004 -0.095686994 -0.14048287
000020 9a 8c 6e be 77 31 a4 be 60 d1 d2 be cf c5 00 bf
       -0.23295823 -0.3206899 -0.41175365 -0.5030183
000030 54 77 e7 be b3 99 c4 be 69 e8 f3 be db 49 a6 be
       -0.45208228 -0.38398513 -0.47638252 -0.32478222
000040 67 f6 34 bd f8 56 89 3d b8 f3 33 3e 85 a3 2f 3e
       -0.0441803 0.06706041 0.1757344 0.17152222
000050 04 01 42 3e 1e fa 3a 3e 55 d3 53 3e e7 56 73 3e
       0.189457 0.18259475 0.20686086 0.2376362
000060 40 82 9c 3e 09 66 b5 3e fb 79 b0 3e 77 ab 39 3e
       0.30568123 0.3542941 0.34468064 0.18131815
000070 0b 81 38 3d b1 85 52 bd 57 d5 23 bc 1a 21 5f bb
       0.04504494 -0.05139703 -0.009999595 -0.003404683
000080 15 0a c9 3d 94 3e 91 3d 40 a3 1c bc 4d 23 b9 3d
       0.09816376 0.07092014 -0.009560406 0.09039936
000090 ad ff 87 3b 94 3d 66 3d e4 f3 99 3d 3c fb 8f 3b
       0.004150352 0.05621107 0.075172216 0.004393963
0000a0 11 aa 84 3d 2d 41 f2 3c b7 88 d2 3c 7a 14 03 3c
       0.0647775 0.029572094 0.025699956 0.008000487
0000b0 6b 30 97 3d 0d ad 99 3d c8 90 bd 3d 13 d7 9e 3c
       0.07382282 0.0750371 0.092561305 0.019389665
0000c0 39 9a 35 bd ac b7 f7 bd 85 26 bc bd 93 39 3c 3c
       -0.04433653 -0.120955795 -0.091870345 0.011488336
0000d0 ba 54 b5 bc ed 2c 7f 3d ee 73 6f bc cb 67 1f bd
       -0.022135127 0.062298704 -0.014615042 -0.038917344
0000e0 62 51 1b bd 5c 38 bc 3b d8 30 4e bd 22 97 c6 3b
       -0.03791941 0.0057440232 -0.05033955 0.006060497
0000f0 42 4a 2b 3e bd 95 70 3d 60 81 61 bc 5b f5 00 3d
       0.16727546 0.05873655 -0.013763756 0.03148399
000100 43 ba 65 3d fc d0 03 3e ae 23 94 3d a9 52 cf bc
       0.056085836 0.1287269 0.07233368 -0.02530797
000110 33 39 70 3c 8e e4 3f 3c 52 f5 17 bd 7b 5d db bb
       0.014662075 0.0117122065 -0.03709919 -0.0066944933
000120 88 15 e2 bb b7 15 05 3c 72 bb d4 bb c6 6d 20 3d
       -0.0068995394 0.008122853 -0.006492072 0.039167188
000130 d0 6d 66 bd 34 12 30 be 32 66 89 bc f1 bf d4 3d
       -0.05625707 -0.17194444 -0.016772363 0.103881724
000140 7b 5a 26 3d 20 3c 0b 3d 65 5f d8 bc ee 48 90 bd
       0.040613633 0.033992887 -0.026412675 -0.0704516
000150 23 e0 08 be e0 4a 15 bd 66 22 71 3c 30 c7 03 bc
       -0.13366751 -0.03644836 0.014717674 -0.0080430955
000160 1a 83 ca bd fc 4d 70 bd 22 99 8e bd a4 2e 9a 3c
       -0.09888287 -0.05866812 -0.069628015 0.018821068
000170 ac bc bb 3c 26 d0 62 bc 32 6b 92 bd db b4 d4 bc
       0.022917114 -0.013843572 -0.07149352 -0.025965145
000180 b8 4c 9f 3c 48 b5 2a bd 08 a1 43 bc 47 31 2b 3c
       0.019445762 -0.04167679 -0.011940248 0.01044876
000190 3d 1f 4a bd 0c 00 0c bc e5 aa d6 3b 72 0c b6 bb
       -0.049346197 -0.008544933 0.006551134 -0.005555683
0001a0 d0 9b 31 bd 2e 39 cc bc 57 b7 2f 3b 8e 48 7b bd
       -0.043361485 -0.02492961 0.002681216 -0.06134849
0001b0 18 b9 05 ba f0 ee 46 bd af f2 2b bd 52 ba df bc
       -0.00051011285 -0.048567712 -0.041979488 -0.027310524
0001c0 2d bb 02 3d ed 5a 22 bd 7a ec 4d bd 0e 22 b8 bb
       0.031916786 -0.039637495 -0.05027435 -0.005619294
0001d0 af 8e 4d bd dd 72 6e bd ea 42 17 bd 8e 42 05 3d
       -0.0501849 -0.05821501 -0.03692905 0.032534175
0001e0 bc c5 3b bd a9 93 cb 3c 61 da c4 bb b4 54 e9 3c
       -0.04584287 0.024850683 -0.006007478 0.028482772
0001f0 fa b4 3b bd e4 98 81 3c 36 8b 08 3d a6 85 a0 3c
       -0.04582689 0.015819974 0.033335887 0.019594979
000200 7b d6 c1 ba f3 45 c1 bc 1f f0 57 bd cb 13 68 ba
       -0.0014788652 -0.023592925 -0.05271923 -0.0008853047
000210 2f 65 f8 bc 85 ee ea bc 57 76 43 3c 06 ff 2f bd
       -0.030321686 -0.028678188 0.01193007 -0.04296782
000220 b5 59 72 3c 58 34 57 bd c2 c3 10 3d 4b 75 00 bc
       0.014791896 -0.052540153 0.03534294 -0.007840465
000230 38 59 19 3d 3b 0b 76 3c 51 75 5d bd 3a 89 b3 3c
       0.0374386 0.015017326 -0.05406696 0.02191602
000240 0c 69 29 bd c7 a2 06 3d 23 4b 40 bd 4b 41 1d bd
       -0.041359946 0.03287008 -0.046946656 -0.038392346
000250 0b a8 86 3c d3 e7 13 3d f7 e8 e2 bb 1f f1 0f bd
       0.016437551 0.036109757 -0.006924744 -0.03514206
000260 23 96 5b 3c 3b b4 93 3c 18 ec ad 3c 29 71 64 3c
       0.013402495 0.018030277 0.021230742 0.013942995
000270 34 99 d2 3c 42 3f 30 3c 55 f8 3c 3d 17 9c fd bb
       0.025707819 0.010757269 0.046135265 -0.0077395546
000280 a3 a4 c5 3b 2b 41 2a 3c 40 01 33 3d 82 32 22 bd
       0.006031589 0.010391514 0.043702364 -0.03959895
000290 9d d8 ca bc 0a ba 05 bc 37 aa 85 bb 87 fc ad 3c
       -0.024761492 -0.008162031 -0.004079129 0.021238578
0002a0 b1 dc ad 3a e2 bc 48 3d 57 42 38 3d 20 0a 57 3c
       0.0013264624 0.049008258 0.04498514 0.013124973
0002b0 28 3c 34 bd e8 cb 2a bc 2a 99 2d 3d 82 9f f1 bb
       -0.044002682 -0.010424592 0.042382397 -0.007373751
0002c0 a8 0d b7 3c 85 9a 37 3d 24 25 13 bd 8c 56 38 3d
       0.022345379 0.044825096 -0.035924092 0.045004413
0002d0 7c 7f e6 3c 5e da 60 3c 66 b9 80 bc ee 21 23 3b
       0.028136961 0.013723938 -0.015713405 0.002489205
0002e0 32 6b 46 3d 41 a8 27 3c 6d 6d fc 3c e8 6a 00 3c
       0.048442073 0.010232986 0.030813897 0.007837988
0002f0 b9 69 b0 3a 96 38 07 3d ea 28 18 3d 3b 7d 27 3d
       0.0013459242 0.03301295 0.037148394 0.040890913
000300 47 ff da 3c d4 f1 e1 3a c7 f7 97 3c 3a b3 61 bc
       0.026733054 0.0017238208 0.018550767 -0.013775641
000310 ff 28 d7 3c c0 b5 bd 3c bb ad 95 3c 4e a8 97 3b
       0.026264666 0.023157954 0.018271318 0.004628218
000320 d8 59 8a 3c 13 50 20 ba 40 18 13 bb 62 3b 22 3d
       0.016888544 -0.00061154476 -0.0022444874 0.039607413
000330 87 1d 09 3d d6 d8 5f 3d e0 75 b0 38 ed 0d 47 3c
       0.033475425 0.05465015 8.41429e-05 0.012149316
000340 9b 36 08 3d 68 21 c3 3b de e0 6a 3d 69 55 4a 3d
       0.0332552 0.00595491 0.057343356 0.04939786
000350 91 b6 00 3d 89 3d 0b bd 5b 68 3d 3d 8d df 70 3c
       0.03142411 -0.03399423 0.0462421 0.014701736
000360 03 86 2f 3d 00 ef 6f 3d 6f c7 75 3d e6 e3 b9 3c
       0.042852413 0.058577538 0.060004648 0.022691678
000370 c2 26 88 bc a1 1a d9 bc 34 39 73 bc 5d 62 cb 3b
       -0.016620044 -0.026501955 -0.014845181 0.006206794
000380 32 60 00 3c 17 92 c1 3c 57 f9 cd 3c aa 86 22 bc
       0.007835435 0.023629231 0.025143309 -0.009919802
000390 d7 8e ee 3c 08 e3 17 bc cf 95 de 3c 68 35 11 bd
       0.029120846 -0.009270437 0.027171044 -0.035451323
0003a0 37 e1 2f 3d 5c 96 22 3d 91 e3 06 3d 9a 95 23 bc
       0.04293939 0.039694175 0.032931868 -0.009984398
0003b0 70 f0 3f bd 09 6e 28 bd d6 1c 17 bd ef b2 30 3b
       -0.04686016 -0.041120563 -0.036892734 0.0026962121
0003c0 56 46 7b ba 19 74 1a 3c 4a 60 b1 3b bc da ee bb
       -0.0009585371 0.009427094 0.00541309 -0.0072892588
0003d0 72 b9 f7 bc 26 76 68 bc fe 8f 3e 3c 45 ff 67 bd
       -0.030239794 -0.014188325 0.01163101 -0.05663993
0003e0 df e0 56 bc 68 19 96 bd 4c 77 5d bd fa e8 8b bc
       -0.013115137 -0.073290646 -0.05406885 -0.017078865
0003f0 a9 29 b1 bd f1 9c a4 bd 5e 55 0a 3c 1f 5a c5 bb
       -0.08650524 -0.08037747 0.008443205 -0.006022706

fc1.bias f4 [128]
000000 28 7c d3 bd 59 37 24 bf da 23 05 bf e6 e5 2a bf
       -0.10326415 -0.64146954 -0.5200783 -0.6675705
000010 11 61 ef bc 0f be ca be 0f 46 b2 be 2e b9 2a bf
       -0.02922109 -0.39598128 -0.34819075 -0.6668881
000020 eb 25 9d be c7 4b cc be 0b 38 a3 be b8 d4 1d bf
       -0.30692992 -0.39901564 -0.31878695 -0.6165271
000030 11 43 b3 be b2 90 84 be bc 8a 0e bf 51 73 12 bf
       -0.35012105 -0.25891644 -0.5568044 -0.5720721
000040 49 f6 3d be 8b 0e f2 be 62 00 26 bf 8b db af be
       -0.18550982 -0.4727672 -0.64844334 -0.34347185
000050 d4 e7 c8 be 16 c5 bb be fe 99 08 be 6a 3d 3d be
       -0.3923937 -0.36673802 -0.13339993 -0.18480459
000060 cf c1 cc be 87 d4 7d bc e9 88 2b bf 5e da d1 be
       -0.39991614 -0.015492565 -0.67005783 -0.40986913
000070 8e 5a 48 be 9f b0 a5 be e6 d8 23 bf 78 5c e9 be
       -0.19565794 -0.32361314 -0.64002836 -0.4557836
000080 8b a5 11 bf c3 65 8c be a2 f6 ab be d7 c6 0f bf
       -0.56893224 -0.27421388 -0.33586603 -0.5616278
000090 3f 49 13 bf 7a 3f 81 be 3a c4 2a bf e1 90 99 be
       -0.5753364 -0.2524374 -0.6670567 -0.29993346
0000a0 31 13 00 bf 54 ec 1e be 75 b1 db be bd 4a bd be
       -0.50029284 -0.1551984 -0.42908826 -0.36971083
0000b0 25 cb be be 97 ee 9c be 47 5b d1 be ac a2 f8 be
       -0.37264362 -0.3065078 -0.40889952 -0.4856161
0000c0 fd 28 37 be 79 f2 2f bf b5 a3 e9 be 39 9a 97 bd
       -0.1788673 -0.6872936 -0.4563271 -0.074024625
0000d0 4a 2b 68 be cd 48 0a bf 80 98 c6 be c6 4a dd be
       -0.22672763 -0.54017335 -0.38788223 -0.4322111
0000e0 e0 4a d2 be 19 3a f8 be 96 8a a0 be 9a dc b9 be
       -0.4107275 -0.48481825 -0.31355733 -0.36301118
0000f0 b8 88 63 bd 06 11 eb be 6c a0 16 bf 20 b3 ca be
       -0.055550307 -0.45911425 -0.58838534 -0.39589787
000100 2a 12 0c bf 59 52 14 bf c1 f5 ab be 0a cc 2f be
       -0.54715216 -0.5793815 -0.33585933 -0.17167678
000110 8d 72 9a bc f1 37 18 bf 66 9e 97 be a3 9a 12 bf
       -0.01885345 -0.5946036 -0.29613036 -0.57267207
000120 73 da 19 bf a8 77 03 bf ac 3b 84 be 59 b9 66 be
       -0.6009895 -0.51354456 -0.25826776 -0.22531642
000130 56 ce a6 be 4f 87 08 bf 65 54 d6 be b2 b8 03 bf
       -0.32579297 -0.53331465 -0.41861263 -0.514537
000140 ea 79 05 bf b6 40 b0 be 57 db c5 be e8 45 0b bf
       -0.5213915 -0.3442437 -0.38643906 -0.54403543
000150 b3 45 9e be cc 61 00 bf e7 ce ad be e1 06 ec be
       -0.3091255 -0.50149226 -0.33946916 -0.46098998
000160 8f 91 1b be 22 89 77 be 4e 81 58 be a8 8f cf be
       -0.15192245 -0.24173406 -0.21143076 -0.4053929
000170 7f db a1 be 4d 2d 92 be 47 78 bc be 87 d6 63 be
       -0.31612775 -0.28550187 -0.36810514 -0.22249804
000180 29 44 d0 be 5d 4e 2a bf b8 c4 b7 be 7b 32 29 bf
       -0.40677002 -0.6652582 -0.35892272 -0.6609265
000190 57 df f8 be e6 d2 b2 be c6 2a 03 bf 1c ab 8b be
       -0.48607895 -0.34926528 -0.5123714 -0.27278984
0001a0 af d9 bc bd 80 6e 01 bf 98 06 a3 be 07 34 1c bf
       -0.09221207 -0.50559235 -0.31840968 -0.6101689
0001b0 d5 44 a0 be 86 b2 e3 be e0 32 4f be b4 3e 2f bf
       -0.31302515 -0.4447214 -0.20234251 -0.6845505
0001c0 1d 24 23 bf 3f b9 03 bf 24 ef ff be 9c 4a fd be
       -0.6372698 -0.5145454 -0.49987137 -0.49470985
0001d0 d3 83 8e be 1f 81 11 bf 70 1f 37 bf b1 bf 3d be
       -0.2783495 -0.5683765 -0.71532345 -0.18530156
0001e0 34 ba 83 bd fc be 66 be e0 d0 a2 be 76 b7 4e bd
       -0.06432 -0.22533792 -0.31799984 -0.05046793
0001f0 89 64 ef be c9 da c4 be 90 9c 13 bf 1d 0f ae be
       -0.4675639 -0.3844817 -0.5766077 -0.33995906

fc2.weight f4 [64, 128]
000000 7b 9d b9 3c 8b 8e 9c 3b d1 d9 ed bc c5 9c 9f bd
       0.0226581 0.0047777346 -0.029034527 -0.07793573
000010 9c d2 48 3b cc 1b 4e 3e 3a 9d 17 be f9 ba b8 bd
       0.003064311 0.20127791 -0.14806071 -0.09020037
000020 96 a0 e2 bd e2 e5 9c bc f3 a0 46 be 36 b0 ae bb
       -0.110657856 -0.019152585 -0.19397335 -0.0053310646
000030 04 59 62 3c ad 65 c3 3c f2 ed 30 bd 12 c9 cc ba
       0.013815168 0.023852194 -0.043195672 -0.0015623888
000040 1e 0e 3b 3d 15 ec f6 3c d5 ef 27 3d 31 ec 58 3d
       0.04566776 0.03014187 0.041000206 0.052959625
000050 2a 78 0d bb 03 d1 dd bd c9 96 80 b8 58 f8 b9 bb
       -0.0021586516 -0.108308814 -6.1316015e-05 -0.005675357
000060 20 53 76 bd dd 12 27 3d 56 7c e2 3c b1 4a 3c bb
       -0.060137868 0.040789474 0.027647179 -0.0028731043
000070 e3 2e a3 3d 01 c6 ba bd a1 5e 39 bc f8 9a c7 bc
       0.07967927 -0.091197975 -0.011314065 -0.024365887
000080 f2 4a 13 bd 89 7a 9d bd e4 22 4b bc 05 91 03 bc
       -0.035960145 -0.07689387 -0.012398455 -0.008030181
000090 1c 18 16 be 1e 96 58 bc ab 3f e1 bc 8d de ae 3d
       -0.14657634 -0.0132193845 -0.02749618 0.08538542
0000a0 72 e5 35 be 89 6e f0 3d 5a 9c 0c be e2 32 24 3c
       -0.17763308 0.11739833 -0.13731518 0.010021897
0000b0 83 8a bd bc 8e 52 89 3d 46 78 ee 3c a8 0d e6 bc
       -0.023137337 0.06705199 0.029110085 -0.028082684
0000c0 e4 84 d8 3d 4d 7b c6 bd 02 c2 0a be 55 3c 6b 3d
       0.10572222 -0.096914865 -0.1355057 0.057430584
0000d0 bf ad 1b 3d 3c ad 10 bd 96 43 3e 3d 50 d3 ac bd
       0.038007494 -0.03532146 0.046451174 -0.08438742
0000e0 2e 84 2f be 51 19 02 bd 25 85 df 3d 9d 38 84 bc
       -0.17140266 -0.031762425 0.10914067 -0.016140277
0000f0 27 de 29 3d ed 56 56 bd 47 3b 8a bc aa 39 d4 bc
       0.041471627 -0.052328993 -0.016873969 -0.025906403
000100 2a 98 28 3d 56 77 d1 bd bb f3 bf 3d ea 0b b3 bc
       0.04116074 -0.1022784 0.0937266 -0.021856267
000110 5b e5 d9 3d a8 15 00 be 7a e2 13 be 9a fa f7 3b
       0.10639449 -0.12508261 -0.14441863 0.007567716
000120 62 9c 94 bd 0a df 8a bd 07 eb 99 3d 75 68 d1 3b
       -0.0725639 -0.067808226 0.07515531 0.006390626
000130 e6 3d 1d bd ca 44 e4 3b 11 e7 de bc be 3e 8b bc
       -0.03838911 0.006966208 -0.02720979 -0.016997691
000140 8b c9 0c 3e 1e 86 ad 3d 58 f8 dc 3d 02 f3 69 bd
       0.13748758 0.084728464 0.10789555 -0.057116516
000150 44 f0 72 bd 43 7b ea bd 12 1a 1a 3d 40 cf 6f 3c
       -0.059311166 -0.114492916 0.03762252 0.014636815
000160 66 9f b5 bb 4c 3f 32 bd 86 ce 38 bd c6 9b db bb
       -0.0055426834 -0.043517396 -0.04511883 -0.0067019193
000170 22 5d f6 3d 30 95 a1 3d 1f 5c a5 3c c5 74 a8 bd
       0.120294824 0.078897834 0.020185528 -0.08225397
000180 d2 c8 f6 bd 7e 0f 91 3c 26 31 be 3d 9d 16 67 be
       -0.12050022 0.017707583 0.09286718 -0.2256722
000190 0b 72 ed bd 30 dc 1b bd 18 00 a3 bd f3 eb 4b bb
       -0.115940176 -0.038051784 -0.07959002 -0.0031115978
0001a0 ab f2 be 3d 3b 1b 55 3b 44 0c b2 bd 4a ab 16 be
       0.09323629 0.0032517451 -0.08693746 -0.14713779
0001b0 6c ba 05 bd 09 37 8b 3d b3 69 1a 3e 5b 4a 48 bc
       -0.03264849 0.067976065 0.15079384 -0.012224759
0001c0 f4 0c 88 bd 1c 07 2a bd 9b db 34 bd 38 6b 4a be
       -0.066430956 -0.041510686 -0.044154745 -0.19767463
0001d0 72 ff 61 bd 0d e5 9a bd 9c 34 03 3d df 67 22 3e
       -0.055175252 -0.07563219 0.032032594 0.15859936
0001e0 26 81 d3 3d 30 b2 69 bb c2 91 ff bd 83 1f 21 bd
       0.103273675 -0.0035659187 -0.12478973 -0.039336693
0001f0 e0 31 03 3c 6b db 58 bc 98 b5 17 bd 96 c1 ba bb
       0.008007497 -0.013235907 -0.037038416 -0.005699347
000200 23 b8 07 3d 9c a1 21 bd 07 fa 23 3d 22 cd 2e 3c
       0.03313459 -0.039460763 0.040033367 0.010669025
000210 37 f1 a8 3c 15 80 1f bd bf e1 cc bd dc a7 7e 3d
       0.020622833 -0.038940508 -0.10003995 0.062171802
000220 c8 d7 2c be 2b fa fd 3d f8 66 75 be 59 c8 7b bd
       -0.16879189 0.124012314 -0.2396506 -0.061470363
000230 5c 79 70 3d 60 70 64 3d 84 c1 b1 bd e2 b5 ce bc
       0.058709487 0.05577123 -0.08679488 -0.025233213
000240 9c 34 08 bd 06 06 e8 bc b6 a4 fe 3c 95 bf 22 3e
       -0.033253297 -0.028323185 0.0310844 0.15893395
000250 30 5e 3b 3d a2 80 b7 3d 81 2d a9 bc ff b8 c8 3d
       0.04574412 0.08960082 -0.02065158 0.0980091
000260 21 15 45 3d a8 57 89 bc 84 e5 86 3b a2 9a 9c 3c
       0.048115853 -0.01676543 0.004116716 0.019116703
000270 d6 4d 70 3d ba 37 19 be 30 ab 49 bd e9 13 05 3c
       0.05866798 -0.14962664 -0.049235523 0.008122423
000280 5b a2 27 bd a3 1f a4 bd 54 d1 8e bc 2b 4e 7e bc
       -0.04092632 -0.08013847 -0.0174338 -0.015521566
000290 3a a5 1e be 8a 5d ae 3d 90 2a 5e bd 0d b2 90 3d
       -0.15492716 0.08513935 -0.05423981 0.070652105
0002a0 0e 6f e2 bd 1d d3 21 3d cc 60 75 bd d8 ad 1f 3e
       -0.11056338 0.039507974 -0.059906766 0.1559366
0002b0 f6 01 03 bd 30 6c 12 ba 8d ec 88 3d 23 18 f7 bc
       -0.031984292 -0.0005585579 0.066857435 -0.030162876
0002c0 e1 45 75 3c 43 fc de bc d6 ca d6 bb 78 cd 49 3d
       0.014970274 -0.027219897 -0.0065549416 0.049268216
0002d0 67 ba ff 3d 36 97 8a bb 67 94 a4 3c d3 f4 4f bd
       0.12486725 -0.0042294515 0.020090295 -0.050770592
0002e0 28 d2 04 be 67 93 08 3d cc c5 21 3d b0 0c bf bd
       -0.12970793 0.0333437 0.039495274 -0.09328592
0002f0 97 03 e6 3c 38 6d 67 3d 38 4f 90 3d 4a ef 25 bd
       0.028077884 0.056500643 0.0704636 -0.040511407
000300 fc a4 f7 3c 90 e1 9e 3d 7e 5a d3 3d ac 2b d4 bc
       0.030230038 0.077578664 0.103199944 -0.02589973
000310 69 4c 15 3c 78 d4 19 be a1 c0 c5 bd 8d 46 91 bd
       0.009112456 -0.15022457 -0.09655882 -0.070935346
000320 5b d8 ae bc 96 f0 e5 bd 8e 74 67 3d 06 2b 05 be
       -0.0213434 -0.11227529 0.05650764 -0.13004693
000330 58 ca 81 3c fa 3f bf bd 74 0f 28 bc 5d e9 0c bd
       0.015843555 -0.093383744 -0.010257591 -0.03440224
000340 77 c3 e7 3c 44 2d 05 bc fd 1a fa 3c 7f 7a 84 bd
       0.028291447 -0.008128468 0.030530447 -0.06468677
000350 8f a0 41 bd 91 ef c8 3b e6 31 fd bd 7b 60 5c bc
       -0.04727226 0.006132074 -0.12363033 -0.013450737
000360 d0 ad e9 bd bc fc b1 3b 85 2d db bd d1 cc 25 bd
       -0.11410105 0.0054317396 -0.107020415 -0.04047853
000370 a7 e0 91 3d 27 67 ad 3d c7 d4 af 3d 77 19 4e bb
       0.07122927 0.084669404 0.08585506 -0.0031448284
000380 0a 9c 52 be 9a b3 5e bd b7 49 65 3c 3b 83 05 be
       -0.20567337 -0.0543705 0.013994626 -0.13038342
000390 0f e5 28 3b 12 d7 22 3d 07 e3 ef bc da a9 91 3d
       0.0025771295 0.03975589 -0.02928306 0.07112475
0003a0 9e f1 aa 3d 8a 02 b4 3d c1 e7 ec bd 66 b0 39 3d
       0.08346866 0.08789547 -0.11567641 0.045334242
0003b0 95 db 8a 3b 4f 62 b3 bb 22 38 cc 3c cb f6 d1 bd
       0.004237602 -0.005474366 0.02492911 -0.1025215
0003c0 2e ed dc 3c 3d 6f e3 bd a3 3f 5f bd 69 78 0a be
       0.026968565 -0.111052014 -0.054504048 -0.13522495
0003d0 35 24 b9 3d ec c2 00 3d 24 89 a3 bd b8 bb 42 3d
       0.09040109 0.031435892 -0.07985142 0.047542304
0003e0 b2 0d 8a bd 9c 7c 5a 3d 8a 09 1d 3e 77 ee df 3d
       -0.067408934 0.053341493 0.1533567 0.109341554
0003f0 35 37 d0 3d 5d 6a 8c bd d0 e1 99 bd f3 e3 a5 3d
       0.1016678 -0.06856225 -0.075137734 0.081001185

fc2.bias f4 [64]
000000 0e 7e e1 3e 02 17 d0 3e 1c 59 ca 3e 4f e7 e7 3e
       0.44041485 0.40642554 0.3952111 0.45293662
000010 d8 c0 e0 3e 6e 95 82 3e 35 69 ef 3e 41 1b e0 3e
       0.43897128 0.2550463 0.46759954 0.43770793
000020 00 34 e3 3e 45 35 ff 3e f7 87 89 bd a9 f8 05 be
       0.4437561 0.4984533 -0.06715386 -0.13083138
000030 19 b7 02 3f 8c 79 80 3e 0d cd a9 3e 40 4e 04 3f
       0.51060635 0.25092733 0.33164254 0.516819
000040 12 92 8c 3d 5c d9 eb 3e 92 c1 c0 3e 92 ee 62 3e
       0.06863798 0.4606427 0.37647682 0.2216132
000050 87 e8 cf 3e 6e 3f 1e be 38 a3 dd 3e 5a 19 e7 3e
       0.40607092 -0.15453884 0.4328859 0.4513653
000060 9b 31 52 3e 7d 0a 69 be ea da a0 3e d9 15 66 bd
       0.20526735 -0.22757907 0.31417018 -0.05617318
000070 a1 67 b9 3d a4 06 8f 3d 29 5f aa 3e 55 90 c8 3e
       0.09052969 0.069836885 0.33275726 0.39172617
000080 d0 1e 04 3e 7a 77 bb 3e 62 f5 d1 3e ca a8 de 3e
       0.12902379 0.3661459 0.41007525 0.4348815
000090 f2 f9 a6 3e 4c a8 f1 bd 6f 22 bc 3e c5 f0 60 3e
       0.32612568 -0.11799678 0.3674502 0.21966846
0000a0 0a 07 c3 3d 9f a7 d1 3e f5 bc ba 3e 88 a7 46 be
       0.09522827 0.40948197 0.36472288 -0.19399846
0000b0 ba 51 b3 bd c0 d4 ce 3c 20 6e 99 bd 8e f3 d1 3e
       -0.087558225 0.025247931 -0.07491708 0.4100613
0000c0 3e c5 f9 3e 08 42 d6 3d 83 8e f1 3e 05 00 2b be
       0.48783296 0.10461813 0.4717904 -0.16699226
0000d0 b7 ba 3d 3e 45 bc ba 3e 9b dd ea 3e fa 17 31 be
       0.18528257 0.36471763 0.45872197 -0.17294303
0000e0 93 5d 69 3e e9 d5 01 be 4e a4 b1 3e fa 0a ff 3e
       0.22789602 -0.12679256 0.34695667 0.49813062
0000f0 04 68 33 3e d8 b2 b5 3e 26 8f d5 3e 17 28 e8 3e
       0.17520148 0.3548801 0.41710776 0.45343086

fc3.weight f4 [1, 64]
000000 99 ef 31 bc 24 95 37 bc 89 c5 4a 3c 8f e1 8a bc
       -0.010860347 -0.0112049915 0.012376198 -0.016953258
000010 11 25 61 3c 22 51 1f 3d 67 48 52 3c bd e9 3d bc
       0.0137417475 0.038895734 0.012834645 -0.011591372
000020 cb 79 91 bc fe 07 92 bc 37 a5 5f 3a b7 e5 3c 3b
       -0.01775827 -0.017826077 0.0008531394 0.0028823444
000030 6e 47 19 3c 18 38 b7 b9 73 cb 10 bc fa e4 89 bc
       0.009355409 -0.00034946273 -0.008837569 -0.016832817
000040 55 c3 a4 bc 29 5b e9 bb 07 57 34 3c ac 27 18 3d
       -0.020112673 -0.007121463 0.011007077 0.03714721
000050 bb 3e 82 bc ed 68 e4 3c 25 fa 26 bc d1 20 90 bc
       -0.015899053 0.027882064 -0.010191475 -0.017593773
000060 73 66 b5 bc 52 a5 80 3c 52 3a 12 bc 6a 5d 72 bc
       -0.022143578 0.01570383 -0.008925037 -0.014792779
000070 02 48 f5 bb 17 e1 44 bc fe 80 a6 bb 9b d2 bf bb
       -0.0074853906 -0.012016556 -0.005081295 -0.0058539636
000080 a3 72 1e 3d 3a fc 18 bc aa 71 d2 bb 04 1f fa 3c
       0.038683545 -0.009337479 -0.006422241 0.030532368
000090 ae bf 3d bb 1f 47 56 bb 7b 96 41 bc c5 da cf bc
       -0.0028953361 -0.00326962 -0.0118156625 -0.025372872
0000a0 66 8e cc 3c 7d f4 38 bc d1 03 bb bb 37 a3 29 bc
       0.024970245 -0.011288759 -0.005707242 -0.010353855
0000b0 5f 1d 2f 3d 36 b2 2a 3b 4b 15 bb bc 74 44 2d bc
       0.04275262 0.0026046163 -0.022837302 -0.0105754025
0000c0 d1 3b 5d 3c d8 8f 8f bc ef c5 97 3c 2b 0d 35 3d
       0.013503031 -0.017524645 0.018527 0.04420201
0000d0 97 cb cc bc e3 84 59 3c a3 68 a7 bc 9d d0 2d bd
       -0.024999423 0.013276312 -0.020435637 -0.042435277
0000e0 8f 45 31 bc b7 da 75 bb cf 14 7a bc 30 8d 36 3c
       -0.010819807 -0.0037514397 -0.01526375 0.01114206
0000f0 18 af 29 bb ca ce 8d bb 78 84 1a bc 98 82 36 bd
       -0.0025891718 -0.0043276297 -0.009430997 -0.044558138
