Rudi/best_tempo_model.pth (torch, 101016 bytes, 3 tensors)

fc1.weight f4 [64, 384]
0	0xbd560809	-0.052253757
1	0xbbc68449	-0.00605825
2	0x3b1bcb0c	0.0023772148
3	0x3d11c309	0.03558639
4	0xbb2d2b9f	-0.0026423705
5	0x3c666ab6	0.014063528
6	0x3c26c249	0.010178157
7	0x3c9ea1ec	0.01936432
8	0xbcf6bf01	-0.030120375
9	0xba88cc02	-0.0010436776
10	0x3cdfe41d	0.027330453
11	0xbb829446	-0.0039849607
12	0x3c8e142a	0.0173436
13	0xbc1a2a9d	-0.009409574
14	0xbd1abd38	-0.03777811
15	0xbd589758	-0.052878708
16	0x3956a7fb	0.00020471208
17	0xbd51881a	-0.051155187
18	0xbcdc4fed	-0.02689358
19	0xbb49ed47	-0.0030811594
20	0xbd2a6c85	-0.0416074
21	0xb7fbf2b4	-3.003455e-05
22	0x3c84a883	0.016193634
23	0xbd31fbd4	-0.043453053
24	0x3ca34798	0.0199316
25	0xbcb10c1b	-0.021612218
26	0xbcb3c44d	-0.02194419
27	0x3c80eadd	0.015736992
28	0xbc9613e3	-0.01832003
29	0xbccf5ced	-0.025312865
30	0xbc792860	-0.01520738
31	0xbd83c963	-0.06434896
32	0xbccbaaa4	-0.024861641
33	0xba0d02d8	-0.0005379147
34	0xbca06695	-0.019580165
35	0x3c803ed4	0.015654959
36	0xbd823137	-0.06357043
37	0x3c316124	0.010826383
38	0xbd1467bd	-0.036231745
39	0xbc2ef888	-0.010679372
40	0xbbdecfa0	-0.006799653
41	0xbd080621	-0.03320897
42	0xbd1e6f2f	-0.03868025
43	0xbc805f50	-0.015670449
44	0xbd05345c	-0.032520637
45	0x3c9a9cf7	0.018873675
46	0x3cf92642	0.03041375
47	0x3ba16ae5	0.004926073
48	0x3d15e93a	0.036599375
49	0xbd58a6c8	-0.05289343
50	0xbd07180e	-0.032981925
51	0xbcb3f6a5	-0.021968195
52	0xbbbba9c0	-0.005727023
53	0x3c758923	0.014986309
54	0xbd175694	-0.0369478
55	0xbc9cb1e7	-0.0191278
56	0x3cb8635f	0.022508321
57	0xbcd5e8aa	-0.02611192
58	0xbcc19feb	-0.023635825
59	0xbd811ece	-0.06304704
60	0xbc8c1625	-0.017100403
61	0x3d003cbb	0.031307917
62	0x3cfd2278	0.030900225
63	0x3ceb59f5	0.028729418
64	0xbc4793e2	-0.012181254
65	0xbd6b2a91	-0.05741364
66	0x3cef99f9	0.029248225
67	0x3d0ff62d	0.03514688
68	0x3ca76f2d	0.020438755
69	0xbd5bd3cd	-0.053668786
70	0xbd64f272	-0.055895276
71	0xbc8f537f	-0.017495869
72	0x3cc94288	0.024567857
73	0x3ca02dbb	0.019553056
74	0x3c83f2f2	0.016107056
75	0xba8652b8	-0.0010248041
76	0x3cb33e6c	0.021880351
77	0xbbac3456	-0.0052552624
78	0xbd1a59db	-0.03768335
79	0x3cd8d878	0.026470408
80	0x3c98d2a2	0.018655125
81	0x3c34796e	0.011015279
82	0x3ca275ff	0.019831656
83	0x3bee56dc	0.007273538
84	0x3cc628be	0.02418935
85	0xbcc0491a	-0.023472358
86	0xbd3cc58b	-0.04608683
87	0xbc11289b	-0.008859779
88	0x3ccc47af	0.024936525
89	0x3c87bc08	0.016569152
90	0xbd066477	-0.032810654
91	0xbcaadc46	-0.020856988
92	0xbd0bd269	-0.03413621
93	0xbc46f746	-0.0121439155
94	0x3cfc0412	0.03076366
95	0xbd2344ee	-0.03986066
96	0x3ca3c335	0.019990543
97	0x3cbd9225	0.023140976
98	0xbcc69aab	-0.024243673
99	0xbcd6ee92	-0.026236806
100	0xbd507913	-0.050896715
101	0x3c922a4a	0.01784243
102	0x3c87f484	0.016596086
103	0x3bb90670	0.0056465194
104	0xbd529fa7	-0.051421788
105	0x39ab585b	0.00032681492
106	0xbd7726e6	-0.06033983
107	0x3d0cdb77	0.034388985
108	0xbd8160cb	-0.0631729
109	0xbd15aca4	-0.036541596
110	0x3c37eae7	0.011225439
111	0x3d10e5c4	0.03537537
112	0x3c300a53	0.010744649
113	0xbd31837b	-0.04333828
114	0xbd8154c6	-0.063149974
115	0xbd4ce904	-0.05002691
116	0xbd102066	-0.035187148
117	0x3cdf3a06	0.027249347
118	0xbd8052ad	-0.06265769
119	0x3cfca48d	0.030840183
120	0x3bbc6b8e	0.005750126
121	0xbd3efb98	-0.046626657
122	0x3cec6fd0	0.02886191
123	0xbcfeac20	-0.031087935
124	0x3c3caab9	0.011515313
125	0x3cf6a017	0.030105634
126	0x3c932324	0.017961092
127	0xbcbd0d13	-0.023077523
128	0xbd768f95	-0.060195524
129	0x3ce39382	0.027780298
130	0x3c10159d	0.0087942155
131	0xbd74d779	-0.059775803
132	0xbd3a776f	-0.045524057
133	0x3d0ce747	0.03440025
134	0x3c4735ec	0.012158852
135	0xbcb9c9d5	-0.022679249
136	0xbd61a948	-0.05509308
137	0xbd001408	-0.031269103
138	0xbd2c9edb	-0.042143684
139	0xbd5f0d5f	-0.05445611
140	0xbd720dc6	-0.059095167
141	0xbcc50eda	-0.024054933
142	0xbcb82855	-0.02248017
143	0xbc80aecf	-0.015708355
144	0x3c6ccd9c	0.014453318
145	0xbd7889ee	-0.060678415
146	0xbced1ca1	-0.028944315
147	0x3ba88085	0.005142274
148	0xbd3e82d9	-0.046511505
149	0xbd04561a	-0.032308675
150	0xbd3b94cf	-0.04579621
151	0xbbbf3f7e	-0.0058364263
152	0xbd3d294d	-0.046181966
153	0x3caa87c5	0.020816693
154	0x3d06aa5e	0.03287732
155	0xbc67b978	-0.01414334
156	0xbd3156a8	-0.043295532
157	0x3cce3b47	0.02517475
158	0xbc9af1f6	-0.018914204
159	0x3b5544f3	0.0032542318
160	0x3d085e47	0.033293035
161	0xbd2e9161	-0.042619113
162	0xbcb90bdc	-0.022588663
163	0xbc93a7b6	-0.018024307
164	0x3cc8b60d	0.024500871
165	0x3c7cad9e	0.015422253
166	0xbd7314ab	-0.059345882
167	0xbd724502	-0.059147842
168	0x3c6a7245	0.014309471
169	0x3d0687b7	0.03284427
170	0x3c49dd3a	0.012320811
171	0x3d1649e4	0.03669156
172	0x3ceef52b	0.02916964
173	0xbd52761c	-0.05138217
174	0x3cdbe5b6	0.026842933
175	0xbcff0d28	-0.031134203
176	0xbd68c7a7	-0.05683103
177	0xbcacfd22	-0.021116797
178	0xba2b9608	-0.0006545489
179	0xbbbc6040	-0.0057487786
180	0xbd818ecd	-0.06326065
181	0xbc425e9b	-0.011863376
182	0xbc760d82	-0.015017869
183	0x3cbd8faf	0.023139803
184	0xbd07e166	-0.03317394
185	0x3d1233b8	0.035693854
186	0xbd49c6b3	-0.04926176
187	0x3cab4fb9	0.020912038
188	0xbd418811	-0.047248904
189	0xbd6a67aa	-0.057227768
190	0xbcb8e793	-0.02257136
191	0x3c938bf4	0.01801107
192	0x3cadb30d	0.021203542
193	0x3c92d3b5	0.017923215
194	0xbd4d7d25	-0.050168175
195	0x3c4179ad	0.011808795
196	0xbd713500	-0.058888435
197	0x3cb23a13	0.021756208
198	0xb93f0d96	-0.0001822024
199	0xbd501b5c	-0.050807342
200	0xbd80bb9a	-0.06285782
201	0xbd4a8ab6	-0.04944869
202	0x3d0bf28a	0.03416685
203	0x3cb4c66a	0.022067267
204	0xbc8eb440	-0.017419934
205	0x3cf1bb6a	0.029508311
206	0x3b7ad049	0.003827112
207	0xbd7b2d8b	-0.06132273
208	0x3a71d783	0.0009225534
209	0xbd2534e4	-0.040333644
210	0x3c9bd141	0.019020678
211	0xbc0d9faa	-0.008644024
212	0xbce2dfab	-0.027694544
213	0x3d034db0	0.03205651
214	0xbc7266db	-0.0147950305
215	0x3c0ff33c	0.008786019
216	0xbc7a5475	-0.015278925
217	0x3c957f8d	0.018249298
218	0xbcd51440	-0.026010633
219	0xbb19c7bd	-0.0023465
220	0x3c212c89	0.009837278
221	0xbd76a6d3	-0.06021769
222	0xbd7bd852	-0.061485596
223	0xbc9c7751	-0.019099863
224	0xbd412b39	-0.04716036
225	0xbd36cc2e	-0.044628315
226	0xbd3905f6	-0.0451717
227	0x3bff0935	0.00778308
228	0xbd335afe	-0.04378795
229	0xbd056511	-0.032567088
230	0x3c8e4ec2	0.017371539
231	0x3c4a863e	0.012361107
232	0x3cf55f85	0.029952774
233	0xbc9ede79	-0.019393193
234	0x3c978dbe	0.018500205
235	0x3bb60f86	0.0055560498
236	0xbb2c6583	-0.0026305623
237	0x3d0a8804	0.03382112
238	0x3d01bb50	0.031672776
239	0x3a90e555	0.0011054674
240	0xbb8c2aa4	-0.004277544
241	0xbc82658f	-0.015917568
242	0x3cd79df8	0.026320443
243	0x3cd08467	0.02545376
244	0xbcc32d69	-0.023825364
245	0x3cbece9e	0.023291882
246	0xbd61fa0f	-0.055170115
247	0x3c4f838a	0.012665639
248	0xbd81de18	-0.06341189
249	0xbd007aa3	-0.031366955
250	0x3d01b3fc	0.031665787
251	0x3a34a318	0.0006890758
252	0x3be22d29	0.006902356
253	0x3c8c910a	0.017159004
254	0x3c4af8f1	0.012388454
255	0x3ca23a5f	0.019803224

fc1.bias f4 [64]
0	0x3d091288	0.03346494
1	0x3fcc136d	1.5943428
2	0xbc117321	-0.0088775465
3	0x3fdbc6f1	1.7170087
4	0x3d2648bd	0.040596712
5	0xbd1678e9	-0.036736403
6	0xbcdb18be	-0.026745196
7	0xba2788ef	-0.0006390949
8	0x3d03f8a7	0.032219555
9	0x3fd8fe54	1.6952615
10	0xbcadd277	-0.021218522
11	0x3fe29fbc	1.7704997
12	0x3fdce9b0	1.7258816
13	0x3fd83204	1.6890264
14	0xbcc1ef86	-0.023673784
15	0xbd0e1fd1	-0.03469831
16	0x3ca297b8	0.019847736
17	0x3ff3e231	1.9053403
18	0x3fd7f857	1.6872662
19	0x3fdaf0ab	1.7104696
20	0xbd231ae8	-0.03982058
21	0x3fe0fec3	1.7577747
22	0x3cf58aac	0.02997335
23	0xbd21959b	-0.039449316
24	0x3bd8c51b	0.0066152937
25	0x3fdb2c5d	1.7122914
26	0x3fdd1a67	1.7273682
27	0x3c98968e	0.018626478
28	0xbc92d317	-0.017922921
29	0xbd78fe48	-0.060789376
30	0xbcb52464	-0.022112079
31	0xbd106a9e	-0.035257928
32	0x3d036019	0.032074068
33	0xbc2a3529	-0.010388651
34	0x3fe21af2	1.7664473
35	0x3fd5f2f3	1.6714767
36	0x3fe065f8	1.7531118
37	0x3fd3ce9e	1.654743
38	0x3d111329	0.035418663
39	0xbd0f8e3f	-0.035047766
40	0xbb6ae9a0	-0.0035844818
41	0x3c835fec	0.01603695
42	0x3c533751	0.012891606
43	0x3fde0fef	1.7348613
44	0x3c904838	0.017612562
45	0x3cb3408d	0.021881366
46	0xbb19601d	-0.0023403235
47	0x3fc98b67	1.5745667
48	0x3fdd43e7	1.7286347
49	0xbd2ac8b0	-0.041695297
50	0x3fe86d77	1.8158406
51	0x3d1e14b9	0.03859398
52	0x3fecada0	1.8490486
53	0xbccbc3b2	-0.024873588
54	0x3fd30d63	1.648846
55	0x3fd4468f	1.6584033
56	0xb998601d	-0.0002906331
57	0x3fd91618	1.6959867
58	0x3fd28835	1.6447817
59	0x3d042797	0.03226432
60	0x3fe35acc	1.7762084
61	0x3fd89d02	1.6922915
62	0x3c8232ef	0.015893428
63	0xbd591d5c	-0.053006515

fc2.weight f4 [1, 64]
0	0xbd5e2f05	-0.05424406
1	0x3f28fdc1	0.660122
2	0xbd7157ec	-0.05892174
3	0x3f21c290	0.63187504
4	0x3c3cdf50	0.011527851
5	0xbd8d1fb5	-0.06890813
6	0xbc180388	-0.009278186
7	0x3c8bc9c0	0.017063975
8	0xbd4d5951	-0.050134007
9	0x3f2db036	0.67847
10	0xbcfd3768	-0.030910209
11	0x3f0bf058	0.5466361
12	0x3f1511dc	0.58230376
13	0x3f128728	0.5723748
14	0x3cb6ef00	0.022330761
15	0xba211b6d	-0.00061457494
16	0xbd538b30	-0.05164641
17	0x3f371bfa	0.71527064
18	0x3f1e3458	0.6179862
19	0x3f19729b	0.599405
20	0xbd62112c	-0.055192158
21	0x3f13b429	0.5769678
22	0xbd854bc5	-0.065085925
23	0xbdf2e602	-0.11860277
24	0xbd48d827	-0.049034264
25	0x3f2475a0	0.6424198
26	0x3f177245	0.59158736
27	0xbd112fe7	-0.035446074
28	0xbd8a5cd4	-0.06755987
29	0xbd2a5f3d	-0.041594733
30	0x3d919d9c	0.0711014
31	0x3dbdac0c	0.09261331
32	0xbde1b7b4	-0.11021367
33	0xbc03bfb2	-0.008041309
34	0x3f0f238a	0.55913603
35	0x3f169161	0.5881558
36	0x3f0b7cf2	0.54487526
37	0x3f1d0620	0.6133747
38	0xbde796cb	-0.11308058
39	0x3dc864d8	0.097848594
40	0xbbae594f	-0.005320705
41	0xbde3c00e	-0.11120616
42	0xbd580d6c	-0.052747175
43	0x3f0c1ccc	0.5473144
44	0xbd5a89b0	-0.053353965
45	0xbd0ef66b	-0.03490297
46	0xbd886859	-0.06660528
47	0x3f2a4a93	0.6652004
48	0x3f2764cd	0.65388185
49	0x3c85bd78	0.016325697
50	0x3f0f4815	0.55969363
51	0xbc8ddb59	-0.017316507
52	0x3f4f4399	0.8096252
53	0xbdd80968	-0.10548669
54	0x3f27d2f7	0.6555628
55	0x3f1a1697	0.6019072
56	0xbd8e3b6b	-0.06944927
57	0x3f183053	0.59448737
58	0x3f2cc32b	0.674853
59	0x3a43159d	0.00074418803
60	0x3f06cd1b	0.52656716
61	0x3f1378a9	0.5760599
62	0xbdc4217e	-0.09576701
63	0xbd42ba8e	-0.047541194
