Rudi/best_tempo_model_75_100.pth (torch, 283496 bytes, 5 tensors)

fc1.weight f4 [128, 417]
-0.04258175 -0.07136151 -0.05710854 -0.0035634807 -0.048830092 -0.021511815 0.0070047937 -0.031519916
0.011269434 -0.03974057 -0.021176964 -0.04357648 -0.0026000885 0.02334913 0.0046803113 -0.0146621745
-0.01789175 -0.0430082 -0.027457397 -0.007502418 0.012206608 -0.030783596 -0.05773023 -0.0619387
-0.034062132 -0.020561783 -0.04837801 -0.039404012 0.014742717 -0.010735749 -0.044379845 -0.02959131
0.026439667 0.030941194 -0.010780127 -0.040980976 -0.027577657 0.006106618 -0.01502155 -0.016672656
-0.067643754 -0.009423469 -0.005638157 -0.03692011 -0.053257875 -0.02375533 0.00075350556 -0.050570436
0.030261502 0.0035138668 -0.066053286 0.011167134 -0.06674753 -0.028245071 0.011291293 -0.006180246
-0.032674067 -0.051132802 0.022825941 0.01199714 -0.03562841 -0.010765589 -0.027137144 0.0030951975
-0.0075348224 0.0064810165 -0.012374938 0.007030867 -0.0062138783 -0.017039642 -0.026772557 -0.053654943
-0.011019479 -0.026950842 -0.025981165 -0.03354896 0.014533944 -0.06554629 -0.043299064 -0.020293979
-0.033095423 -0.057416692 0.0004256192 -0.03558087 -0.06716698 -0.006418037 0.021930486 -0.06158868
0.023512319 -0.021031644 0.004233242 -0.051882565 -0.05884248 -0.06212469 -0.0063944557 0.021608321
-0.011250621 -0.046227574 -0.06731747 -0.012677604 -0.056801032 0.014268391 -0.032457445 0.00065486424
-0.017085524 -0.0064118947 -0.06599267 0.018364161 -0.053421713 -0.0191942 -0.022302704 -0.01421582
-0.05043802 0.025919413 -0.03857746 -0.05764976 0.0098426035 -0.001086134 -0.022855975 -0.049204975
-0.045707226 -0.03931087 0.024033275 0.010951502 0.020682324 -0.047784142 -0.011675881 0.015783485
0.018802166 0.016134698 -0.00046036672 0.017928202 0.03275577 -0.007959952 -0.046799503 0.010376758
-0.0049565565 0.029038083 -0.041748755 -0.039914552 -0.00829657 -0.03417922 0.025929619 -0.0584037
0.0044374764 -0.05444102 -0.04220966 -0.023920624 -0.03548659 -0.02123282 -0.050345782 0.013459027
0.025436345 0.019109663 -0.056362636 -0.035942115 -0.024829643 0.027826408 -0.0076881927 0.0094683245
-0.015444846 -0.030359605 -0.0023314892 -0.020040119 -0.009130247 -0.007343411 0.037123118 -0.0013551355
0.014241587 0.01913241 0.03504498 -0.051457472 -0.026507135 -0.025559707 -0.0064870534 0.01863726
0.04201305 -0.032220952 -0.047111817 0.020441832 0.025982467 -0.04388414 -0.016599126 0.03908789
-0.027855482 -0.029607374 0.03874465 0.026548062 0.018729704 0.03326262 0.045397565 -0.025552237
-0.040933914 -0.036984857 -0.010571991 0.01608501 0.03316316 -0.020607945 -0.015806194 0.03933229
0.043018542 -0.026121717 -0.04222103 -0.001612296 0.007854852 -0.0034319856 0.01791088 -0.033397343
0.013485602 -0.047440745 -0.006535514 -0.035664693 -0.001354823 -0.0008863331 -0.045299176 -0.0109925
-0.0019771156 -0.037071194 0.039390728 0.04186413 -0.02481812 0.022753468 0.019959789 0.039873768
0.03364228 0.042066313 0.04669315 -0.024448432 0.014170929 -0.009772943 0.037324768 0.031749163
0.017713027 -0.017840313 0.018931128 -0.04277785 -0.011199018 0.038251854 0.014630117 -0.025938842
0.0005263279 -0.04332353 0.0065168245 0.027411139 -0.017468039 0.041637227 -0.00033980416 0.013210317
0.021983737 0.0041517857 -0.0012565835 0.03455033 -0.03381207 0.039160836 0.02713028 -0.038787507
00000000: 336a 2ebd fc25 92bd a5ea 69bd 4989 69bb
00000010: 1002 48bd 8c39 b0bc 7888 e53b 071b 01bd
00000020: 6fa3 383c 02c7 22bd 507b adbc 407d 32bd
00000030: 3f66 2abb ad46 bf3c 4c5d 993b 9e39 70bc
00000040: b891 92bc 5e29 30bd 56ee e0bc d8d6 f5bb
00000050: 3afe 473c e12d fcbc 8976 6cbd 6fb3 7dbd
00000060: bc84 0bbd 2f71 a8bc 0528 46bd 1a66 21bd
00000070: 708b 713c ffe4 2fbc a4c7 35bd 7a69 f2bc
00000080: 0098 d83c 6378 fd3c 219f 30bc abdb 27bd
00000090: 8aea e1bc 061a c83b f21c 76bc 1895 88bc
000000a0: cf88 8abd e564 1abc 4ac0 b8bb 8b39 17bd
000000b0: ee24 5abd 8a9a c2bc e786 453a f222 4fbd
000000c0: f8e6 f73c e748 663b f246 87bd 5bf6 363c
000000d0: eeb2 88bd 3562 e7bc 1eff 383c a983 cabb
000000e0: 3ed5 05bd a170 51bd 78fd ba3c a78f 443c
000000f0: 18ef 11bd 2762 30bc b74e debc ccd8 4a3b
00000100: ace6 f6bb b55e d43b 41c0 4abc 3063 e63b
00000110: ca9d cbbb b896 8bbc 1f52 dbbc 49c5 5bbd
00000120: 0b8b 34bc 03c8 dcbc 74d6 d4bc a26a 09bd
00000130: c81f 6e3c 223d 86bd 5c5a 31bd 8f3f a6bc
00000140: 118f 07bd c42d 6bbd a425 df39 3fbd 11bd
00000150: d78e 89bd 664e d2bb 90a7 b33c 6944 7cbd
00000160: e89c c03c 8e4a acbc 02b7 8a3b d082 54bd
00000170: d004 71bd 7576 7ebd 9588 d1bb ef03 b13c
00000180: 8654 38bc 2059 3dbd bedd 89bd bab5 4fbc
00000190: 33a8 68bd f8c5 693c 19f2 04bd 32ab 2b3a
000001a0: f1f6 8bbc df1a d2bb 2a27 87bd 7070 963c
000001b0: bad0 5abd 283d 9dbc 29b4 b6bc 78e9 68bc
000001c0: 1998 4ebd f354 d43c 6603 1ebd 2822 6cbd
000001d0: df42 213c 9c5c 8eba 743c bbbc 288b 49bd
000001e0: 8037 3bbd 6f04 21bd 6ee1 c43c ee6d 333c
000001f0: fa6d a93c 4eb9 43bd 324c 3fbc 5e4c 813c
00000200: 0007 9a3c ea2c 843c 605d f1b9 2ade 923c
00000210: ea2a 063d 756a 02bc d6b0 3fbd 4703 2a3c
00000220: 9c6a a2bb 46e1 ed3c be00 2bbd 717d 23bd
00000230: 56ee 07bc 83ff 0bbd 5a6a d43c b838 6fbd
00000240: 4068 913b 8cfd 5ebd 09e4 2cbd 2ff5 c3bc
00000250: 635a 11bd 73f0 adbc 6137 4ebd 4083 5c3c
00000260: e25f d03c de8b 9c3c 82dc 66bd 0a38 13bd
00000270: 8967 cbbc 35f4 e33c 3ced fbbb 0821 1b3c
00000280: 610c 7dbc b5b4 f8bc e6cb 18bb 2d2b a4bc
00000290: 0897 15bc ffa0 f0bb 690e 183d cd9e b1ba
000002a0: 8c55 693c 92bb 9c3c 538b 0f3d 12c5 52bd
000002b0: 7e25 d9bc 9762 d1bc 5991 d4bb 2bad 983c
000002c0: e015 2c3d 1efa 03bd 52f8 40bd a175 a73c
000002d0: 2fd9 d43c dbbf 33bd e4fa 87bc a01a 203d
000002e0: 2e31 e4bc 2a8b f2bc b6b2 1e3d 527b d93c
000002f0: 096f 993c 633e 083d ccf2 393d ed52 d1bc
00000300: 52aa 27bd 6f7d 17bd 2536 2dbc b6c4 833c
00000310: 18d6 073d fed1 a8bc fe7b 81bc e51a 213d
00000320: 3634 303d 36fd d5bc f5ef 2cbd ad53 d3ba
00000330: a3b1 003c 2aeb 60bb d6b9 923c a7cb 08bd
00000340: b7f2 5c3c 3a51 42bd dd27 d6bb 2415 12bd
00000350: 5194 b1ba cf58 68ba a18b 39bd e319 34bc
00000360: 7f92 01bb f7d7 17bd 2c58 213d b979 2b3d
00000370: 5f4f cbbc 7b65 ba3c b682 a33c ad52 233d
00000380: 7dcc 093d ba4d 2c3d 5141 3f3d 1448 c8bc
00000390: 2f2d 683c b21e 20bc dbe1 183d 690b 023d
000003a0: e91a 913c d925 92bc 7415 9b3c d437 2fbd
000003b0: 167c 37bc faad 1c3d 29b3 6f3c b27d d4bc
000003c0: 44f9 093a 0474 31bd 168b d53b 538d e03c
000003d0: 2219 8fbc cc8b 2a3d be27 b2b9 1670 583c
000003e0: 3d17 b43c b40b 883b f2b3 a4ba a684 0d3d
000003f0: 867e 0abd 1d67 203d 5240 de3c a6df 1ebd

fc1.bias f4 [128]
0.09694039 0.057396896 0.019197647 0.03344009 0.08414465 0.0824862 0.0788301 0.07873156
0.010635613 0.01906044 0.053015314 0.012931634 0.011927953 0.07572406 -0.0029642184 0.037601568
0.043773092 -0.05082031 0.011783496 0.09843623 -0.029087702 0.054965198 -0.003895105 0.030396227
0.026416013 0.10157814 0.046714496 0.07055199 0.07374109 -0.014950671 -0.0011393081 0.05352091
-0.028842254 -0.015799215 0.00068630883 0.024022533 0.09978362 0.056177963 0.024776524 0.011044385
0.033552922 0.06598603 0.069172904 0.096745975 0.022949837 0.084085494 0.08978639 0.038840972
0.00937294 0.09684943 0.05411907 0.00917311 0.05524692 0.06896469 0.057964467 0.093558006
-0.01558798 0.09922544 0.10167522 0.06246864 0.035850562 0.0051372363 0.077041276 0.053135835
0.007911086 0.0063598375 0.049350623 -0.0023359312 -0.005018893 0.07496176 0.00012908631 0.078208685
0.096369036 0.0872888 0.06205239 0.100160696 0.020858169 0.05532548 0.05243475 0.033517774
0.060247846 0.005179592 0.056933273 0.01239632 0.024929438 0.103980765 0.014902952 0.07432248
0.051918518 0.023920787 0.067310534 0.035362493 0.047605246 0.035677712 0.10129144 0.03646106
0.027083408 0.0899911 0.09163293 0.090862535 0.027923422 0.042492125 0.099441774 0.058070976
0.06792603 0.026205935 0.06051348 -0.0041789273 0.07683768 0.032455575 0.074744344 0.036122035
0.0031436633 0.08201344 -0.028216401 0.08921117 0.04711227 0.004327009 0.045775846 0.093645334
0.039669085 0.052339233 0.019802641 0.0430271 0.10555616 0.0259957 0.03282918 0.08052994
00000000: af88 c63d 0219 6b3d 6244 9d3c 7af8 083d
00000010: 0854 ac3d 86ee a83d ad71 a13d 033e a13d
00000020: ff40 2e3c a424 9c3c 9626 593d 34df 533c
00000030: 766d 433c 3715 9b3d 5543 42bb 1a04 1a3d
00000040: 6a4b 333d f528 50bd 900f 413c ef98 c93d
00000050: 5549 eebc 3023 613d 0545 7fbb 8201 f93c
00000060: 6566 d83c 3308 d03d b357 3f3d 907d 903d
00000070: 9205 973d a9f3 74bc d654 95ba be38 5b3d
00000080: 9746 ecbc 5b6d 81bc 68e9 333a e7ca c43c
00000090: 5b5b cc3d dd1a 663d 23f8 ca3c 82f3 343c
000000a0: ca6e 093d af23 873d 86aa 8d3d c122 c63d
000000b0: 4c01 bc3c 0435 ac3d ede1 b73d b617 1f3d
000000c0: f690 193c fe58 c63d f5ab 5d3d d04a 163c
000000d0: 984a 623d 5c3d 8d3d 266c 6d3d 579b bf3d
000000e0: ba64 7fbc b536 cb3d 193b d03d 1edf 7f3d
000000f0: 0ad8 123d 4356 a83b d1c7 9d3d f6a4 593d
00000100: 809d 013c 2f66 d03b e123 4a3d 6c16 19bb
00000110: 8775 a4bb 8d85 993d 585b 0739 e02b a03d
00000120: 215d c53d 78c4 b23d a62a 7e3d 0d21 cd3d
00000130: c0de aa3c f89c 623d d2c5 563d ef49 093d
00000140: 72c6 763d 91b9 a93b dd32 693d ef19 4b3c
00000150: d238 cc3c def3 d43d 832b 743c 6236 983d
00000160: 83a8 543d 87f5 c33c 1bda 893d 43d8 103d
00000170: b8fd 423d cb22 123d e371 cf3d 3158 153d
00000180: 06de dd3c 414d b83d 0caa bb3d 2316 ba3d
00000190: a9bf e43c 390c 2e3d 21a8 cb3d d5db 6d3d
000001a0: cd1c 8b3d d4ad d63c fcdc 773d 62ef 88bb
000001b0: 135d 9d3d 23f0 043d 9013 993d b3f4 133d
000001c0: eb05 4e3b aaf6 a73d 1526 e7bc 59b4 b63d
000001d0: ccf8 403d 95c9 8d3b 747f 3b3d 20c9 bf3d
000001e0: 0d7c 223d aa61 563d 2639 a23c 2f3d 303d
000001f0: d42d d83d eff4 d43c e477 063d e2ec a43d

fc2.weight f4 [128, 128]
-0.021274578 -0.09129935 0.009584489 -0.051889632 -0.02326136 0.06730043 -0.0059190104 0.058655255
-0.07834864 -0.038680557 0.061023038 0.074816205 0.0045280317 0.057800233 0.04973559 0.0673191
-0.059042905 0.047370244 0.015614559 -0.066034555 0.04935952 0.0016383801 -0.010617386 -0.0734501
0.068642154 -0.087605685 0.018757267 0.02937766 0.06132541 -0.0077914773 0.016006896 -0.055014066
-0.064926356 -0.07142304 -0.059495475 -0.08442446 -0.014415241 -0.0062841745 0.049842034 0.06343801
-0.05588216 0.012562491 0.06522752 -0.034181993 0.02294153 -0.09204327 0.047870234 -0.00753958
0.058775138 0.049929727 0.009573206 -0.07655674 -0.08148732 0.06754436 0.0062516383 -0.099397846
-0.019423801 0.06790598 -0.065421425 -0.07491186 0.06942683 -0.019187627 0.048684373 0.02806242
-0.055013172 0.014212022 -0.002943039 0.068964384 -0.02975908 0.06665905 -0.021089362 -0.06960407
0.05549616 0.05225043 -0.050440468 -0.039613597 -0.067902654 0.0005536098 0.016287455 0.034991957
0.011909661 -0.0831206 -0.004383643 -0.077245034 0.0032808462 0.037957612 -0.09079199 -0.06749742
-0.072772846 -0.08131679 -0.08222654 -0.038723595 0.04928099 -0.041801464 -0.005472508 -0.03442718
0.05270677 0.070827015 -0.012925901 -0.025324449 -0.04067563 -0.0020578804 -0.0008387312 0.038610604
0.03474959 -0.068173625 0.01171817 0.018117595 0.04852525 0.06108955 -0.014951955 0.018036067
0.051541265 0.07386466 -0.07803658 0.05733528 0.03627339 -0.031186633 -0.008749558 0.030351589
0.018443432 -0.02910542 -0.06827728 0.009118143 -0.09491023 -0.0113300625 0.006716644 0.06570563
-0.034114804 0.028111666 -0.062361456 0.028986389 -0.036257125 -0.09394512 0.038835574 0.007517971
0.04469151 0.018046048 -0.091223046 0.030747365 -0.04289162 0.038143054 0.03966455 -0.020204116
-0.009081769 0.020574246 -0.0069511 0.050063476 0.029525671 -0.060612172 0.008370962 -0.053309724
-0.050211303 -0.054564945 0.026981765 0.05211881 0.0024000928 -0.091872886 0.0021236637 -0.056344707
-0.05570109 0.07803689 -0.0727428 0.08033411 -0.07359771 0.0641336 -0.06650015 0.06812621
-0.002012144 0.030637234 -0.083700374 -0.07525397 0.047265626 -0.056524977 0.019622482 -0.073831044
-0.06912906 0.07051478 -0.031105587 0.008073325 -0.034039915 0.043950327 -0.034827217 0.032385185
-0.03785914 -0.07968851 -0.08786339 0.06494994 0.011776811 0.025145201 -0.055063486 0.0575417
-0.015636822 -0.013774313 0.02076737 0.07004652 0.0044291667 -0.09661453 -0.05419582 -0.06637174
0.08159913 -0.044927426 -0.0862246 0.04004789 -0.053655773 -0.052232195 0.07074891 0.048997357
-0.022373676 0.0552594 -0.078691565 0.011881514 0.011319793 -0.08148818 0.0067602107 -0.08331898
0.017621925 -0.029838951 0.04626547 -0.018698571 0.0787285 -0.092313945 -0.0032812566 -0.07109457
0.0689791 -0.06459179 -0.015008457 0.035601683 -0.050700404 -0.02976867 -0.010686052 -0.028363341
3.6082485e-05 -0.0031800163 0.025795752 -0.0729648 0.072341695 -0.06415794 0.059174612 -0.026476955
0.060570303 -0.09032057 0.076831646 0.04145232 -0.017264418 -0.05241674 -0.014620153 -0.08984818
0.048586056 0.06920631 0.027560828 -0.016308611 -0.07084562 -0.029788736 0.013131932 0.034384593
00000000: 0648 aebc 27fb babd 4308 1d3c 398a 54bd
00000010: 9c8e bebc cfd4 893d 42f4 c1bb 7e40 703d
00000020: 4075 a0bd 816f 1ebd 4bf3 793d 3d39 993d
00000030: e25f 943b f0bf 6c3d 8cb7 4b3d 99de 893d
00000040: f9d6 71bd 4d07 423d 35d4 7f3c 203d 87bd
00000050: 352d 4a3d eabe d63a 8bf4 2dbc 026d 96bd
00000060: 4294 8c3d 9c6a b3bd d7a8 993c 6ba9 f03c
00000070: 5a30 7b3d a64f ffbb e520 833c 6e56 61bd
00000080: 1cf8 84bd 3e46 92bd 87b1 73bd bbe6 acbd
00000090: e72d 6cbc 7aeb cdbb 2927 4c3d caeb 813d
000000a0: b1e4 64bd e8d2 4d3c 0296 853d 6b02 0cbd
000000b0: e0ef bb3c 2f81 bcbd 9413 443d 950e f7bb
000000c0: 33be 703d 1d83 4c3d f0d8 1c3c c8c9 9cbd
000000d0: d3e2 a6bd b354 8a3d 8bda cc3b 1991 cbbd
000000e0: aa1e 9fbc 4a12 8b3d abfb 85bd 646b 99bd
000000f0: a72f 8e3d 5f2f 9dbc 4469 473d 29e3 e53c
00000100: 7e55 61bd 8ad9 683c 00e0 40bb 333d 8d3d
00000110: 50c9 f3bc 8a84 883d 99c3 acbc 948c 8ebd
00000120: f14f 633d 8c04 563d aa9a 4ebd de41 22bd
00000130: 8c10 8bbd 2020 113a 456d 853c ba53 0f3d
00000140: bd20 433c 223b aabd aaa4 8fbb a532 9ebd
00000150: 7703 573b 7179 1b3d 27f1 b9bd 163c 8abd
00000160: ee09 95bd 6b89 a6bd 6366 a8bd a29c 1ebd
00000170: ddda 493d 0338 2bbd b952 b3bb 8403 0dbd
00000180: 0ee3 573d c10d 913d 29c7 53bc 3875 cfbc
00000190: 7d9b 26bd 81dd 06bb 4cde 5bba 2726 1e3d
000001a0: 9655 0e3d 9d9e 8bbd 91fd 3f3c 5a6b 943c
000001b0: 6ac2 463d 0939 7a3d 0bf9 74bc 60c0 933c
000001c0: ef1c 533d 5b46 973d a4d1 9fbd 66d8 6a3d
000001d0: 6893 143d 1c7b ffbc 4e5a 0fbc e5a3 f83c
000001e0: ae16 973c 7d6e eebc f5d4 8bbd 4364 153c
000001f0: 4b60 c2bd baa1 39bc 4b17 dc3b ac90 863d
00000200: f7bb 0bbd 704a e63c ba6e 7fbd dd74 ed3c
00000210: 5a82 14bd 4d66 c0bd 0d12 1f3d 5059 f63b
00000220: 720e 373d 4ed5 933c 26d3 babd e6e1 fb3c
00000230: 20af 2fbd e43b 1c3d 4c77 223d 1a83 a5bc
00000240: b3cb 14bc 528b a83c 0ec6 e3bb 5c0f 4d3d
00000250: d2df f13c 7844 78bd 5c26 093c 4c5b 5abd
00000260: 5eaa 4dbd 7e7f 5fbd dd08 dd3c 897a 553d
00000270: e04a 1d3b da27 bcbd 2a2d 0b3b b5c9 66bd
00000280: d326 64bd ced1 9f3d 2dfa 94bd 3686 a43d
00000290: 65ba 96bd 7a58 833d 3b31 88bd c185 8b3d
000002a0: 2dde 03bb f0fa fa3c 1a6b abbd c11e 9abd
000002b0: 9a99 413d bc86 67bd 54bf a03c bb34 97bd
000002c0: 8993 8dbd 0e6a 903d 25d1 febc fb45 043c
000002d0: 706d 0bbd 4205 343d fca6 0ebd 54a6 043d
000002e0: 3012 1bbd bb33 a3bd b9f1 b3bd 7904 853d
000002f0: 87f3 403c 4ffd cd3c 408a 61bd d8b0 6b3d
00000300: cb18 80bc a8ad 61bc 5520 aa3c 8d74 8f3d
00000310: 8b22 913b d7dd c5bd 70fc 5dbd e8ed 87bd
00000320: 721d a73d d205 38bd 8696 b0bd 4209 243d
00000330: 28c6 5bbd 6df1 55bd cee4 903d 74b1 483d
00000340: 0049 b7bc ae57 623d 0b29 a1bd afaa 423c
00000350: a776 393c 46e3 a6bd c284 dd3b 24a3 aabd
00000360: db5b 903c d170 f4bc dd80 3d3d bf2d 99bc
00000370: 683c a13d 180f bdbd 5a0a 57bb 089a 91bd
00000380: ea44 8d3d b348 84bd 08e6 75bc 12d3 113d
00000390: 3aab 4fbd 6ddd f3bc 8d14 2fbc 3d5a e8bc
000003a0: 4657 1738 d267 50bb 9d51 d33c 926e 95bd
000003b0: e227 943d 3d65 83bd 1461 723d 33e6 d8bc
000003c0: 9118 783d fef9 b8bd e959 9d3d e8c9 293d
000003d0: 1c6e 8dbc f0b2 56bd 5e89 6fbc 5302 b8bd
000003e0: 2c02 473d 0abc 8d3d 3fc7 e13c a399 85bc
000003f0: 8217 91bd 8207 f4bc 5127 573c dcd6 0c3d

fc2.bias f4 [128]
-0.04307961 -0.043899707 0.02292549 -0.024352523 -0.05400942 0.0472811 -0.00533113 -0.036935173
0.07005906 0.067019515 0.124374785 0.04324258 -0.0853435 0.015787948 0.026223907 0.05423233
0.056579582 0.03614026 0.058602355 -0.07384107 -0.009249747 0.1563371 -0.055584677 0.0063035097
0.07350021 0.09192223 0.04268732 0.066145524 0.14143732 0.05729209 -0.08710512 0.107839264
-0.093955815 -0.039869852 0.056188267 0.10366198 -0.055641185 0.024947267 0.08295968 -0.023428455
0.0026143463 -0.010845935 0.095404625 -0.07941222 -0.06700691 -0.044160236 -0.008793285 0.13632374
-0.017453825 0.032076783 0.118486784 0.061027523 -0.023809789 0.056262422 0.06394189 0.00045471787
-0.03128985 0.07431669 0.054790314 0.003425695 -0.03860112 0.07187992 0.06900219 0.10342166
-0.053788345 0.009244902 0.0964125 -0.014798508 0.1131489 -0.06290743 0.09632333 -0.019064719
0.0043651573 -0.07524014 0.035679795 0.015440924 0.018450761 0.03222802 0.018502181 -0.082867905
0.012676989 0.05825593 0.08524979 0.10563069 -0.008674481 0.10764031 0.060471963 0.026961064
0.09496981 -0.042887826 -0.051662438 -0.052696764 -0.003174176 0.06230701 -0.0023013747 -0.04634255
0.06641085 0.08427304 -0.037527896 0.11211492 -0.015376558 0.012871208 0.030683506 0.03236809
0.062075347 0.035467196 0.039152518 0.01583566 -0.029462576 0.052841865 0.04738022 0.02565325
0.040759232 -0.087583266 0.076005474 0.06513675 0.036309574 0.06303705 -0.050264016 0.071418956
0.06655622 -0.038420383 0.06711415 0.092240825 -0.089914024 0.015145643 0.0152135715 0.008891496
00000000: 3f74 30bd 2ed0 33bd 3dce bb3c f17e c7bc
00000010: fb38 5dbd d4a9 413d c3b0 aebb 5649 17bd
00000020: 207b 8f3d 8741 893d 35b8 fe3d 221f 313d
00000030: 93c8 aebd ba55 813c 85d3 d63c b822 5e3d
00000040: febf 673d cf07 143d 0609 703d fd39 97bd
00000050: 408c 17bc d516 203e c2ac 63bd ac8d ce3b
00000060: 4787 963d b941 bc3d e6d8 2e3d 4e77 873d
00000070: f2d4 103e 1cab 6a3d 2b64 b2bd d5da dc3d
00000080: e86b c0bd 924e 23bd ab25 663d bb4c d43d
00000090: 03e8 63bd 365e cc3c c4e6 a93d 08ed bfbc
000000a0: 7455 2b3b 26b3 31bc 8063 c33d e0a2 a2bd
000000b0: eb3a 89bd 5de1 34bd b611 10bc 7398 0b3e
000000c0: 53fb 8ebc f262 033d 33a9 f23d fff7 793d
000000d0: bf0c c3bc 6d73 663d f7f3 823d 3367 ee39
000000e0: c929 00bd 5933 983d cf6b 603d a081 603b
000000f0: 351c 1ebd c835 933d 0551 8d3d bcce d33d
00000100: 2b51 5cbd ee77 173c eb73 c53d 7175 72bc
00000110: 9cba e73d 9cd5 80bd 2b45 c53d 9d2d 9cbc
00000120: 9809 8f3b 8117 9abd fa24 123d eefb 7c3c
00000130: 0d26 973c 8701 043d e391 973c a6b6 a9bd
00000140: 25b3 4f3c c59d 6e3d 7197 ae3d e754 d83d
00000150: 691f 0ebc 8672 dc3d 73b1 773d 73dd dc3c
00000160: 887f c23d 25ab 2fbd fe9b 53bd 90d8 57bd
00000170: d605 50bb a335 7f3d a9d2 16bb b0d1 3dbd
00000180: 6902 883d 5897 ac3d dab6 19bd 829c e53d
00000190: f5ed 7bbc c2e1 523c fa5b fb3c 6794 043d
000001a0: b842 7e3d 0d46 113d 645e 203d c9b9 813c
000001b0: 805b f1bc b670 583d c311 423d c426 d23c
000001c0: 27f3 263d db5e b3bd c2a8 9b3d 6b66 853d
000001d0: 59b9 143d 9219 813d a4e1 4dbd 1a44 923d
000001e0: a14e 883d b15e 1dbd 2573 893d c2e8 bc3d
000001f0: d824 b8bd 6e25 783c 5842 793c a3ad 113c

fc3.weight f4 [1, 128]
-0.0062937685 -0.022444969 -0.06964056 -0.059320893 -0.07672217 0.063446954 0.10112168 -0.06740489
-0.07761634 0.062018186 0.0537843 -0.031925946 0.0024056286 0.22352529 0.068994515 -0.063319646
-0.0001750439 -0.07582867 0.08973237 -0.0060536885 -0.07074647 0.059635498 -0.032979485 -0.078274645
-0.014274807 0.108129874 0.10587121 0.11436859 0.1019094 0.0776936 -0.015848596 0.07291947
-0.043149933 0.08236132 -0.06854699 0.06633998 0.101215094 -0.074151866 0.07905579 -0.066455096
-0.028931864 0.123746306 0.086154416 -0.025719352 -0.013874656 0.10029977 -0.073062874 0.09695187
0.051103134 -0.0088248635 0.11437836 0.10478954 -0.022301994 0.09697656 0.11386451 0.056731395
-0.044093654 0.071716405 0.07171225 0.06972904 -0.042947013 -0.00102217 -0.06094593 0.09476658
0.101459675 -0.009750484 0.0864273 0.091148 0.07555321 -0.035372596 0.09070901 -0.056682862
-0.035014812 -0.0067427866 -0.008508341 -0.045126773 -0.06891443 -0.07493609 -0.06332031 -0.04542998
0.09007351 0.051632818 0.07018096 0.06822527 0.09144634 0.07616986 -0.024122728 0.11814068
0.09131935 -0.0418911 -0.017185166 -0.05298747 0.052115295 0.10149667 0.07063549 -0.038325906
0.08240669 0.09220672 -0.03290754 0.0911805 0.13725159 -0.02153936 0.07041465 -0.0775536
-0.058750097 -0.049143847 0.08270361 -0.05990279 0.08951219 -0.06194815 -0.034854148 0.062886
0.06762985 -0.021522367 0.1001276 -0.039043892 -0.03732287 0.108214475 -0.013185924 0.06436457
0.08352898 -0.0040412396 -0.07801373 0.110027105 -0.0349094 -0.052941028 0.11554603 -0.04452635
00000000: f53b cebb 83de b7bc b69f 8ebd 77fa 72bd
00000010: 8320 9dbd 7af0 813d e218 cf3d 930b 8abd
00000020: 51f5 9ebd c806 7e3d ed4c 5c3d c8c4 02bd
00000030: c0a7 1d3b d0e3 643e ff4c 8d3d bbad 81bd
00000040: fd8b 37b9 104c 9bbd 9bc5 b73d 055e c6bb
00000050: 86e3 90bd 5a44 743d 7f15 07bd 754e a0bd
00000060: e1e0 69bc 3273 dd3d 01d3 d83d 143a ea3d
00000070: e0b5 d03d d21d 9f3d ead4 81bc ce56 953d
00000080: fcbd 30bd 0dad a83d 5d62 8cbd 41dd 873d
00000090: dc49 cf3d efdc 97bd 01e8 a13d 9c19 88bd
000000a0: 8402 edbc b46e fd3d ba71 b03d 64b1 d2bc
000000b0: 8652 63bc f769 cd3d fda1 95bd b48e c63d
000000c0: 8551 513d 2996 10bc 343f ea3d e69b d63d
000000d0: acb2 b6bc a69b c63d cc31 e93d 2e5f 683d
000000e0: 8c9b 34bd 0de0 923d dfdd 923d 19ce 8e3d
000000f0: 35e9 2fbd 55fa 85ba 71a2 79bd fb14 c23d
00000100: 17ca cf3d 7ec0 1fbc cc00 b13d cdab ba3d
00000110: a4bb 9a3d dbe2 10bd a5c5 b93d 4a2c 68bd
00000120: b16b 0fbd 98f2 dcbb 9266 0bbc dad6 38bd
00000130: 0223 8dbd 1878 99bd 14ae 81bd c914 3abd
00000140: 7678 b83d ef7c 533d 09bb 8f3d b1b9 8b3d
00000150: 3848 bb3d f2fe 9b3d 079d c5bc bef3 f13d
00000160: a405 bb3d 0196 2bbd e8c7 8cbc 6409 59bd
00000170: d976 553d 7cdd cf3d 57a9 903d a0fb 1cbd
00000180: d7c4 a83d e0d6 bc3d 0fca 06bd d8bc ba3d
00000190: ae8b 0c3e 5073 b0bc 8e35 903d 6cd4 9ebd
000001a0: f1a3 70bd 0f4b 49bd 8360 a93d a15c 75bd
000001b0: 2b52 b73d 58bd 7dbd 39c3 0ebd 60ca 803d
000001c0: 8581 8a3d ad4f b0bc b30f cd3d 7dec 1fbd
000001d0: dedf 18bd 8d9f dd3d c609 58bc 92d1 833d
000001e0: 3e11 ab3d 606c 84bb aac5 9fbd e455 e13d
000001f0: 29fd 0ebd b1d8 58bd 66a3 ec3d 4361 36bd
