Rudi/best_tempo_model_06_speed.pth (torch, 258520 bytes, 7 tensors)

fc1.weight f4 [128, 416]
-0.046749845 0.2914487 0.047753382 -0.09926953 -0.004799664 -0.08818484 -0.16975266 -0.5212738
-0.4155765 -0.49093217 -0.77874285 -0.9085527 -0.65166706 -0.58887607 -0.48386598 -0.6287081
-0.44170386 -0.16107234 -0.11007541 0.37931764 0.44988126 0.43688408 0.59479916 0.8402729
0.6826659 0.57952166 0.36451855 0.013125042 0.10193243 0.07565106 0.31250933 0.15144263
0.24492761 0.09973796 -0.09248955 -0.0019431126 0.12372657 0.10085275 0.07722904 0.024086531
0.013357381 -0.1055426 -0.11482434 0.11008894 0.33011684 0.2404451 0.3209273 0.18148594
0.2732296 -0.036197778 0.008754377 0.0038919263 -0.16184355 -0.00719556 0.14629084 0.031288918
-0.047994457 0.26495677 -0.22605318 -0.18933983 0.09811692 0.03866887 -0.19614173 -0.15780802
-0.20054631 0.035983324 0.21204379 -0.30658567 -0.09199923 -0.03865274 -0.1689551 -0.040333647
-0.1320633 -0.0010531694 0.060200218 0.0351448 -0.11108006 -0.23538369 -0.06613806 0.0063578095
0.056234434 0.006336984 -0.06977162 0.00038014032 -0.13916649 -0.03039822 0.11863252 -0.04590947
-0.0005421564 -0.03349756 0.040282425 -0.027688408 0.039150517 0.005776859 0.012392034 0.0404196
0.03340747 -0.024687022 0.0212283 0.049337987 0.017493749 -0.04523817 0.03294656 0.0033537683
-0.028050529 0.044383798 -0.010476739 -0.023934666 -0.028388899 -0.015522122 -0.011934317 -0.037514277
-0.017995661 -0.029465966 0.0025552316 -0.012041553 0.011252852 0.04319559 -0.030842798 -0.026148297
0.017222343 -0.04352076 0.014623037 0.033411764 -0.03640734 0.04588921 0.02840362 0.01264
0.012839469 -0.03957931 -0.034033656 -0.026901186 0.0019798747 0.0472698 -0.0012396224 -0.03854243
0.0020239053 -0.03009526 0.046457395 0.0093675405 0.036928482 0.006260364 -0.033411488 0.0062616845
0.039677463 0.02990457 -0.0020450747 -0.014971763 -0.02236949 0.012144138 -0.01871918 -0.007843767
0.0020787783 0.0106658805 0.03464653 -0.046790786 0.024993436 -0.03808135 0.018202463 0.034328867
-0.040785953 0.04067102 0.02599002 0.029449502 0.018041627 0.045065377 0.02672512 0.007710996
0.046487592 0.02475023 0.025613531 0.0031313011 0.0012149236 -0.042999126 0.043805476 -0.0076608215
0.037775993 0.0399048 -0.020529881 0.024393637 0.035845745 0.046292398 -0.012575747 -0.005153882
-0.029106515 0.013645526 0.04750088 0.021053834 0.04575755 0.04082164 -0.004815549 0.05293149
-0.009214112 0.015422076 -0.002163265 0.0266887 0.032836337 0.010534898 -0.0017886126 0.043933675
-0.023877505 0.018812973 0.014411696 0.03802136 0.018067364 0.039259233 -0.015462374 0.029595736
0.0059042154 0.05367548 0.06445369 0.0363806 0.039854076 0.010563176 0.0412778 0.045561243
0.031624224 0.05418007 0.024290167 0.04921606 0.074284144 0.070733644 0.064068556 0.029375669
0.045834478 -0.007254708 0.024033003 0.048618995 0.0235842 0.052384503 0.03918181 0.07895927
-0.007250679 -0.015127971 -0.00475811 0.05728508 0.007175451 0.02378772 -0.024807986 -0.03177574
-0.022203421 -0.013971847 0.03311819 -0.030427735 -0.021187143 -0.044687286 -0.051507533 -0.08533747
-0.041699395 -0.03051687 -0.061932433 -0.08805863 -0.122649424 -0.12645046 -0.04884681 -0.039841
00000000: c47c 3fbd c438 953e 0d99 433d d34d cbbd
00000010: 8046 9dbb 419a b4bd a4d3 2dbe 3372 05bf
00000020: 71c6 d4be 765b fbbe b15b 47bf e996 68bf
00000030: a7d3 26bf 95c0 16bf 48bd f7be 04f3 20bf
00000040: 0227 e2be 26f0 24be 376f e1bd ec35 c23e
00000050: d656 e63e 45af df3e c244 183f 201c 573f
00000060: 31c3 2e3f 885b 143f 2da2 ba3e 6b0a 573c
00000070: f3c1 d03d f1ee 9a3d 3901 a03e c713 1b3e
00000080: 4ece 7a3e 6a43 cc3d 296b bdbd 0ab0 feba
00000090: 5b64 fd3d e38b ce3d 422a 9e3d 1e51 c53c
000000a0: ebd8 5a3c b826 d8bd 0629 ebbd 4f76 e13d
000000b0: 1305 a93e 3e37 763e 9550 a43e 73d7 393e
000000c0: c0e4 8b3e 1f44 14bd 856e 0f3c b00f 7f3b
000000d0: 51ba 25be bbc8 ebbb 44cd 153e cf28 003d
000000e0: d695 44bd 6aa8 873e 7c7a 67be 4de2 41be
000000f0: 86f1 c83d 4063 1e3d 61d9 48be 6d98 21be
00000100: 035c 4dbe 4063 133d 0222 593e ccf8 9cbe
00000110: 186a bcbd 5652 1ebd 9102 2dbe e534 25bd
00000120: 9a3b 07be 800a 8aba 8194 763d fef3 0f3d
00000130: f17d e3bd 6c08 71be 6473 87bd 2c55 d03b
00000140: 1456 663d 7aa6 cf3b 6ce4 8ebd 924d c739
00000150: a981 0ebe b005 f9bc 9bf5 f23d 920b 3cbd
00000160: 801f 0eba bd34 09bd 2fff 243d cdd2 e2bc
00000170: 4b5c 203d ce4b bd3b f507 4b3c 068f 253d
00000180: 45d6 083d 703c cabc f9e6 ad3c a116 4a3d
00000190: 0d4f 8f3c a94b 39bd f9f2 063d e5ca 5b3b
000001a0: 39ca e5bc c9cb 353d a1a6 2bbc a212 c4bc
000001b0: d68f e8bc 8050 7ebc 2788 43bc 92a8 19bd
000001c0: a36b 93bc 9c62 f1bc ac75 273b ef49 45bc
000001d0: e25d 383c dced 303d 09aa fcbc f434 d6bc
000001e0: df15 8d3c d342 32bd 7695 6f3c c6da 083d
000001f0: dd1f 15bd 53f6 3b3d b5ae e83c 0118 4f3c
00000200: a35c 523c ea1d 22bd e066 0bbd e05f dcbc
00000210: c9c0 013b fa9d 413d d37a a2ba abde 1dbd
00000220: 7fa3 043b 568a f6bc 1c4a 3e3d 507a 193c
00000230: 5242 173d bd23 cd3b 7cda 08bd d12e cd3b
00000240: d684 223d 6efa f43c a906 06bb 204c 75bc
00000250: 3840 b7bc 35f8 463c f758 99bc 2583 00bc
00000260: 1d3c 083b f2bf 2e3c 85e9 0d3d b2a7 3fbd
00000270: 09bf cc3c 31fb 1bbd 551d 953c 6d9c 0c3d
00000280: 2c0f 27bd a896 263d 06e9 d43c 1540 f13c
00000290: 09cc 933c 7996 383d a4ee da3c 86ac fc3b
000002a0: c669 3e3d ffc0 ca3c 78d3 d13c 8436 4d3b
000002b0: 123e 9f3a da1f 30bd 5f6d 333d a107 fbbb
000002c0: 00bb 1a3d 3773 233d 482e a8bc 2ad5 c73c
000002d0: fdd2 123d 199d 3d3d 820a 4ebc e5e1 a8bb
000002e0: c970 eebc 7c91 5f3c 4890 423d 1779 ac3c
000002f0: 456c 3b3d 9834 273d c1cb 9dbb b1ce 583d
00000300: c9f6 16bc e0ac 7c3c 90c5 0dbb 43a2 da3c
00000310: 657f 063d 919a 2c3c e16f eaba ccf3 333d
00000320: c29a c3bc aa1d 9a3c 091f 6c3c 49bc 1b3d
00000330: 0202 943c 4ace 203d e655 7dbc c272 f23c
00000340: 2678 c13b d2da 5b3d 4c00 843d d303 153d
00000350: 073e 233d 2c11 2d3c e912 293d 6d9e 3a3d
00000360: 6788 013d eceb 5d3d 2cfc c63c c896 493d
00000370: 4922 983d cddc 903d 6036 833d 3ea5 f03c
00000380: efbc 3b3d e7b8 edbb dce0 c43c b624 473d
00000390: a733 c13c 2291 563d 1b7d 203d 66b5 a13d
000003a0: 1b97 edbb 4fdb 77bc ebe9 9bbb c3a3 6a3d
000003b0: 0c20 eb3b 77de c23c 1e3a cbbc 4727 02bd
000003c0: f3e3 b5bc 2cea 64bc f0a6 073d 9643 f9bc
000003d0: a990 adbc 040a 37bd 90f9 52bd 69c5 aebd
000003e0: fccc 2abd 84fe f9bc ddac 7dbd 1558 b4bd
000003f0: 9f2f fbbd 3b7c 01be 9813 48bd 5130 23bd

fc1.bias f4 [128]
-1.3550351 -1.6228632 -1.4684569 -1.1692991 -1.6247542 -1.5603626 -1.3674157 -1.2580563
-1.59191 -1.3832417 -1.0661536 -1.2215251 -1.2445681 -0.92007285 -1.3611737 -1.2374022
-1.2618961 -1.062546 -1.4718889 -1.8831755 -1.0515106 -1.2358 -1.2505031 -1.2324281
-1.7732321 -1.5181383 -1.1233351 -0.9477273 -1.0580914 -1.1797786 -1.1198204 -1.0985806
-1.520985 -1.5281775 -1.2066365 -1.3939843 -1.1081032 -1.3773907 -1.1659322 -1.542405
-1.5640365 -1.7229921 -1.1867725 -1.2432516 -1.1337376 -1.3212761 -1.3071193 -1.5376728
-0.63370776 -1.0198298 -1.519502 -1.2891953 -1.5942907 -1.3607365 -1.3753042 -1.2053827
-1.1670598 -1.5034302 -1.4435477 -1.8922304 -0.7995879 -1.5617204 -1.3145229 -1.2722036
-1.2947303 -1.1111587 -1.8185498 -1.3212048 -1.414565 -1.0364304 -1.3516281 -1.3682894
-1.2772232 -1.5454144 -1.2931333 -1.172324 -1.2943643 -1.6099725 -1.4696176 -1.3465943
-1.2419683 -1.4438224 -1.5177746 -1.3006488 -1.4331284 -1.2966683 -1.5276898 -1.254974
-1.6363455 -1.8275291 -1.2434628 -1.3490244 -1.5287279 -1.050413 -1.5711199 -1.0803016
-1.0876249 -1.4385704 -1.4006162 -1.3889319 -0.99197704 -0.91773987 -1.4719616 -1.5893914
-1.50709 -1.2570628 -1.306069 -1.4719119 -1.460122 -1.4517078 -1.5639708 -1.6034517
-1.243117 -1.5277337 -1.5194339 -0.9393353 -1.2683598 -1.411373 -1.4143602 -1.103632
-1.5382937 -1.1059754 -1.042343 -1.8371553 -1.1873957 -1.2680542 -1.4424789 -1.34142
00000000: ca71 adbf fbb9 cfbf 65f6 bbbf 98ab 95bf
00000010: f2f7 cfbf f6b9 c7bf 7a07 afbf fd07 a1bf
00000020: b5c3 cbbf 100e b1bf b977 88bf ef5a 9cbf
00000030: 024e 9fbf e589 6bbf f13a aebf 3263 9ebf
00000040: d085 a1bf 8201 88bf db66 bcbf e50b f1bf
00000050: e697 86bf b22e 9ebf 7c10 a0bf 34c0 9dbf
00000060: 45f9 e2bf 5b52 c2bf 72c9 8fbf 429e 72bf
00000070: 8a6f 87bf fc02 97bf 4656 8fbf 4a9e 8cbf
00000080: a3af c2bf 529b c3bf 1173 9abf 146e b2bf
00000090: 53d6 8dbf 574e b0bf 443d 95bf 876d c5bf
000000a0: 5932 c8bf 018b dcbf 29e8 97bf de22 9fbf
000000b0: 501e 91bf 931f a9bf af4f a7bf 76d2 c4bf
000000c0: ac3a 22bf c889 82bf 0b7f c2bf 5a04 a5bf
000000d0: b811 ccbf 9d2c aebf f809 b0bf fb49 9abf
000000e0: 3762 95bf 6770 c0bf 2cc6 b8bf 9b34 f2bf
000000f0: cbb1 4cbf 74e6 c7bf 4942 a8bf 91d7 a2bf
00000100: b9b9 a5bf 733a 8ebf 3dc6 e8bf 3d1d a9bf
00000110: 7710 b5bf c0a9 84bf 2602 adbf 1b24 afbf
00000120: 0d7c a3bf 24d0 c5bf 6485 a5bf b60e 96bf
00000130: bbad a5bf 9413 cebf 6e1c bcbf 345d acbf
00000140: d1f8 9ebf 2ccf b8bf 7046 c2bf a97b a6bf
00000150: c070 b7bf 3af9 a5bf 578b c3bf fda2 a0bf
00000160: c573 d1bf 79ec e9bf ca29 9fbf d5ac acbf
00000170: 5bad c3bf ef73 86bf 751a c9bf 5347 8abf
00000180: 4b37 8bbf 1323 b8bf 6447 b3bf 85c8 b1bf
00000190: 35f2 7dbf 00f1 6abf 3d69 bcbf 2d71 cbbf
000001a0: 53e8 c0bf 6fe7 a0bf 452d a7bf 9c67 bcbf
000001b0: 47e5 babf 90d1 b9bf 3230 c8bf e83d cdbf
000001c0: 751e 9fbf c78c c3bf cf7c c2bf 4778 70bf
000001d0: 9d59 a2bf dfa7 b4bf c109 b5bf d043 8dbf
000001e0: cfe6 c4bf 9a90 8dbf 7f6b 85bf e827 ebbf
000001f0: 95fc 97bf 9a4f a2bf 26a3 b8bf a7b3 abbf

fc2.weight f4 [64, 128]
-0.33855566 -0.036879964 0.10366328 -0.106813505 -0.12483628 0.22640647 -0.10314536 -0.13764586
-0.18976505 0.23292677 -0.054820053 -0.17184453 -0.013724424 0.27345452 -0.092724666 -0.1337869
-0.15165052 -0.04239589 -0.2476636 -0.078041054 -0.19665466 -0.121006034 -0.16660044 0.07926349
0.26543945 0.15378909 -0.098159604 0.15252073 -0.026767759 -0.36926556 0.21985379 -0.15897904
-0.28700033 -0.047999073 0.29231107 -0.15498266 -0.046925567 -0.13670309 -0.35877457 -0.096768096
-0.17036046 -0.1416981 -0.2917831 -0.1403153 -0.05326702 0.06673257 -0.11672003 -0.026439577
-0.28772366 -0.11397587 -0.09032987 -0.0061653387 0.021292651 0.15843502 0.11791102 -0.2807764
-0.11102979 -0.43441007 0.058237478 -0.1401603 -0.015892541 -0.20908454 0.16390565 -0.013936954
-0.17138702 -0.11607826 0.004744897 -0.12589681 0.14466156 0.15700224 -0.2786262 -0.16813669
0.13276072 -0.34627038 -0.014473212 -0.12105492 -0.03622751 -0.13405691 -0.13602065 -0.06420604
0.11026716 0.036206365 -0.025997626 0.17102575 -0.0007058471 0.23413268 -0.1316474 -0.007697212
0.043667912 -0.3921924 0.01773367 0.018993089 -0.12657948 -0.14141667 -0.19121514 -0.23397437
-0.27830046 0.064726554 -0.074481614 -0.25411636 0.0891846 -0.25420615 -0.09909956 -0.013611878
-0.13814038 -0.28686923 -0.09974262 -0.01206307 -0.18869546 -0.34383807 0.09595855 0.14545512
0.05536342 0.034562625 -0.089749664 -0.027151488 0.1303762 -0.09942565 -0.16923246 0.116902314
-0.35414156 -0.28568155 -0.23701596 -0.0116114225 -0.13617228 0.018979829 0.04931632 0.0531548
0.020178076 0.033609677 -0.09246165 0.00907543 -0.18731087 -0.09874979 -0.2686714 -0.21778058
0.0025673788 0.036762577 -0.04506361 -0.039646104 -0.031940334 -0.46169248 -0.32000437 -0.0737398
-0.18527757 0.0102397865 -0.06578652 -0.09346826 -0.19802736 0.12488234 -0.22311309 0.10549468
0.060518235 -0.089633204 0.0013447857 -0.018455612 -0.06474209 -0.091140546 -0.096898034 -0.052504156
0.035694744 -0.053207714 0.10204409 -0.19901602 -0.25655887 0.12203753 0.01876978 -0.123815075
-0.019412775 0.00012085421 0.08805351 -0.098375134 -0.104694694 -0.012735452 -0.12930185 -0.023348263
-0.26665288 -0.21162668 0.06969136 -0.013015414 -0.119270414 0.058389593 -0.031349074 -0.21570355
-0.3340429 0.09035706 0.039504666 -0.19608484 -0.31765 0.12416216 -0.30303717 -0.08029175
0.02469449 -0.15010905 -0.11246037 0.012095485 -0.2864907 0.065105714 -0.33497873 -0.016586564
-0.40806967 -0.27197385 -0.10203152 -0.1869845 -0.08595007 0.060300376 -0.13421917 -0.007888893
0.087438524 -0.07340605 -0.39938676 -0.026652038 0.10777788 0.19423576 0.07363921 -0.24613714
-0.069679946 -0.026661647 0.021310672 0.1966112 0.018983146 -0.019345023 -0.00074379187 0.0074734963
-0.08156385 0.079394326 -0.06451268 -0.12465886 -0.10864592 -0.2217544 -0.14895983 -0.083462894
-0.04919014 -0.1259426 0.067593634 0.06952176 -0.0551117 -0.18470149 0.2405098 -0.062345687
0.049435984 -0.07447831 0.10964243 -0.4288962 0.012099628 -0.1878101 -0.24694549 -0.27583948
-0.16347763 -0.11002356 -0.14811723 -0.10006151 -0.15921004 -0.007663813 -0.0073467935 -0.15495875
00000000: 2b57 adbe 720f 17bd 6a4d d43d 0ac1 dabd
00000010: 2aaa ffbd 19d7 673e e03d d3bd 09f3 0cbe
00000020: c551 42be 5b84 6e3e fe8a 60bd 03f8 2fbe
00000030: 68dc 60bc 3b02 8c3e 6ee6 bdbd 6fff 08be
00000040: 464a 1bbe 50a7 2dbd 879b 7dbe fdd3 9fbd
00000050: d75f 49be 03d2 f7bd 4e99 2abe e654 a23d
00000060: aee7 873e e37a 1d3e e707 c9bd 652e 1c3e
00000070: 0f48 dbbc 6010 bdbe 5a21 613e 67cb 22be
00000080: b5f1 92be ad9a 44bd cca9 953e c6b3 1ebe
00000090: 0635 40bd e5fb 0bbe 4db1 b7be 5a2e c6bd
000000a0: f972 2ebe 4f19 11be 9864 95be d0ae 0fbe
000000b0: 852e 5abd 16ab 883d e90a efbd d097 d8bc
000000c0: 8450 93be 2e6c e9bd defe b8bd 9c06 cabb
000000d0: ed6d ae3c ca3c 223e 557b f13d edc1 8fbe
000000e0: 9663 e3bd ff6a debe 6c8a 6e3d 2f86 0fbe
000000f0: 1331 82bc 421a 56be e2d6 273e d257 64bc
00000100: 1480 2fbe 70ba edbd 157b 9b3b 18eb 00be
00000110: 2922 143e 32c5 203e 18a8 8ebe 062c 2cbe
00000120: 6df2 073e 5a4a b1be 0d21 6dbc a4eb f7bd
00000130: 4c63 14bd 3746 09be ff48 0bbe 757e 83bd
00000140: c0d3 e13d 204d 143d f9f8 d4bc 6021 2f3e
00000150: 9908 39ba 7ac0 6f3e 93ce 06be e538 fcbb
00000160: 20dd 323d 71cd c8be 3446 913c 6597 9b3c
00000170: 0d9e 01be 88cf 10be e7cd 43be fa96 6fbe
00000180: 667d 8ebe 5b8f 843d d189 98bd 8a1b 82be
00000190: 6aa6 b63d 4f27 82be b6f4 cabd 5b04 5fbc
000001a0: ac74 0dbe 86e0 92be dc45 ccbd 2fa4 45bc
000001b0: 6239 41be 8b0b b0be eb85 c43d 30f2 143e
000001c0: c1c4 623d 8a91 0d3d acce b7bd cc6c debc
000001d0: 5781 053e ad9f cbbd 464b 2dbe 7b6a ef3d
000001e0: 0b52 b5be da44 92be 50b4 72be d63d 3ebc
000001f0: bf70 0bbe 967b 9b3c e9ff 493d d9b8 593d
00000200: 7e4c a53c 4daa 093d 895c bdbd 1db1 143c
00000210: 6cce 3fbe 543d cabd 4c8f 89be df01 5fbe
00000220: 7841 283b 5b94 163d 9f94 38bd f463 22bd
00000230: ded3 02bd f562 ecbe 9dd7 a3be e404 97bd
00000240: 67b9 3dbe c7c4 273c 15bb 86bd 496c bfbd
00000250: afc7 4abe 50c2 ff3d c277 64be 980d d83d
00000260: f8e1 773d 9d91 b7bd 8543 b03a 3930 97bc
00000270: 8097 84bd e5a7 babd 7a72 c6bd 990e 57bd
00000280: a734 123d 55f0 59bd 7efc d03d dbca 4bbe
00000290: af5b 83be d0ee f93d 15c3 993c c292 fdbd
000002a0: 8a07 9fbc 1c73 fd38 6655 b43d e778 c9bd
000002b0: 2c6a d6bd 5ba8 50bc b467 04be db44 bfbc
000002c0: ba86 88be aab4 58be 58ba 8e3d 9a3e 55bc
000002d0: 0c44 f4bd ed29 6f3d e367 00bd 64e1 5cbe
000002e0: ac07 abbe 1f0d b93d a5cf 213d 77ca 48be
000002f0: 05a3 a2be bb48 fe3d b027 9bbe 0070 a4bd
00000300: 194c ca3c 30b6 19be 9f51 e6bd 242c 463c
00000310: e9ae 92be 2556 853d 5582 abbe 8ce0 87bc
00000320: 82ee d0be 2840 8bbe e7f5 d0bd dd78 3fbe
00000330: 9706 b0bd 87fd 763d c070 09be 6a40 01bc
00000340: f812 b33d e955 96bd 6c7c ccbe 6055 dabc
00000350: a6ba dc3d bde5 463e 27d0 963d 600b 7cbe
00000360: 5cb4 8ebd 8769 dabc b893 ae3c 7254 493e
00000370: 8b82 9b3c 7479 9ebc 07fb 42ba 3be4 f43b
00000380: f30a a7bd 7e99 a23d 391f 84bd 254d ffbd
00000390: c181 debd 9613 63be ed88 18be 98ee aabd
000003a0: 9a7b 49bd 19f7 00be 886e 8a3d 6d61 8e3d
000003b0: cebc 61bd 6322 3dbe 3348 763e 315e 7fbd
000003c0: 637d 4a3d 1688 98bd 368c e03d 4898 dbbe
000003d0: 853d 463c 4a51 40be 47df 7cbe d53a 8dbe
000003e0: ae66 27be 0854 e1bd 0bac 17be 0ded ccbd
000003f0: f507 23be b920 fbbb 5fbd f0bb 82ad 1ebe

fc2.bias f4 [64]
0.67054933 1.4228313 -0.6541395 -0.17897256 0.4420558 0.26485953 -0.49476954 0.78603107
0.53503734 0.48030853 1.2636983 0.062140044 0.48406747 1.1851754 0.7221097 -0.00925922
0.14104964 0.5035267 -0.39513218 0.19863681 0.011930088 -0.31211165 0.018504132 0.35582563
0.10575141 0.7625619 -0.9644139 0.45577273 0.7831826 0.44787756 0.9890646 1.2179585
1.3344703 0.25680128 0.5674098 -0.3960928 0.30381918 -0.09761743 0.14836799 0.3721309
0.29255834 0.34634614 0.19314449 0.6083501 0.22680442 -0.5032495 0.58498186 -0.005887447
0.34214053 1.2269515 0.24732345 0.12765162 0.76367474 0.97111756 0.5792402 0.49651527
0.2985774 0.60234356 -1.6943046 -0.4947361 0.33582222 -0.092384584 0.31882435 0.07535624
00000000: 1fa9 2b3f 561f b63f b075 27bf 9544 37be
00000010: 2355 e23e ab9b 873e 6f52 fdbe 5539 493f
00000020: 35f8 083f 00eb f53e dec0 a13f 8f86 7e3d
00000030: b1d7 f73e d4b3 973f 2edc 383f fcb3 17bc
00000040: 516f 103e 20e7 003f c44e cabe 7367 4b3e
00000050: 6a76 433c 19cd 9fbe fa95 973c c72e b63e
00000060: 3294 d83d 4237 433f d4e3 76bf 0b5b e93e
00000070: a87e 483f 3550 e53e 5633 7d3f 10e6 9b3f
00000080: eccf aa3f 757b 833e c541 113f adcc cabe
00000090: 308e 9b3e a6eb c7bd c7ed 173e f187 be3e
000000a0: 35ca 953e 4854 b13e abc7 453e d5bc 1b3f
000000b0: 6b3f 683e f6d4 00bf 5fc1 153f 7ceb c0bb
000000c0: 0b2d af3e bf0c 9d3f 5c42 7d3e 1bb7 023e
000000d0: 3080 433f 299b 783f 1649 143f 4037 fe3e
000000e0: 23df 983e 3033 1a3f f9de d8bf 0d4e fdbe
000000f0: e4f0 ab3e 2134 bdbd f23c a33e 5f54 9a3d

fc3.weight f4 [32, 64]
0.00541875 0.058093388 -0.051020924 0.014815265 0.14580898 0.012497606 -0.19268125 0.03302901
-0.23792213 -0.00806443 -0.02028517 -0.054128237 0.044044886 -0.050984107 -0.048895173 0.006098168
-0.2160322 0.026733508 0.046425257 -0.297668 -0.05114055 0.113856465 -0.0338763 -0.087816514
-0.0421023 0.009220871 -0.012889793 -0.11727561 -0.123128444 0.013408646 0.032079525 0.031004403
0.020958666 -0.23754896 -0.19519013 -0.024591547 -0.21043837 -0.091059774 0.19629976 0.11717735
-0.048036173 0.014229467 0.06046269 -0.08044423 -0.10764585 0.035688296 -0.06933443 -0.13383465
0.056256067 0.046857923 0.004004878 -0.057145145 0.020983348 -0.054958086 0.029818274 -0.112780586
0.0018331093 0.020604555 -0.14591496 -0.03236925 0.097020596 -0.027325213 -0.09444381 0.17439477
0.04159759 0.04013139 -0.107061125 -0.0015048695 0.06369451 -0.021845052 -0.2003612 0.03966152
-0.11567918 0.032901477 0.0032457747 -0.106255636 0.039784506 0.04557519 -0.06825846 -0.3031729
-0.10851117 0.04705365 0.051192738 -0.13645317 -0.18407796 -0.08464218 -0.059449226 -0.37967816
0.022294827 0.03825123 -0.030818317 -0.08722222 -0.3264011 0.0022619464 -0.019175258 0.015089314
0.04546325 -0.1926039 -0.19706917 -0.008602304 -0.13322298 -0.04311278 0.1276018 0.18363617
-0.08220302 -0.01659378 0.078093946 -0.041772034 -0.36554044 0.031074738 0.05300758 -0.13118474
0.071687564 -0.0017748458 -0.2688134 -0.15283062 0.06680121 0.055529565 -0.017478494 -0.33301723
-0.043456394 0.0073672617 -0.27461553 -0.09746319 0.0069984053 -0.029334791 0.15997736 0.064638115
-0.15795311 0.054024212 -0.12893619 -0.110827334 -0.2945112 -0.46499136 -0.042508617 -0.19372973
0.0028654665 0.08025608 0.08686522 -0.018698685 -0.4085145 0.018218815 0.024336493 -0.00931049
-0.004638467 -0.105380595 -0.026624257 0.015686618 -0.22844145 0.13287523 -0.39647314 0.030527089
-0.04913483 -0.08799737 -0.36503962 -0.034635127 -0.029566983 -0.15167731 0.05047644 0.13316625
0.08238767 0.028873907 0.034044422 0.03788118 -0.005203973 0.011024251 -0.14246067 0.17262271
-0.325495 -0.27573428 0.02840444 -0.0099143945 0.018206788 0.15491042 0.07092667 -0.03604941
0.04838258 0.13758858 -0.025811696 -0.3209735 0.10256946 0.06610805 -0.38421097 0.016612625
-0.3002469 -0.4703835 -0.4360067 0.079711795 -0.05634149 -0.0073816986 -0.14490306 0.011325078
-0.22379573 0.10853098 -0.032088403 -0.3888743 -0.03828906 -0.40041038 -0.0011595751 -0.20381454
0.0014023972 -0.050232247 0.11301547 0.02474798 -0.20501375 0.095731474 -0.029673792 -0.01910138
0.028989736 -0.25591063 0.048186176 0.02629045 -0.10567894 -0.22598621 -0.12774514 -0.017852899
0.011714411 -0.10865636 -0.04643175 0.027537702 0.05825433 -0.34604415 0.05659493 0.11538485
0.061357882 -0.020376801 -0.005603857 -0.19456965 0.01860751 0.011613503 0.088851914 0.096532926
-0.096378766 -0.38666758 -0.3568764 0.027186815 0.04768876 0.016944377 0.071709275 -0.059778143
0.07825078 0.06226146 0.025190564 -0.0604632 0.09637776 0.10641716 -0.3669177 0.0014149375
-0.3422325 -0.28587928 -0.27082828 -0.15651786 0.12724496 -0.017109014 0.063467115 -0.008496288
00000000: c58f b13b 55f3 6d3d 51fb 50bd babb 723c
00000010: f34e 153e c2c2 4c3c 3c4e 45be 6d49 073d
00000020: dca1 73be ac20 04bc 162d a6bc 92b5 5dbd
00000030: 6968 343d b6d4 50bd 4e46 48bd 24d3 c73b
00000040: 8c37 5dbe 3b00 db3c 6928 3e3d f167 98be
00000050: c178 51bd 942d e93d e0c1 0abd 25d9 b3bd
00000060: 7673 2cbd 2313 173c b62f 53bc 322e f0bd
00000070: c42a fcbd f0af 5b3c d265 033d f2fc fd3c
00000080: 82b1 ab3c 0940 73be ecdf 47be 3674 c9bc
00000090: 287d 57be 8c7d babd ce02 493e aefa ef3d
000000a0: 94c1 44bd b622 693c baa7 773d f2bf a4bd
000000b0: 6d75 dcbd e42d 123d 36ff 8dbd f30b 09be
000000c0: c36c 663d 18ee 3f3d 5a3b 833b 0711 6abd
000000d0: 45e5 ab3c bb1b 61bd 7445 f43c 82f9 e6bd
000000e0: f144 f03a e2ca a83c bb6a 15be 9e95 04bd
000000f0: bcb2 c63d 20d9 dfbc c26b c1bd 8b94 323e
00000100: 3c62 2a3d d060 243d dd42 dbbd 0b3f c5ba
00000110: 4472 823d 65f4 b2bc 7d2b 4dbe 1e74 223d
00000120: 35e9 ecbd b3c3 063d 10b7 543b 8e9c d9bd
00000130: 14f5 223d 0dad 3a3d 17cb 8bbd 7a39 9bbe
00000140: 1b3b debd 54bb 403d 7aaf 513d 61ba 0bbe
00000150: ef7e 3cbe e158 adbd 0881 73bd 2d65 c2be
00000160: a4a3 b63c 52ad 1c3d b276 fcbc 90a1 b2bd
00000170: 0c1e a7be 2a3d 143b 6e15 9dbc 2c39 773c
00000180: ac37 3a3d f539 45be 80cc 49be aef0 0cbc
00000190: 9b6b 08be 0797 30bd 0caa 023e 1f0b 3c3e
000001a0: 0f5a a8bd aeef 87bc b8ef 9f3d 2719 2bbd
000001b0: 1e28 bbbe 7390 fe3c 7a1e 593d 4b55 06be
000001c0: eed0 923d f1a1 e8ba e9a1 89be a17f 1cbe
000001d0: 13cf 883d f872 633d 0f2f 8fbc 3c81 aabe
000001e0: 55ff 31bd 1269 f13b 689a 8cbe c89a c7bd
000001f0: e152 e53b 844f f0bc 1bd1 233e fd60 843d
00000200: 76be 21be 7e48 5d3d d907 04be 71f9 e2bd
00000210: 2cca 96be 5913 eebe 841d 2ebd 1661 46be
00000220: 8dca 3b3b 4d5d a43d 64e6 b13d fc2d 99bc
00000230: d028 d1be a03f 953c 535d c73c 078b 18bc
00000240: 48fe 97bb c8d1 d7bd 1d1b dabc 3981 803c
00000250: 8eec 69be 7210 083e 87fe cabe f213 fa3c
00000260: 9a41 49bd f737 b4bd 79e6 babe 90dd 0dbd
00000270: 7536 f2bc 4c51 1bbe 62c0 4e3d bc5c 083e
00000280: deba a83d f988 ec3c 2a72 0b3d 4c29 1b3d
00000290: 1786 aabb 0f9f 343c 36e1 11be 02c4 303e
000002a0: 48a7 a6be 0b2d 8dbe 6eb0 e83c fc6f 22bc
000002b0: 6726 953c d6a0 1e3e 0142 913d 8ca8 13bd
000002c0: d02c 463d 05e4 0c3e 0d73 d3bc a356 a4be
000002d0: f00f d23d a863 873d 4db7 c4be 3317 883c
000002e0: f6b9 99be 1bd6 f0be 453c dfbe f03f a33d
000002f0: 56c6 66bd 2de2 f1bb 7861 14be d28c 393c
00000300: b52a 65be 7e45 de3d 216f 03bd 881a c7be
00000310: fdd4 1cbd 9702 cdbe e2fc 97ba c2b4 50be
00000320: a4d0 b73a 54c0 4dbd a874 e73d 47bc ca3c
00000330: 20ef 51be dd0e c43d 7416 f3bc 7f7a 9cbc
00000340: e27b ed3c b806 83be de5e 453d 125f d73c
00000350: 336e d8bd ee68 67be 9fcf 02be 3e40 92bc
00000360: cded 3f3c 3a87 debd 382f 3ebd bf96 e13c
00000370: 189c 6e3d b32c b1be 16d0 673d e44e ec3d
00000380: 6752 7b3d 40ed a6bc 8fa0 b7bb 443d 47be
00000390: c76e 983c 9046 3e3c fef7 b53d 0eb3 c53d
000003a0: 3b62 c5bd 4bf9 c5be 81b8 b6be e2b6 de3c
000003b0: 4a55 433d efce 8a3c 50dc 923d edd9 74bd
000003c0: f241 a03d df05 7f3d 715c ce3c 43a8 77bd
000003d0: b461 c53d 3df1 d93d a3dc bbbe 6d75 b93a
000003e0: 1939 afbe c55e 92be 01aa 8abe 3846 20be
000003f0: 814c 023e 3428 8cbc 0cfb 813d 0434 0bbc

fc3.bias f4 [32]
1.0254142 0.94671094 0.86140037 0.73507905 0.13405246 0.9266344 0.9257193 1.0107096
1.0123231 0.93708074 0.991216 1.0195928 0.7933527 0.77601135 0.9031969 0.9343914
0.66361034 0.7802109 0.7034804 0.97451454 1.0156168 0.88742024 0.9236174 0.85443395
0.8229959 0.78644377 0.56458676 0.7793797 0.8411345 0.8295254 0.97751915 0.7677243
00000000: c640 833f a65b 723f bc84 5c3f 242e 3c3f
00000010: 0c45 093e e937 6d3f f1fb 6c3f ef5e 813f
00000020: ce93 813f 86e4 6f3f 55c0 7d3f 0482 823f
00000030: 2a19 4b3f aea8 463f e937 673f 4634 6f3f
00000040: 5ee2 293f e7bb 473f 4b17 343f c979 793f
00000050: bbff 813f f92d 633f 3172 6c3f 2fbc 5a3f
00000060: dcaf 523f 6154 493f c288 103f 6e85 473f
00000070: 9754 573f c75b 543f b23e 7a3f 9489 443f

fc4.weight f4 [1, 32]
0.024849797 0.033235162 -0.016882109 -0.010774392 -0.01272031 0.022585427 0.022468064 0.022274883
0.026149068 0.027021334 0.02303544 0.026980279 -0.011957012 -0.015155283 0.02540582 0.033177227
-0.011285265 -0.0134021 -0.012157133 0.022751998 0.022316465 -0.012548603 0.03393738 -0.017796068
-0.013806743 -0.0133209815 -0.011193659 -0.012440906 -0.011743027 -0.014230995 0.02144695 -0.015217175
00000000: cd91 cb3c 9821 083d 594c 8abc 1387 30bc
00000010: d968 50bc 1305 b93c f20e b83c d179 b63c
00000020: 9236 d63c d85b dd3c d2b4 bc3c bf05 dd3c
00000030: 58e7 43bc dd4d 78bc de1f d03c d8e4 073d
00000040: d5e5 38bc 7b94 5bbc b62e 47bc 6662 ba3c
00000050: 05d1 b63c a898 4dbc ec01 0b3d 0fc9 91bc
00000060: ad35 62bc 3f40 5abc 9c65 37bc f1d4 4bbc
00000070: d365 40bc 1f29 69bc 84b1 af3c 7551 79bc
