Rudi/best_model.pth (torch, 195490 bytes, 10 tensors)

encoder_rnn.weight_ih_l0 f4 [192, 40]
0.20329033 -0.15235406 -0.16221467 0.026252389 -0.08905451 0.0014956882 0.12710325 0.0042049256
0.04480652 -0.0746699 -0.14273065 0.06114386 -0.079515696 0.028532177 -0.062560745 0.058829546
0.09440909 -0.015882172 0.060042683 -0.02802268 -0.095577575 0.19679706 0.034354478 -0.03402298
0.07328354 0.10214191 -0.014701892 -0.06077183 0.08462817 -0.051611915 -0.057328057 0.14453438
0.05134601 0.113039136 -0.00146681 0.048912823 0.016590804 0.022475192 -0.090925425 0.07508558
-0.03915718 -0.032205757 -0.06422311 0.10979459 -0.017633792 0.09391606 0.081535876 -0.06490703
0.16454557 0.060390096 0.10214462 0.11149977 0.14358154 -0.04783268 -0.044601113 -0.07048296
-0.05815976 0.09804154 -0.038095176 0.028189085 -0.10004807 -0.09132892 0.07343549 0.104807824
0.045668337 -0.031408213 0.13338098 0.08261703 0.0042842077 0.17535588 -0.0016939366 0.06000773
0.090348445 0.27235076 0.049227666 0.058384575 -0.009310117 0.07425988 -0.07242506 0.04020504
0.019141505 0.0154407695 -0.09548015 -0.052651554 0.08753978 -0.008633279 -0.008055391 -0.004640304
-0.08436242 -0.05203766 -0.047324486 0.047027122 0.13025239 -0.037744235 0.14765781 0.05939188
-0.07194759 -0.0076398263 0.1431685 -0.022545606 -0.04142555 0.12811358 -0.015384008 -0.11632146
0.11278819 -0.103848204 0.067838535 0.026416125 0.061045367 0.13293228 0.01385724 -0.08819287
-0.014215888 -0.01710809 -0.11467183 -0.10786333 -0.05732497 0.004351926 0.022667402 -0.02101112
-0.0029403393 -0.09602447 0.010540254 0.024520677 -0.11236095 0.17713371 0.12657285 0.0063532665
-0.0680282 -0.019749828 -0.06320423 -0.029064205 -0.034223333 -0.048051864 -0.0467199 -0.112188786
-0.0023053335 0.11290347 0.058004767 -0.0064024995 0.02156417 -0.09173001 0.17904519 0.076196216
0.055214252 -0.10593614 0.13690194 -0.058927782 0.079530865 -0.032343756 0.14165677 -0.048518844
-0.10214037 -0.035469115 0.07089135 -0.119006746 0.08559402 -0.11277602 0.03229271 -0.12280492
0.17406507 -0.05375157 -0.13638243 -0.07705354 0.008173644 -0.11676973 -0.12463986 -0.07780681
-0.08176429 -0.089798585 0.0882208 0.029980019 -0.16224882 -0.089689165 -0.06780124 0.10820364
0.009472209 -0.03317823 0.035956495 -0.074958034 0.03995394 0.06063758 -0.085970744 0.12972924
0.031398 -0.05000326 0.07201609 0.041491237 -0.06242405 0.039762843 -0.019391436 -0.11611234
-0.019322108 -0.15135345 -0.10912099 -0.098095156 -0.12065589 -0.03488194 -0.118522964 -0.039678317
-0.045426987 0.011506436 -0.06545204 0.023614721 0.0022331367 -0.030146217 -0.0014141485 -0.04084531
0.057606068 -0.11142714 0.091711104 -0.065752886 -0.0022606573 0.027925799 -0.01657237 -0.026703382
-0.069690146 0.0798542 -0.093831636 -0.01977398 -0.11729147 0.0012617022 -0.021775667 0.019586729
-0.035584923 0.04253702 -0.10800168 0.0127720125 -0.01543822 -0.0066035767 0.070006594 0.09431231
0.014346749 -0.01918757 0.024251752 -0.001019909 -0.08844908 0.10078897 0.0008720898 -0.022553446
-0.03190345 -0.10705037 -0.08206443 -0.059111618 -0.010285749 0.08584353 -0.14554995 -0.028722173
-0.03849539 0.021767206 -0.0262331 -0.02418604 -0.046551615 -0.084405005 0.016660992 0.14875497
00000000: 572b 503e b402 1cbe 9a1b 26be 400f d73c
00000010: 3662 b6bd f80a c43a 5b27 023e 79c9 893b
00000020: 0b87 373d 88ec 98bd fc27 12be fc71 7a3d
00000030: 20d9 a2bd 50bc e93c d91f 80bd 40f7 703d
00000040: 8e59 c13d 541b 82bc 51ef 753d d28f e5bc
00000050: 2dbe c3bd 2b85 493e 48b7 0c3d ae5b 0bbd
00000060: ae15 963d c72f d13d 34e0 70bc e2eb 78bd
00000070: 8951 ad3d 0467 53bd d3d0 6abd d200 143e
00000080: 3250 523d 1081 e73d fa41 c0ba d058 483d
00000090: 70e9 873c e51d b83c 1c37 babd 78c6 993d
000000a0: 4763 20bd 2fea 03bd 6887 83bd fcdb e03d
000000b0: be74 90bc 1057 c03d 48fc a63d faed 84bd
000000c0: a27e 283e 9b5b 773d 3331 d13d fe59 e43d
000000d0: 0a07 133e 33ec 43bd a8af 36bd 5f59 90bd
000000e0: ee38 6ebd 01ca c83d b009 1cbd ccec e63c
000000f0: 01e6 ccbd a80a bbbd 5965 963d 7ca5 d63d
00000100: b90e 3b3d e6a5 00bd 0695 083e 1e33 a93d
00000110: 8a62 8c3b 7e90 333e 1507 deba aaca 753d
00000120: 9b08 b93d 8f71 8b3e f3a2 493d aa24 6f3d
00000130: 7689 18bc 9015 983d 9753 94bd 0aae 243d
00000140: a5ce 9c3c 48fb 7c3c 198b c3bd 28a9 57bd
00000150: 0e48 b33d 9972 0dbc c2fa 03bc b10d 98bb
00000160: 34c6 acbd 7125 55bd 52d7 41bd 839f 403d
00000170: e260 053e b399 1abd 9c33 173e e644 733d
00000180: 4259 93bd 8257 fabb c39a 123e 90b1 b8bc
00000190: d6ad 29bd 3530 033e 350d 7cbc f239 eebd
000001a0: 7ffd e63d 5eae d4bd eeee 8a3d a166 d83c
000001b0: b50a 7a3d 661f 083e 7a09 633c 779e b4bd
000001c0: c2e9 68bc 4426 8cbc 10d9 eabd 73e7 dcbd
000001d0: 96cd 6abd 9a9a 8e3b fdb0 b93c 831f acbc
000001e0: b5b2 40bb 7aa8 c4bd 08b1 2c3c 96df c83c
000001f0: 7f1d e6bd 8a62 353e 509c 013e 102f d03b
00000200: 5e52 8bbd 64ca a1bc 3871 81bd 0e18 eebc
00000210: c42d 0cbd 08d2 44bd 5e5d 3fbd 3cc3 e5bd
00000220: 1415 17bb ef39 e73d 6896 6d3d 0fcc d1bb
00000230: 58a7 b03c f2dc bbbd 9f57 373e c30c 9c3d
00000240: 5728 623d 0cf5 d8bd 0630 0c3e 425e 71bd
00000250: 14e1 a23d e37a 04bd 790e 113e b2bb 46bd
00000260: f82e d1bd 1048 11bd 7c2f 913d cfb9 f3bd
00000270: eb4b af3d 1df7 e6bd 5c45 043d 2581 fbbd
00000280: 1d3e 323e 9b2a 5cbd d6a7 0bbe 3fce 9dbd
00000290: bfea 053c f824 efbd 2f43 ffbd 2d59 9fbd
000002a0: 0974 a7bd 52e8 b7bd 1bad b43d a898 f53c
000002b0: 8e24 26be f4ae b7bd 60db 8abd df99 dd3d
000002c0: 5331 1b3c e5e5 07bd 1e47 133d 9983 99bd
000002d0: bea6 233d 1c5f 783d 6e11 b0bd bed7 043e
000002e0: 309b 003d 38d0 4cbd 2c7d 933d b7f2 293d
000002f0: 5cb0 7fbd 5dde 223d cada 9ebc 4ecc edbd
00000300: 6649 9ebc 66fc 1abe d37a dfbd 1de6 c8bd
00000310: 6f1a f7bd 5de0 0ebd 2bbc f2bd bb85 22bd
00000320: a611 3abd 7e85 3c3c b80b 86bd a973 c13c
00000330: d159 123b 33f5 f6bc f35a b9ba 694d 27bd
00000340: 57f4 6b3d ea33 e4bd 08d3 bb3d 73a9 86bd
00000350: 8927 14bb a5c4 e43c c7c2 87bc 0dc1 dabc
00000360: b5b9 8ebd 998a a33d cd2a c0bd 0bfd a1bc
00000370: 8336 f0bd b35f a53a e262 b2bc 5974 a03c
00000380: 7fc1 11bd 4c3b 2e3d fc2f ddbd b441 513c
00000390: 97f0 7cbc d162 d8bb 9e5f 8f3d d026 c13d
000003a0: a00e 6b3c 402f 9dbc 9cab c63c 78ae 85ba
000003b0: cb24 b5bd 736a ce3d f59c 643a 01c2 b8bc
000003c0: 31ad 02bd 393d dbbd 6511 a8bd 061f 72bd
000003d0: 8f85 28bc bcce af3d 0c0b 15be c34a ebbc
000003e0: 58ad 1dbd 2451 b23c cce6 d6bc cd21 c6bc
000003f0: e8ac 3ebd 88dc acbd a27c 883c 3953 183e

encoder_rnn.weight_hh_l0 f4 [192, 64]
-0.019627297 0.06623999 -0.03301587 0.061377395 0.03897707 -0.116086 0.086305134 0.11543012
-0.007570553 0.02588774 0.09345332 -0.11503859 0.05888775 0.03830284 -0.036410727 -0.011770187
-0.05893008 -0.047002733 0.0010220672 -0.057435386 0.027333403 0.026608704 -0.05080808 -0.058660366
0.019898111 -0.0013924075 -0.0007543241 -0.051671416 0.02293181 0.13312803 -0.04029497 -0.09238973
0.16033626 0.09232561 0.18054517 0.04854968 0.022242175 0.10218877 0.047536884 0.032246713
0.25092 0.03787289 0.119597934 -0.020580743 0.027054628 0.04913522 -0.14138512 -0.045848854
-0.08881892 0.09960341 -0.08644684 0.05839441 0.12180877 -0.111816175 -0.029638521 0.22556686
0.031234814 -0.031174574 0.0017622686 -0.0094539495 0.0335154 0.0037201045 -0.019441418 0.060918197
0.047492538 -0.19266044 0.048847124 -0.09784428 -0.03981166 -0.08958982 -0.016829057 -0.036749776
-0.03061351 0.06843712 -0.09434731 0.09973404 -0.038918246 -0.08720315 -0.11645721 0.017939685
-0.06392353 -0.080729075 -0.07860699 -0.027225155 0.03946037 -0.08243034 0.15820277 0.14060237
0.038764063 -0.024254007 0.06105035 -0.07799403 0.0060281362 -0.07510886 0.16599245 0.06879779
-0.05638929 0.055362124 -0.13280772 -0.11799661 -0.032219715 -0.09074243 0.021276198 -0.042372715
-0.27918553 -0.06470311 0.03795464 0.048803244 0.17564687 -0.010470072 0.17047064 0.07647249
-0.05184087 -0.14268425 0.1196774 -0.19900666 -0.08448262 -0.044710137 0.061194297 -0.0328998
-0.040869713 0.03277773 0.20302871 0.07434036 -0.08406831 -0.017872531 -0.02904183 -0.05579879
0.01696855 0.007521624 -0.004832674 -0.02462886 0.09695585 0.030639237 0.06502443 -0.014272609
-0.024794143 0.018914934 -0.011487069 0.0047563175 0.042934995 -0.06117996 0.010042438 0.0053681075
-0.064824924 -0.03068722 -0.06069099 -0.073307335 -0.026333258 0.021986803 0.026464375 -0.034579862
0.08372703 0.06818462 0.0034572019 -0.13992268 -0.024936445 -0.008553638 -0.090910226 -0.017153148
-0.05223407 0.057587646 -0.015962994 -0.045196496 -0.02847219 0.066933 0.032585334 -0.029961677
0.0023329912 -0.16831864 0.11022053 0.0022590759 0.07619725 -0.05905524 -0.04762666 0.036297582
-0.03482279 0.04922258 -0.08687336 -0.033869468 0.010958483 -0.099012256 0.04982693 -0.018721063
-0.16873758 -0.08427785 0.11209652 -0.08657133 -0.036821395 0.09075488 -0.17154859 -0.05731677
-0.00071405526 -0.14659023 0.04019992 -0.052486543 -0.038165074 -0.012598006 0.0059225755 -0.12148346
-0.007153046 0.089048214 -0.03406563 0.16368094 -0.030817194 -0.012462744 0.075244084 -0.04795559
0.06751684 0.0151697 0.04620562 0.04355503 0.026300313 -0.015988737 0.058970373 -0.012240762
-0.052755788 -0.013889127 -0.047857545 0.01084821 -0.030233512 -0.14619696 0.1653932 0.028198604
-0.10146385 -0.09174 -0.07509019 -0.08501349 0.019785553 0.08901925 0.020996898 -0.069376685
-0.07685482 0.072517015 -0.036845896 0.071583286 0.046264704 -0.020949379 0.11019969 0.01339987
0.055819314 -0.11019632 0.07505924 -0.10438209 -0.014422101 -0.07953325 0.046536848 -0.20323499
0.033049405 -0.014632506 -0.0461869 -0.06875538 -0.12201527 0.028587274 0.029006021 -0.04391968
00000000: 6dc9 a0bc d5a8 873d a63b 07bd dd66 7b3d
00000010: 6ca6 1f3d 7fbe edbd bfc0 b03d a066 ec3d
00000020: 6712 f8bb 8712 d43c 7464 bf3d 5a99 ebbd
00000030: 4834 713d 70e3 1c3d 6a23 15bd bed7 40bc
00000040: ab60 71bd f085 40bd e2f6 853a 5e41 6bbd
00000050: 4dea df3c 7ffa d93c 221c 50bd da45 70bd
00000060: 5d01 a33c 7181 b6ba d5bd 45ba 68a5 53bd
00000070: 7edb bb3c b752 083e 570c 25bd d436 bdbd
00000080: 302f 243e 3615 bd3d d5e0 383e 07dc 463d
00000090: 3935 b63c 5948 d13d 09b6 423d 2115 043d
000000a0: 9678 803e 9a20 1b3d c3ef f43d f298 a8bc
000000b0: aba1 dd3c 0342 493d 43c7 10be 02cc 3bbd
000000c0: b2e6 b5bd dffc cb3d 0a0b b1bd fa2e 6f3d
000000d0: e076 f93d e1ff e4bd 7ccc f2bc 00fb 663e
000000e0: 27e0 ff3c d261 ffbc ecfb e63a bde4 1abc
000000f0: 7247 093d ffcc 733b 9c43 9fbc 5c85 793d
00000100: 8987 423d c748 45be ec13 483d 9562 c8bd
00000110: 8d11 23bd de7a b7bd 17dd 89bc ef86 16bd
00000120: 2fc9 fabc c328 8c3d 2a39 c1bd 5c41 cc3d
00000130: bd68 1fbd 9197 b2bd 1e81 eebd 3ff6 923c
00000140: 57ea 82bd 4955 a5bd b4fc a0bd 4a07 dfbc
00000150: 32a1 213d 3dd1 a8bd e8ff 213e 11fa 0f3e
00000160: 11c7 1e3d 57b0 c6bc ef0f 7a3d 56bb 9fbd
00000170: ac87 c53b add2 99bd edf9 293e dbe5 8c3d
00000180: 75f8 66bd 65c3 623d bffe 07be 35a8 f1bd
00000190: d2f8 03bd 2bd7 b9bd 6c4b ae3c 038f 2dbd
000001a0: 68f1 8ebe 1083 84bd 5376 1b3d e9e5 473d
000001b0: c6dc 333e aa8a 2bbc db8f 2e3e 9c9d 9c3d
000001c0: 1857 54bd d21b 12be 6d19 f53d 67c8 4bbe
000001d0: 3905 adbd fa21 37bd dfa6 7a3d f1c1 06bd
000001e0: 0067 27bd f141 063d c2e6 4f3e c23f 983d
000001f0: 022c acbd 6a69 92bc 22e9 edbc 468d 64bd
00000200: a101 8b3c f577 f63b 685b 9ebb 77c2 c9bc
00000210: ca90 c63d 23ff fa3c 872b 853d a9d7 69bc
00000220: 161d cbbc 7ef3 9a3c 4234 3cbc e2da 9b3b
00000230: 9bdc 2f3d d697 7abd 0a89 243c f3e6 af3b
00000240: eec2 84bd c463 fbbc 1e97 78bd 2822 96bd
00000250: d8b8 d7bc ab1d b43c d1cb d83c 9da3 0dbd
00000260: 1479 ab3d 61a4 8b3d 3992 623b e447 0fbe
00000270: 8447 ccbc 8f24 0cbc 242f babd c284 8cbc
00000280: 64f3 55bd 06e1 6b3d d3c4 82bc f61f 39bd
00000290: 833e e9bc 2b14 893d 3378 053d 3172 f5bc
000002a0: 19e5 183b b95b 2cbe 4dbb e13d 010d 143b
000002b0: 4e0d 9c3d e8e3 71bd 2c14 43bd c6ac 143d
000002c0: 58a2 0ebd 9e9d 493d a9ea b1bd b6ba 0abd
000002d0: 368b 333c f0c6 cabd 5317 4c3d ea5c 99bc
000002e0: 8bc9 2cbe de99 acbd dc92 e53d 4f4c b1bd
000002f0: 08d2 16bd b2dd b93d 6faa 2fbe fdc4 6abd
00000300: 702f 3bba c01b 16be aca8 243d 21fc 56bd
00000310: fb52 1cbd de67 4ebc 2a12 c23b 52cc f8bd
00000320: 1964 eabb e95e b63d 6788 0bbd fa9b 273e
00000330: 5774 fcbc 8930 4cbc 9219 9a3d 156d 44bd
00000340: 4546 8a3d 558a 783c 1b42 3d3d c266 323d
00000350: c173 d73c d0fa 82bc eb8a 713d 7a8d 48bc
00000360: 7416 58bd 398f 63bc 4606 44bd b1bc 313c
00000370: 45ac f7bc a8b4 15be d65c 293e c200 e73c
00000380: 47cc cfbd 2ee2 bbbd e3c8 99bd 8d1b aebd
00000390: 5015 a23c b94f b63d b001 ac3c 5d15 8ebd
000003a0: 0f66 9dbd cd83 943d b9eb 16bd 429a 923d
000003b0: 0f80 3d3d 089e abbc 60b0 e13d 218b 5b3c
000003c0: cba2 643d 9cae e1bd a9b8 993d 47c6 d5bd
000003d0: ad4a 6cbc 54e2 a2bd 6c9d 3e3d d51c 50be
000003e0: d05e 073d 2ebd 6fbc 7a2e 3dbd 9fcf 8cbd
000003f0: 24e3 f9bd dc2f ea3c 099e ed3c 1fe5 33bd

encoder_rnn.bias_ih_l0 f4 [192]
0.044320308 0.042870626 0.116790324 0.101243846 0.08746682 0.1335955 0.07980749 -0.08237147
-0.026392054 0.06132598 0.08833298 -0.027935248 0.019215504 0.016468324 0.045476608 -0.030023824
-0.12154142 0.029317236 0.09663915 0.056396075 0.11530927 -0.07777511 -0.060098924 -0.047909927
0.045823723 0.07324034 0.042334 0.020573838 0.0998549 0.010399529 0.037794877 -0.05393035
0.022719067 0.028634107 -0.04935893 0.043807186 0.0066919606 0.12118267 -0.0028973795 0.056480963
-0.026521672 0.0025873177 0.08261945 0.048949357 0.047191255 0.053008668 -0.0056219106 0.065155014
0.030900827 0.13446783 -0.16100195 0.09212696 0.03158034 -0.064487316 -0.0124928765 0.043816675
-0.04799895 0.099786155 -0.023414496 0.021906747 0.009012962 0.0057357186 -0.0151651185 0.04050157
0.20286383 0.17164609 0.12238287 0.08109021 0.15898398 0.06973711 0.27133235 0.17458548
0.19941005 0.34997657 0.22515216 0.3170115 0.112614684 0.0928706 0.16542074 0.18896395
0.3844514 0.24388157 0.11992748 0.17549625 0.45469478 0.36884353 0.17947802 0.2413026
0.11013626 0.3030831 0.25400952 0.27886346 0.17537764 0.27692005 0.22777215 0.31440464
0.2519096 0.32975596 0.3469937 0.2649388 0.150078 0.21127743 0.28259215 0.32515764
0.21353653 0.3057329 0.31395543 0.2414774 0.14740388 0.07425691 0.11298878 0.149034
0.059631165 0.30349404 0.12396092 0.14935815 0.18736474 0.26639783 0.29942697 0.23763095
0.108505644 0.29193395 0.2907449 -0.010552173 0.23158239 0.33868554 0.25681707 0.2338804
-0.059016388 -0.09628675 -0.10926213 -0.19272873 0.13596322 -0.21600427 0.08517963 -0.13072713
-0.037718806 0.013628733 0.05905194 0.14146578 0.13151866 -0.008816203 0.09406841 0.015120691
-0.0010928805 -0.03728929 0.04535746 0.047577787 0.113890946 0.050155777 -0.03484458 -0.066130534
0.15739508 0.15280774 -0.2289281 -0.031894557 -0.1360905 -0.05189836 0.040274378 -0.072792545
0.13532622 -0.0405171 0.1551691 0.033602305 0.023274772 0.12665431 0.113852195 0.009869667
0.013330124 -0.069331646 -0.07682409 0.105642006 -0.12896715 -0.24381766 -0.08916977 0.15696365
-0.07015668 0.09928567 0.12487992 -0.026156357 -0.120576575 -0.07246546 0.011504806 0.08881324
-0.18328343 -0.14639977 0.0818656 -0.051227864 -0.19171378 0.08059362 0.05099721 0.07133025
00000000: 3689 353d 1c99 2f3d c42f ef3d ef58 cf3d
00000010: ce21 b33d 42cd 083e 1c72 a33d 60b2 a8bd
00000020: 2634 d8bc f330 7b3d ece7 b43d 76d8 e4bc
00000030: d569 9d3c 94e8 863c ae45 3a3d 86f4 f5bc
00000040: b5ea f8bd b32a f03c bfea c53d 92ff 663d
00000050: 4427 ec3d 8f48 9fbd 4a2a 76bd 333d 44bd
00000060: a8b1 3b3d 08ff 953d 6b66 2d3d 778a a83c
00000070: ba80 cc3d c962 2a3c cdce 1a3d 12e6 5cbd
00000080: 561d ba3c 1392 ea3c 972c 4abd 2a6f 333d
00000090: 3c48 db3b 9f2e f83d f6e1 3dbb 9558 673d
000000a0: fa43 d9bc fd8f 293b 6334 a93d 1f7f 483d
000000b0: 9e4b 413d 9e1f 593d 0138 b8bb fe6f 853d
000000c0: bb23 fd3c efb1 093e b2dd 24be 0fad bc3d
000000d0: 635a 013d ed11 84bd ecae 4cbc 1d79 333d
000000e0: 8c9a 44bd af5c cc3d c2cf bfbc c775 b33c
000000f0: 1aab 133c b2f2 bb3b 1e77 78bc f9e4 253d
00000100: 89bb 4f3e fec3 2f3e dfa3 fa3d a012 a63d
00000110: b2cc 223e 54d2 8e3d 13ec 8a3e 89c6 323e
00000120: 2632 4c3e 2130 b33e 4a8e 663e 554f a23e
00000130: 87a2 e63d f132 be3d 0e64 293e c47f 413e
00000140: d0d6 c43e 17bc 793e 8a9c f53d 4ab5 333e
00000150: c1cd e83e 0fd9 bc3e 16c9 373e 0718 773e
00000160: 1f8f e13d b52d 9b3e 890d 823e 31c7 8e3e
00000170: 3296 333e 77c8 8d3e 1a3d 693e a5f9 a03e
00000180: 4cfa 803e c6d5 a83e 29a9 b13e 0fa6 873e
00000190: 0cae 193e 1c59 583e ebaf 903e 107b a63e
000001a0: 52a9 5a3e 0689 9c3e c4be a03e da45 773e
000001b0: 0bf1 163e 0214 983d a966 e73d 5e9c 183e
000001c0: cf3f 743d 9263 9b3e 39df fd3d 58f1 183e
000001d0: 8bdc 3f3e 4c65 883e 7e4e 993e 8755 733e
000001e0: 3538 de3d 5e78 953e 84dc 943e 05e3 2cbc
000001f0: ef23 6d3e 3168 ad3e 877d 833e 587e 6f3e
00000200: 2bbb 71bd fd31 c5bd d3c4 dfbd ae5a 45be
00000210: f139 0b3e 3930 5dbe a872 ae3d 55dd 05be
00000220: 097f 1abd 0d4b 5f3c 72e0 713d 68dc 103e
00000230: d4ac 063e d671 10bc f0a6 c03d c6bc 773c
00000240: fc3e 8fba a8bc 18bd bec8 393d ede0 423d
00000250: a83f e93d 2570 4d3d 31b9 0ebd 726f 87bd
00000260: 2d2c 213e a279 1c3e 216c 6abe dea3 02bd
00000270: 4f5b 0bbe 6093 54bd bff6 243d 4214 95bd
00000280: f592 0a3e 42f5 25bd a6e4 1e3e 92a2 093d
00000290: bcaa be3c abb1 013e 572b e93d 62b4 213c
000002a0: 9866 5a3c c0fd 8dbd f355 9dbd d65a d83d
000002b0: f70f 04be 56ab 79be a49e b6bd 14bb 203e
000002c0: 4eae 8fbd 4956 cb3d 0bc1 ff3d db45 d6bc
000002d0: daf0 f6bd c568 94bd a77e 3c3c b7e3 b53d
000002e0: a7ae 3bbe d2e9 15be 27a9 a73d 4fd4 51bd
000002f0: 9e50 44be 450e a53d 73e2 503d 9815 923d

encoder_rnn.bias_hh_l0 f4 [192]
0.06796701 -0.0096739065 0.104497135 -0.049904495 -0.03954332 0.15384394 -0.017676225 0.04824265
0.023242803 0.04500212 0.16188146 -0.06380091 0.013219319 0.03995384 -0.014813187 0.0628199
0.00793011 0.05718672 0.077195816 -0.011017125 0.1324032 -0.12174242 0.024422498 -0.0002074219
-0.050248887 0.00018429341 0.09925502 0.019312283 0.055849403 0.056046985 0.02074483 -0.052149598
-0.04246844 -0.039349303 -0.009664566 -0.047121074 0.11908897 0.1406712 -0.0315556 0.10038867
0.08546956 -0.11939368 0.08585772 -0.027906846 0.07749685 0.08165705 -0.10052407 0.12612328
0.086115435 0.10832912 -0.048854332 0.052429058 -0.07217571 0.024306145 0.12082618 0.07061521
0.06370865 -0.006708478 -0.050331917 0.10982506 0.06504787 -0.10043267 0.070183106 0.029519357
0.101468734 0.22183794 0.1950903 0.09230445 0.13123624 0.113954455 0.21092404 0.25203934
0.06782992 0.28333262 0.24949268 0.2586507 0.100633286 0.19910266 0.08608077 0.2332359
0.40159652 0.336739 0.25311333 0.23024899 0.5020408 0.3769734 0.17785883 0.21400352
0.11217739 0.15752888 0.22054724 0.20042838 0.089978375 0.25958955 0.25627 0.33123878
0.26325688 0.31282476 0.25919738 0.24274497 0.13874656 0.17247292 0.20324503 0.30120987
0.28041723 0.2923127 0.17202815 0.3159273 0.24912813 0.074620865 0.1900309 0.21132922
0.018690925 0.36034116 0.25818342 0.21794322 0.24532716 0.35743144 0.22768152 0.26561776
0.1625921 0.3890926 0.1971135 0.10658914 0.28151253 0.32004628 0.35996273 0.20353013
-0.17118068 -0.102138855 -0.15129608 -0.13000146 0.17879146 -0.21775995 0.15633056 -0.10733482
0.047739036 0.08390237 0.09475248 -0.016138963 0.12894282 -0.071334794 0.14831065 0.058961503
-0.006368703 -0.10621257 -0.11084898 0.054533962 0.07941515 0.117413305 0.08535453 -0.09250353
-0.04581303 0.15367971 -0.14011945 0.06404187 -0.093462884 0.057417218 0.13904735 -0.117981955
0.07042331 -0.0027698856 0.11651472 0.048136037 -0.18434757 0.12424009 0.13057056 0.076438434
0.08714573 0.0327515 -0.12585634 -0.028555786 0.010015747 -0.102955624 -0.122686155 0.002267755
-0.1616976 0.14374858 0.08955865 -0.09305526 0.08174356 -0.15402423 0.12013914 -0.15316819
-0.062402986 0.027283514 -0.10218644 -0.23304921 -0.015618345 -0.015531336 -0.06456544 -0.038533486
00000000: 4a32 8b3d 4e7f 1ebc 9802 d63d a868 4cbd
00000010: 2df8 21bd 4489 1d3e bbcd 90bc 169a 453d
00000020: b167 be3c 2554 383d 41c4 253e 0daa 82bd
00000030: d895 583c a3a6 233d 02b3 72bc b8a7 803d
00000040: 4bed 013c 9f3c 6a3d d718 9e3d 2c81 34bc
00000050: b494 073e 1754 f9bd b111 c83c 647f 59b9
00000060: c7d1 4dbd e33e 4139 3746 cb3d cb34 9e3c
00000070: 58c2 643d 8691 653d 10f1 a93c d19a 55bd
00000080: 63f3 2dbd bc2c 21bd 2158 1ebc 0702 41bd
00000090: ebe4 f33d 1c0c 103e 7240 01bd 9398 cd3d
000000a0: aa0a af3d ac84 f4bd 2cd6 af3d e69c e4bc
000000b0: abb6 9e3d d03b a73d 90df cdbd 7626 013e
000000c0: 4a5d b03d a8db dd3d 7b1b 48bd dabf 563d
000000d0: dcd0 93bd ae1d c73c b773 f73d b59e 903d
000000e0: ae79 823d cbd2 dbbb d728 4ebd f6eb e03d
000000f0: d137 853d a5af cdbd 29bc 8f3d 94d2 f13c
00000100: d7ce cf3d 7c29 633e c0c5 473e 1e0a bd3d
00000110: cb62 063e f460 e93d 79fc 573e 4d0b 813e
00000120: 6aea 8a3d f910 913e 027b 7f3e dd6d 843e
00000130: d318 ce3d 91e1 4b3e 1d4b b03d 64d5 6e3e
00000140: 0f9e cd3e 0e69 ac3e 1298 813e 64c6 6b3e
00000150: bf85 003f a802 c13e a020 363e bd23 5b3e
00000160: 42bd e53d 404f 213e 23d7 613e 193d 4d3e
00000170: 9546 b83d ece8 843e d235 833e 2198 a93e
00000180: 9bc9 863e 912a a03e 85b5 843e 2392 783e
00000190: 9413 0e3e be9c 303e 771f 503e 2e38 9a3e
000001a0: d992 8f3e 03aa 953e 2628 303e 39c1 a13e
000001b0: 721b 7f3e d3d2 983d 7697 423e b066 583e
000001c0: b61d 993c a37e b83e 9e30 843e 822c 5f3e
000001d0: 0b37 7b3e 4101 b73e 5825 693e 0dff 873e
000001e0: 8b7e 263e 2537 c73e 1fd8 493e 684b da3d
000001f0: 6922 903e 1bdd a33e 094d b83e 346a 503e
00000200: fd49 2fbe 2d2e d1bd 5ced 1abe 1a1f 05be
00000210: 1c15 373e 77fc 5ebe 1e15 203e 5cd2 dbbd
00000220: 028a 433d 01d5 ab3d 970d c23d dc35 84bc
00000230: 9609 043e fa17 92bd bfde 173e 9e81 713d
00000240: 8eb0 d0bb fa85 d9bd ca04 e3bd 015f 5f3d
00000250: 69a4 a23d 6376 f03d 5bce ae3d 7e72 bdbd
00000260: 72a6 3bbd 375e 1d3e 797b 0fbe 6228 833d
00000270: 7869 bfbd 512e 6b3d 6e62 0e3e 86a0 f1bd
00000280: 193a 903d f886 35bb 459f ee3d 4b2a 453d
00000290: 9cc5 3cbe 9771 fe3d 4ab4 053e c18b 9c3d
000002a0: 7679 b23d 7026 063d 7ce0 00be d3ed e9bc
000002b0: 1619 243c 66da d2bd e142 fbbd 9e9e 143b
000002c0: 0e94 25be d432 133e 876a b73d c293 bebd
000002d0: 2b69 a73d 87b8 1dbe 820b f63d 1fd8 1cbe
000002e0: 469a 7fbd ad81 df3c 2047 d1bd 74a4 6ebe
000002f0: 16e4 7fbc 2577 7ebc e33a 84bd 4ad5 1dbd

decoder_rnn.weight_ih_l0 f4 [192, 64]
-5.011204e-38 -2.9582913e-38 4.0148075e-38 -4.8110236e-38 -3.8713846e-38 7.050638e-38 2.7588072e-38 -2.2747824e-38
2.2171521e-38 9.17855e-39 4.1876067e-38 -4.783024e-38 6.316764e-38 6.466425e-38 2.3155789e-38 -3.8107692e-38
3.2651571e-38 4.3451185e-38 1.6901341e-38 3.081462e-38 -6.4567293e-38 4.1890472e-38 4.9890166e-38 5.577031e-38
3.00583e-38 -2.756149e-38 6.290524e-38 -4.1524162e-38 -1.859854e-39 -3.8136388e-38 4.6575596e-38 4.0119878e-38
3.0469806e-38 -7.522439e-39 -4.1177828e-38 3.3493387e-38 2.424933e-38 2.8361732e-38 1.625615e-38 -2.7313502e-38
5.6114246e-38 2.4781596e-38 1.4351987e-38 -2.4153478e-38 -5.7056675e-38 -8.01494e-39 -2.3007229e-38 -6.812312e-39
-9.67937e-39 3.067602e-38 2.7696782e-38 1.4773413e-38 3.4070296e-38 -5.4661626e-38 2.3667634e-38 -1.227434e-39
1.0294471e-38 1.9907468e-38 3.11731e-38 -1.4468386e-38 3.64425e-38 6.2717893e-38 5.412845e-39 7.443801e-39
5.480085e-38 -4.5174645e-38 2.6774346e-38 6.1245963e-38 5.963676e-38 1.2927466e-38 -1.0907023e-38 1.7332846e-38
-2.413389e-38 5.366677e-38 3.1275653e-38 -1.1632638e-38 6.077574e-38 -2.4660608e-38 3.61838e-40 3.8493602e-38
3.2314596e-38 2.8383962e-38 1.0703964e-38 2.2619076e-38 -4.6419825e-38 -3.6488554e-38 -6.694446e-39 4.190565e-38
2.3319176e-38 -1.4147197e-38 2.4661522e-38 -5.807612e-38 -3.1627844e-38 -7.038697e-38 -5.3367135e-38 4.2869363e-38
-1.1027482e-38 -1.5375484e-38 -1.5165386e-38 -5.655273e-38 -5.4190437e-38 -5.8467205e-38 2.4025694e-38 -4.3272368e-38
4.5235972e-38 2.1762876e-38 -8.610511e-39 5.507206e-38 -5.5233457e-38 4.3560593e-38 -2.3898092e-38 7.480462e-39
-4.3432217e-38 -2.6383306e-38 1.4408924e-38 -3.9520277e-38 1.5230394e-38 4.8518e-39 4.2358478e-38 5.133452e-38
1.3757556e-38 4.410727e-39 -3.5635255e-38 3.9262802e-38 5.460354e-38 -4.143294e-38 -6.1629723e-38 6.6283374e-38
6.125702e-38 4.4351517e-38 2.1716334e-38 -3.3864732e-38 6.2252466e-38 -2.962064e-38 4.2955246e-38 1.434116e-38
-9.279085e-39 -4.0459562e-38 -2.749473e-38 8.713389e-39 4.6407216e-38 1.7851124e-38 -4.0493964e-38 -4.0490665e-38
-4.5594188e-38 -5.59998e-38 -3.3982329e-38 4.105816e-38 -1.8938829e-38 -6.1015977e-38 5.0068697e-38 2.2092858e-38
-4.753378e-39 -5.206138e-39 6.1346196e-38 -5.316523e-38 -3.3245604e-38 -4.6087905e-38 -1.7460374e-38 1.7930003e-38
-2.806588e-39 4.83035e-38 -5.5837467e-38 2.2964059e-38 2.629466e-38 -4.761912e-39 -4.912067e-38 1.3801449e-38
-2.820915e-39 -6.9421525e-38 -5.31295e-39 2.9187102e-38 2.1457146e-38 3.5456733e-38 -7.37585e-39 2.303566e-38
-3.994949e-39 9.090997e-39 -3.381566e-39 -3.4246507e-38 2.4084576e-38 4.6852907e-38 -3.3924e-39 -5.508601e-38
-5.388089e-38 1.9355815e-38 1.6530782e-38 -2.567766e-39 4.069814e-39 -3.261278e-39 -1.089495e-38 -7.709909e-39
5.06787e-38 -6.710649e-39 2.1640579e-38 -7.63187e-39 6.246502e-38 -3.0287884e-38 -3.1661733e-38 -6.6333243e-38
-5.810649e-38 -4.967838e-38 -4.4957693e-38 -9.915229e-39 7.0312084e-38 -2.674741e-38 -3.22897e-38 6.935573e-38
-3.4267423e-38 1.2199105e-38 -3.182045e-38 -1.9281553e-38 2.398949e-38 7.36705e-40 -9.981857e-39 1.995051e-38
-5.8352097e-38 2.4716867e-38 -5.387517e-38 4.6215936e-38 2.739455e-38 2.0638493e-38 -2.0601851e-38 4.07186e-38
3.7142862e-38 -5.4928e-41 -5.164137e-38 -1.4495358e-38 3.3397085e-38 3.9285055e-38 -1.3126352e-38 -5.193975e-38
-3.8183564e-38 -3.270829e-38 4.1382132e-38 -6.6580544e-38 1.0469992e-38 -4.1256912e-38 -1.30464e-40 2.0055944e-38
4.365014e-38 -4.278506e-38 2.2077557e-38 -3.483886e-39 -2.4843074e-38 1.6206233e-38 -2.515683e-38 4.3427523e-38
-1.4733726e-38 1.264896e-39 4.70709e-38 3.938231e-38 9.784674e-39 -1.62936e-39 5.5659934e-38 1.2731581e-38
00000000: ff6a 8881 9010 2181 4096 5a01 f1f7 8281
00000010: 3ac7 5281 c7ef bf01 2934 1601 aeb3 f780
00000020: 2e6d f100 10f2 6300 b8fe 6301 d034 8281
00000030: 6cf5 ab01 6808 b001 eb24 fc00 5f7a 4f81
00000040: a6c5 3101 1d92 6c01 100a b800 50c5 2701
00000050: d6c4 af81 cc12 6401 5fd0 8701 3cd2 9701
00000060: 28a7 2301 1c0f 1681 8e3e ab01 3c14 6281
00000070: 8440 1480 5ea2 4f81 e894 7d01 f36e 5a01
00000080: b6e4 2501 80e9 5180 8431 6081 f85a 3601
00000090: a206 0401 7c6a 1a01 8803 b100 77b5 1481
000000a0: ecc1 9801 81ec 0601 8047 9c00 0981 0381
000000b0: b352 9b81 6446 5780 cb86 fa80 f42d 4a80
000000c0: 2566 6980 2204 2701 aecb 1601 44de a000
000000d0: 107f 3901 98cd 9481 dedb 0001 965d 0d80
000000e0: cc18 7000 ecc5 d800 f6b8 2901 f98b 9d80
000000f0: 6f69 4601 febb aa01 cff0 3a00 4a0e 5100
00000100: 9e2e 9501 44f4 7581 fec5 1101 35ba a601
00000110: c258 a201 84c4 8c00 58c4 7680 ecbc bc00
00000120: bc65 0381 4818 9201 e647 2a01 10ab 7e80
00000130: 8272 a501 df43 0681 a8f0 0300 4094 5101
00000140: f9ef 2f01 7889 1a01 4c8e 7400 c84c f600
00000150: cbbb 7c81 9fa9 4681 64e5 4880 f427 6401
00000160: 60ec fd00 a10c 9a80 2545 0601 2619 9e81
00000170: c832 2c81 8f9c bf81 7747 9181 2c67 6901
00000180: 2214 7880 986c a780 ed22 a580 80f3 9981
00000190: 3985 9381 b229 9f81 eece 0201 e198 6b81
000001a0: be49 7601 0bfa ec00 9ac2 5d80 a0eb 9501
000001b0: 1a5c 9681 9b2a 6d01 141d 0281 7c74 5100
000001c0: ad77 6c81 f6a4 0f81 38e6 9c00 3a2b 5781
000001d0: 24d8 a500 d8d4 3400 1a9f 6601 f0be 8b01
000001e0: 78ce 9500 5007 3000 4c04 4281 5cc4 5501
000001f0: 1da5 9401 1795 6181 a6c5 a781 c570 b401
00000200: eac1 a601 fe78 7101 4e78 ec00 8c60 3881
00000210: a377 a901 2645 2181 e0de 6901 5229 9c00
00000220: 500a 6580 6648 5c81 0fb2 1581 62e1 5e00
00000230: 38aa 7c01 ac61 c200 5978 5c81 c073 5c81
00000240: 063d 7881 2a72 9881 7404 3981 b98a 5f01
00000250: c039 ce80 ee19 a681 ca4c 8801 e691 f000
00000260: 7cc2 3380 98b0 3880 0f00 a701 c2ba 9081
00000270: 9c01 3581 2aed 7a81 6b20 be80 8e3d c300
00000280: a08f 1e80 a07e 8301 0901 9881 740e fa00
00000290: 6829 0f01 46da 3380 1cb8 8581 d348 9600
000002a0: 90b7 1e80 befb bc81 58da 3980 e2e8 1e01
000002b0: cba5 e900 790b 4101 de50 5080 0cd6 fa00
000002c0: 4b80 2b80 00fe 6200 6ed2 2480 aa74 3a81
000002d0: 0021 0301 6c17 7f01 a2f0 2480 59f5 9581
000002e0: 80ad 9281 23c4 d200 1801 b400 e3f5 1b80
000002f0: fc50 2c00 1e83 2380 b0a2 7680 17f4 5380
00000300: e6f5 8901 8f12 4980 21a5 eb00 8c1a 5380
00000310: c40b aa01 26e7 2481 0462 2c81 8693 b481
00000320: 502e 9e81 c73c 8781 e1c5 7481 a0f7 6b80
00000330: 5f68 bf01 73a0 1181 46cd 2f81 e4cd bc01
00000340: d191 3a81 24d6 8400 3c3f 2d81 20f5 d180
00000350: 789c 0201 a205 0800 5bb1 6c80 e83d d900
00000360: 7ad9 9e81 4992 0601 84a9 9281 9d9f 7b01
00000370: 6e26 1501 b9bb e000 9455 e080 72b1 5d01
00000380: 9839 4a01 1e99 0080 c894 8c81 29d7 9d80
00000390: bed4 3501 60e3 5501 eeee 8e80 b964 8d81
000003a0: 1fe4 4f81 b414 3281 464e 6101 de3f b581
000003b0: 1402 7200 be9f 6081 ae6b 0180 d063 da00
000003c0: 6aa7 6d01 acf1 6881 3f67 f000 a8ef 2580
000003d0: 3142 0781 6278 b000 81f7 0881 2271 6c01
000003e0: a26f a080 04c6 0d00 a123 8001 ee6a 5601
000003f0: b18b 6a00 febd 1180 5085 9701 78a2 8a00

decoder_rnn.weight_hh_l0 f4 [192, 64]
0.13851112 -0.042012602 0.029054077 0.095766924 0.036714334 -0.07106679 -0.10061147 -0.11982207
0.080978334 -0.115862675 -0.1038925 0.00760168 -0.17474847 0.05825759 -0.037964694 -0.02045781
0.07871729 -0.01293542 0.1171343 0.079569824 0.097641215 -0.03376286 -0.009431919 -0.0079249265
-0.059773795 -0.13183093 0.13799833 -0.03223968 -0.124330565 -0.43824995 -0.010172591 0.012009647
0.08716482 0.09300006 -0.3618368 -0.008605446 -0.03346597 -0.075917214 -0.009934642 0.05719892
-0.032446634 0.06616322 -0.09726463 0.027891051 0.13044423 0.020234173 -0.12224646 -0.008744019
-0.0017515856 -0.062067784 -0.068585224 0.022901818 -0.10440608 -0.1535878 -0.05188684 -0.005915991
0.08479845 -0.044614926 0.027805094 0.057198774 -0.08535392 0.0072553265 -0.03792184 0.029488433
-0.20677875 0.076456346 0.054853868 -0.047615077 -0.029653698 0.13212444 -0.023570398 -0.09187576
0.11375569 -0.0947074 -0.17924303 0.030690057 -0.048285674 0.10306766 0.05974782 -0.16690043
0.09335641 -0.023329658 0.09007936 -0.031079806 -0.120812215 0.22548218 -0.012547153 -0.063577555
-0.07040273 -0.08215571 0.17016235 0.06015303 0.120977975 0.21277878 0.10286444 -0.0071065174
-0.043114353 -0.14211458 0.26611388 0.1826439 0.042937096 -0.2713868 0.043543532 -0.049011257
-0.10178556 0.05662948 0.051746234 -0.12333224 0.08844395 0.013251176 -0.11616527 0.026083011
0.105532676 -0.0845883 0.1842092 0.034381207 0.06740029 0.066065006 -0.011492979 0.22020479
0.1737533 0.2011435 0.03266687 0.08656553 0.024616836 -0.13398764 0.103299804 0.17508338
0.06888083 -0.055742368 0.030036047 -0.080253586 0.032298807 0.023239179 -0.030868178 0.017458815
0.13993189 0.017567288 0.013921733 0.036020096 0.13526177 0.099114016 -0.040420588 0.10015537
0.06553761 -0.07787202 -0.09009962 0.033241045 0.079395756 -0.047505353 0.06696871 0.060362995
0.11073415 -0.04333461 0.13920274 -0.025315793 0.0012511343 0.08337657 -0.0969482 -0.10903123
0.04108759 -0.08135118 -0.15329279 -0.13860326 0.032372333 -0.043981384 0.096529014 0.1014201
-0.036155503 -0.013796293 -0.04397673 -0.0042772605 -0.034975782 -0.11364462 -0.04584825 0.08387928
0.045551002 0.057269305 -0.12284469 0.04315629 0.02501264 0.062232807 0.07285158 -0.18080664
-0.15288143 0.029204682 0.015439648 0.04993409 -0.07673426 -0.022785485 -0.046989992 -0.05510176
0.042674374 -0.14942636 -0.067817114 -0.16122256 -0.21045178 -0.043081332 0.025216388 -0.29273152
0.29642755 0.2310759 -0.022908803 0.08997226 0.003736906 0.004284629 -0.024262618 0.10452012
-0.010044232 -0.0059622205 -0.11846212 -0.020131653 0.29989672 -0.053855434 -0.124349125 0.0049070874
0.18029416 0.13671663 -0.110693224 0.007706023 0.026159575 -0.0009434592 -0.1293603 0.010822107
-0.014567987 -0.25115874 -0.1452916 0.06405518 0.10450185 0.21831597 -0.12510106 0.11220674
-0.0646952 -0.048349656 0.004530735 -0.005427585 -0.17266862 -0.1573014 0.10301863 0.027874641
0.007000954 0.118920065 0.07889433 0.01709505 -0.015273725 -0.0585165 0.1303848 -0.106500044
0.07610971 0.043784205 0.11510051 -0.1573712 -0.20443697 -0.08195245 -0.028896796 0.037483208
00000000: dcd5 0d3e 6815 2cbd d102 ee3c 7321 c43d
00000010: c561 163d 778b 91bd 630d cebd 4665 f5bd
00000020: f8d7 a53d 6949 edbd 97c5 d4bd 8317 f93b
00000030: 43f1 32be 839f 6e3d de80 1bbd 2397 a7bc
00000040: 8836 a13d 15ef 53bc 1ce4 ef3d 81f5 a23d
00000050: 1ef8 c73d ed4a 0abd 5688 1abc 8dd7 01bc
00000060: 5ed5 74bd b0fe 06be 6f4f 0d3e c10d 04bd
00000070: 06a1 febd 4c62 e0be f0aa 26bc 1cc4 443c
00000080: 7883 b23d d176 be3d ac42 b9be dbfd 0cbc
00000090: 9d13 09bd 7c7a 9bbd e9c4 22bc 6a49 6a3d
000000a0: c3e6 04bd 9580 873d ae32 c7bd c67b e43c
000000b0: 2c93 053e 23c2 a53c 5a5c fabd 1343 0fbc
000000c0: 7695 e5ba ca3a 7ebd 6976 8cbd 989c bb3c
000000d0: dbd2 d5bd 1f46 1dbe 4c87 54bd eeda c1bb
000000e0: cfaa ad3d 24be 36bd 82c7 e33c 4349 6a3d
000000f0: 09ce aebd 17be ed3b ee53 1bbd ba91 f13c
00000100: cfbd 53be 2595 9c3d 73ae 603d 0708 43bd
00000110: 50ec f2bc a14b 073e b516 c1bc 5c29 bcbd
00000120: bef8 e83d f4f5 c1bd 7c8b 37be b769 fb3c
00000130: 33c7 45bd 2315 d33d 21ba 743d f2e7 2abe
00000140: a531 bf3d d71d bfbc 877b b83d 149b febc
00000150: 656c f7bd cde4 663e 9392 4dbc f334 82bd
00000160: 4e2f 90bd 4141 a8bd 0a3f 2e3e 0663 763d
00000170: 4dc3 f73d aee2 593e 97aa d23d cadd e8bb
00000180: ad98 30bd 7c86 11be 1440 883e 0107 3b3e
00000190: cfde 2f3d 36f3 8abe b45a 323d 07c0 48bd
000001a0: f374 d0bd 50f4 673d dcf3 533d 9d95 fcbd
000001b0: 1a22 b53d 761b 593c 0fe8 edbd 0aac d53c
000001c0: 8421 d83d a13c adbd 56a1 3c3e 4fd3 0c3d
000001d0: 2a09 8a3d 174d 873d 0c4d 3cbc 5d7d 613e
000001e0: 63ec 313e 90f8 4d3e b2cd 053d 4549 b13d
000001f0: 3fa9 c93c 0e34 09be d98e d33d 0f49 333e
00000200: 6511 8d3d 1c52 64bd 280e f63c fe5b a4bd
00000210: c14b 043d 1760 be3c 43df fcbc ca05 8f3c
00000220: 4e4a 0f3e 46e9 8f3c fb17 643c cf89 133d
00000230: 1082 0a3e 4afc ca3d 0f90 25bd 421e cd3d
00000240: 9538 863d 5e7b 9fbd 2686 b8bd c327 083d
00000250: 3e9a a23d f994 42bd e426 893d 303f 773d
00000260: 96c8 e23d a27f 31bd 2a8b 0e3e 1163 cfbc
00000270: 1afd a33a 56c1 aa3d c78c c6bd c44b dfbd
00000280: 764b 283d 739b a6bd c9f8 1cbe 03ee 0dbe
00000290: da98 043d d325 34bd 01b1 c53d 57b5 cf3d
000002a0: cb17 14bd d909 62bc f220 34bd 4328 8cbb
000002b0: c442 0fbd 83be e8bd 60cb 3bbd e6c8 ab3d
000002c0: b093 3a3d 3893 6a3d ff95 fbbd a6c4 303d
000002d0: 4fe7 cc3c d4e7 7e3d 3633 953d 6025 39be
000002e0: f38c 1cbe a83e ef3c 94f6 7c3c b087 4c3d
000002f0: da26 9dbd a0a8 babc 9478 40bd 62b2 61bd
00000300: 53cb 2e3d 3903 19be b3e3 8abd 8717 25be
00000310: ac80 57be 0d76 30bd 9992 ce3c e8e0 95be
00000320: 5ac5 973e 299f 6c3e 3eab bbbc 6043 b83d
00000330: e1e6 743b 1366 8c3b 66c2 c6bc a50e d63d
00000340: 9090 24bc bb5e c3bb 459c f2bd 23eb a4bc
00000350: 108c 993e 8497 5cbd c1aa febd a2cb a03b
00000360: 089f 383e 72ff 0b3e 21b3 e2bd ce82 fc3b
00000370: 9b4c d63c 7a52 77ba 0777 04be 354f 313c
00000380: 91ae 6ebc e197 80be 52c7 14be 5d2f 833d
00000390: 1105 d63d 398e 5f3e 7e1a 00be a6cc e53d
000003a0: eb7e 84bd 4a0a 46bd 8f76 943b e2d9 b1bb
000003b0: 0bd0 30be 9e13 21be 6efb d23d 5c59 e43c
000003c0: 4268 e53b 5d8c f33d 5a93 a13d eb0a 8c3c
000003d0: a53e 7abc ffae 6fbd 9883 053e b21c dabd
000003e0: 68df 9b3d 1157 333d d1b9 eb3d ea25 21be
000003f0: ed57 51be b0d6 a7bd f9b8 ecbc fe87 193d

decoder_rnn.bias_ih_l0 f4 [192]
-0.028720897 0.07250959 0.11699299 0.070965596 0.117564544 -0.0064900666 0.024791913 0.18746394
-0.09942973 0.07887155 -0.015034429 0.00013393667 0.03939397 -0.036068957 -0.01940769 0.01806663
0.23204705 0.10376189 0.025632713 0.097669855 0.034320436 0.08689355 0.12557083 0.16296087
0.033589233 -0.028920537 0.093839556 0.12220255 0.049250744 0.0745827 0.12520507 -0.034279574
-0.061472997 -0.010562779 0.09525774 0.09864723 -0.065779865 0.044428743 -0.017604064 -0.037872735
0.011112919 0.04997341 0.122823045 -0.012666039 0.10875562 0.034695078 0.21026713 0.10848384
-0.08318939 0.13276447 -8.07231e-05 0.039634313 0.066231206 -0.062717505 0.16645537 -0.056045983
0.018029334 0.02512692 0.0424637 0.12168327 -0.02732562 -0.037686553 0.10399333 0.02318866
0.29798406 0.55179566 0.3294996 0.29003337 0.40229055 0.19910707 0.36150283 0.6049762
0.4045318 0.3124918 0.19014466 0.4384729 0.12022128 0.30352223 0.32671267 0.25496227
0.7355154 0.27284783 0.38935268 0.36660078 0.36204696 0.45060784 0.33408865 0.17320478
0.24488315 0.24778542 0.31932193 0.5257291 0.33627316 0.14681007 0.3631872 0.5562481
0.31420106 0.53173906 0.512368 0.16258377 0.27937636 0.4586953 0.32226682 0.3117865
0.23712066 0.32063308 0.49171048 0.46219522 0.3499603 0.49234653 0.23712368 0.41629657
0.3081127 0.3465439 0.41130373 0.29166642 0.23145926 0.47463965 0.41496283 0.45504493
0.42467564 0.3275543 0.19944526 0.2139809 0.3801595 0.4494742 0.53534645 0.20687118
0.00017964191 -0.12466899 -0.0016840781 -0.061389472 -0.08380082 -0.057710465 0.08748616 -0.06284515
0.0013884257 0.08764575 0.08143978 0.04576057 0.073862515 -0.048795424 -0.055273764 0.084271744
0.07461125 -0.003392505 -0.10094517 0.09437638 0.024672208 -0.040963612 0.097320616 0.037811626
0.012897815 0.08318494 -0.023059525 -0.07789021 0.120176844 0.010667214 0.047633 -0.058447715
0.018997168 -0.049698856 -0.019173374 -0.004338499 0.110784695 -0.08124671 0.038938202 -0.027720608
0.099291176 -0.009618444 0.019011874 0.07141357 0.026615027 -0.031087909 0.047178376 -0.14201286
-0.07602137 -0.035792544 0.10529247 -0.045648202 -0.06405637 -0.04340429 0.10326031 -0.053433284
0.05857087 0.05406402 0.08866217 -0.017438093 -0.027867906 0.041029286 -0.08242426 0.11621914
00000000: 1648 ebbc e87f 943d 059a ef3d 6956 913d
00000010: aec5 f03d a0aa d4bb 6918 cb3c 8cf6 3f3e
00000020: d0a1 cbbd 6887 a13d f752 76bc 5a71 0c39
00000030: 925b 213d 0bbd 13bd e0fc 9ebc 7800 943c
00000040: be9d 6d3e 1d81 d43d b2fb d13c 2207 c83d
00000050: 9693 0c3d 3ff5 b13d a495 003e 37df 263e
00000060: dd94 093d c3ea ecbc f42e c03d 5545 fa3d
00000070: 26bb 493d d1be 983d c235 003e bd68 0cbd
00000080: 1ccb 7bbd 820f 2dbc 7d16 c33d 8f07 ca3d
00000090: 98b7 86bd eafa 353d 6636 90bc 7120 1bbd
000000a0: f612 363c ebb0 4c3d a68a fb3d 3885 4fbc
000000b0: 44bb de3d 6d1c 0e3d 4450 573e c72c de3d
000000c0: 335f aabd 69f3 073e e249 a9b8 9757 223d
000000d0: 3aa4 873d 0972 80bd 4773 2a3e 7990 65bd
000000e0: 41b2 933c f8d6 cd3c 6bee 2d3d 1435 f93d
000000f0: fbd9 dfbc 375d 1abd 74fa d43d 25f6 bd3c
00000100: 5e91 983e 7b42 0d3f 2cb4 a83e 417f 943e
00000110: 07f9 cd3e b9e2 4b3e e616 b93e b8df 1a3f
00000120: cb1e cf3e edfe 9f3e 48b5 423e 857f e03e
00000130: 9336 f63d 4467 9b3e e246 a73e 6a8a 823e
00000140: bd4a 3c3f b6b2 8b3e 3c59 c73e 19b3 bb3e
00000150: 385e b93e 12b6 e63e ab0d ab3e 985c 313e
00000160: a6c2 7a3e 76bb 7d3e 2a7e a33e 2f96 063f
00000170: ff2b ac3e 6155 163e acf3 b93e 4766 0e3f
00000180: f6de a03e 0d20 083f 8d2a 033f 5c7c 263e
00000190: 6b0a 8f3e 1cda ea3e 2800 a53e 7ba2 9f3e
000001a0: c2cf 723e 052a a43e 7ac1 fb3e daa4 ec3e
000001b0: ff2d b33e d814 fc3e 8dd0 723e d324 d53e
000001c0: f3c0 9d3e 346e b13e 6796 d23e 4d55 953e
000001d0: a803 6d3e f803 f33e 0276 d43e a6fb e83e
000001e0: 166f d93e 32b5 a73e 613b 4c3e cf1d 5b3e
000001f0: 44a4 c23e 7b21 e63e 770c 093f 0ad6 533e
00000200: 425e 3c39 7552 ffbd 49bc dcba 8773 7bbd
00000210: c49f abbd cf61 6cbd f22b b33d f5b4 80bd
00000220: d6fb b53a 9d7f b33d e6c9 a63d 6f6f 3b3d
00000230: 3b45 973d b6dd 47bd be66 62bd aa96 ac3d
00000240: c8cd 983d ca54 5ebb 57bc cebd 6748 c13d
00000250: 5f1d ca3c 76c9 27bd 0850 c73d 5de0 1a3d
00000260: 5b51 533c de5c aa3d 54e7 bcbc e784 9fbd
00000270: 471f f63d 8ac5 2e3c d21a 433d df66 6fbd
00000280: f39f 9b3c 0791 4bbd 7b11 9dbc f829 8ebb
00000290: 16e3 e23d ad64 a6bd aa7d 1f3d 5416 e3bc
000002a0: 2c59 cb3d ae96 1dbc cabe 9b3c 4741 923d
000002b0: c207 da3c 12ac febc 1d3e 413d d26b 11be
000002c0: 18b1 9bbd 349b 12bd 94a3 d73d 9cf9 3abd
000002d0: fc2f 83bd b2c8 31bd 247a d33d dcdc 5abd
000002e0: 02e8 6f3d 3c72 5d3d 8394 b53d 55da 8ebc
000002f0: 3c4b e4bc 530e 283d 0dce a8bd 4d04 ee3d

decoder_rnn.bias_hh_l0 f4 [192]
0.07117172 0.12261498 0.18219513 0.012162573 0.0840618 0.012330569 0.042905092 0.09163027
-0.094509296 0.11269422 -0.030111315 -0.032215927 -0.071105786 0.05153924 -0.013537241 0.056681715
0.22293757 0.051092904 0.012238633 -0.033062167 0.21321213 0.1322721 -0.058468495 -0.028213058
-0.015298438 -0.0075486004 0.09248516 0.072862044 -0.06406083 0.0878646 -0.03305305 -0.032942265
-0.0821221 0.10399441 0.17883196 -0.004187878 0.0041471296 0.008507358 -0.06975753 0.08392315
0.0661575 -0.060298745 0.06249965 -0.09829597 0.0636253 0.10803796 0.062213752 0.04533261
0.061637934 0.1547597 0.13053142 -0.0047135614 -0.0033422809 0.04654474 0.0792519 -0.059776668
0.09563369 0.0014997438 0.10455221 0.03849683 0.036841575 0.07061628 0.013276405 0.03838899
0.27173543 0.39730215 0.32478428 0.39312673 0.29953647 0.14347674 0.42226288 0.44994342
0.3348586 0.3657409 0.12069135 0.46558607 0.13461696 0.3129228 0.48562405 0.27708572
0.64994955 0.46811262 0.28836253 0.39658388 0.4091965 0.27102295 0.31040138 0.34000888
0.3303469 0.32605222 0.43544605 0.5308695 0.41253778 0.20978747 0.44105726 0.4874102
0.36884326 0.36663228 0.5173899 0.25916412 0.35477775 0.29535797 0.26860416 0.34245494
0.40443146 0.34146813 0.446238 0.4398938 0.30144742 0.39086246 0.27152988 0.3592244
0.12971178 0.30194724 0.47147337 0.3553587 0.33770925 0.41561505 0.42145014 0.6042507
0.36570978 0.37356675 0.20685 0.20778209 0.37353757 0.49886075 0.5129538 0.30784157
0.053241413 0.03795738 0.0669515 -0.0030716262 -0.036720578 -0.06453228 -0.04887323 -0.023093332
0.065924376 -0.115103476 0.016783716 0.026022712 -0.02454945 -0.004484969 -0.09331397 -0.039795578
-0.0036121816 -0.022908863 0.02536815 -0.04582768 -0.070866175 -0.0013068981 0.003415108 0.019956693
0.05898694 0.068851486 0.16430242 -0.011765651 0.06979548 0.056773957 -0.15095736 -0.1277531
-0.06190782 -0.007137704 0.15424338 0.1344213 0.03750599 -0.009959297 -0.0016390164 -0.009561532
-0.054253515 -0.07774529 0.10678419 -0.08898556 0.055249378 0.04545441 0.046418853 0.0853159
-0.026775418 0.02492655 0.031991724 0.060908556 0.01902052 0.036209576 0.0132093895 0.0008955233
0.101099946 0.14757065 -0.04649331 0.012326356 -0.07105779 -0.0061687566 0.07966206 -0.08094204
00000000: 7bc2 913d 901d fb3d 5c91 3a3e 8745 473c
00000010: 9828 ac3d 2806 4a3c 40bd 2f3d a7a8 bb3d
00000020: 178e c1bd 3acc e63d 01ac f6bc d9f4 03bd
00000030: e99f 91bd cf1a 533d 4ecb 5dbc 162b 683d
00000040: bf49 643e cb46 513d 8c84 483c 326c 07bd
00000050: 4854 5a3e 5672 073e a97c 6fbd 121f e7bc
00000060: 4da6 7abc 405a f7bb dc68 bd3d b238 953d
00000070: 5332 83bd 5bf2 b33d a362 07bd 78ee 06bd
00000080: a22f a8bd 05fb d43d ba1f 373e 783a 89bb
00000090: a5e4 873b 7262 0b3c 09dd 8ebd e7df ab3d
000000a0: 957d 873d d1fb 76bd a2ff 7f3d 664f c9bd
000000b0: fb4d 823d 0243 dd3d d9d3 7e3d b0ae 393d
000000c0: 0f78 7c3d 5479 1e3e 07aa 053e 3874 9abb
000000d0: 2b0a 5bbb b3a5 3e3d d24e a23d 61d8 74bd
000000e0: 99db c33d 0d93 c43a 781f d63d daae 1d3d
000000f0: 31e7 163d 459f 903d 4785 593c c63d 1d3d
00000100: e820 8b3e 306b cb3e 204a a63e e847 c93e
00000110: d85c 993e 91eb 123e d732 d83e fc5e e63e
00000120: 9672 ab3e 6442 bb3e 072d f73d 4c61 ee3e
00000130: 07d9 093e 6b37 a03e b7a3 f83e 2ede 8d3e
00000140: 1863 263f 75ac ef3e 41a4 933e 0b0d cb3e
00000150: 3482 d13e 85c3 8a3e eeec 9e3e a515 ae3e
00000160: 3b23 a93e 51f0 a63e c9f2 de3e 10e7 073f
00000170: 2738 d33e 87d2 563e 42d2 e13e d48d f93e
00000180: 06d9 bc3e 3ab7 bb3e aa73 043f 29b1 843e
00000190: 6ea5 b53e 2939 973e 7c86 893e 4156 af3e
000001a0: a411 cf3e e9d4 ae3e 4f79 e43e c339 e13e
000001b0: 5157 9a3e 201f c83e f705 8b3e 43ec b73e
000001c0: 2ad3 043e d498 9a3e f564 f13e 93f1 b53e
000001d0: 3ae8 ac3e 7fcb d43e 50c8 d73e 2db0 1a3f
000001e0: 503e bb3e 2444 bf3e 7dd0 533e d4c4 543e
000001f0: 5140 bf3e ad6a ff3e f150 033f 699d 9d3e
00000200: ab13 5a3d 3379 1b3d de1d 893d 564d 49bb
00000210: 5168 16bd 8029 84bd 4c2f 48bd 3a2e bdbc
00000220: 5c03 873d 5fbb ebbd 017e 893c 952d d53c
00000230: ee1b c9bc a6f6 92bb 651b bfbd b000 23bd
00000240: 5aba 6cbb 5eab bbbc ded0 cf3c ceb5 3bbd
00000250: 4922 91bd 394c abba 01d0 5f3b 387c a33c
00000260: 4a9c 713d 0202 8d3d e53e 283e b8c4 40bc
00000270: eff0 8e3d cf8b 683d 9194 1abe b5d1 02be
00000280: 0e93 7dbd 67e3 e9bb faf1 1d3e bda5 093e
00000290: e29f 193d 522c 23bc 44d4 d6ba f9a7 1cbc
000002a0: ef38 5ebd ec38 9fbd abb1 da3d 103e b6bd
000002b0: 2c4d 623d 672e 3a3d b221 3e3d 1aba ae3d
000002c0: 1f58 dbbc c432 cc3c c109 033d 407b 793d
000002d0: ecd0 9b3c 7e50 143d 326c 583c 8dc1 6a3a
000002e0: 7d0d cf3d c31c 173e c56f 3ebd 7cf4 493c
000002f0: bf86 91bd 4823 cabb dd25 a33d f1c4 a5bd
