Rudi/tempo_model.onnx (onnx, 247652 bytes, 5 tensors)

fc1.weight f4 [128, 416]
000000 bb 59 3d bc 6e a9 a8 bc d9 26 ce bc d2 53 e5 3c
       -0.011557038 -0.020588603 -0.025165008 0.02799407
000010 23 6c 87 bc c1 a3 1e 3d 35 b3 83 bd 2c 30 64 3c
       -0.016531056 0.038730387 -0.064306654 0.013927501
000020 55 18 79 bd 30 b0 11 39 a6 ea f9 bc 76 f0 1b bd
       -0.06081422 0.00013893913 -0.030507397 -0.03807112
000030 7a 29 a2 bd fc 0a a7 bc cb 90 16 bd 89 d0 58 bd
       -0.07918067 -0.02039098 -0.03675918 -0.05293325
000040 e0 b4 01 bd 04 1c 01 3d 8a 85 84 ba dd 3f 56 3d
       -0.031666636 0.03152086 -0.0010110599 0.052307
000050 54 ea 9f 3d 5e 4f 9d 3d 7d 35 a0 3b d3 f2 09 3b
       0.078083664 0.07681154 0.004889189 0.0021049276
000060 77 74 ac 3c 8c 3b 82 3c 9a 03 14 bd 04 99 d0 bc
       0.021051629 0.015897535 -0.036136247 -0.025463589
000070 6a 50 2a 3d 66 9c a3 bc f2 3f 10 bd 32 59 2a 3d
       0.041580595 -0.019972038 -0.035217233 0.04158897
000080 7d fe 7f 3b 05 f6 93 3c e8 b7 2c 3d b2 98 e3 3c
       0.00390616 0.018061647 0.042167574 0.027782772
000090 61 d9 a5 3c 96 77 2d bd 09 e3 4b bc 96 69 11 3d
       0.020245256 -0.042350374 -0.012444266 0.035501085
0000a0 0b d8 49 3c 28 17 1d 3c f6 de 13 bc b3 0a 92 3c
       0.012319575 0.00958804 -0.009025326 0.017827367
0000b0 90 69 d8 3c 58 13 60 3c 4e f7 e8 3c 37 68 23 3d
       0.026417524 0.013676487 0.028438237 0.03989431
0000c0 f3 d5 d4 bc b4 a9 b8 bc cb ad 37 bd 17 ee c3 bc
       -0.025980925 -0.022541858 -0.044843476 -0.023917241
0000d0 90 46 cb 3c f4 47 d1 bc 4e 1d d8 3b 7e 60 95 bc
       0.02481392 -0.025547005 0.0065952903 -0.018234488
0000e0 bc ab 8d 3a 88 21 0b bc e3 12 07 bd f7 99 e6 3c
       0.0010808627 -0.008491881 -0.032976996 0.028149588
0000f0 28 14 13 3d ae 28 21 3d 65 6a f8 bc 86 b4 11 3d
       0.035907894 0.039345436 -0.03032417 0.03557255
000100 24 a5 35 bb 63 29 27 bd d9 d2 69 bc de aa 76 3c
       -0.002771684 -0.040810954 -0.014271461 0.015055386
000110 4c 66 f6 bc a8 1d 32 bd 46 7f 99 bb e6 8f c5 3c
       -0.030078076 -0.043485314 -0.0046843616 0.024116468
000120 bf 04 66 bd 4a 92 01 3c 68 59 dc 3c a8 0d d8 bb
       -0.05615687 0.007908413 0.026898101 -0.006593425
000130 6d e9 48 bd 1a 5a 72 bc 95 08 91 3c d9 80 1b bc
       -0.049050737 -0.01479199 0.017704288 -0.009491169
000140 24 a0 74 bb 5e ef f7 3c 83 68 c7 3c 13 d0 e9 3c
       -0.0037326897 0.030265506 0.024341827 0.0285416
000150 49 09 ae 3c b6 34 a8 3c 2b 4a a3 bc 33 d7 54 bd
       0.021244662 0.020532947 -0.019932827 -0.051963042
000160 e3 53 4d bd 30 f8 9f bb da 7c 92 ba d1 1d fe 3c
       -0.05012883 -0.004881881 -0.0011176125 0.031020077
000170 bc 2e 06 3d ac f8 75 bb 70 40 46 bc 1b 37 94 bc
       0.032759413 -0.0037532253 -0.012100324 -0.018092683
000180 c4 b8 15 bc 52 cb 46 bd e9 52 4c bd 41 87 07 3d
       -0.00913829 -0.048533745 -0.049883757 0.033087973
000190 28 3d 37 bd a9 64 b8 3c 92 5f f2 3c 33 ed 52 bd
       -0.044736058 0.022508936 0.029586587 -0.051495742
0001a0 b0 43 c4 3c 94 8e f2 3c cf 4f af bc cf 1f 18 3d
       0.023958057 0.029609002 -0.02140036 0.03713971
0001b0 cd c3 a4 3b 48 b2 55 bc 40 ec 10 3c c4 9e 13 bb
       0.005028224 -0.013042994 0.008845389 -0.0022525052
0001c0 fa 1d 1e bd aa 00 e9 bc a9 c9 36 bd c5 05 87 3c
       -0.038602807 -0.0284427 -0.04462591 0.016482243
0001d0 14 69 3f 3d b3 f4 e5 3b 25 a3 ae 3c 2d 44 23 bd
       0.04673107 0.007017696 0.021318028 -0.03985994
0001e0 75 16 dd 3c 50 9c e3 3c 4f 40 8d 3b 46 64 ef bc
       0.026988247 0.027784497 0.0043106447 -0.029222619
0001f0 fe 4a 75 bb 9c ea 2c bd 7c c0 02 3c e8 1b e9 ba
       -0.0037428732 -0.04221593 0.007980462 -0.0017784806
000200 c2 3d 92 bc f0 c4 8e bc 1f d9 2c bd 70 75 92 bb
       -0.017851714 -0.017427891 -0.04219925 -0.004469566
000210 50 b1 2f 3d 97 dd 10 bd b0 4a 7e bc 0f 0e 16 bd
       0.042893708 -0.035367575 -0.015520737 -0.0366345
000220 2c 6a d6 bb aa 39 0c bb e7 3f fc bc 60 37 e3 3c
       -0.0065434184 -0.0021396675 -0.03079219 0.027736366
000230 82 4b 1d 3d ed a8 6a ba 04 ab e4 3c 44 d9 b1 bc
       0.038402088 -0.00089515635 0.027913578 -0.021710046
000240 7b ef 72 bb e0 95 84 3c 2a 31 44 3b 28 bc 10 bd
       -0.003706901 0.016184747 0.002993653 -0.03533569
000250 1e 50 51 3d 7a 38 95 bc 4a 73 d8 3c c4 8b 6c 3c
       0.051101796 -0.018215407 0.026422162 0.01443762
000260 e7 3e 48 3d e9 f9 31 bd 1f 4b d9 bb de 34 99 bc
       0.048888113 -0.043451224 -0.0066312696 -0.018701967
000270 b5 a2 40 bc 26 12 19 bd ea ce 6b bb 66 08 f3 bb
       -0.011757542 -0.037370823 -0.0035981485 -0.0074167727
000280 1b ad 8a 3b 43 f0 1a bd 60 24 18 bd 23 5d 34 bd
       0.0042320616 -0.037826788 -0.037144065 -0.044034135
000290 0b 56 a4 bb d5 7e e5 3c fe 36 45 3c d0 f3 0a 3d
       -0.00501514 0.02801458 0.012037037 0.033923924
0002a0 cd 23 39 bc 30 1e 26 bc b3 79 b8 3c 7c 54 fc bc
       -0.0113000395 -0.010139033 0.022518968 -0.030802004
0002b0 2e e1 32 bd ab 3c 20 bc 23 2b 2b bd d3 cc fa 3c
       -0.04367178 -0.009780089 -0.041789185 0.030615246
0002c0 8c 25 40 3d 9a b0 50 3d 64 da f1 3c db 6d 45 3c
       0.046910807 0.05094967 0.029523082 0.012050117
0002d0 26 e3 d5 bb 2c f3 3a 3c 1b 6a 23 bd 3a cd cb bb
       -0.0065273223 0.011410516 -0.039896112 -0.0062195333
0002e0 07 4c 67 bc b5 12 77 3c 35 f4 56 3d 64 34 f9 bc
       -0.014117247 0.015080144 0.052478988 -0.03042049
0002f0 75 bd 90 bc 83 32 f3 bc 6e c5 73 3c f9 a3 5d 3d
       -0.017668465 -0.029687172 0.014878614 0.054111455
000300 60 e2 68 bc 9d 96 c1 bc 21 b9 ed bc 53 8b 56 3d
       -0.014214128 -0.023631388 -0.02901894 0.052378964
000310 10 ab 65 3c 5c 2d c5 3c 77 4c 43 3d 1d 8d 2a 3d
       0.014017835 0.02406948 0.047680344 0.041638482
000320 92 35 90 bc dd 9b 23 3d fa b8 17 3c bc 25 2a bd
       -0.01760367 0.039943565 0.00926041 -0.041539893
000330 43 33 88 bc 25 28 1b bd 7f 12 b6 bc 40 6b 2c 3d
       -0.016626006 -0.03788008 -0.022225616 0.04209447
000340 fd 28 bc 3c 3b 9b a9 bc 3e 31 8f bc 71 40 31 3c
       0.022968763 -0.020703902 -0.017479535 0.010818587
000350 8a 41 c9 3c 76 4a 38 3b 41 6e 85 bc 24 30 49 3d
       0.024567384 0.0028120554 -0.016287925 0.049118176
000360 bd c0 14 bc 17 f5 7a 3b 24 25 16 bd 9e f8 e7 bc
       -0.0090791555 0.0038293058 -0.036656514 -0.028316792
000370 77 81 ca 3c d8 10 80 bc a0 ca 79 bb 05 03 1f bd
       0.024719937 -0.015633032 -0.0038115159 -0.03882124
000380 89 61 d7 3a cc fe aa bb e8 c7 2f bd 3b 1e f5 bc
       0.0016432266 -0.0052183624 -0.042915255 -0.029921642
000390 7c 8b e0 bc f5 df 1c bd 2d 5a 04 3d 35 9e 4a 3d
       -0.027410261 -0.03829952 0.03231256 0.049467284
0003a0 87 39 97 ba 5c d3 4f 3d 46 15 20 bd 3f 5c 30 bc
       -0.001153753 0.050738677 -0.039082788 -0.010764181
0003b0 8a 6a 39 3c 4f 9a 6b bc 6f 48 9e 3c 36 f2 37 bd
       0.011316905 -0.014380052 0.019321648 -0.044908725
0003c0 5f 59 64 3c b4 2e 02 3d 78 de 83 bc 8c 7b 4d bc
       0.013937323 0.03178282 -0.016097292 -0.012541663
0003d0 66 f5 2b 3d f8 e0 2d 3d 08 c4 09 3d 1a 8b 28 bd
       0.041982077 0.042450875 0.033634216 -0.041148283
0003e0 44 11 e2 3b c0 01 d1 bb ea 53 19 bd bb 99 bc bc
       0.006899031 -0.0063783824 -0.037433542 -0.023022523
0003f0 32 bc 3b 3d b0 7b ad 3c ee 79 23 bb e0 e1 00 bc
       0.045833774 0.021177143 -0.0024944502 -0.007866353

fc1.bias f4 [128]
000000 e9 f9 95 3b d5 05 7c bd 20 ee 78 bd 77 b3 72 bc
       0.0045769108 -0.061529 -0.06077397 -0.014813296
000010 24 ba b3 3c 15 d4 37 bd d5 d9 67 3c f1 e3 4f bd
       0.021939345 -0.04487999 0.014151056 -0.05075449
000020 f7 7d 10 bd 67 75 99 bc f2 6a 01 3c 0a 80 51 3d
       -0.03527638 -0.01873274 0.007899033 0.0511475
000030 37 77 22 bd 29 3d 0e 3b ec 25 63 bc cd f8 2c 3d
       -0.039664473 0.0021703935 -0.013864022 0.042229462
000040 38 52 4c bc a5 a0 4d 3d c1 11 e9 bc 98 09 2b bd
       -0.012470774 0.05020203 -0.028450849 -0.041757196
000050 8f 91 26 bd b9 b0 71 bd bb d0 63 3d fc d4 c7 3c
       -0.04066616 -0.059006426 0.055618983 0.024393551
000060 84 2d 0e 3d 42 55 b7 3c fa fc 9c bc 48 9b 54 bd
       0.034711376 0.022379521 -0.019163597 -0.0519059
000070 8f b4 12 3d d8 66 70 3b 21 f1 b2 3c 23 5e 91 bc
       0.035816725 0.0036682393 0.021843495 -0.017745083
000080 01 a1 16 bd 80 7b 89 bd d9 82 e5 bc 48 ed 51 bd
       -0.03677464 -0.06713009 -0.028016495 -0.05125168
000090 c5 fc 80 bd a1 30 03 bd 97 78 04 3c 54 12 1a bd
       -0.06298212 -0.032028798 0.0080853915 -0.037615135
0000a0 f7 7e 20 bb 83 88 00 3d bf 09 32 bd f6 b4 9e bd
       -0.002448974 0.031380188 -0.043466326 -0.07749359
0000b0 b0 f3 c1 bc 50 8e eb bc a1 60 0c bd 45 27 04 bd
       -0.02367577 -0.028754383 -0.03427184 -0.032264013
0000c0 a4 ec a0 3c b5 9f 52 bc af 11 43 bd 90 e5 21 3d
       0.019644089 -0.01285546 -0.047624286 0.03952557
0000d0 05 97 80 3c 8f 1d 05 3d 25 de 1e bd 7d ed 86 3c
       0.015697012 0.032498892 -0.038786072 0.016470665
0000e0 7c 27 13 bd f7 6a 0e 3d 6b c7 db 3c e5 18 3a bd
       -0.035926327 0.03476998 0.026828488 -0.045433898
0000f0 d1 3b d7 3c aa c4 0a bd 25 ee 0c bd e4 b7 f5 3c
       0.02627364 -0.03387896 -0.0344068 0.029994912
000100 33 e2 35 3d fc 63 71 bd 12 74 2b 3d 73 f4 d1 bb
       0.044405174 -0.058933243 0.04185874 -0.0064073144
000110 e2 1e cb bb 16 e9 82 bc 43 05 3b bc d3 65 df bc
       -0.00619875 -0.015980285 -0.011414829 -0.027270233
000120 ac 98 8d bc 72 65 ef bc db 8c 26 3d 84 91 fd bc
       -0.017284714 -0.029223178 0.040661674 -0.030953176
000130 3b 6d 15 3d 73 7d 29 bd 93 57 37 3c ab 59 85 3b
       0.036481123 -0.041379403 0.011190313 0.004069527
000140 ac 8d 70 3c 23 e6 77 bc d7 2e 1d bd 2d e7 73 bd
       0.014682215 -0.015130552 -0.038374748 -0.05954664
000150 01 30 2c bc 0e 7d 3d bd 6e 67 09 bd dd d3 b7 bd
       -0.010509492 -0.04626184 -0.033545904 -0.089759566
000160 98 ae 44 bc 98 58 1c bd 6e 01 87 bd 12 f7 3e 3c
       -0.012004517 -0.038170427 -0.065920696 0.011655586
000170 a2 fd 95 bc e7 fd 07 bd 79 2b 88 bd 50 da f7 bc
       -0.018309418 -0.033201125 -0.06648917 -0.030255467
000180 2f 0e ad bc ba f2 84 bc b1 d5 95 bd 8e 5d 6e 3d
       -0.021124927 -0.016229022 -0.07316149 0.05819469
000190 32 f9 b8 bc 89 1f c3 3c 8c 62 9e 3b 66 09 24 bd
       -0.022579763 0.023818748 0.004833525 -0.040048026
0001a0 c5 72 d1 3c a1 9e 07 bd 59 86 87 3c 29 8f 10 bd
       0.025567422 -0.033110265 0.016543554 -0.03529278
0001b0 99 24 2d bd ca 30 86 3c 89 4e 25 bc 76 db ce bc
       -0.04227123 0.016380686 -0.010089525 -0.025251132
0001c0 d9 f0 de bc 38 7e 05 bc 23 2b 09 bd d4 4f 0c bd
       -0.027214454 -0.008147769 -0.033488404 -0.034255818
0001d0 b2 f6 20 bd 66 61 24 bd e7 8f fe 3c 6d e3 a4 bc
       -0.039297767 -0.04013195 0.031074477 -0.020127976
0001e0 a8 71 5f bb 01 4a 2d bd f3 68 ee 3b 57 27 70 bc
       -0.0034094844 -0.042306904 0.0072756945 -0.014657817
0001f0 a5 a4 cd bc 9d e8 94 bd 1b 4f f9 bc 20 ab 91 bc
       -0.025102923 -0.0727093 -0.030433228 -0.017781794

fc2.weight f4 [64, 128]
000000 f0 8a 94 3c 1b e7 81 3d 5d f8 a3 3b 6f cc 30 3d
       0.018132657 0.06342908 0.0050039724 0.043163713
000010 50 14 21 bd fe fa 3e bc b2 97 2f 3d f2 93 cc bc
       -0.039326012 -0.011656521 0.042869277 -0.02497289
000020 15 a2 0d 3d 9b 7a c5 bc ae c3 ae bd df 24 a6 bd
       0.0345784 -0.024106314 -0.08533417 -0.08112501
000030 48 aa 6e bd 6f 60 32 bd 2f 7b bf 3c 6b ab 0c bd
       -0.05826786 -0.043548997 0.023374168 -0.034343164
000040 37 d8 cb 3c 15 d4 48 3d 7f 09 0c 3d 2c 93 68 bd
       0.024883373 0.049030382 0.034188744 -0.05678098
000050 75 e9 f0 3a f3 ca 1b bd f2 d1 1e 3d 82 ed 23 bd
       0.0018380122 -0.038035344 0.03877444 -0.040021427
000060 d4 8a ef bd eb 23 97 bc 9f 0d d5 bc 23 42 1a bd
       -0.11696401 -0.018449744 -0.026007472 -0.03766073
000070 4c 0e 07 3c 28 40 b1 bd 71 e8 06 bd 9c 9c 6f bd
       0.008243155 -0.08654815 -0.032936517 -0.058498964
000080 da 9d 91 bc 9d fd 9e 3d 17 69 9e bd b1 8c 8b bd
       -0.017775465 0.07763217 -0.07734888 -0.06813944
000090 b4 97 9d 3b ca 55 ed 3b 0a b1 68 bd a4 ab ea 3b
       0.004809344 0.007242893 -0.056809463 0.0071615744
0000a0 3d 71 7a bd 76 63 41 bb 55 91 7e bd e2 64 79 3d
       -0.06114315 -0.0029508746 -0.06215032 0.060887225
0000b0 c8 80 8d bb 3a 14 9a bd 3d 6a 0d bd 51 12 5b 3d
       -0.0043183304 -0.07523389 -0.034525145 0.053484265
0000c0 a7 d0 7f bd e5 43 06 3d aa 15 e7 3c 5d f4 d5 bc
       -0.062454846 0.032779593 0.028208572 -0.026117498
0000d0 b0 a0 8c 3d b0 e3 4c 3d da 07 24 bd 77 5f 67 bc
       0.06866586 0.050021827 -0.04004655 -0.014121882
0000e0 72 9c c0 ba 00 f4 0b 3d 33 83 91 bd 5f 7a 0f 3d
       -0.0014695062 0.034168243 -0.071051024 0.03502881
0000f0 13 a6 00 3c b0 0d b2 bd cb 53 04 ba 81 34 16 bd
       0.007852095 -0.08694017 -0.00050478865 -0.036671165
000100 c9 af cb bd d6 59 50 bd 87 ed 65 3c b6 82 b4 3c
       -0.09945638 -0.050866924 0.014033682 0.022034984
000110 80 bd d3 3c 50 ae 07 3d 04 2c 44 3d 98 45 34 3d
       0.025847197 0.03312522 0.04789354 0.044011682
000120 40 16 98 bd 23 ae 1a 3d 17 ad e2 bd 39 12 99 bd
       -0.07426119 0.037763726 -0.110681705 -0.07474179
000130 5b 9d 53 bd da 64 3c 3c c7 83 82 3d 22 f1 55 3d
       -0.051663738 0.011498654 0.06372791 0.052231915
000140 70 d8 1e 3d c9 f2 0b 3b cd 28 6c bd e4 50 d1 3b
       0.03878063 0.0021354428 -0.0576561 0.0063878167
000150 36 03 30 3d f9 bb 99 ba 4f fa 19 3d fb 68 1f 3d
       0.042971812 -0.0011728994 0.03759223 0.038918477
000160 c7 94 ae bd e0 ce 74 bd 0e af 09 3d 15 62 41 3d
       -0.08524471 -0.059767604 0.03361421 0.04721268
000170 d6 5c 7d 3d 46 57 07 3d bb 46 67 3c 4e 1e a6 bd
       0.061856113 0.033042215 0.014115985 -0.08111249
000180 2f 60 48 bc 7d 91 ce bd 1b df b0 bc 0a ed 4c bd
       -0.012229963 -0.100863434 -0.02159076 -0.050030746
000190 7c fe af bd 6f c5 c8 bd 0f 8c cc 3c b3 c8 4e bc
       -0.08593461 -0.098032825 0.024969129 -0.012621093
0001a0 a9 8c 14 3d 15 6b 4d 3c 97 5f 27 bd 16 78 2a 3d
       0.036266956 0.012537737 -0.040862646 0.04161843
0001b0 2c d6 4c bb bd b9 3a 3d 16 57 61 bd 54 26 63 bd
       -0.0031255586 0.04558729 -0.055014692 -0.055456474
0001c0 32 91 a5 bd 00 1e 01 bd 00 06 9a 3d 1d 7e 8a 3a
       -0.080843344 -0.03152275 0.07520676 0.0010566149
0001d0 ce f7 5c 3d 0c 68 99 bc 65 f9 3e bc 4d 3f 72 3d
       0.053947262 -0.018726371 -0.01165614 0.0591424
0001e0 50 a6 59 3d 86 3d 87 bc 36 8a 00 bd fb c6 3e 3c
       0.053137124 -0.016508829 -0.03138181 0.01164412
0001f0 8b 5e 3b 3c 2d bb e8 3c 73 55 8b bd d1 e5 3c bc
       0.011436115 0.028409565 -0.068034075 -0.011529402
000200 1d 3e 24 3d 4c ae 65 bd 29 4e 5c bd 00 b7 9d bd
       0.0400983 -0.056074426 -0.053785477 -0.0770092
000210 41 cd 0f 3d b1 06 ad bd a7 b5 40 3d 18 26 a1 bd
       0.035107855 -0.08448542 0.047048237 -0.07868594
000220 01 b3 af 3d ea 66 19 3d ef f1 61 bc 98 7a 9f bd
       0.08579064 0.037451662 -0.013790592 -0.07787055
000230 5f f4 14 3c bf 24 f3 bc fa 2c 52 3b e1 cb 5c bd
       0.009091466 -0.029680608 0.0032070265 -0.05390537
000240 75 e7 3e bd 54 65 07 bc 85 4d 81 3c 27 ac 71 bd
       -0.046607453 -0.008263905 0.015784035 -0.059002068
000250 20 a6 2a 3d de 1d 15 bd 08 ff b9 bd dc be 88 bc
       0.041662335 -0.036405437 -0.090818465 -0.016692571
000260 aa cc 14 3d 61 27 9d bd d0 5d fd bc dd dc 8f bd
       0.036327995 -0.076735266 -0.030928522 -0.07024548
000270 4f d5 1e bd a6 d6 72 3c e4 33 82 bd db 52 68 3d
       -0.038777646 0.014821684 -0.063575536 0.056719642
000280 63 3a 70 3d e1 b2 d7 bb de eb a7 3d a5 86 17 3d
       0.058649432 -0.0065826033 0.08199285 0.03699364
000290 af 70 e3 3c dc 52 68 3d d9 d0 30 ba c9 5c 33 3d
       0.027763693 0.056719646 -0.0006744988 0.04378966
0002a0 eb 65 1e 3c 96 93 fd bc 6c 60 06 bd 44 94 1e bd
       0.009667854 -0.030954164 -0.0328068 -0.038715616
0002b0 f8 c1 02 bd f3 96 5a bd ab 6c db 3c 68 4e 8e bd
       -0.031923264 -0.053366613 0.026785215 -0.069485486
0002c0 17 4f b5 3b 4e de 21 bd f9 bf 1d 3d 25 ee 17 3c
       0.00553311 -0.039518647 0.038513158 0.009273087
0002d0 44 03 17 3d 8d 24 26 3c 92 32 8f 3d 28 8b 9d 3c
       0.03686835 0.01014055 0.069920674 0.019231394
0002e0 2a 6f 46 3d 39 ec 10 3d 5c 0c a6 bd dd 7b 57 3d
       0.048445858 0.03538153 -0.08107826 0.05260836
0002f0 a9 1b 11 3c 56 30 f8 3c ed a0 f3 bc f2 f0 25 bc
       0.008856692 0.030296486 -0.029739821 -0.010128247
000300 c3 8e c5 bd e0 01 37 bd a8 af 3d bd 58 c7 1c 3c
       -0.0964637 -0.044679523 -0.046310097 0.009569012
000310 29 38 a0 bd bf 83 a2 bd d9 2f 22 3d 04 65 3e bc
       -0.07823212 -0.07935285 0.039596412 -0.011620764
000320 0d 5c aa bd 14 17 88 bd f3 31 a4 bd 34 5e 18 3d
       -0.083183385 -0.06645027 -0.080173396 0.037199214
000330 d9 e9 20 bd 96 8f 68 3d ce 7d 64 bd 83 27 4e bc
       -0.039285515 0.05677756 -0.05578404 -0.0125826625
000340 fd c4 95 3d 87 7b f1 bc a3 c8 d5 3c 3f 43 39 bd
       0.07312963 -0.029477848 0.026096648 -0.045230146
000350 83 1a 9a 3c 99 bb bc bd fa db 63 3b 26 33 35 3d
       0.01881147 -0.09215469 0.0034768567 0.044238232
000360 99 ef ad 3c 1c 80 7d bd 66 85 19 bc 81 e3 b5 bd
       0.021232413 -0.061889753 -0.009370184 -0.088812836
000370 c8 e4 85 bd 60 76 97 bd 64 af bb bc 5a 28 88 3c
       -0.06537777 -0.07395625 -0.022910781 0.016620804
000380 64 8e 2f 3d 88 7c 56 3d 5e 70 30 3d 1d b9 e9 bb
       0.042860404 0.052364856 0.04307591 -0.007132663
000390 7e 4e 26 bd 50 4e 9b 3c 36 0e 10 bd f3 3f 29 3d
       -0.0406022 0.01895824 -0.035169803 0.041320752
0003a0 ff c0 6d 3d 8e fe 5d 3d 3e 8f f1 3b f6 df 43 bb
       0.058045384 0.05419784 0.007371812 -0.002988813
0003b0 4e ad 9c bb 59 06 7d bc ea 09 9e bd 55 d4 67 bd
       -0.0047814017 -0.015443408 -0.07716735 -0.05659898
0003c0 cb 69 c4 3d 6c fa 20 3d 50 00 86 3d 2c 40 82 bd
       0.09590491 0.03930132 0.06543028 -0.06359896
0003d0 38 1e a4 bd 00 56 f1 3c be 26 38 3d 2f 3f a8 bc
       -0.08013576 0.029459953 0.044958822 -0.02053794
0003e0 d6 72 ce bd 1f d3 91 bd bf 24 8f 3d 02 25 d5 3c
       -0.10080497 -0.07120346 0.06989431 0.026018623
0003f0 8c b0 46 bd e9 36 9f 3d 9b 76 9d bd 2b f8 ba bd
       -0.048508212 0.07774145 -0.07688638 -0.091293655

fc2.bias f4 [64]
000000 38 44 93 3c 8e e2 b2 bd f3 1b 09 bc 9a c9 2d bc
       0.017976865 -0.08734618 -0.00836848 -0.010607148
000010 f5 c6 23 3d bf c6 d1 3d 78 44 db bc 22 42 cf 3d
       0.039984662 0.10242986 -0.026766047 0.10120036
000020 cc b4 9e bc 73 17 9f 3d 43 3f 48 bd 3f 96 d1 3d
       -0.01937332 0.077681445 -0.048888456 0.10233735
000030 6c 71 7f 3d ed 70 60 3c a3 bd 79 3c 00 3f 15 3d
       0.062364027 0.013698799 0.015242967 0.036437035
000040 a3 1a 01 bc 95 34 b5 3c fd 51 62 3c cf 53 86 bd
       -0.007879886 0.0221198 0.013813493 -0.06558954
000050 f2 4d e4 3c 36 5f b4 3d d2 c7 9a 3d b9 79 ad 3c
       0.027869198 0.088072225 0.07557644 0.021176206
000060 c0 0d e1 3c b3 1c e2 3d a0 92 f6 3d 58 02 da 3d
       0.027472377 0.1104063 0.12039685 0.10644978
000070 9c 86 87 bd 26 80 47 bb 49 2f 9d bd 5f a2 ba bc
       -0.066174716 -0.0030441373 -0.076750346 -0.022782503
000080 ea 7f 58 3c 10 42 a8 bb 7c f5 98 38 0a 2b a2 3d
       0.013214091 -0.0051348284 7.29365e-05 0.07918365
000090 16 28 0a 3d ed 65 c0 bd c5 cd 5c 3c 81 67 8e 3c
       0.033729635 -0.09394441 0.013476794 0.017383339
0000a0 42 d9 cb bc ac 23 83 3d b1 05 e5 3c 16 d8 8d bd
       -0.02488387 0.06403288 0.027956815 -0.06925981
0000b0 a4 8c b1 3c a0 16 63 3b 6c 5f fd 3d 94 a3 79 3d
       0.021673508 0.0034650937 0.12371716 0.060947016
0000c0 c9 9d db 3d 34 4d 74 bd 9a 3b d1 3c 93 b6 c9 3d
       0.107234545 -0.05964394 0.025541116 0.098492764
0000d0 7e aa d7 3a 18 55 8f 3d 95 9b ff bd 27 dc 3e bd
       0.0016454009 0.06998652 -0.12480847 -0.046596672
0000e0 7e 68 dc 3d 8b 45 e9 3b e8 5b 03 3e f8 ff 33 bb
       0.10762118 0.007118886 0.12828028 -0.0027465802
0000f0 a6 fa 60 bd bd 2c c3 bd 54 e0 b2 3a 57 cc bf bd
       -0.054926537 -0.095300175 0.0013647177 -0.093651466

fc3.weight f4 [1, 64]
000000 22 84 0b 3c db ce 4d 3c f6 b3 be 3d 04 1e 59 3d
       0.00851539 0.012561525 0.093116686 0.05300714
000010 70 43 2f 3d b0 90 8d bd 31 4a 87 3d 5d 5b 1b bd
       0.042788923 -0.069123626 0.06605948 -0.037928928
000020 43 db 61 bd 82 91 43 bd de e8 a6 3d 61 7c 63 bd
       -0.055140745 -0.04774619 0.08149885 -0.05553854
000030 a2 f0 ec 3c 44 ea b3 3c b0 8a 6d bd 4a 93 17 bd
       0.028923336 0.021962292 -0.05799359 -0.0370057
000040 ed 91 62 bd 6a 30 8a bd 4e ac a0 bd f0 f7 e7 3d
       -0.055314947 -0.067475155 -0.078453645 0.11326587
000050 8d 85 08 3e f3 41 0b bd a3 18 02 bd 7e ab e7 3d
       0.13332196 -0.03399844 -0.031761777 0.113120064
000060 a9 95 ac bd ca 94 b5 bd 42 4a 93 bd 61 9a 36 bd
       -0.08426983 -0.0886627 -0.07191898 -0.04458082
000070 fc eb 54 3d 08 d5 91 3d 90 cf 2a 3d e4 8a 7f bd
       0.051982865 0.071207106 0.041701853 -0.062388316
000080 09 75 5b bd 5e d2 48 bd 71 e0 c5 3d 4a 08 36 bd
       -0.05357841 -0.049028747 0.096619494 -0.0444415
000090 a0 bd a0 3d 09 e8 6a 3c f7 ea a0 bd c4 f7 c8 bc
       0.07848668 0.014337548 -0.07857316 -0.024532206
0000a0 d9 51 00 bd 67 6e e1 bc 37 b0 7a bd 77 78 5a 3d
       -0.031328056 -0.027518464 -0.061203208 0.05333754
0000b0 aa 44 63 bd 34 ed 68 bd 44 ae 0c bd 8b 93 94 bd
       -0.055485405 -0.05686684 -0.03434588 -0.07254704
0000c0 d7 e0 ac bd b2 35 58 3d 58 43 81 3d 87 fc ce bc
       -0.08441322 0.052785583 0.06311673 -0.025266899
0000d0 2f 06 85 bd 7c 31 91 bd ea fd 0b 3d 97 17 df 3d
       -0.0649532 -0.070895165 0.0341777 0.10893171
0000e0 7e a8 01 bd 8c 8e e9 bc 44 2d 1f bd b5 33 4b bd
       -0.031654827 -0.028510354 -0.038861528 -0.04960986
0000f0 48 9f 67 3d b9 7d 2a 3d 42 eb 8c bd 3b 6e 8a 3d
       0.056548387 0.041623805 -0.06880809 0.06759306
