models/rnn_labeled_pouring_model_lina.pth (torch, 826874 bytes, 10 tensors)

rnn.weight_ih_l0 f4 [512, 13]
0	0xbda2f2da	-0.079564765
1	0x3d00855a	0.031377174
2	0x3d5a9d94	0.053372934
3	0xbd2591aa	-0.04042212
4	0xbcd8fc3f	-0.026487468
5	0x3da6fff6	0.081542894
6	0x3c50d2cc	0.01274557
7	0x3d13e2d9	0.03610501
8	0xbd1882a7	-0.037233975
9	0xbbcdeae5	-0.006284105
10	0x3d965443	0.073402904
11	0xbd69d2b0	-0.057085693
12	0xbd9c83c8	-0.07642323
13	0x3da06531	0.07831801
14	0xbcf2227d	-0.02955746
15	0x3dbc64c6	0.091989085
16	0x3c8690cf	0.016426472
17	0x3b4189ff	0.0029531715
18	0x3c5561f3	0.013023841
19	0xbd344784	-0.044013515
20	0xbb562e62	-0.0032681455
21	0xbbe40823	-0.006958978
22	0x3cd97f7a	0.026550043
23	0x3d92323d	0.071384884
24	0xbd9f5f7c	-0.07781884
25	0xbd6989a6	-0.057016037
26	0xbd86b6c9	-0.06577832
27	0xbd830173	-0.06396761
28	0x3d9559d9	0.07292528
29	0x3d8b0ce4	0.06789568
30	0x3d1c52a7	0.03816476
31	0xbb0c6b1c	-0.0021426147
32	0x3cc59788	0.024120107
33	0xb9094ea8	-0.0001309464
34	0x3d9cdeb6	0.07659666
35	0xbc0cb972	-0.0085891355
36	0x3d41ef73	0.047347497
37	0xbcce0000	-0.025146484
38	0xbbb88a6e	-0.0056317365
39	0xbcce6042	-0.025192384
40	0xbc095fd7	-0.008384666
41	0xbca82ea4	-0.020530052
42	0xbdccc6d3	-0.0999886
43	0x3bb3291c	0.005467547
44	0x3d536e1d	0.051618684
45	0xbda76446	-0.081734225
46	0x3d55baf7	0.052180257
47	0xbdb582d2	-0.088628426
48	0x3d26d3fd	0.04072951
49	0xbdde98f4	-0.10869017
50	0xbcf797c2	-0.030223731
51	0xbdb1820a	-0.08667381
52	0x3d5a5cce	0.05331116
53	0xbc922796	-0.017841142
54	0xbdcb11e4	-0.09915522
55	0xbdbd1c47	-0.09233909
56	0xbd5c769d	-0.053824056
57	0xbdc7a08c	-0.09747419
58	0xbdd4292d	-0.10359416
59	0xbc52f38c	-0.012875449
60	0x3d87cda6	0.06631021
61	0xbd883a92	-0.066517964
62	0xbd8ff8d2	-0.070298806
63	0x3d5bdde7	0.05367842
64	0x3da07e22	0.07836558
65	0xbd36fae7	-0.044672873
66	0xbd0fe556	-0.03513082
67	0xbd8ec3d2	-0.069709435
68	0xbd12299d	-0.035684217
69	0xbd01234f	-0.031527814
70	0x3cd74464	0.026277728
71	0x3cfd5364	0.030923553
72	0xbc99cfa4	-0.018775769
73	0xbd72d3d3	-0.059284043
74	0x3cff103a	0.031135667
75	0x3d67e95b	0.05661903
76	0xbda745ea	-0.08167632
77	0xbd20a8b4	-0.039223388
78	0x3d5a745d	0.05333363
79	0xbc41716b	-0.011806826
80	0x3d16064f	0.03662711
81	0xbc954391	-0.018220695
82	0xbbc978d8	-0.006148439
83	0x3c62713c	0.0138209425
84	0xbb763295	-0.003756677
85	0xbb5eace0	-0.0033977553
86	0x3d42f1a3	0.047593724
87	0xbc2432c8	-0.010021873
88	0xbd35fe5a	-0.04443202
89	0xbdb0b9ef	-0.08629214
90	0x3d23ac8f	0.039959487
91	0xbd8a6c20	-0.067589045
92	0x3d828402	0.06372835
93	0xbceb69af	-0.028736917
94	0x3d8b9cb0	0.06816995
95	0xbd8b70bd	-0.068086125
96	0xbd62155f	-0.055196162
97	0xbda0c345	-0.07849745
98	0xbce44126	-0.027863096
99	0x3cd4e47d	0.025987858
100	0x3db27a75	0.08714763
101	0xbd679bb8	-0.05654499
102	0xbb96fa26	-0.0046074567
103	0xbb90b72a	-0.004416366
104	0xbdbcfedc	-0.09228298
105	0x3bd4f88b	0.006499355
106	0xbdbdd3fd	-0.09268949
107	0x3c32965e	0.010900108
108	0x3d523228	0.051317364
109	0xbd5ddab1	-0.05416364
110	0x3d049815	0.0323716
111	0x3d9763d3	0.07392087
112	0x3d112854	0.03543885
113	0xbb895f7d	-0.0041922913
114	0xbd53afe2	-0.051681407
115	0xbcdf515d	-0.027260477
116	0xbda7f1be	-0.082004055
117	0xbb3ca8c7	-0.0028787123
118	0x3db5fc59	0.08886022
119	0xbd7d9ef9	-0.061919186
120	0x3b688e3c	0.003548517
121	0xbc47731c	-0.01217344
122	0x3de4aeac	0.111661285
123	0x3c1d2a92	0.009592669
124	0xbd1a0373	-0.037600946
125	0x3d18b85d	0.037285198
126	0x3c99f959	0.018795656
127	0x3cb63ead	0.022246683
128	0x3d83273a	0.06403966
129	0x3a9ba0ef	0.0011873523
130	0xba700f59	-0.00091575604
131	0x3d0b1113	0.03395183
132	0x3d4fa159	0.050690982
133	0xbda3e1fb	-0.08002087
134	0xbba86cb5	-0.005139912
135	0x3bcf8953	0.006333509
136	0xbd7813a9	-0.060565624
137	0xbd829ed9	-0.06377954
138	0x3cd2538c	0.025674604
139	0x3dac7fed	0.084228374
140	0xbd7d3b92	-0.06182439
141	0xbd0dd89b	-0.0346304
142	0xbd0d525a	-0.034502365
143	0xbd81c91e	-0.06337188
144	0xbd2387a8	-0.039924294
145	0xbd5d0982	-0.053964145
146	0x3d70792b	0.058709305
147	0xbdf0b4cc	-0.11753234
148	0xbcd21563	-0.025644964
149	0xbd60c150	-0.054871857
150	0x3d021e1b	0.031766992
151	0xbdb30fdb	-0.087432586
152	0xbc22689d	-0.009912637
153	0xbcaba8ed	-0.020954574
154	0xbd3c4170	-0.045960844
155	0x3db2f4b0	0.08738077
156	0xbdbf1dd2	-0.0933186
157	0xbade97ea	-0.001698253
158	0x3d17a209	0.037019763
159	0xbd94be92	-0.07262911
160	0xbca6dcd0	-0.020368963
161	0xbd740292	-0.059572764
162	0x3d836a1f	0.06416725
163	0x3d1f1127	0.038834717
164	0x3d94298d	0.07234488
165	0x3d998e66	0.074978635
166	0x3d75b9a4	0.059991494
167	0x3d9b90c2	0.0759597
168	0x3d4363dc	0.047702655
169	0xbd1be624	-0.038061276
170	0xbb501d71	-0.003175583
171	0x3b0c6e46	0.0021428033
172	0xbd380293	-0.04492433
173	0x3daa0a56	0.08302753
174	0xbd52c4c4	-0.05145718
175	0xbb73b413	-0.003718619
176	0x3dd99549	0.10624177
177	0x3d86037b	0.065436326
178	0x3d96c922	0.07362582
179	0x3dda8fb0	0.106719375
180	0x3d816e6f	0.06319892
181	0xbd8262e7	-0.063665204
182	0x3d4192b2	0.04725904
183	0xbd2aba77	-0.041681733
184	0x3d983485	0.07431892
185	0x3d357ded	0.044309545
186	0x3d039c98	0.03213176
187	0x3bf39d9d	0.0074345605
188	0xbcad2154	-0.021134056
189	0x3d3a4c2a	0.045482792
190	0x3c8606ed	0.016360724
191	0x3d062049	0.032745633
192	0xbd870b6e	-0.06593977
193	0xbc44c52f	-0.012009903
194	0x3dc2f946	0.095202014
195	0x3bb92a95	0.005650828
196	0x3d9e697b	0.077349626
197	0x3dd1aadc	0.10237667
198	0xbcbde43f	-0.023180125
199	0x3a8787ce	0.0010340156
200	0x3d21e612	0.039526053
201	0xbdfaceed	-0.12246499
202	0x3d04d91e	0.03243362
203	0x3c032996	0.00800552
204	0xbd42f248	-0.04759434
205	0x3d257a96	0.04040011
206	0xbe001266	-0.12507018
207	0xbdab7ca8	-0.08373386
208	0x3b9881d3	0.004654148
209	0x3d8f6296	0.07001226
210	0x3d883bd2	0.06652035
211	0x3d8c41e3	0.068485044
212	0xbbd36c55	-0.006452123
213	0xbd2a0518	-0.041508764
214	0xbd777046	-0.060409807
215	0x3d8822f1	0.066472895
216	0x3bd5253d	0.0065046833
217	0x3d779e20	0.060453534
218	0xbdaa003b	-0.08300825
219	0x3d6f4258	0.05841288
220	0xbd92dbf0	-0.07170856
221	0x3d91cccc	0.0711914
222	0xbd3e08a0	-0.046394944
223	0x3ceb269f	0.02870494
224	0xbdb36e80	-0.087613106
225	0x3d8402c2	0.064458385
226	0x3d6f8425	0.058475632
227	0x3d91e7e3	0.07124307
228	0x3bf28809	0.0074014706
229	0x3d216e43	0.039411794
230	0x3bd81a8c	0.0065949615
231	0x3d2ecb30	0.042674243
232	0xbd14753f	-0.036244627
233	0x3daadf44	0.08343366
234	0x3d89deb1	0.06731928
235	0x3cd88e72	0.02643511
236	0x3d8f0f23	0.06985309
237	0x3d06846e	0.03284114
238	0xbd58feaa	-0.05297724
239	0xbc3dc1a9	-0.011581817
240	0xbd9dfa3d	-0.07713745
241	0xbcd9f460	-0.026605785
242	0xbddbf8de	-0.10740827
243	0x3d82c68e	0.063855276
244	0x3cf9ae23	0.030478543
245	0xbdc28ee5	-0.09499911
246	0x3da7cc77	0.081932954
247	0xbd668158	-0.056275696
248	0xbc7317d5	-0.014837225
249	0x3d08e371	0.03342003
250	0xbc5f313c	-0.013622578
251	0x3d4c2a25	0.04984488
252	0x3d99e4a7	0.07514315
253	0xbbd5d9ca	-0.0065262066
254	0xbd931c03	-0.07183077
255	0x3da25b31	0.0792755

rnn.weight_hh_l0 f4 [512, 128]
0	0x3bf04803	0.007332803
1	0x3da9f605	0.082988776
2	0x3bef8a90	0.007310219
3	0x3ae38a2f	0.0017359908
4	0xbd977663	-0.07395627
5	0xbd87e946	-0.0663629
6	0xbd87fde9	-0.066402264
7	0x3cf4b01f	0.029869137
8	0xbd5ec435	-0.054386336
9	0x3da465c3	0.08027222
10	0x3d9231d7	0.071384124
11	0xbd8fa770	-0.07014358
12	0x3d81f191	0.06344903
13	0xbd25748f	-0.040394362
14	0xbd8c7221	-0.06857706
15	0xbd035bcc	-0.032069966
16	0x3b38703c	0.0028143069
17	0xbda567fd	-0.08076475
18	0xbd86edd3	-0.0658833
19	0x3d8e1a9e	0.069386706
20	0xbc0a0ed3	-0.008426386
21	0xbd29af4d	-0.041426945
22	0x3cdc1bee	0.026868787
23	0xbcb90ec1	-0.022590043
24	0x372ce5bb	1.0305487e-05
25	0xbcd1eb31	-0.025624843
26	0x3d0b3eb7	0.033995356
27	0xbbc15f53	-0.005901256
28	0x3c85c962	0.016331378
29	0x3c37ff93	0.011230367
30	0xbd330af9	-0.043711636
31	0xbcb812b6	-0.02246986
32	0xbda8ce33	-0.082424544
33	0xbd302aa1	-0.043009404
34	0xbda12ade	-0.078695044
35	0x3d19bbc4	0.037532583
36	0x3d9b690c	0.075883955
37	0x3d8bc574	0.068247706
38	0xbcb06e93	-0.0215371
39	0xbd90aad1	-0.07063831
40	0x3cdf1926	0.027233671
41	0x3cfd25f0	0.03090188
42	0x3d47b8a8	0.048760086
43	0xbcf21baf	-0.029554216
44	0x3cd7abdf	0.026327072
45	0x3c1e6584	0.009667758
46	0x3d8388d8	0.06422585
47	0xbcc024e4	-0.02345509
48	0x3cc74cb4	0.024328567
49	0xbcb4e054	-0.022079624
50	0x3d0aab99	0.033855055
51	0x3d21e863	0.039528262
52	0xbcbc6c19	-0.023000764
53	0xbcdfaad6	-0.02730314
54	0xbc91b1d6	-0.017784994
55	0x3d4c2428	0.04983917
56	0xbc67cbe5	-0.014147733
57	0x3d3f5df8	0.046720475
58	0xbcbfd4cf	-0.023416905
59	0xbd976c89	-0.07393748
60	0x3d100660	0.03516233
61	0x3c817d63	0.01580686
62	0xbd0e3d9e	-0.03472673
63	0x3c027b5b	0.007963981
64	0x3c9fbacd	0.019498253
65	0xbd6c6d6f	-0.05772155
66	0xbd5031ba	-0.050828673
67	0x3c1afd20	0.009459764
68	0x3d149664	0.036276236
69	0x3d9207da	0.07130404
70	0x3d7983d4	0.060916737
71	0x3d040c32	0.032238193
72	0xbcf9579e	-0.030437287
73	0xbc32ff96	-0.010925194
74	0xbd9fae50	-0.07796919
75	0xbd2f2668	-0.042761236
76	0xbdb8be5d	-0.09020684
77	0xbda0bedc	-0.078489035
78	0x3d0523e1	0.03250492
79	0x3d834c29	0.06411011
80	0x3b923962	0.004462407
81	0xbda89ef1	-0.08233441
82	0x3becfa45	0.007231983
83	0xbd609e23	-0.05483831
84	0xbd4f2fb1	-0.05058259
85	0x3d7ad829	0.061241303
86	0xbd99b4cb	-0.07505187
87	0x3c4df5d2	0.012570815
88	0xbcab9b5d	-0.020948106
89	0xbcbc429d	-0.022980982
90	0xbba701c7	-0.0050966474
91	0xbc981c12	-0.018568072
92	0xbd165c73	-0.03670926
93	0xbd5b858f	-0.05359417
94	0xbd6668a5	-0.05625214
95	0xbd78f493	-0.06078012
96	0x3d891ce3	0.06694963
97	0xbcd9fdeb	-0.026610335
98	0x3da479f5	0.08031074
99	0x3d9074d0	0.0705353
100	0x3d86c4e0	0.0658052
101	0x3d14ce2e	0.03632944
102	0xbc0db75c	-0.008649673
103	0xbd49e3ca	-0.049289502
104	0x3db57aa3	0.08861282
105	0xbda09c44	-0.07842305
106	0x3d5d279b	0.05399285
107	0xbd95546a	-0.07291491
108	0x3d77966b	0.060446184
109	0x3d850cbb	0.06496569
110	0xbc884671	-0.016635152
111	0x3c881c36	0.016615015
112	0x3d30e555	0.043187458
113	0x3d142f1b	0.036177736
114	0xbd3febec	-0.046855852
115	0xbda5a35a	-0.080877975
116	0xbd1f8f26	-0.038954876
117	0x3d19df2f	0.03756636
118	0xbd491ade	-0.04909789
119	0xbd743186	-0.05961754
120	0x3da790d7	0.08181923
121	0xbd43aab3	-0.047770213
122	0xbd5b4dc7	-0.05354097
123	0xbc745d25	-0.0149147855
124	0xbbffb129	-0.0078031016
125	0x3d8138e9	0.06309683
126	0x3cb30a39	0.02185546
127	0xbc99bc02	-0.018766407
128	0xbd3f36ab	-0.046682995
129	0xbc624d9a	-0.013812447
130	0xbd277a2f	-0.040888008
131	0x3d219b0b	0.0394545
132	0xbb669ac1	-0.0035187455
133	0x3d2db77f	0.042411324
134	0xbdcdc157	-0.10046642
135	0x3c86544c	0.016397618
136	0x3cf4105d	0.029792959
137	0xbd20af88	-0.0392299
138	0xbc4894cb	-0.012242506
139	0x3d2a512c	0.041581318
140	0x3ac67551	0.0015141164
141	0xbbc8a3a4	-0.006123023
142	0xbc41c81d	-0.011827496
143	0xbd1d980a	-0.038475074
144	0x3cde5ae1	0.027142944
145	0xbb260b24	-0.002533623
146	0x3d100c7f	0.035168167
147	0x3ce33e8f	0.027739791
148	0xbda4dc4b	-0.0804983
149	0x3dd5f53c	0.10447165
150	0x3da0bdcc	0.07848701
151	0xbd001818	-0.031272978
152	0xbd093390	-0.03349644
153	0xbbdabce0	-0.0066753477
154	0x3d23f193	0.040025305
155	0xbd929477	-0.07157224
156	0x395ca5ac	0.00021042553
157	0xbbe56b6f	-0.0070013325
158	0xbce608a5	-0.028080294
159	0xbd10112f	-0.035172638
160	0xbd3101cf	-0.043214615
161	0xbc0a7cba	-0.008452589
162	0xbd90c8b6	-0.070695326
163	0x3aadac1f	0.0013250149
164	0x3d06f21f	0.03294575
165	0x3d0c484a	0.034248628
166	0x3d43933e	0.047747843
167	0xbd13a98b	-0.03605036
168	0x3c173ec8	0.009231277
169	0xbc0483c9	-0.008088061
170	0xbdfe8afb	-0.12428852
171	0xbc6131ba	-0.013744766
172	0x3d8b6168	0.06805688
173	0x3db7e973	0.08980074
174	0x3d17c593	0.037053656
175	0xbd15a798	-0.036536783
176	0xbd21522e	-0.039385013
177	0x3d869e41	0.06573153
178	0x3d2b8c80	0.041882038
179	0x3d326d94	0.043561533
180	0x3d8b93ab	0.06815275
181	0xbda07dbc	-0.07836482
182	0x3d9f39b6	0.07774679
183	0x3c9ecf25	0.019385884
184	0x3d9e4331	0.077276595
185	0xbc91d17a	-0.017800082
186	0x3c7e0a13	0.015505332
187	0x3c54f6dc	0.012998309
188	0x3cda0f2e	0.026618566
189	0xbd5238b1	-0.051323596
190	0x3d9797aa	0.074019745
191	0x3daa95df	0.08329367
192	0xbca0eae5	-0.019643256
193	0x3d4e3c6a	0.050350584
194	0x3d9cc188	0.07654101
195	0x3cc6aa4e	0.02425113
196	0x3d4ef66c	0.050527975
197	0x3c779b22	0.01511267
198	0x3d599eee	0.053130083
199	0xbd9da374	-0.07697192
200	0x3badabcd	0.0053000213
201	0xbd20f553	-0.03929646
202	0xbc13d405	-0.009022717
203	0xbcc51cfd	-0.024061674
204	0xbd9822ad	-0.07428489
205	0x3c99233d	0.01869356
206	0x3dcbb360	0.099463224
207	0xbd3a669c	-0.045508012
208	0xbcd2d3a5	-0.025735686
209	0xbc569447	-0.0130968755
210	0x3d0669c0	0.032815695
211	0x3befbd48	0.0073162653
212	0x3aca99a9	0.0015457171
213	0xbd71d521	-0.059041146
214	0x3c041593	0.008061784
215	0xbd3423d2	-0.043979473
216	0x3d9d4784	0.07679656
217	0x3d9c1a7c	0.07622239
218	0x3c9ba13d	0.018997783
219	0x3d235a7a	0.039881207
220	0x3db65470	0.08902824
221	0xbd15813d	-0.036500204
222	0x3d00ee9f	0.031477567
223	0x3cb38a90	0.021916658
224	0xbc06fb2e	-0.008238597
225	0xbc47b5cc	-0.01218934
226	0xbce32904	-0.027729519
227	0xbd80aa7f	-0.062825195
228	0xbd6b5c6b	-0.057461184
229	0xbd230d16	-0.0398074
230	0xbbbda1ba	-0.0057871016
231	0x3d96ee4f	0.073696725
232	0x3c786235	0.015160133
233	0x3d5e7db3	0.054319095
234	0x3d520db3	0.051282596
235	0x3dc30d71	0.09524048
236	0xbd2351af	-0.03987282
237	0xb6c57224	-5.8843452e-06
238	0xbd628644	-0.055303827
239	0x3da0b896	0.07847707
240	0xbca763c8	-0.020433322
241	0xbd2334d1	-0.03984529
242	0x3d6d1d08	0.057889014
243	0xbda3b751	-0.07993949
244	0x3d81cf32	0.063383475
245	0x3d166740	0.03671956
246	0x3c642984	0.013925914
247	0x3d162bd7	0.036662903
248	0x3c5eac5f	0.013590901
249	0x3d70c0a4	0.058777466
250	0xbd7e769d	-0.062124837
251	0xbdae1118	-0.08499354
252	0x3ce45104	0.027870663
253	0xbb4ad9b2	-0.003095251
254	0x3da0df0d	0.078550436
255	0xbd39421d	-0.045229066

rnn.bias_ih_l0 f4 [512]
0	0xbcc1bbfd	-0.02364921
1	0xbcbe660b	-0.023242017
2	0x3d059a1f	0.032617684
3	0x3c110005	0.008850102
4	0xbc1570fd	-0.009121177
5	0x3b3dedb4	0.0028980793
6	0xbda09338	-0.0784058
7	0xbc2aadba	-0.010417396
8	0xbd54b3a8	-0.051929146
9	0x3dd47db0	0.103755355
10	0x3d85a324	0.06525257
11	0xbbba683d	-0.0056886957
12	0x3d677d2c	0.056515858
13	0xbdd16f70	-0.10226333
14	0xbbeb26af	-0.0071762423
15	0xbbccca12	-0.0062496746
16	0x3bd8b1d1	0.0066129942
17	0x3d5ba9b7	0.05362865
18	0xbd84d91b	-0.06486722
19	0xbd8554f0	-0.06510341
20	0xbdb3a890	-0.08772385
21	0xbd44fa96	-0.04809054
22	0x3cad60ca	0.021164317
23	0x3ce7001a	0.02819829
24	0xbca383c1	-0.019960286
25	0x3d1d29bc	0.03836988
26	0xbca75a14	-0.020428695
27	0x3dc13c51	0.094353326
28	0x3d8fb75e	0.070173964
29	0x3dc710ea	0.09720023
30	0x3c7dbc99	0.01548686
31	0xbd97d586	-0.07413773
32	0xbcd1f899	-0.025631236
33	0x3ddbb68e	0.10728179
34	0xbcc61e20	-0.024184287
35	0x3cd3a419	0.025835084
36	0x3cbda86a	0.023151595
37	0xbdcb69c9	-0.09932286
38	0xbd3cb034	-0.046066478
39	0xbd622348	-0.055209428
40	0xbd5ccb61	-0.053904895
41	0xbd901e4b	-0.07037028
42	0x3dd5dd6a	0.10442622
43	0xbc6799b2	-0.014135765
44	0xbd50a32b	-0.05093686
45	0x3cd27344	0.025689729
46	0x3d92a821	0.07160974
47	0xbce7a2e9	-0.028275924
48	0x3da96a1b	0.08272191
49	0x3d788665	0.060675044
50	0x3d5fc295	0.054628927
51	0xbd1d27d9	-0.03836808
52	0xb8568fb6	-5.1155417e-05
53	0xbb556f59	-0.003256759
54	0xbd024335	-0.031802375
55	0xbdcec7bf	-0.10096692
56	0xbd3c8fd1	-0.04603559
57	0x3bf1e08f	0.007381506
58	0xbc92edce	-0.01793566
59	0x3cfeb953	0.031094229
60	0xbd907e69	-0.07055361
61	0xbcf44069	-0.02981587
62	0x3c562c12	0.013072031
63	0xbc2ece33	-0.010669279
64	0x3cda313e	0.026634809
65	0xbc9617c6	-0.018321883
66	0xbd044f4d	-0.03230219
67	0x3c32e541	0.010918916
68	0xbd46388d	-0.048393775
69	0xbc1bd68a	-0.009511599
70	0xbdb8eb36	-0.09029238
71	0x3dade88e	0.08491622
72	0x3d15abde	0.03654086
73	0xbc908d08	-0.017645374
74	0xbd4c85e6	-0.049932383
75	0x3daa6e53	0.08321824
76	0xbd046262	-0.032320388
77	0x3d05b05d	0.032638896
78	0xbcdd6fc0	-0.027030826
79	0x3d94d05f	0.07266306
80	0x3d4884ff	0.04895496
81	0x3dd5efeb	0.10446151
82	0xbcce8b78	-0.025212988
83	0xbc82cd73	-0.015967106
84	0x3d2b719b	0.04185639
85	0xbd1e8999	-0.038705442
86	0x3d3421e6	0.04397764
87	0x3cd6db14	0.026227511
88	0xb9786896	-0.00023690084
89	0x3c69c8dd	0.014269081
90	0xbd01e837	-0.031715598
91	0xbca331c1	-0.019921185
92	0x3d29d000	0.04145813
93	0xbc7d0f86	-0.015445596
94	0x3da21942	0.07914974
95	0x3daa7bdd	0.08324406
96	0xbd448225	-0.047975678
97	0x3cede7e1	0.029041233
98	0x3c896198	0.01677017
99	0x3ccdb027	0.02510841
100	0x3d78844f	0.060673054
101	0xbc82cde6	-0.01596732
102	0xbb2e399e	-0.0026584635
103	0xbd0b0676	-0.03394171
104	0x3da4841a	0.08033009
105	0xbb4b616d	-0.0031033412
106	0xbc0af474	-0.008481134
107	0xbb059713	-0.0020384237
108	0x3d7542e0	0.05987823
109	0xbcdbac6b	-0.026815614
110	0x3d93011f	0.07177948
111	0xbcbe134a	-0.023202557
112	0xbcaf41ca	-0.021393675
113	0xbd4951c8	-0.04915026
114	0xbd2b9799	-0.04189262
115	0x3c8b3dda	0.016997267
116	0x3dbbda8f	0.09172546
117	0x3d084494	0.033268526
118	0xba034dc6	-0.00050088426
119	0xbd795992	-0.060876437
120	0x3d28d3a3	0.041217458
121	0xbbe313eb	-0.0069298646
122	0x3d1530f6	0.036423646
123	0x3dd0ba7c	0.10191819
124	0x3d86a85b	0.0657508
125	0xbcc2861d	-0.02374559
126	0xbd38c737	-0.04511186
127	0x3da65286	0.08121209
128	0xbd868225	-0.06567792
129	0xbd5420e5	-0.051789183
130	0xbc86b048	-0.01644148
131	0x3d21af88	0.03947404
132	0x3c686690	0.014184609
133	0xbbed1c1a	-0.007236016
134	0x3cb238bb	0.021755567
135	0xbdd72ba3	-0.1050637
136	0xbd9d0cd9	-0.07668466
137	0x3d8bc652	0.06824936
138	0xbc96c053	-0.018402254
139	0xbd0a51fd	-0.033769596
140	0x3d87f21b	0.06637975
141	0xbd766041	-0.06015039
142	0xbd0f0867	-0.034920122
143	0x3dca4fb8	0.098784864
144	0xbda7e8b8	-0.081986845
145	0xbcea83e6	-0.028627347
146	0xbd5d13cb	-0.053973954
147	0xbd60c58d	-0.0548759
148	0x3de6e21d	0.112735964
149	0xbceac198	-0.028656766
150	0xbd2a0d9c	-0.041516885
151	0xbd760a5e	-0.06006848
152	0x3c095cca	0.008383939
153	0x3d5e8959	0.054330204
154	0xbd198046	-0.037475847
155	0xbd7f5041	-0.062332395
156	0xbda2d5f2	-0.07950963
157	0x3dc27645	0.094952144
158	0xbd8166b6	-0.06318419
159	0xbcf5ae24	-0.029990263
160	0xbc19fce2	-0.009398671
161	0xbc88765e	-0.016658004
162	0xbcfb85b5	-0.030703405
163	0x3d03f51f	0.032216188
164	0xbc57650a	-0.013146648
165	0x3c308a13	0.010775107
166	0x3d057835	0.03258534
167	0x3d762d71	0.06010193
168	0x3cfe3c41	0.03103459
169	0xbc3fe876	-0.011713138
170	0x3c0604b3	0.008179831
171	0x3c0f794a	0.008756945
172	0x394a674d	0.00019302704
173	0xbd6fffc9	-0.058593545
174	0x3d94194b	0.07231387
175	0x3d97c597	0.07410734
176	0xbd47feef	-0.048827108
177	0xbb27a5a4	-0.0025580907
178	0xbdbb31d8	-0.09140366
179	0x3db192cc	0.086705774
180	0xbd279e24	-0.0409223
181	0x3d477596	0.048696123
182	0xbca4cc64	-0.020116992
183	0xbd64fb47	-0.0559037
184	0x3caf91f8	0.021431908
185	0xbc89b301	-0.016808989
186	0x3da85eba	0.08221193
187	0x3d91f67f	0.071270935
188	0x3cc41f25	0.023940632
189	0x3cccf970	0.025021285
190	0x3d3ed168	0.046586424
191	0x3da473cf	0.08029901
192	0x3bd1e6fd	0.00640571
193	0xbda8cb9d	-0.08241961
194	0xbd2045f7	-0.039129224
195	0x3da77695	0.081769146
196	0xbd3653da	-0.04451356
197	0x3c36e898	0.011163853
198	0x3d270bf4	0.040782884
199	0x3cde443b	0.027132144
200	0x3d5a9444	0.053364053
201	0xbd8f2eb7	-0.06991332
202	0x3d29cdf4	0.041456178
203	0xbd06dd2b	-0.032925766
204	0x3da528b2	0.08064403
205	0xbd409b7a	-0.047023274
206	0xbd771ebc	-0.060332045
207	0x3ca94728	0.020663813
208	0xbca54211	-0.020173104
209	0x3b8ea2d0	0.004352905
210	0x3d3060c9	0.04306105
211	0xbd98bd7d	-0.07458017
212	0xbd547e4b	-0.051878255
213	0x3d73347c	0.059376225
214	0x3c8dbb25	0.017301152
215	0xbb7ef23b	-0.0038901705
216	0x3d6abe05	0.057310123
217	0x3d2d2ab3	0.04227705
218	0xbc3b9646	-0.011449402
219	0x3c86414e	0.016388562
220	0xbce4e61c	-0.027941756
221	0x3dc18ef0	0.09451091
222	0x3d9e2d04	0.0772343
223	0xbce32467	-0.027727319
224	0x3dd995f4	0.106243044
225	0x3d75990f	0.05996042
226	0x3d3db36c	0.04631369
227	0x3d722436	0.059116565
228	0x3dafc93b	0.085833035
229	0x3d20d554	0.039265946
230	0x3d4397f0	0.04775232
231	0x3d3a8e30	0.045545757
232	0x3d766077	0.06015059
233	0x3da0153b	0.078165494
234	0xbbfb42d7	-0.00766788
235	0x3d8c5991	0.06853021
236	0xbd95c6d7	-0.07313316
237	0x3d1bf956	0.038079582
238	0xbd97b24a	-0.07407053
239	0xbd85fac9	-0.06541974
240	0xbca4d48d	-0.020120883
241	0x3c1e3133	0.009655285
242	0xbd8601bc	-0.065432996
243	0x3d024c1f	0.031810876
244	0x3d138ce4	0.036023036
245	0x3d3e1f2f	0.046416458
246	0xbd058f7b	-0.032607537
247	0xbc3b12e2	-0.011418076
248	0x3ddd8cc1	0.10817862
249	0xbdaa8f16	-0.08328073
250	0x3dc6e13c	0.09710929
251	0xbbec7ac4	-0.0072167832
252	0xbd918249	-0.07104928
253	0xbd5af9cc	-0.05346088
254	0xbd4ec2b1	-0.05047864
255	0x3d2fbbd8	0.04290375

rnn.bias_hh_l0 f4 [512]
0	0xbd225dad	-0.039640117
1	0x3aedbc32	0.0018137752
2	0xbd14b5f8	-0.03630635
3	0xbda11008	-0.07864386
4	0xbcc7ab52	-0.024373684
5	0xbd084803	-0.0332718
6	0x3d58002f	0.05273455
7	0xbd392d4f	-0.045209225
8	0x3d1b4825	0.0379106
9	0x3d2c3292	0.042040415
10	0x3d97a665	0.07404784
11	0x3ba059bb	0.004893509
12	0x3c2c0ebc	0.01050156
13	0xbd988f6d	-0.07449231
14	0xbd5b7da4	-0.053586617
15	0x3da3cf36	0.07998507
16	0x3bd5d117	0.0065251696
17	0x3d8a6d4d	0.06759129
18	0xbcc0dac2	-0.023541812
19	0x3d9490ee	0.07254206
20	0x3d893862	0.06700207
21	0xbd5e2a4e	-0.054239564
22	0xbd90672f	-0.07050931
23	0x3da43b20	0.0801909
24	0x3d4b627e	0.049654476
25	0x3ca38ba9	0.019964056
26	0x3cf1472a	0.029452879
27	0xbd716eac	-0.058943436
28	0x3a3353f3	0.00068408175
29	0x3d94d1c8	0.07266575
30	0x3dd46ae8	0.10371953
31	0xbdb6232a	-0.08893426
32	0x3cf074e9	0.029352622
33	0x3d58891c	0.052865133
34	0x3cde8b21	0.027165951
35	0xba5e2c6d	-0.0008475248
36	0xbc7712d2	-0.015080171
37	0xbd45a8f1	-0.04825682
38	0xbcc05a32	-0.023480508
39	0xbd5b0bd0	-0.053478062
40	0xbdc7644c	-0.09735927
41	0x3cb9864d	0.022647047
42	0xbc505282	-0.012714984
43	0xbdb362a4	-0.087590486
44	0x3d70765c	0.058706626
45	0xbd42ff61	-0.04760683
46	0xbdaf7db0	-0.08568895
47	0x3de5d6a6	0.112225816
48	0x3ddec57c	0.10877511
49	0xbd494e73	-0.04914708
50	0xbdb4aad5	-0.08821646
51	0xbb13fd25	-0.0022581306
52	0x3d3fcbaf	0.046825107
53	0x3dab56de	0.08366178
54	0x3dba2c73	0.09090509
55	0x3d0469c4	0.03232743
56	0xbd80f2d2	-0.06296314
57	0x3d9a77b8	0.07542366
58	0xbd2056cf	-0.039145287
59	0x3e1c1374	0.15241796
60	0xbd54edb2	-0.051984496
61	0x3da273c1	0.079322346
62	0xbda2c2aa	-0.079472855
63	0x3c8c0818	0.017093703
64	0xbd68d1fd	-0.056840885
65	0x3d20104f	0.039078053
66	0xbd8529b6	-0.06502096
67	0x3e014400	0.12623596
68	0xbd445c4f	-0.047939595
69	0xbda02096	-0.07818715
70	0xbd83715a	-0.064181045
71	0x3a5df06e	0.0008466308
72	0xbd5388b2	-0.051644035
73	0x3ce558f7	0.027996523
74	0xbc2589af	-0.010103627
75	0xbd1f4ca4	-0.03889145
76	0xbb9d1c00	-0.0047945976
77	0xbd8e78c9	-0.06956632
78	0x3da60693	0.08106723
79	0xbce495cd	-0.027903462
80	0x3d22c804	0.03974153
81	0xbd2bafeb	-0.041915815
82	0xbd98d58a	-0.07462604
83	0x3d7919ac	0.0608155
84	0xbbb4e110	-0.0055199936
85	0x3cbf1472	0.023325179
86	0x3bb923bb	0.0056500114
87	0xbcb19763	-0.021678632
88	0x3db3f44f	0.087868325
89	0xbbbb693f	-0.0057193334
90	0x3cea7882	0.028621916
91	0x3c9dbcf5	0.01925514
92	0xbc8d320e	-0.017235782
93	0x3dc831e9	0.097751446
94	0x3d9c12e7	0.07620793
95	0x3d715793	0.058921408
96	0x3cf05cdc	0.029341154
97	0xb9061ee4	-0.00012790743
98	0xbd0e43a1	-0.034732465
99	0x3d510b2a	0.051036038
100	0xbd95c6c6	-0.07313304
101	0x3d299d72	0.041409917
102	0x3d6cf5f4	0.057851747
103	0xbd3fb219	-0.046800707
104	0x3d188dd6	0.03724464
105	0x3d45b764	0.048270598
106	0x3d02903a	0.031875826
107	0xbcbe022f	-0.0231944
108	0x3d53f355	0.05174573
109	0xbd1861bf	-0.037202593
110	0xbd882538	-0.06647724
111	0x3d6b169a	0.0573946
112	0x3d9b0369	0.0756901
113	0xbd89811c	-0.06714079
114	0x3d1a5eb3	0.03768797
115	0xbc03d6cd	-0.008046818
116	0xbc1da067	-0.009620762
117	0xbd92b911	-0.07164205
118	0xbd9222ee	-0.071355686
119	0xbda215b3	-0.07914295
120	0x39846659	0.00025253257
121	0x3c8730f9	0.016502844
122	0xbc69f605	-0.014279847
123	0x3cc19200	0.023629189
124	0xba364e58	-0.0006954423
125	0x3cfa885f	0.030582605
126	0x3d9e8420	0.077400446
127	0x3db75002	0.08950807
128	0xbd418374	-0.047244504
129	0x3d91225b	0.07086631
130	0x3d366bfb	0.044536572
131	0xbde88e37	-0.1135525
132	0xbcfe4d8c	-0.031042837
133	0xbcca27c5	-0.024677167
134	0xbd2d72a2	-0.04234565
135	0xbdc3a2ba	-0.09552522
136	0x3d0d6dfe	0.034528725
137	0xbadbfec0	-0.0016784295
138	0xbd59af1b	-0.05314551
139	0xbda5cd71	-0.080958255
140	0xbd95fe45	-0.07323889
141	0xbdb7c5b1	-0.089732535
142	0xbd9b3226	-0.075779244
143	0x3cbd7a27	0.023129536
144	0xbd9b6640	-0.07587862
145	0xbd9f8baa	-0.07790311
146	0x3d882b99	0.066489406
147	0x3d2f8114	0.042847708
148	0x3dfbc329	0.12293083
149	0x3da2b99f	0.07945561
150	0xbca5a7d8	-0.020221636
151	0x3d2dc0e2	0.042420276
152	0xbd9a03cb	-0.07520255
153	0x3cd5d68c	0.02610328
154	0x3c37da1a	0.011221433
155	0xbd9f12bc	-0.07767245
156	0xbd8b5a21	-0.068043
157	0x3c8876e1	0.016658248
158	0x3d49359a	0.049123384
159	0x3ab1542b	0.0013529112
160	0x3da18aad	0.078877784
161	0xbd2ea3cd	-0.04263668
162	0x3d1f2c21	0.038860444
163	0xbbd68d62	-0.006547616
164	0xbd665697	-0.056234922
165	0x3d0128f2	0.03153319
166	0xbd14f9bb	-0.036370974
167	0x3d89ad68	0.06722528
168	0x3cf840fd	0.030304426
169	0xbd6598d9	-0.05605397
170	0xbd7f8195	-0.06237944
171	0x3d47be74	0.048765615
172	0x3da3f085	0.0800486
173	0x3c705b61	0.014670224
174	0x3d0bd0ec	0.03413479
175	0x3d8b6c23	0.06807735
176	0xbdc49cec	-0.09600243
177	0x3d3701b6	0.044679366
178	0x3cc045e0	0.023470819
179	0x3c924bcf	0.017858414
180	0x3d089afc	0.03335093
181	0x3dc69881	0.096970566
182	0x3ce73841	0.028225066
183	0x3d2b443b	0.041813117
184	0xbccde1a8	-0.025132015
185	0x3c84bafb	0.01620244
186	0x3c8ca14c	0.017166756
187	0x3da18b98	0.078879535
188	0xbda46d7d	-0.08028696
189	0xbd024d2f	-0.03181189
190	0x3d5f25e7	0.054479506
191	0x3c93215c	0.017960243
192	0xbcd2ef6d	-0.025748933
193	0xbd4fb48f	-0.050709303
194	0x3d8a96cc	0.067670435
195	0x3d9cabe1	0.07649971
196	0xbdc30740	-0.09522867
197	0x3d1b965a	0.037985183
198	0x3d0075a4	0.03136219
199	0xbd7a66d4	-0.06113322
200	0x3cc7539f	0.024331866
201	0xbdabd66e	-0.083905086
202	0x3d36753d	0.0445454
203	0xbcf53197	-0.029930873
204	0x3d1d3b42	0.03838659
205	0xbd834f07	-0.06411558
206	0x3d9778bc	0.07396075
207	0x3d5dde36	0.054166995
208	0xbd76dea8	-0.060270935
209	0xbc9b9189	-0.018990295
210	0x3d259f8a	0.04043535
211	0x3d430a9f	0.04761755
212	0x3b99aa8d	0.0046895207
213	0x3d2570ad	0.04039066
214	0xbd6251af	-0.05525368
215	0x3d3715fc	0.0446987
216	0x3bfcfeaf	0.0077207903
217	0x3cfc028b	0.030762931
218	0x3d07f7c4	0.033195272
219	0x3c60aaf9	0.013712638
220	0x3d8e1c17	0.069389515
221	0x3d8e6614	0.069530636
222	0xbd6a9d67	-0.057279017
223	0x3b8069bc	0.0039188545
224	0x3d536f53	0.05161984
225	0x3d6ca738	0.05777666
226	0xbd240de4	-0.04005231
227	0x3d743768	0.059623152
228	0x3d7b9bcd	0.06142788
229	0xbd1d3d3e	-0.038388483
230	0xbd9776d8	-0.073957145
231	0xbdd61a7d	-0.10454271
232	0x3b2103ea	0.0024568983
233	0x3c3fdce3	0.011710378
234	0xbbe36429	-0.0069394303
235	0x3d859b96	0.06523816
236	0xbcf66055	-0.030075232
237	0xbd95e41a	-0.073188975
238	0x3d699470	0.057026327
239	0x3d3f97ce	0.04677563
240	0xbc429f23	-0.011878761
241	0x3b8a025a	0.004211706
242	0xbd8d952b	-0.06913217
243	0x3d65a7c8	0.05606821
244	0x3d8d3ef6	0.068967745
245	0x3db134d1	0.08652652
246	0xbc5ff2e2	-0.013668748
247	0xbbc58fe7	-0.0060291174
248	0xbd0c6e76	-0.03428503
249	0xbd91d496	-0.07120626
250	0xbc7eba5a	-0.015547359
251	0x3d729232	0.059221454
252	0x3d45c9db	0.048288208
253	0xbd79f814	-0.0610276
254	0xbc6395b9	-0.013890677
255	0xbd09dd81	-0.03365851

rnn.weight_ih_l1 f4 [512, 128]
0	0xbd77806b	-0.060425203
1	0x3dd5702a	0.10421784
2	0x3d3b4b16	0.045725904
3	0x3d235b8c	0.039882228
4	0xbad604e2	-0.001632836
5	0x3cf8fda8	0.03039439
6	0x3daa921e	0.08328651
7	0x3cf9be89	0.030486362
8	0xbc8a022e	-0.016846742
9	0xbb9ed774	-0.0048474614
10	0xbad1db94	-0.0016010874
11	0xbcda9a62	-0.026684944
12	0x3a9ad8df	0.00118139
13	0xbd010114	-0.03149517
14	0x3d5da01e	0.054107778
15	0x3c7e3205	0.015514855
16	0xbce4cdeb	-0.02793022
17	0xbd720a88	-0.059092075
18	0xbc83f1f2	-0.01610658
19	0x3a8f7b7d	0.0010946837
20	0x3d110276	0.035402738
21	0x3e1a324a	0.15058246
22	0x3bfa08e5	0.007630455
23	0x3d6ee12b	0.058320206
24	0xbd45534a	-0.048175134
25	0x3c5738f7	0.01313614
26	0x3d8458f3	0.06462278
27	0x3cd6663d	0.026171798
28	0x3c76f1e7	0.015072322
29	0x3c8089c1	0.015690686
30	0xbc58cd09	-0.013232478
31	0x3cff4e90	0.031165391
32	0x3d939325	0.072058
33	0x3dd35181	0.1031828
34	0xbdaa65ae	-0.08320175
35	0x3d3ce4de	0.046116702
36	0x3da25cf9	0.079278894
37	0xbcaa14ee	-0.020761933
38	0xbc9579d2	-0.018246565
39	0xbd13173f	-0.03591084
40	0x3d4026c5	0.046911974
41	0x3d944d92	0.07241358
42	0x3d490b6d	0.049083162
43	0x3d72a1f7	0.059236493
44	0x3d313269	0.043260965
45	0xbce44eec	-0.027869664
46	0xbc439a41	-0.0119386325
47	0xbd971f49	-0.07379014
48	0x3db92897	0.09040945
49	0xbdaf81bd	-0.085696675
50	0xbdafff81	-0.085936554
51	0x3d87ba5d	0.06627343
52	0xbd2ec522	-0.04266847
53	0x3d74ce59	0.0597671
54	0xbd4bfc95	-0.049801428
55	0xbd6f6f0e	-0.05845552
56	0x3c6c13be	0.014409004
57	0xbd6e9e12	-0.058256216
58	0x3ceb16b7	0.028697355
59	0xbc31e498	-0.010857724
60	0x3cc3de75	0.023909787
61	0x3d7bfe01	0.061521534
62	0xbd2135ca	-0.039357938
63	0xbb399979	-0.0028320237
64	0xbd00d217	-0.031450357
65	0xbcbd53c7	-0.023111237
66	0x3c14e7a4	0.009088431
67	0x3d7f1456	0.062275253
68	0xbc397103	-0.011318448
69	0x3c7fcf57	0.0156133985
70	0x3d9206d9	0.07130212
71	0x3d4df540	0.050282717
72	0x3d23abfa	0.03995893
73	0xbcc26e12	-0.023734126
74	0xbc4336a5	-0.011914884
75	0xbc802561	-0.015642824
76	0xbccafb2c	-0.024777971
77	0xbc5f0ece	-0.01361437
78	0x3bff9593	0.007799813
79	0x3c3b8d42	0.011447253
80	0x3d0d80f0	0.034546793
81	0x3d77c8bf	0.06049418
82	0xbe030bec	-0.12797517
83	0x3cb74060	0.022369564
84	0xbda18825	-0.07887296
85	0x3daf0179	0.08545203
86	0xbd60c3ec	-0.054874346
87	0xbc8862e6	-0.016648721
88	0xbc1220e7	-0.008918977
89	0x3d01d9e4	0.031701937
90	0x3de028d7	0.109452896
91	0x3d7b2179	0.06131122
92	0xbd7acf54	-0.06123288
93	0x3de72fc8	0.112884104
94	0x3c7f1336	0.015568545
95	0x3da74d8e	0.08169089
96	0xbdc7f5be	-0.097636685
97	0x3cea6f5c	0.028617553
98	0xbd104737	-0.035224166
99	0xbd5a70fd	-0.05333041
100	0x3dce2876	0.10066311
101	0xb9ca0bb8	-0.00038537174
102	0x3c1c828d	0.00955261
103	0x3d3e0f7c	0.046401486
104	0xbdf2bf2d	-0.1185287
105	0xbd19666f	-0.037451204
106	0xbcad8b14	-0.021184482
107	0xbd0d63d7	-0.034519043
108	0xbd58202a	-0.05276505
109	0xbdc99341	-0.098425396
110	0x3a20f7d2	0.0006140444
111	0x3d4e491a	0.050362684
112	0x3d76b1f0	0.06022829
113	0x3d3bc71c	0.045844182
114	0x3d3bfb6d	0.045894075
115	0x3c0dfcf5	0.008666267
116	0xbd761a6e	-0.0600838
117	0xbd899e63	-0.06719663
118	0xbd6b8a3f	-0.05750489
119	0x3cd4e848	0.025989667
120	0x3d281c20	0.041042447
121	0x3dcc94d6	0.09989326
122	0xbd3b4685	-0.04572155
123	0xbd720798	-0.059089273
124	0xbce2da99	-0.027692126
125	0x3def4445	0.11682943
126	0xbd5181af	-0.051149067
127	0x3d1903cb	0.037357133
128	0x3d48c34d	0.04901438
129	0xbda7d905	-0.0819569
130	0xbcb8933c	-0.022531144
131	0x3d264985	0.040597457
132	0xbdde8ad1	-0.10866321
133	0x3cb54476	0.022127371
134	0xbd9d4d47	-0.07680755
135	0xbd1475c5	-0.036245126
136	0x3d724b74	0.05915399
137	0x3db614a0	0.08890653
138	0xbd673f47	-0.05645683
139	0xbdbe1299	-0.09280891
140	0xb9c27c88	-0.00037095346
141	0x3d8ba519	0.06818599
142	0x3d44dafc	0.048060402
143	0xbcbb59c8	-0.02286996
144	0xbd21c3b0	-0.039493263
145	0xbdb1eb91	-0.08687509
146	0xbd0ffad9	-0.035151336
147	0xbd91d4d7	-0.07120674
148	0xbd7c8033	-0.061645698
149	0x3da2add5	0.07943312
150	0xbd65303d	-0.055954207
151	0xbd90bdd9	-0.070674606
152	0x3d7348c7	0.059395578
153	0x3b90aa06	0.0044147996
154	0xbd9b3087	-0.07577615
155	0xbd314d1f	-0.04328644
156	0xbd493372	-0.049121328
157	0x3d884223	0.066532396
158	0x3d1854b8	0.03719017
159	0x3dada6d0	0.084790826
160	0xbb81a836	-0.00395682
161	0x3b2222fb	0.0024740088
162	0xbbc13c9a	-0.005897117
163	0xbca8b034	-0.020591833
164	0xbd29fd7d	-0.04150151
165	0x3d3dbbf2	0.046321817
166	0xbcc2e59a	-0.023791123
167	0xba6fe848	-0.0009151739
168	0x3d6e0514	0.05811031
169	0xbdb00195	-0.08594052
170	0x3b7f901a	0.0038995803
171	0x3d72f387	0.059314277
172	0x3c79a038	0.015235953
173	0x3d15184a	0.036400117
174	0x3db471f3	0.088107966
175	0xbdc85b3a	-0.09783025
176	0xbd0e3c43	-0.03472544
177	0x3c1f22c3	0.009712878
178	0xbcc47884	-0.023983248
179	0xbe003a36	-0.12522206
180	0xbd5bf0f6	-0.053696595
181	0x3d9c322f	0.07626759
182	0x3d4e190f	0.050316866
183	0x3d8854ca	0.06656797
184	0xbcac94be	-0.02106702
185	0x3dc74273	0.09729471
186	0xbdacabd8	-0.08431214
187	0xbd769b04	-0.06020643
188	0xbceee6db	-0.029162815
189	0x3d8fa898	0.070145786
190	0xbcda5d16	-0.026655715
191	0xbd959726	-0.0730422
192	0x3dc094c8	0.09403378
193	0xbd652acc	-0.055949017
194	0x3d14419e	0.03619539
195	0xbe108b49	-0.14115633
196	0x3d1173c5	0.035510797
197	0x3da6ffd5	0.08154265
198	0x3ce991c0	0.028511882
199	0x3d327229	0.043565903
200	0xbd31812b	-0.043336075
201	0xbd3cce96	-0.046095453
202	0x3c1f0272	0.009705173
203	0x3db9c6f5	0.09071151
204	0x3d3334dc	0.043751583
205	0x3d2a557a	0.041585423
206	0xbd1b4e50	-0.03791648
207	0x3d26ed2d	0.040753532
208	0x3d0f8188	0.03503564
209	0x3d9cb410	0.07651532
210	0xbcfceebc	-0.030875556
211	0xbd4ade29	-0.049528275
212	0x3d6d9381	0.058002
213	0x3d0d7b68	0.034541517
214	0x3d4a44b4	0.049381927
215	0xbdaec4ff	-0.08533668
216	0x3d8a6e83	0.0675936
217	0xbcc27c8c	-0.02374103
218	0xbdafb493	-0.08579364
219	0x3c36f5a9	0.011166968
220	0x3d3b5e5a	0.045744278
221	0xbd1c4931	-0.03815574
222	0xbaf20aee	-0.0018466392
223	0xbbc3962b	-0.005968829
224	0x3d3cf37b	0.04613064
225	0xbe35e0d4	-0.17761546
226	0x3cf3e6f2	0.02977321
227	0x3c2c6a37	0.0105233705
228	0xbdbcbe89	-0.09216029
229	0x3cb7d8ea	0.0224423
230	0xbd57dc9b	-0.05270062
231	0x3dad39d7	0.08458298
232	0x3d278991	0.040902678
233	0x3d6b9eae	0.057524376
234	0x3d26fc02	0.040767677
235	0xbd19908e	-0.037491374
236	0xbcc1603e	-0.023605462
237	0xbd001c5d	-0.03127705
238	0x3d127906	0.03575995
239	0x3d0030c0	0.03129649
240	0x3c92905b	0.0178911
241	0xbd291aca	-0.041285314
242	0x3d4529c1	0.048135523
243	0xbd616860	-0.05503118
244	0xbd64900a	-0.05580143
245	0xbda6dba6	-0.08147363
246	0xbcb57710	-0.0221515
247	0x3da26758	0.079298675
248	0xbba22c3d	-0.0049491213
249	0xbdca7452	-0.098854676
250	0x3da76cc4	0.08175042
251	0xbd1ba93b	-0.038003188
252	0xbd84fb4c	-0.064932436
253	0x3ad43d91	0.0016192665
254	0xbcb818d4	-0.022472776
255	0xbbdcd2b4	-0.006738985

rnn.weight_hh_l1 f4 [512, 128]
0	0xbd225e6e	-0.039640836
1	0xbd97d9c6	-0.07414584
2	0x3ba07eb9	0.004897919
3	0x3d2fe500	0.042943
4	0xbd026c06	-0.0318413
5	0xbc1fb1c8	-0.009746976
6	0xbd96c6c9	-0.07362134
7	0x3d0a0a61	0.033701304
8	0xbd463d97	-0.04839858
9	0xbc88b879	-0.016689526
10	0x3c11f4d8	0.008908473
11	0xbd2e552f	-0.042561706
12	0x3dc11751	0.094282754
13	0x3d8798ab	0.06620916
14	0x3cfabb0b	0.030606767
15	0xbc3dc7d1	-0.0115832845
16	0xbd70eb15	-0.05881794
17	0x3c3d13f8	0.011540405
18	0x3c2b9205	0.0104718255
19	0xbd300511	-0.04297358
20	0xbd840e45	-0.06448034
21	0x3daf174e	0.08549367
22	0x3c3f4130	0.011673257
23	0xbc828e2c	-0.015936933
24	0xbd3442b6	-0.044008933
25	0xbc12312f	-0.008922859
26	0xbd6df077	-0.058090653
27	0x3d0cdd42	0.034390695
28	0xbd02a6c1	-0.03189731
29	0xbdc3a292	-0.09552492
30	0x3a8daea6	0.0010809496
31	0x3cf0b7f4	0.02938459
32	0xbd93a507	-0.07209211
33	0xbd2b4adf	-0.04181945
34	0xbc4bfef1	-0.0124509195
35	0xbbd80e11	-0.0065934737
36	0x3d8f799f	0.07005619
37	0x3dbed1e2	0.09317376
38	0xbd3d80e9	-0.046265516
39	0x3d9e64d9	0.07734079
40	0x3d5c0df8	0.05372426
41	0xbd6f3aa0	-0.05840552
42	0xbdcce150	-0.100039124
43	0xbd678fb8	-0.056533545
44	0xbdb5ce30	-0.08877218
45	0x3a6373d7	0.0008676624
46	0xbd31753d	-0.043324698
47	0xbc41da54	-0.011831839
48	0x3d3a3871	0.045463983
49	0xbcc4003b	-0.023925891
50	0x3d253643	0.04033495
51	0xbd946a5d	-0.0724685
52	0xbd6f9ca8	-0.05849901
53	0x3bce40ec	0.0062943604
54	0xbd85bb3f	-0.06529855
55	0xbc759b67	-0.014990664
56	0x3c5f63b1	0.013634608
57	0xbd581efb	-0.05276392
58	0xbd20aca0	-0.039227128
59	0x3c3cdf4b	0.011527847
60	0x3d0050e0	0.03132713
61	0xbdd2db55	-0.102957405
62	0x3d8d354c	0.06894931
63	0x3c96f797	0.018428607
64	0x3d071d6c	0.032987043
65	0xbde17acf	-0.11009752
66	0x3d2e1a62	0.04250563
67	0xbcb42c89	-0.021993892
68	0x3b2686e8	0.002541
69	0x3d00627f	0.031343933
70	0x3d32ef1a	0.043685056
71	0xbd0b252d	-0.033971
72	0xbc338ac4	-0.010958377
73	0xba9d6bea	-0.001201031
74	0xbd7a3bfa	-0.061092354
75	0xbd87be7b	-0.06628128
76	0x3d87ba0e	0.06627284
77	0xbd070376	-0.032962285
78	0xbd54f23e	-0.051988833
79	0x3c8e2e62	0.017356101
80	0x3cbbf846	0.022945534
81	0x3d815703	0.06315424
82	0xbcec6513	-0.02885679
83	0xbcc2f2f6	-0.023797493
84	0x3d6eb6be	0.058279745
85	0x3ce668d7	0.028126163
86	0x3c2830d7	0.010265551
87	0xbd8d5758	-0.06901425
88	0xbbaf1f82	-0.005344332
89	0xbd8da045	-0.069153346
90	0x3d66381f	0.056205865
91	0x3cfdad01	0.030966284
92	0xbc05adad	-0.008159083
93	0x3d23e592	0.040013857
94	0x3d2bab81	0.041911606
95	0x3dbe9230	0.09305227
96	0xbc4bf2de	-0.012448041
97	0x3c943c11	0.018095048
98	0x3d9c0440	0.07617998
99	0x3d6b017e	0.05737447
100	0xbd88fe53	-0.066891335
101	0xbd19b1b0	-0.03752297
102	0xbb7bd0e4	-0.003842407
103	0xbdca67a4	-0.09883049
104	0xbbd25c0f	-0.0064196656
105	0xbd1b2030	-0.037872493
106	0x3de4f3f8	0.11179346
107	0xbda9ef78	-0.08297628
108	0x3da5b002	0.080902115
109	0x3d1117a2	0.03542293
110	0x3d28a6e9	0.041174803
111	0xbd63cc3b	-0.05561469
112	0xbcf14e39	-0.029456245
113	0x3dc8f325	0.09812001
114	0x3df9a2bd	0.12189243
115	0xbd543bd8	-0.051814884
116	0xbd9b5938	-0.075853765
117	0xbd637b2c	-0.055537388
118	0xbbb11fae	-0.005405388
119	0xbc5aaf8f	-0.0133475205
120	0xbd1bc845	-0.03803279
121	0xbd326011	-0.043548647
122	0xbd8a8b02	-0.06764795
123	0xbd44a540	-0.048009157
124	0x3d5d7dad	0.054074932
125	0xbd8a1585	-0.06742386
126	0xbc41be6d	-0.011825186
127	0xbbd2ac5c	-0.0064292382
128	0xbd990818	-0.07472247
129	0x3ccc3af3	0.024930453
130	0xbc0fd5c4	-0.008778993
131	0x3d1854e4	0.037190333
132	0x3d4c6816	0.04990395
133	0x3d9e7992	0.077380314
134	0x3db6b482	0.08921148
135	0xbd0767e1	-0.03305805
136	0x3d3b6b75	0.045756776
137	0x3da1a54b	0.07892855
138	0xbd68fdc3	-0.05688263
139	0x3d90cbc1	0.07070113
140	0x3d4223b2	0.047397323
141	0x3c9aef26	0.018912863
142	0x3d93eac9	0.07222516
143	0x3d88e89e	0.06684993
144	0x3ccd1106	0.025032531
145	0xbd37cfd7	-0.044875946
146	0xbdaccb52	-0.08437218
147	0xbd81a8e6	-0.06331043
148	0x3d6f07b6	0.058356963
149	0x3de04e56	0.109524414
150	0xbc39495b	-0.011308993
151	0xbda8bce9	-0.08239157
152	0xbd1eca22	-0.038766988
153	0xbda24ef4	-0.07925215
154	0xbdad39f9	-0.08458323
155	0x3c3e3508	0.011609323
156	0xbd3c4e54	-0.045973137
157	0xbdd4666a	-0.103710964
158	0xbca0dea0	-0.019637406
159	0xbd8764b0	-0.066110015
160	0x3d6d4990	0.057931483
161	0x3b6ab101	0.003581107
162	0xbd1ad00d	-0.03779607
163	0x3db752c0	0.0895133
164	0x3d9c322a	0.076267555
165	0xbdacf48d	-0.08445082
166	0xbc5d6433	-0.013512659
167	0x3d421d0b	0.04739098
168	0x3d381049	0.044937406
169	0xbdac2aa2	-0.08406569
170	0xbd03795e	-0.032098167
171	0xbd83043f	-0.06397294
172	0x3d930135	0.071779646
173	0xbd3379ed	-0.04381745
174	0x3d38c8ee	0.045113496
175	0x3d73f9bb	0.059564333
176	0xbd9ab84b	-0.07554682
177	0x3d85584e	0.065109834
178	0xbd5d33ed	-0.0540046
179	0x3d6acd8b	0.057324927
180	0x3c3425e0	0.010995358
181	0x3dc31742	0.095259205
182	0x3d8f1f6a	0.06988414
183	0x3d020f3e	0.031752817
184	0xbd29cb81	-0.041453842
185	0x3a5f738c	0.0008523993
186	0xbdbf18b2	-0.09330882
187	0x3cabec1a	0.020986605
188	0x3d856186	0.06512742
189	0x3ca61d20	0.02027756
190	0x3d06eb28	0.032939106
191	0x3ce211f7	0.027596457
192	0x3db8e100	0.0902729
193	0xbd81fcfb	-0.0634708
194	0x3cdae4ca	0.026720423
195	0x3db695b4	0.08915272
196	0xbd85dc8d	-0.06536207
197	0xbd2f457b	-0.04279087
198	0xbd77ddb9	-0.060514186
199	0xbd6ff545	-0.058583517
200	0x3cf44b04	0.029820926
201	0x3cf5e49f	0.030016242
202	0xbc5a2c6f	-0.013316258
203	0x3d29dcae	0.041470222
204	0x3db6deed	0.089292385
205	0x3d81606b	0.063172184
206	0xbc25fb66	-0.010130739
207	0x3d26cff2	0.040725656
208	0xbc0315ee	-0.008000834
209	0x39b13d21	0.00033805615
210	0xbcda2645	-0.026629576
211	0xbcec28bd	-0.02882802
212	0x3db3cce6	0.08779316
213	0xbdf17cc9	-0.11791379
214	0x3d7215a3	0.059102666
215	0x3e060000	0.13085938
216	0x3dfec8ea	0.12440665
217	0x3d89095d	0.06691239
218	0xbda4f38e	-0.08054267
219	0xbcf723b5	-0.030168394
220	0xbdb8e410	-0.090278745
221	0xbbd48fd1	-0.006486871
222	0xbd912d3f	-0.07088708
223	0xbc820629	-0.015872078
224	0xbca27e2c	-0.019835554
225	0x3d46e713	0.048560213
226	0x3cd73967	0.026272489
227	0xbcaeceb3	-0.021338796
228	0xbd19e5d1	-0.037572686
229	0xbda10448	-0.07862145
230	0x3cd18d66	0.02558012
231	0x3cadba7a	0.021207083
232	0xbd81d20f	-0.063388936
233	0x3ceb3222	0.028710429
234	0x3b9192d8	0.004442554
235	0xbd5ad95e	-0.053429954
236	0x3c873a99	0.016507434
237	0x3d0855f2	0.03328509
238	0xbdc783de	-0.097419485
239	0x3ccd4c3a	0.025060762
240	0x3cba7a4d	0.022763396
241	0x3d34c86e	0.044136457
242	0x3ae3ff72	0.0017394854
243	0xbdb703cc	-0.08936271
244	0x3da90eaa	0.0825475
245	0x3dba8900	0.09108162
246	0xbc99df58	-0.018783256
247	0xbdcc89fc	-0.09987256
248	0xbca18a84	-0.01971937
249	0x3d817f1e	0.06323074
250	0x3cf868cc	0.030323409
251	0x3d2d0417	0.04224023
252	0x3d0c09a5	0.034188885
253	0x3c9c52e9	0.019082503
254	0x3cfdc430	0.030977339
255	0x3d2a33d8	0.04155335

rnn.bias_ih_l1 f4 [512]
0	0xbda52b63	-0.08064916
1	0x3d60a5c0	0.05484557
2	0xbc2c6fe8	-0.010524727
3	0xbdbf1f45	-0.09332136
4	0x3ce7f753	0.028316176
5	0xbd298937	-0.041390624
6	0xbd458db6	-0.04823085
7	0x3d3104e4	0.043217555
8	0x3be2de47	0.00692347
9	0x3d505672	0.05086369
10	0xbc51de0a	-0.012809286
11	0x3cf43dcf	0.029814629
12	0x3caa62fb	0.02079915
13	0x3dc8e431	0.09809149
14	0x3d669a36	0.05629941
15	0xbcdc0394	-0.026857175
16	0xbb9ba703	-0.004750134
17	0x3ddb18e2	0.106981054
18	0x3db6dab2	0.089284316
19	0x3dc32568	0.09528619
20	0xbd50325b	-0.050829273
21	0x3d989bfb	0.07451626
22	0xbd695b3d	-0.056971777
23	0x3d005af4	0.03133674
24	0xbc7ff424	-0.0156221725
25	0x3bc2082c	0.0059213843
26	0xbc549fc5	-0.012977545
27	0x3cddafdd	0.027061397
28	0xbd94aa02	-0.07258989
29	0xbddacc7f	-0.10683536
30	0x3d7ebae0	0.062189937
31	0x3d15e9eb	0.036600035
32	0xbd8f72bc	-0.07004306
33	0xbd22a10a	-0.03970436
34	0x3d9795c6	0.07401614
35	0x3c97205b	0.018448045
36	0xbd872ba3	-0.0660012
37	0x3d284957	0.041085567
38	0xbdc2e306	-0.095159575
39	0xbd2273f7	-0.039661374
40	0xbdb05444	-0.086098224
41	0x3daf7338	0.08566898
42	0xbd3c240b	-0.04593281
43	0xbceb7882	-0.028743986
44	0xbc94f0ec	-0.018181287
45	0x3c804b86	0.015661012
46	0x3cd36da2	0.025809113
47	0xbba8918c	-0.0051443037
48	0xbbdabeba	-0.0066755684
49	0x3d847a62	0.06468655
50	0xbd046270	-0.03232044
51	0x3d3d5e7c	0.046232685
52	0x3c8ec0e2	0.017425958
53	0xbd651bb3	-0.05593462
54	0x3d94972a	0.07255395
55	0x3d9ddc83	0.07708075
56	0xbd3069a5	-0.0430695
57	0xbd9b62ae	-0.07587181
58	0xbd2ecd84	-0.042676464
59	0x3daeba82	0.08531667
60	0x3cda4e2f	0.026648609
61	0xbd7172ac	-0.05894725
62	0x3dcd12ed	0.100133754
63	0xbdc1a879	-0.09455962
64	0xbd1e3e48	-0.038633615
65	0xbd2f2c44	-0.042766824
66	0x3da3e256	0.080021545
67	0x3d0947d0	0.03351575
68	0xbc9de28e	-0.019273069
69	0xbdc823f2	-0.09772481
70	0x3c510c7a	0.012759322
71	0x3c768e0d	0.015048516
72	0x3cbe8cec	0.023260556
73	0x3d04aa1c	0.03238879
74	0x3daf1380	0.08548641
75	0xbd924d51	-0.07143653
76	0xbda01b03	-0.07817652
77	0xbce6c4e2	-0.028170053
78	0xbd21d307	-0.039507892
79	0xbd30d5cb	-0.04317264
80	0x3dac6e3e	0.084194645
81	0xbd17f327	-0.037097123
82	0xbd08c4ac	-0.033390686
83	0x3d50ee81	0.051008705
84	0xbdade959	-0.08491773
85	0x3d2abe4e	0.041685395
86	0x3cb09102	0.02155352
87	0xbd77868c	-0.06043105
88	0x3c283c9c	0.010268357
89	0x3db047b7	0.086074285
90	0x3ccb9fb2	0.024856422
91	0x3bc385e6	0.0059668897
92	0xbda34c4a	-0.07973535
93	0xbd8e6221	-0.0695231
94	0x3d324b6e	0.043528967
95	0xbd674cf7	-0.056469884
96	0xbdc84935	-0.09779588
97	0xbd612928	-0.05497089
98	0x3d7366e0	0.05942428
99	0xbd305120	-0.043046117
100	0xbdb1631a	-0.0866148
101	0x3c19706e	0.009365184
102	0x3c86e58a	0.016466875
103	0x3cebcc97	0.02878408
104	0xbd485c24	-0.048915997
105	0x3cf01ff0	0.029312104
106	0xbd7a3e27	-0.06109443
107	0xbcfa5531	-0.0305582
108	0xbdb5e73c	-0.08881995
109	0x3cb03fb8	0.021514758
110	0x3ce742b4	0.028230049
111	0xbd9536f3	-0.07285871
112	0xbdab301f	-0.08358788
113	0x3cb454a2	0.022013012
114	0xbc1d797b	-0.009611483
115	0x3b71234b	0.0036794718
116	0x3d448e72	0.04798741
117	0xbca8bf38	-0.020598993
118	0x3ab0c6dc	0.0013486999
119	0x3cffe65d	0.031237775
120	0xbd591586	-0.052999042
121	0xbda47e21	-0.0803187
122	0x3d97b902	0.07408334
123	0x3ada13bc	0.0016637961
124	0xbd6d82fe	-0.057986252
125	0xbbc9c0ee	-0.006157032
126	0xbdb61c7c	-0.08892152
127	0x3d0466c2	0.03232456
128	0xbd52917f	-0.051408287
129	0x3da65454	0.08121553
130	0x3c29b043	0.0103569655
131	0xbd4acb7d	-0.049510468
132	0xbccc8bf8	-0.024969086
133	0x3d5c4113	0.053772997
134	0xbb423171	-0.002963152
135	0x3c128ba9	0.00894443
136	0x3d4edfa0	0.050506234
137	0x3d4b8f79	0.049697373
138	0x3d94831c	0.0725157
139	0x3d9dd687	0.077069335
140	0xbd821546	-0.06351714
141	0x3e1fabe7	0.1559292
142	0xbd4d8b46	-0.05018165
143	0xbdcd1469	-0.100136586
144	0xbcf43ceb	-0.029814204
145	0xbc4f32c7	-0.012646384
146	0xbd66b7f2	-0.056327768
147	0x3d842c11	0.064537175
148	0xbdc638cb	-0.09678801
149	0xbd1050c8	-0.03523329
150	0x3d2ca1b4	0.0421464
151	0x3d977f2c	0.07397303
152	0x3cbe2c56	0.0232145
153	0xbdcd3425	-0.100197114
154	0x3d89607e	0.067078575
155	0xbccf1f5f	-0.025283514
156	0x3d5f9d59	0.054593418
157	0xbcbaeef0	-0.022819012
158	0x3dae6bac	0.085166305
159	0x3d7934b3	0.060841274
160	0xbcd7b65d	-0.026332075
161	0x3d96f8e4	0.07371691
162	0x3db84519	0.08997554
163	0xbd38d12a	-0.04512135
164	0xbd8c578d	-0.068526365
165	0xbd327b63	-0.043574702
166	0xbd85b043	-0.0652776
167	0x3d5ca1c1	0.053865198
168	0xbd887950	-0.066637635
169	0xbc6512c9	-0.0139815295
170	0x3d895d9b	0.06707307
171	0x3bb0f71a	0.0054005506
172	0xbd647518	-0.05577573
173	0xbd264bb8	-0.040599555
174	0xbc380ec4	-0.011233989
175	0x3d4e2a18	0.050333112
176	0x3d7e061b	0.06201754
177	0x3d9062f0	0.07050121
178	0x3c5b4e58	0.013385378
179	0x3b39582b	0.0028281312
180	0xbb8dd6f3	-0.0043286025
181	0x3d3123c7	0.04324701
182	0x3b833b29	0.004004855
183	0xbd027230	-0.03184718
184	0xbd6b5d0d	-0.057461787
185	0x3cccf242	0.025017861
186	0x3d59189e	0.053001992
187	0xbd80b677	-0.062848024
188	0x3db59c5e	0.08867715
189	0x3c09e658	0.008416735
190	0x3d99d686	0.0751162
191	0xbbe027f7	-0.0068407017
192	0xbdaeba33	-0.085316084
193	0x3da787a5	0.08180169
194	0xbd1049a2	-0.03522647
195	0x3c79a474	0.015236963
196	0xbd1e385a	-0.03862796
197	0xbce0a989	-0.02742459
198	0xb8d7cbd0	-0.00010289962
199	0xbd38f2d6	-0.04515346
200	0xbd63bdaf	-0.05560082
201	0x3cc768f6	0.024342041
202	0xbd338bd0	-0.043834507
203	0x3da80d07	0.0820561
204	0xbd813606	-0.06309132
205	0xbda644ba	-0.08118577
206	0x3dbef4e3	0.09324052
207	0x3ce3bd8b	0.027800342
208	0x3dd5904f	0.10427915
209	0x3d194e43	0.03742815
210	0x3db23182	0.08700849
211	0xb9cc8d6c	-0.0003901528
212	0x3d906fe8	0.070525944
213	0x3d8e4771	0.0694722
214	0xbd02f75a	-0.031974174
215	0xbd8582ea	-0.065191105
216	0x3c0ce035	0.008598377
217	0x3cc0cc86	0.023535024
218	0x3d19abd6	0.03751739
219	0x3bd5177d	0.006503044
220	0x3d303b4b	0.043025296
221	0xbc8e2b86	-0.017354738
222	0x3d57ff54	0.052733734
223	0x3d713434	0.058887675
224	0xbda624c8	-0.08112484
225	0xbd2fadea	-0.042890467
226	0xbc6a1d9e	-0.014289288
227	0xbd920114	-0.07129112
228	0xbc1e6735	-0.009668161
229	0xbcc09ec8	-0.023513213
230	0xbd9bc965	-0.07606772
231	0xbd25a96e	-0.040444784
232	0x3d167160	0.036729217
233	0x3d19f615	0.037588198
234	0x3c77f7a4	0.015134726
235	0xbc319866	-0.010839557
236	0xbd5c62c3	-0.053805124
237	0xbdb1c5c9	-0.08680303
238	0xbde42b69	-0.11141092
239	0xbd4fcbcc	-0.050731465
240	0x3d96000e	0.07324229
241	0xbc0280b6	-0.007965257
242	0xbd6f965b	-0.058493
243	0x3d5bf9e3	0.053705107
244	0xbb2a8685	-0.0026020121
245	0x3d8731ea	0.06601317
246	0x3d7154d9	0.058918808
247	0xbce09023	-0.02741248
248	0x3d698af0	0.057017267
249	0xbb63e250	-0.0034772344
250	0x3d774ce2	0.060376056
251	0x3d29bd24	0.041440144
252	0x3d22259f	0.03958666
253	0xbd0397ab	-0.032127064
254	0xbd6c8fda	-0.057754375
255	0xbdb4bac3	-0.088246845
